result_model/ex1_nsde.pth (torch, 23505 bytes, 21 tensors)

weight f4 [20, 3]
000000 0e cf 0c 3f 02 63 5e be e8 48 40 3e 68 36 ca 3d
       0.5500344 -0.21717456 0.18777812 0.098736584
000010 0e 8b 85 be 00 48 2a bc fa e4 4e be 37 2c ff be
       -0.26082653 -0.010393143 -0.20204535 -0.4983842
000020 1a 34 90 be 3a f2 08 bf 7d e3 18 bc 2c d2 d2 3e
       -0.2816475 -0.5349461 -0.009331581 0.41175973
000030 ec 6e 73 bc 01 c9 5c 3e a7 ae a6 be f4 c8 b3 3e
       -0.014857989 0.21561052 -0.32555124 0.35114253
000040 40 4e ae 3e 5b 66 ae 3e 74 70 0f 3f 02 b2 cf 3d
       0.34044075 0.34062466 0.56030965 0.10141374
000050 d1 17 52 3e 22 be 2b 3f 6d 46 46 3e 90 8d b2 be
       0.20516898 0.67086995 0.19362803 -0.3487363
000060 20 85 c3 bc 4a 8f 16 be 4c ed 55 be 6c f4 02 bf
       -0.02386719 -0.14703098 -0.20891303 -0.5115421
000070 3f 64 8e be 38 ce 9b 3d 87 98 d9 3e e0 e9 9a 3e
       -0.27810857 0.076076925 0.42499182 0.30256557
000080 93 51 34 be 68 2c 01 3f 74 ee dc bd 40 22 df be
       -0.17609243 0.50458384 -0.10787669 -0.43580818
000090 89 0e c5 be 64 17 0f 3f 6e 00 d0 be c2 14 53 be
       -0.38487652 0.55895066 -0.40625328 -0.20613387
0000a0 b9 49 a2 3e e8 32 2b 3e 37 1c ed be 8c 2e 1a be
       0.3169687 0.16718638 -0.4631059 -0.15056819
0000b0 9a 64 65 be 78 51 02 3e d6 4b a4 3d ef c5 9e 3e
       -0.22401658 0.1272639 0.08022277 0.31010386
0000c0 70 8c 0a 3e 6b a6 38 3e 60 92 97 be 72 63 4c 3d
       0.13530135 0.18032233 -0.29603863 0.049899526
0000d0 e6 2f e6 3e dc cf 9c be 47 79 38 3f d1 04 22 3e
       0.4495842 -0.30627334 0.72060055 0.1582215
0000e0 12 5e e8 3e e4 9b 4d 3e 8b 64 8e be fa 0d 91 be
       0.4538427 0.20078999 -0.27811083 -0.28330976

bias f4 [20]
000000 90 f9 41 3d 02 e1 04 bf f4 5f a2 3e de 9a 0e bf
       0.047357142 -0.51905835 0.3171383 -0.5570506
000010 cc 6d 18 be 01 93 10 bf 6c cc 1b bf 19 06 dc be
       -0.14885634 -0.5647431 -0.608588 -0.42973402
000020 20 91 f2 bd 48 54 1c 3e cf 9f d4 bc 1c 59 69 3e
       -0.11844087 0.15266526 -0.025955109 0.22787899
000030 8b c4 17 bc 06 6e 1c bf 0c 31 d8 bd d3 19 20 bf
       -0.009263168 -0.6110538 -0.1055623 -0.62539405
000040 c1 c5 03 3f 04 d1 f7 bd cd d1 5d 3e 28 ba 9c bd
       0.51473624 -0.121004134 0.21662064 -0.07652694

weight f4 [20, 20]
000000 0f aa e0 bd 30 9e 9e 3d e8 10 61 bd ff 1e 4a 3e
       -0.10969936 0.077450156 -0.054947764 0.19738387
000010 da 5f 34 be 19 68 5b 3e 4f 2d f7 bd 19 a0 0a 3d
       -0.1761469 0.21426429 -0.12069189 0.033844087
000020 38 9a 39 3e b0 b2 77 bd 48 e5 63 bd 2d 50 05 be
       0.18125236 -0.060473144 -0.05563858 -0.13018866
000030 d1 6a 69 bd ce 3e 60 bc 94 03 0e be 38 ef 38 be
       -0.056986634 -0.013686849 -0.13868552 -0.18060005
000040 f6 70 5a 3e 79 69 19 ba 2a 55 c0 bc c5 5c d7 bd
       0.21332154 -0.00058522035 -0.02347811 -0.10515741
000050 dc a8 49 bd 49 f6 e3 bd da 88 2a be a9 12 cd 3b
       -0.049233302 -0.111309595 -0.16653767 0.006258328
000060 ec 89 e6 bd 02 3c e6 bd a5 34 46 3e 0e 19 2a 3d
       -0.11256775 -0.11241914 0.1935602 0.0415278
000070 38 b2 b3 3d a8 a1 59 3e 56 bd 87 3d 9a 85 55 3e
       0.08774227 0.21253073 0.0662791 0.20851746
000080 78 fb 06 3e 06 05 98 bd 4b 06 2e be 9b 7b 3c 3e
       0.13181865 -0.07422833 -0.16994588 0.18406527
000090 e8 65 17 3e af d9 95 bd d9 af 34 be 9c a4 d1 3d
       0.14784968 -0.073169105 -0.17645206 0.10236475
0000a0 d8 5c 17 3e 90 5f ca 3d e8 79 c3 3d d0 9d 1d 3e
       0.14781511 0.09881508 0.09544736 0.15392232
0000b0 69 c3 56 be e8 e4 5f 3d b4 24 26 be 52 dd 29 3e
       -0.2097298 0.05466166 -0.16224939 0.16588333
0000c0 2c ca aa bd 1c b9 5e 3e 70 ff f7 3d df 83 5d be
       -0.083393425 0.21750301 0.12109268 -0.21632336
0000d0 58 d1 b0 bc a8 12 5c be a0 7b 51 bc be 4c 02 be
       -0.021584198 -0.21491492 -0.012785822 -0.12724587
0000e0 60 7a f1 3c 49 d3 50 be a8 9f 00 be 6e ca 0e 3e
       0.029477298 -0.20393099 -0.12560904 0.13944408
0000f0 a0 b3 2e 3c 66 4d f5 bd ae 96 4a 3e 14 5d 22 3e
       0.010662943 -0.11977653 0.19784042 0.15855819
000100 e8 ad 51 be 80 e8 6c bd b0 f6 b8 bc 0a 6d 15 be
       -0.20476496 -0.057838917 -0.022578567 -0.14592376
000110 8a fd 22 3e c0 84 3e bd 60 f3 24 3c 06 1a 3b 3e
       0.1591703 -0.04651332 0.010067791 0.18271646
000120 3e df 09 be 20 22 4e 3e 70 45 a1 3d e2 ac 02 be
       -0.13464066 0.20130205 0.07874572 -0.12761262
000130 c6 63 57 3e 1e 7c 4c 3e cc b5 3a be 9f 92 32 be
       0.21034154 0.19969222 -0.18233413 -0.17438744
000140 c0 83 24 bc e6 d8 2d be 50 6b 1c 3c ff 1a 40 be
       -0.010041177 -0.16977271 0.00954707 -0.18760298
000150 f9 9e a6 3d e8 6f 01 be b2 8a 02 be be c3 c5 3d
       0.081357904 -0.12640345 -0.1274822 0.096564755
000160 40 e9 bd 3d 38 a9 52 3d 9f 18 c6 3d 78 31 5f bd
       0.092730045 0.05143091 0.09672665 -0.054490536
000170 11 c6 10 be 07 02 06 bd f0 45 21 3e d4 12 65 bd
       -0.14138056 -0.032716777 0.15749335 -0.05592616
000180 d1 e3 ed 3d 4d 32 64 3e b6 e6 1b be d2 34 52 3e
       0.11615718 0.22284813 -0.15224728 0.20527962
000190 60 c2 07 3e b8 c6 5d 3e e2 af 13 3e c0 99 8d 3c
       0.13257742 0.21657836 0.14422563 0.017285228
0001a0 0e a5 ba bd 41 c9 19 be 04 0c 15 bd 06 d5 5b be
       -0.09113513 -0.15018179 -0.036388412 -0.2146798
0001b0 54 30 a2 3d 28 54 34 3e 38 a9 36 bd 28 84 42 3d
       0.07919374 0.17610228 -0.044594973 0.047489315
0001c0 11 b1 42 be 54 da c0 bd 7a 41 91 bd 4c cc 16 be
       -0.19012858 -0.09416643 -0.07092567 -0.1472637
0001d0 c4 2c 6e bd 8a 97 5d 3e dc 97 17 bd 98 66 43 3e
       -0.05814816 0.21639839 -0.03701006 0.19082105
0001e0 5c ef d0 bd d0 3f ee 3c 98 79 10 bd 52 45 10 be
       -0.10201904 0.029083163 -0.03527221 -0.14088944
0001f0 84 3d 0f be 72 ed 48 be 02 e9 1e 3e 7c a2 f8 bd
       -0.1398831 -0.19621828 0.15518573 -0.121403664
000200 75 82 1f be c0 6f fd bb 8c a9 5d be b4 b2 bf 3d
       -0.15577109 -0.007734269 -0.21646708 0.09360257
000210 a8 f2 5d 3d a0 6f 91 3b 22 36 2c 3e 00 8f 20 3a
       0.054186493 0.0044383556 0.16817525 0.0006124824
000220 d6 b3 51 3e 38 21 c7 bc f0 5d 4f 3d 6c b9 34 be
       0.20478758 -0.024307832 0.050626695 -0.17648858
000230 f9 9b 0d be d8 0b 5e 3d 68 a1 92 3d 1e c4 57 3e
       -0.1382903 0.054210514 0.07159692 0.21070907
000240 74 33 ac 3d bd b2 3f be 92 0c 64 be 52 85 24 3e
       0.084082514 -0.18720527 -0.2227042 0.16066483
000250 70 9a fa 3c 78 6e 9c 3c 31 71 e1 bd 88 a9 40 3d
       0.03059122 0.019095644 -0.11007918 0.047036678
000260 29 dd de bd 50 28 ea 3c 2e c8 5d 3e 40 37 54 be
       -0.10882027 0.028583676 0.21658394 -0.20724201
000270 20 07 1c 3d f4 9c bf 3d c4 b4 10 be 3c 02 66 bd
       0.038092732 0.09356108 -0.14131457 -0.056154475
000280 84 25 91 3d 80 9a f7 3c 58 86 b5 3c e6 d1 5b 3e
       0.07087234 0.030225039 0.022158787 0.21466789
000290 50 cf 53 be 94 6e 27 3e b8 fb 48 3d b1 af 4b be
       -0.20684552 0.16350776 0.049068183 -0.1989124
0002a0 44 2e 95 3d 28 8a a5 bd 7c 71 93 bd 6c 30 8e bd
       0.07284215 -0.08082992 -0.0719938 -0.069428295
0002b0 3c a4 02 be 80 70 b4 3a 14 e1 63 3e 30 20 ba 3d
       -0.12757963 0.0013766438 0.22253829 0.090881705
0002c0 89 b5 56 be 12 f0 02 be 4c f7 0c be 98 73 36 3d
       -0.20967688 -0.12786892 -0.13766211 0.044543833
0002d0 76 2e 0e be dc 4f 0c bd 94 aa 24 bd e9 c5 4c be
       -0.13884911 -0.034255847 -0.04020174 -0.19997372
0002e0 57 08 fa bd a4 23 60 be 22 7b 3e 3e d6 4b 36 3e
       -0.12208622 -0.21888596 0.18601659 0.17802367
0002f0 9e cd 45 be 4b 41 5d be a8 d0 e0 bc a0 86 b1 bd
       -0.19316718 -0.21606939 -0.027443245 -0.08668256
000300 20 8b 24 be 04 c9 ce 3d 70 1e 2a bc 50 67 74 bd
       -0.16068697 0.100969344 -0.010383233 -0.05966884
000310 a0 ec 92 bb d4 64 57 be 0e a4 45 3e 26 ff 17 3e
       -0.0044837743 -0.21034557 0.19300863 0.14843425
000320 9c 85 e8 3d f4 70 bd 3d 90 08 68 bd 9e be 57 bd
       0.11353609 0.0925006 -0.05664879 -0.05267202
000330 25 c2 6d bd c1 37 b7 bd 55 96 45 be 0d 37 00 be
       -0.05804648 -0.08946181 -0.19295628 -0.12521
000340 ac aa 4d bd 86 43 24 be 92 c8 51 be 88 6d 61 3e
       -0.050211594 -0.16041383 -0.20486668 0.22014439
000350 39 f2 0e 3e fb 2e 41 3d 68 c3 c4 3d 0d f2 5f bd
       0.13959588 0.047163945 0.09607583 -0.054674197
000360 80 9e 37 3e 0f cb 82 3c f2 a9 0f 3e 2c 88 45 3e
       0.17931557 0.015965967 0.14029673 0.19290227
000370 7a ef 9c bd c0 48 20 be c4 f6 11 3e 18 ce 2e be
       -0.07662864 -0.15652752 0.1425429 -0.17070806
000380 58 5e a0 bd 9d b0 4d be 70 18 0b bd 18 ca 46 3d
       -0.07830495 -0.20086904 -0.033958852 0.048532575
000390 f0 01 e1 bc 1a 30 3d 3e 9f 94 2b be f8 38 8b 3d
       -0.027466744 0.1847538 -0.16755913 0.06797975
0003a0 4f a6 62 be 70 c3 a5 bd 1a 3a 16 3e 68 4f 43 bd
       -0.22133754 -0.08093917 0.14670601 -0.04768315
0003b0 98 66 2b be 90 85 ff 3d 30 df 12 3e c8 c2 cf 3c
       -0.16738355 0.12476647 0.14342952 0.025361434
0003c0 56 50 01 be a6 c0 1e 3e 90 0f fa 3d eb 63 c8 b8
       -0.12628302 0.15503177 0.122099996 -9.555354e-05
0003d0 62 3f d5 3d 32 a1 d2 3d e3 97 9b bd 0d 3c 32 be
       0.1041248 0.10284652 -0.075973295 -0.1740572
0003e0 90 7e 1b 3d f9 b5 20 be 93 7c 19 bd f5 a4 05 be
       0.037962496 -0.15694417 -0.03747232 -0.13051207
0003f0 fe de ab bd 73 be 0e 3e 04 37 58 bd 66 24 24 3d
       -0.08392142 0.13939838 -0.052786842 0.040073775

bias f4 [20]
000000 00 91 56 3e 78 19 b5 bd e1 dd 33 be 18 47 53 be
       0.2095375 -0.088427484 -0.17565109 -0.20632589
000010 1d d8 03 be f0 6e 8a bc 70 1b 0e 3e 00 4f 0b bb
       -0.1287541 -0.016898602 0.13877654 -0.0021256804
000020 7f 7b 50 be 51 94 4b be 21 f9 08 bd 50 ac 95 3d
       -0.2035961 -0.19880797 -0.033440713 0.073082566
000030 3c 88 80 3e f5 54 2a be c6 59 1c 3e ec 06 37 be
       0.2510394 -0.16633971 0.15268621 -0.17873734
000040 68 16 11 3e 07 f7 3a 3e 22 ea 45 be 48 a7 44 bd
       0.14168704 0.18258296 -0.19327596 -0.048011094

weight f4 [1, 20]
000000 e6 90 82 3a b1 f6 86 3d e9 43 17 be c8 de c1 3d
       0.0009961396 0.065900214 -0.14772 0.0946632
000010 2d 95 11 bd 18 21 17 bd 64 ac 13 bd 26 66 a0 bd
       -0.035542656 -0.036896795 -0.036053076 -0.07831983
000020 10 d0 19 bc 10 dd de bd 6c e7 02 ba 04 86 3f be
       -0.009387985 -0.10882008 -0.0004993591 -0.18703467
000030 c1 64 da bd 8b a0 06 bc 0e 18 3c 3a 81 9d 38 3e
       -0.106637485 -0.008216987 0.0007175215 0.18028833
000040 a4 80 44 3e e9 76 a3 bd 30 65 39 bd 96 7b ed bd
       0.19189698 -0.07981665 -0.045262516 -0.11595838

weight f4 [20, 3]
000000 7b 40 c8 be 7c db 51 be 90 b2 09 bf c6 58 2c 3e
       -0.39111695 -0.20493883 -0.5378809 0.1683074
000010 d0 31 a2 be 88 02 0c 3f 76 e6 81 3e b5 28 ca 3e
       -0.3167863 0.5469136 0.2537114 0.39484182
000020 67 9b fd 3e b7 f5 8d bf f6 58 0b 3d 63 ee ba 3e
       0.49532625 -1.1090611 0.034020387 0.3651
000030 3d 6e ce 3e 9f 16 b2 bd 7f 91 e3 3e 08 f7 72 be
       0.4031848 -0.08695721 0.44446942 -0.23727047
000040 c9 8e 2b 3d 11 26 03 3f f9 9a da 3e 95 2b 2c 3e
       0.041884217 0.5122996 0.4269636 0.168135
000050 73 51 d0 3e bf e9 b2 be 3b 4f ec be 94 6c b1 be
       0.4068714 -0.3494396 -0.46154198 -0.3465315
000060 4c dd 75 3e f8 3e 42 3e a6 55 de be ac 85 05 3f
       0.240102 0.18969333 -0.4342472 0.5215709
000070 34 89 ff be e0 b0 91 3c f2 99 39 be f4 20 0e bf
       -0.49909365 0.017784536 -0.18125132 -0.5551903
000080 18 8f 9b be 1e 12 6a 3f e3 c0 23 3f ad 89 28 be
       -0.3038261 0.91433895 0.63966197 -0.16458769
000090 5e 1c 6b be 88 a8 b2 be 30 06 af 3e b2 bf 22 3f
       -0.2296004 -0.34894204 0.34184408 0.63573754
0000a0 1a 42 06 3f 87 26 12 3f 69 98 30 3f 5f b6 4a 3e
       0.5244461 0.5709004 0.6898256 0.19796132
0000b0 49 40 3c 3d 7c d2 7f be f0 a1 1f be b7 50 84 be
       0.045959745 -0.24982637 -0.15589118 -0.2584283
0000c0 80 27 02 3f ac 9b 03 bf fd fd 11 bf 94 4e cb bd
       0.5084152 -0.5140941 -0.5702818 -0.09927097
0000d0 a2 d7 3e be 40 d8 87 3d 10 d0 e9 3e 1c ee ca be
       -0.18636945 0.06633043 0.45666552 -0.39634788
0000e0 50 a0 51 be c9 2c 99 be 27 24 39 bb 20 ca 98 bc
       -0.2047131 -0.2991698 -0.0028250308 -0.018651068

bias f4 [20]
000000 be de 43 be 7a 43 d6 3e 2b 16 a7 be 26 f5 2b bd
       -0.19127938 0.41848356 -0.326341 -0.04198184
000010 bf 51 21 3e 25 ab d1 3e 30 0b 21 bc 30 35 74 3d
       0.1575384 0.40950885 -0.009829327 0.059621036
000020 2e 14 d4 3e e2 5e d4 be b4 14 c7 be 28 04 34 3e
       0.41421646 -0.4147864 -0.38882983 0.1757971
000030 58 a3 e9 3e 37 9b aa be 09 2b f8 3e d8 97 69 3e
       0.45632434 -0.33321545 0.48470333 0.2281183
000040 b0 05 b1 3d 3c 84 e0 3e c0 14 39 3d 2d ca f9 be
       0.08643663 0.43850887 0.045185804 -0.4878706

weight f4 [20, 20]
000000 24 d8 16 bd cc 51 99 bd 44 9e 5d bd 5a 7a 5a 3e
       -0.03682722 -0.07486305 -0.054106012 0.21335736
000010 a8 90 ce bc 10 71 0d be 80 73 9c 3b 60 59 8a 3d
       -0.025215462 -0.13812661 0.004774511 0.06755328
000020 b0 60 52 3d 78 6e fe bc 90 90 2a 3e 60 f6 19 3d
       0.05136174 -0.031058535 0.16656709 0.037588477
000030 c0 71 21 3b 30 15 56 be 14 e1 cc 3d 61 e4 1c be
       0.002463445 -0.2090652 0.10003868 -0.15321495
000040 c0 29 af 3d 18 c5 c1 3d 98 99 32 3d d8 a4 23 3e
       0.08552885 0.09461421 0.04360351 0.15980852
000050 00 06 cd 3a 50 01 fb bd 26 8a 01 be 68 8b f1 bc
       0.0015642047 -0.1225611 -0.12650356 -0.02948542
000060 e4 c4 0d 3e c7 96 1f bd 9e 89 40 bd b8 2c 57 3e
       0.13844639 -0.03896215 -0.047006242 0.21013153
000070 08 ec ec 3c 95 e1 64 be b4 6a 5a be c6 db 96 3d
       0.028921142 -0.22351678 -0.21329767 0.07366137
000080 32 03 2c be f3 90 f4 bc 28 82 ba 3d 02 58 5c be
       -0.16798094 -0.029854273 0.091068566 -0.21517947
000090 f0 89 ce bc da 0b 17 3e 20 62 ab bc 38 48 53 be
       -0.025212258 0.14750615 -0.020920813 -0.20633018
0000a0 77 f2 0c be 14 7f 99 bd 32 a3 a9 bd d0 2e 84 3c
       -0.13764368 -0.07494941 -0.0828308 0.016135603
0000b0 8a 50 bd bd 40 e5 b8 3b c4 34 d0 3d 70 9d 8b 3d
       -0.09243877 0.005642563 0.10166314 0.06817138
0000c0 0f 44 e4 bd 00 d2 af 3d ac 32 41 3e 8a 16 18 3e
       -0.11145794 0.08584976 0.18866986 0.14852348
0000d0 58 48 15 3d 06 6f 0f be 5c 04 09 be da 61 5f 3e
       0.036445946 -0.14007196 -0.13380569 0.21814671
0000e0 67 fc 33 be a8 a1 02 bd 18 57 50 3e 80 c8 31 bb
       -0.17576753 -0.03189245 0.20345724 -0.0027127564
0000f0 1e 93 45 be 34 a4 3a 3e 54 92 ee bc d2 85 36 be
       -0.19294402 0.18226701 -0.029122509 -0.17824486
000100 9f fc 9d bd 48 d6 b7 bd be 6b 1c 3e 2a 31 33 be
       -0.07714199 -0.08976418 0.15275475 -0.17499223
000110 bc 2e 8e 3e a3 b4 ca bd b6 c5 3d 3e 71 6d 46 3e
       0.2777003 -0.09897735 0.18532452 0.19377686
000120 b8 fb d2 bd 23 e6 25 3e 2e cc 9e 3e a0 7b 55 3d
       -0.10301918 0.16201071 0.31015152 0.05211985
000130 be 94 fe bd b0 69 f0 bd 9e ee 0f 3e 4f 1d 2b be
       -0.12430714 -0.11738908 0.14055869 -0.16710399
000140 a8 c3 55 3e a8 91 19 be b0 36 ec 3d 92 05 26 be
       0.20875418 -0.1499697 0.11533868 -0.16213062
000150 6c 59 b2 bc 8a dd fe 3d 2c 55 7f bd c0 4c 2a bd
       -0.021771155 0.12444599 -0.062337086 -0.0415771
000160 b8 a6 ec 3d f8 68 e8 3d c2 52 0f 3e ad 50 c2 bd
       0.115552366 0.11348146 0.13996413 -0.09488044
000170 86 39 0d 3e 17 41 20 3d 38 20 c2 bd d0 94 92 bd
       0.13791475 0.039124575 -0.094788015 -0.0715729
000180 a8 0a 9d bc 6e 25 03 be 48 7f 08 3e d9 04 1f be
       -0.01917012 -0.12807247 0.13329804 -0.15529193
000190 20 1c 42 bc 7c 23 c5 3d 60 b6 28 bd c4 5c a8 bd
       -0.011847526 0.09625909 -0.04118955 -0.08220819
0001a0 e8 e1 35 3e ec 70 65 bd ba 8a c3 bd 2c 47 4f be
       0.17761958 -0.056015894 -0.09547944 -0.20241994
0001b0 dc d5 68 bd ba ae 3f 3e b0 7d 5e 3c 82 1b a9 bd
       -0.056844577 0.18718997 0.013579771 -0.082572
0001c0 2e 3a a0 bd 8a 18 16 3e 7a 12 e5 bd 24 35 54 3e
       -0.07823597 0.14657798 -0.11185165 0.20723397
0001d0 3c 9c 34 bd b4 54 5c be b8 79 56 3d 80 ce ff 3a
       -0.04409431 -0.21516687 0.052362174 0.0019516498
0001e0 bd c5 59 be 82 f2 23 be 4c d5 39 bd a6 9f 05 3e
       -0.21266837 -0.16010478 -0.04536943 0.13049182
0001f0 be b8 0b be 5c 45 e5 3d 00 59 b7 3a 80 15 e6 3c
       -0.13644692 0.1119487 0.0013988316 0.028086424
000200 2c 07 b1 bd 60 e9 01 bd 8d cb 14 be 4e 64 2e be
       -0.08643946 -0.031716704 -0.14530773 -0.1703045
000210 54 ee ea 3d 70 19 9e 3c 8c f4 1b be 80 36 7a bb
       0.11471239 0.019299239 -0.15230006 -0.0038179457
000220 d8 bc 07 3d f4 2a bd 3d 90 41 0f 3d 29 78 dd bd
       0.03313908 0.09236708 0.034974635 -0.10813934
000230 2c 96 39 3e 7e 1d 2e 3e 64 07 0b 3e bf cc dc bd
       0.18123692 0.17003438 0.13577038 -0.1078124
000240 3a c8 57 3e 57 71 86 bd 91 b1 76 be 1e 5e 52 be
       0.21072474 -0.065645866 -0.24091174 -0.20543715
000250 eb 1a 89 3d 98 e8 76 3d 98 2a 9b 3d 45 2d 8d bc
       0.06694587 0.060280412 0.075764835 -0.0172335
000260 da 52 a4 bd c8 1b 45 bc e5 24 fb bc c2 7b b3 bd
       -0.08023615 -0.012030549 -0.030657241 -0.08763839
000270 14 f3 53 3e dd dc f2 bd 6a 05 5d be e7 58 0a 3e
       0.20698196 -0.118585326 -0.21584097 0.13510476
000280 70 75 61 3d e2 ff b5 bd 08 95 92 3e ad d6 b0 ba
       0.055043638 -0.088866964 0.28629327 -0.0013491713
000290 17 23 2e 3e 5b 3a 0e bd c3 5b b3 bd c0 a8 bf 3b
       0.17005573 -0.03472362 -0.087577365 0.005848974
0002a0 4f 96 07 be 5e ea 3b be 20 2b d7 3b ae 2c 91 3e
       -0.13240932 -0.18351123 0.00656642 0.283544
0002b0 8c a7 c5 bd f9 58 b2 3d f4 ba 8d 3e 18 a6 4e 3d
       -0.09651098 0.087083764 0.27681696 0.050451368
0002c0 48 72 b5 3d ec 5c fd 3d 40 9d 30 bb 06 34 e3 3d
       0.08859688 0.12371239 -0.0026949197 0.11093907
0002d0 a6 1c fc bd b5 87 e0 3d 86 24 f7 bd c6 c4 3d be
       -0.12310152 0.10963384 -0.12067513 -0.18532094
0002e0 70 a1 e6 3d 04 53 0a 3e 27 e6 14 3d f6 d1 03 3e
       0.112612605 0.1350823 0.036352303 0.12873062
0002f0 5e 54 2b be e0 06 bc 3c 06 9c 29 be 68 da 5e bd
       -0.16731402 0.022952497 -0.16563424 -0.054407507
000300 b8 c8 55 bd 05 ed 61 3e 42 d9 1a bd 19 07 27 be
       -0.052193373 0.22063072 -0.03780485 -0.16311301
000310 40 34 57 bb 20 78 6e bc b0 79 31 bd f3 ec a4 bd
       -0.003283754 -0.014555007 -0.04332894 -0.08053007
000320 a6 90 8a bd 88 f2 c4 3d c0 69 07 be ba 2e ab bd
       -0.06765871 0.09616572 -0.13223934 -0.08358522
000330 5e b7 58 be 80 88 48 3e f6 e5 48 3e 84 8a 5f bd
       -0.21163699 0.1958332 0.19618973 -0.05457546
000340 b0 a9 07 be 2a 14 16 be b4 91 19 be a0 42 d1 bd
       -0.13248324 -0.1465613 -0.14996988 -0.10217786
000350 28 26 28 bd a3 0b 62 be 40 9c 3b 3e b4 7e 38 3e
       -0.041052014 -0.22074752 0.18321323 0.18017083
000360 70 14 d0 3c e7 1b 5a be c8 9f f9 3d a0 bc c8 bd
       0.02540037 -0.21299706 0.12188679 -0.09801602
000370 fa 56 45 3e 58 60 75 bd a0 bb 93 3d 41 c7 f0 bd
       0.1927146 -0.059906334 0.07213521 -0.11756755
000380 e8 29 5f 3e d4 52 d3 bd ec 70 d5 3d c4 75 bd 3d
       0.2179333 -0.103185326 0.10421929 0.09250978
000390 e2 10 50 3e 90 da dd bd a2 35 cb bd 57 9f 49 be
       0.2031894 -0.10832703 -0.09922339 -0.1968969
0003a0 32 5c ce bd 1c 10 1c bd 48 3c 35 bd 68 6e ea 3d
       -0.100761786 -0.0381013 -0.04424694 0.114468396
0003b0 0c 9e 7b bd 74 df 09 be c8 e0 b0 bd 5a 85 64 be
       -0.061430022 -0.13464147 -0.086366236 -0.22316495
0003c0 33 13 49 be 28 3c 9b bd 72 3c 31 be b0 c3 48 bd
       -0.1963623 -0.07579833 -0.17308214 -0.049014747
0003d0 94 ea 23 bd f0 04 d8 bc 04 b0 80 bd d8 1c 45 3e
       -0.040018633 -0.026369542 -0.06283572 0.19249284
0003e0 10 eb 96 3d 66 74 64 3e 22 b0 0e be 98 76 40 3e
       0.07369053 0.22310027 -0.13934377 0.1879524
0003f0 d2 20 31 3e 40 40 c8 bd 82 01 d4 bd 2e 27 18 3e
       0.17297676 -0.0977788 -0.1035185 0.14858696

bias f4 [20]
000000 90 a0 a1 bd ec 8b 35 3e 58 0b db bd 43 4b 0e 3e
       -0.07891953 0.17729157 -0.10695523 0.13895898
000010 10 ec 03 be 5c 79 38 3e e7 72 eb bd 2d 62 a7 bc
       -0.1288302 0.18015045 -0.11496525 -0.020432556
000020 38 f5 ab 3d 42 11 b4 bd d0 6c e0 bc b2 7d 30 3e
       0.08396381 -0.08792354 -0.027395636 0.17235449
000030 7c 54 e0 3d ed 13 88 bd 21 a2 59 be 4e c6 34 be
       0.10953614 -0.066444255 -0.21253254 -0.17653772
000040 63 9e 18 be 67 3d 4c 3e 68 69 b8 3d b8 02 ae 3d
       -0.1490417 0.19945298 0.0900448 0.08496612

weight f4 [1, 20]
000000 10 9a 43 3e 12 db 3d be 40 e4 9e 3b 60 c3 88 3e
       0.19101739 -0.185406 0.004848987 0.2671156
000010 64 7e 3b be 28 1f 2e be 60 39 9b 3c 76 fd f7 bd
       -0.18309933 -0.17004073 0.018948257 -0.12108891
000020 87 d8 22 3e 20 c0 04 be ee 74 a8 bd f0 d0 be 3d
       0.15902911 -0.12963915 -0.082254276 0.093171954
000030 08 b3 fb bc 5f c6 e6 bd b1 6d 2f be 48 d2 43 3d
       -0.030725017 -0.11268305 -0.17131688 0.04780796
000040 71 e4 08 bc 4f b5 e9 bd f7 95 a2 bd 1a d9 ae bd
       -0.008355246 -0.11411535 -0.0793876 -0.085375026

weight f4 [20, 3]
000000 28 1d 14 3e 56 c3 6f be 60 63 82 bd f6 71 91 bc
       0.14464247 -0.23414358 -0.063666105 -0.017754536
000010 c2 30 7a be c6 ff 11 3f f0 c9 25 bd 04 5c 05 bf
       -0.24432662 0.57030904 -0.040475786 -0.5209353
000020 83 a8 a3 be 7c 95 a5 bd 02 de 04 bf 8b d2 e2 be
       -0.31964502 -0.080851525 -0.5190126 -0.44301257
000030 f0 30 48 3d e3 b4 12 bf b0 c0 10 3f 01 15 24 be
       0.048874795 -0.5730726 0.5654402 -0.16023637
000040 4b 0c b0 3d 96 f9 f1 be 4f 92 43 bd 15 b0 9d 3d
       0.08596095 -0.4726073 -0.047746953 0.076996006
000050 ae 76 e8 be 74 9e bd 3e d3 a3 9b be b0 f5 22 3e
       -0.45403045 0.37034953 -0.30398425 0.15914035
000060 d9 78 a5 be 04 8e d5 bd f0 3c 24 bd ea 5e b8 be
       -0.32318762 -0.10427478 -0.040097177 -0.36009914
000070 be b7 4d be 50 8d 9a 3d 62 50 d7 3d d4 12 6d 3e
       -0.20089623 0.075464845 0.10513379 0.23151714
000080 8e 66 51 be 17 c8 08 bf 56 1b ce 3e 58 54 65 3d
       -0.20449278 -0.5343031 0.4025523 0.05598864
000090 e0 c7 15 3e b7 a7 f5 be 28 96 4e 3e 10 d1 df 3e
       0.14627028 -0.4797952 0.20174468 0.4371419
0000a0 9d 36 a4 be d0 78 7a 3d 5f 32 90 bc 08 44 09 3f
       -0.32072917 0.061150372 -0.017602144 0.5361943
0000b0 0b 0b 06 bf b0 08 28 3d 92 a1 8d be d0 18 71 bd
       -0.523606 0.04102391 -0.2766233 -0.058861554
0000c0 0c c8 fa bd 00 ed 5d bc c6 08 84 be a8 0e d5 3e
       -0.12245187 -0.013545275 -0.25787944 0.41612744
0000d0 4c ea d3 3e f4 37 89 3d 86 0e cf 3e 9d 7c 94 be
       0.41389692 0.06700125 0.40440768 -0.29001322
0000e0 4c 54 02 be 90 15 a2 be f7 86 ca 3e 7c 3e ab be
       -0.12727469 -0.31657076 0.39556095 -0.3344611

bias f4 [20]
000000 46 45 5d be af e4 01 3f a2 96 03 bf c0 5c 38 bd
       -0.21608457 0.5073957 -0.5140172 -0.04501033
000010 d0 8b a3 3d 72 f9 0b 3f ba 5b f1 3e 30 77 f9 3e
       0.079856515 0.546775 0.47140294 0.48723745
000020 b6 e5 a9 3e 58 7e be 3d 5a b9 83 bd 1c 7e 80 3d
       0.33183068 0.09301442 -0.064318374 0.062740535
000030 05 9f 0f bf a4 c2 a7 3e 94 8d 33 3e 2c 0c 16 3e
       -0.5610202 0.32765687 0.17534477 0.1465308
000040 38 40 b5 3e ed 27 c7 3e ac 73 61 3e 62 d1 32 be
       0.35400558 0.38897648 0.22016782 -0.17462686

weight f4 [20, 20]
000000 30 a4 45 3c e0 1f 58 be c0 13 d5 3c 7e c0 47 3e
       0.012063071 -0.2110591 0.026010394 0.19507024
000010 f0 25 92 3d 08 e2 24 be ae 2e 53 be 52 a4 24 be
       0.07136142 -0.16101849 -0.20623276 -0.16078308
000020 15 14 60 be f4 79 10 be 68 64 c4 3d c9 50 55 3e
       -0.2188266 -0.14109021 0.095894635 0.20831598
000030 52 9e c1 bd 0c a7 69 bd 87 f1 bb bb 94 ee 40 be
       -0.09454025 -0.057044074 -0.0057355794 -0.1884101
000040 2e cd 64 3e ef 8c 6c be 32 b7 3f 3e b5 b0 f8 3b
       0.22343895 -0.23100637 0.18722227 0.0075894245
000050 4f 0c 22 be 8d 7b 4d 3d 20 f6 a9 bc 68 2f ca 3d
       -0.15825008 0.050166655 -0.020747244 0.09872323
000060 dc 86 2a bd 3b 4a 6f be a6 6f 65 be 1c be 44 3e
       -0.04163252 -0.2336816 -0.22405872 0.19213146
000070 c3 c4 d7 bd a0 1a 0b 3d 8a 40 84 bd 8b f3 df 3d
       -0.10535576 0.03396094 -0.06457622 0.10935124
000080 9a 27 9f bd 90 9a 1e 3d af 92 5a bd 48 d3 b1 bc
       -0.07771225 0.03872162 -0.053362545 -0.021707192
000090 b0 d7 65 bc b6 94 38 bd 27 fe 25 be d1 80 14 3e
       -0.014028475 -0.045063697 -0.16210233 0.14502265
0000a0 f4 e2 8f bd 15 c0 d7 bd 80 83 06 3e 48 93 6d 3d
       -0.0702571 -0.105346836 0.13136101 0.058001786
0000b0 1a ac 5c 3e 7e 84 87 3e 63 a9 a4 3c c4 9f f4 3d
       0.21550027 0.2646827 0.020100301 0.119445354
0000c0 08 42 3d bd 4a 63 46 3e a5 2b 8b 3c ba c8 60 3e
       -0.04620555 0.19373813 0.016988585 0.21951571
0000d0 8a 59 3a 3e 0c 70 12 3e 99 b5 c4 3d 0a 59 1c be
       0.18198219 0.14300555 0.096049495 -0.1526834
0000e0 80 9a 47 be 9f ac 3e 3e 1c fa 18 be b9 a0 b9 3d
       -0.19492531 0.18620537 -0.14939159 0.090638585
0000f0 60 85 60 3d 30 87 7f bd 58 2f d8 bc e0 62 b9 3d
       0.054814696 -0.062384784 -0.026389763 0.09052062
000100 40 f0 fc bd 60 67 2f 3e 58 30 1e be a4 2a 2f bd
       -0.123505116 0.17129278 -0.15448129 -0.042765275
000110 70 d7 ed 3d 30 fc b8 3d 30 49 6c bc 14 a6 c5 bd
       0.11613357 0.09032476 -0.014421746 -0.096508175
000120 fc c7 9d bd 28 b7 a9 3d f7 25 5a be 00 bb f4 bb
       -0.077041596 0.082868874 -0.21303545 -0.007468581
000130 92 7b 0e 3e a8 24 56 3d 58 c3 c4 bd 3c f4 1a be
       0.13914326 0.052281052 -0.09607571 -0.1513223
000140 a0 39 69 3d 2a c4 02 be 3c 02 f0 3d 70 d5 b4 3c
       0.05693972 -0.12770143 0.11719176 0.022074431
000150 4c 80 0a 3e a3 9b 51 be e4 6a 03 3e 65 bb 41 be
       0.13525504 -0.20469527 0.12833744 -0.18919142
000160 dc 9c 10 be 8a 4f 39 be 20 0e 15 be f6 48 f1 bd
       -0.14122337 -0.18096748 -0.1455617 -0.11781494
000170 a0 ef 90 3d 20 f5 81 3c 80 1c 8c ba ca f4 16 be
       0.07076955 0.015863955 -0.0010689646 -0.14741817
000180 30 3c 98 bd e4 b3 3a bd 68 dd 89 3d a2 c4 0b be
       -0.07433355 -0.045581713 0.06731683 -0.13649228
000190 22 bc 35 3e c9 e8 0a 3d 40 36 ef 3d b6 f3 0c 3e
       0.17747548 0.033913407 0.11680269 0.13764843
0001a0 7a ee a0 bd c6 4b af bd b8 13 13 3d f0 72 1a bc
       -0.07857986 -0.085593745 0.035907477 -0.009426817
0001b0 d7 69 e7 bd d0 e7 67 3d fd 9b 02 be ae b8 0b bd
       -0.11299484 0.056617558 -0.12754817 -0.03411167
0001c0 03 f9 eb bd 0e b0 33 3e c7 40 23 be bc 2d b6 3d
       -0.115221046 0.17547628 -0.1594268 0.08895442
0001d0 68 00 99 3d 9d 77 3f 3e bb bc 4d be 99 ea 4a be
       0.074707806 0.18697973 -0.20091526 -0.19816054
0001e0 4e 46 1b be 90 d4 a6 3c 8a 72 e4 bd a2 6e e0 bd
       -0.15163538 0.02036503 -0.11154659 -0.109586015
0001f0 fe d2 2e 3e 3c 42 01 bd 20 72 3a 3e e3 0b 0e be
       0.17072675 -0.031557307 0.18207598 -0.13871722
000200 af 5d da bd 98 f4 ae 3d aa 1c 11 be ba 94 0a be
       -0.106624 0.08542746 -0.1417109 -0.13533297
000210 b4 29 58 bd 5a ac 23 be a8 ae 06 bd de 20 3a be
       -0.052774146 -0.15983716 -0.03288141 -0.181766
000220 78 d4 4e 3e 00 a9 ed 3d 68 ee 56 be 00 97 19 ba
       0.20198238 0.116045 -0.20989382 -0.00058589876
000230 60 a1 2a 3c 19 8c 17 3d 80 44 0c 3e d9 8a 0e be
       0.010414451 0.036998842 0.13698006 -0.13920154
000240 bc 07 01 bd 93 25 e8 3d 23 18 c5 bd 50 6a c1 bd
       -0.031501517 0.11335292 -0.09623744 -0.094441056
000250 7a 99 a7 bd 10 ff 18 be ab 91 24 3e ab 6d 83 3e
       -0.0818357 -0.14941049 0.16071193 0.25669608
000260 76 33 5d 3e 30 81 1f 3e 65 bb cc 3d dc 91 60 bd
       0.21601662 0.15576625 0.0999668 -0.054826602
000270 e4 f3 09 3e 94 59 18 3e 38 cd d4 3d 08 bd a2 3d
       0.13471943 0.14877921 0.10390705 0.07946211
000280 9a 14 0c 3e f8 f7 3d 3e 08 f4 bb 3c dc e2 e6 3d
       0.13679734 0.18551624 0.022943512 0.11273739
000290 b4 80 d5 3d ea 09 37 3e 2c 49 c5 bd 62 bc 3b 3e
       0.10424939 0.17874876 -0.09633097 0.18333581
0002a0 1a d8 a1 bd 00 de 24 3d 7c 1d 45 bd 62 94 12 be
       -0.07902546 0.04025078 -0.04812382 -0.14314416
0002b0 8c f2 16 3e f6 00 4d be 1a 86 2b be 7c 95 bb 3d
       0.14740962 -0.20019898 -0.16750374 0.09159371
0002c0 d4 5b eb 3d 05 ef 46 be 70 4b b4 3d 04 f0 0c be
       0.11492124 -0.19427116 0.08803451 -0.13763434
0002d0 e8 25 aa 3d 57 4c 20 be a2 26 8a bd 48 49 e1 3d
       0.08308011 -0.15654121 -0.0674565 0.110003054
0002e0 f2 a6 1e be 6c 9b b8 bd 8c f8 88 bd ca 54 a0 bd
       -0.15493372 -0.09014019 -0.066880316 -0.07828672
0002f0 00 b9 32 3e f0 77 ca 3c 10 84 26 3d 48 f8 50 bd
       0.17453384 0.024715394 0.04065329 -0.05101803
000300 f0 52 d6 3d 70 54 46 3e 0c 51 4d be dc e5 9b bd
       0.10465038 0.19368148 -0.20050448 -0.076122016
000310 e4 96 f2 3d 65 e0 09 be 20 2b e7 3d 7c 3d 09 be
       0.11845186 -0.13464506 0.11287522 -0.1340236
000320 80 e9 2b bc 40 d0 81 bb d4 30 33 bd ae 3c 24 3e
       -0.010492682 -0.003961593 -0.043747738 0.16038772
000330 ea 81 88 bd c4 51 fe 3d 28 87 b3 3d 30 78 33 be
       -0.06665404 0.12417939 0.087660134 -0.17526317
000340 8b 74 1a be ce 0c 28 3e 20 58 e8 3b f4 4b 2d 3e
       -0.1508352 0.16411135 0.0070905834 0.16923505
000350 1a 6f 2f be 24 29 1b bd a0 7d 34 be b8 8e a6 3d
       -0.17132226 -0.03788103 -0.17626047 0.0813269
000360 2c fe 93 3d 1f 41 0b be b2 9f 0a 3e bb c3 f8 bd
       0.07226214 -0.1359906 0.13537481 -0.121467076
000370 80 75 fa 3b 88 3a 69 bd 80 85 cb ba b8 64 26 3d
       0.0076434016 -0.056940585 -0.0015527457 0.040623397
000380 3c d7 2f be 54 e1 32 be c9 fd 10 be f5 c5 63 be
       -0.17171949 -0.17468768 -0.14159311 -0.22243483
000390 d8 60 de bc 9c ee 0d be 10 a3 09 3d 8e 13 46 3e
       -0.027145788 -0.13860554 0.033602774 0.19343397
0003a0 80 8b dd ba 00 8e d0 3d 9c 8c 5b be ac 98 78 bd
       -0.0016902536 0.10183334 -0.21440357 -0.060692474
0003b0 dc 0a 6e bd cd d9 62 be 98 51 a0 3d 62 b0 97 bd
       -0.058115825 -0.22153397 0.07828063 -0.07406689
0003c0 0d cc 53 be 70 b8 c4 3d 1a a2 14 be 46 4e 1b be
       -0.20683308 0.09605491 -0.14514962 -0.15166578
0003d0 60 d2 8b 3c 7e d4 8c 3e 22 73 d6 3d 24 cb 40 3e
       0.017068088 0.2750587 0.104711786 0.18827492
0003e0 b8 7d 3f 3e 02 89 2d 3e 34 75 8f 3c c4 fa 2b bc
       0.18700302 0.16946796 0.017511941 -0.010496799
0003f0 4c a2 99 3d ea ca ca bd 2f 45 87 3e a4 db 06 3e
       0.07501659 -0.09901984 0.2641997 0.13169724

bias f4 [20]
000000 df b1 89 3c fe e5 ab bd 72 34 d9 3d b6 bf 3b 3e
       0.016808448 -0.08393477 0.10605706 0.1833485
000010 18 c2 37 3e 7c 87 84 bd 8c ff 3b 3e 64 28 be 3d
       0.17945135 -0.06471154 0.18359202 0.09285048
000020 7c 95 a0 3d fc 7b b6 3d f4 7b 02 bd b6 f3 ea bd
       0.07841012 0.08910367 -0.031856492 -0.114722654
000030 47 42 92 3d 26 03 bf 3d ae 9a 0e be 5b b5 e2 bd
       0.07141548 0.093267724 -0.13926193 -0.11069747
000040 6c 7b a0 b9 d1 33 0f be 33 26 f7 bd a1 48 87 bd
       -0.00030609535 -0.1398461 -0.12067833 -0.0660565

weight f4 [1, 20]
000000 6f 57 ae ba 6b 61 19 3e c2 7e 94 bd 1e ab 0a be
       -0.0013301204 0.14978568 -0.0725074 -0.13541839
000010 34 7a 4f be e5 03 19 be dc b1 0e be 60 75 52 be
       -0.2026146 -0.14942892 -0.13935035 -0.20552588
000020 d6 65 2d be 40 b4 b6 3d 6a cf 83 bd 84 d0 ee 3d
       -0.16933379 0.08921099 -0.064360455 0.11660865
000030 cb af 02 be c9 70 14 3e 06 77 b5 3d 44 95 9e 3d
       -0.12762372 0.14496149 0.088605925 0.07743314
000040 fb 9e e0 3d 7a 45 28 be 14 36 10 3e 16 0c 94 3c
       0.10967823 -0.16432753 0.14083129 0.01807217

weight f4 [20, 3]
000000 4e 70 ca be 36 23 3e be a0 9f 33 3e a8 0f 08 3f
       -0.39538807 -0.1856812 0.17541361 0.5314889
000010 44 00 12 bf 5a bd a7 3e 3a 52 94 bd 1d 13 90 3e
       -0.57031655 0.3276165 -0.07242246 0.28139582
000020 90 52 4c 3c 48 e0 a8 3d f8 e3 55 be f0 fa 77 3e
       0.012470856 0.08245903 -0.20887744 0.24216819
000030 b8 2a 08 bf 88 89 8e bd f7 08 ee be da a7 1e bf
       -0.53190184 -0.06959826 -0.46491215 -0.6197487
000040 eb a2 00 3c 49 99 07 be 00 32 f5 bc c3 f6 bd be
       0.007851343 -0.13242067 -0.029931068 -0.37102327
000050 f8 d2 ee 3e 02 af a2 3e f6 77 1f 3e 8f 21 e3 3e
       0.4664533 0.31774145 0.15573105 0.4436154
000060 a5 38 36 3e 6e 4e 94 3e 74 36 fb 3d 78 7f a5 be
       0.17795046 0.28966087 0.122662455 -0.32323813
000070 7d ce 92 be 3e 9e 29 be d8 d2 1d be a6 30 db 3e
       -0.28673163 -0.16564271 -0.15412462 0.42810553
000080 92 71 15 3f 00 38 d3 be 36 e1 ac be 0d 0e 92 be
       0.5837642 -0.41253662 -0.33765572 -0.28526345
000090 90 29 2a be b5 51 92 be ae a6 07 be 0b e7 57 be
       -0.16617417 -0.28577963 -0.13247177 -0.2108423
0000a0 67 8d 28 3e c7 62 cc 3e 5e f9 3c be c8 0b a4 be
       0.1646019 0.3991911 -0.18454501 -0.32040238
0000b0 0e 34 07 3f 6c 0c 5a be a8 4b b5 be 5a 58 c1 3e
       0.52813804 -0.21293801 -0.35409284 0.3776272
0000c0 7f 54 9c 3e 7d 0e e0 3e ca 5b 78 be 2a 0a 04 3f
       0.30533215 0.43761054 -0.24253765 0.5157801
0000d0 6b 8b 92 be 3c 1e 27 be 00 cd d6 3d 1a 8b ee be
       -0.28621992 -0.16320127 0.104883194 -0.465905
0000e0 37 76 b5 be 1d a6 1a 3d 22 e0 0d 3e 07 86 da 3d
       -0.35441753 0.037756074 0.13855031 0.10670095

bias f4 [20]
000000 02 4c 04 3f 16 c5 a8 3e 4c 8e cd bd 76 ee 0b 3f
       0.5167848 0.32962865 -0.100369066 0.5466074
000010 78 0a e4 3e 12 65 05 3e a8 b1 0a bf bc 35 b6 be
       0.44539237 0.13026837 -0.5417733 -0.3558787
000020 1b 11 e3 3e b0 41 7d bd 53 99 6c be 1c 6a e5 3e
       0.44348988 -0.061830223 -0.23105364 0.44807518
000030 80 a1 ae 3d 17 0d fb 3e f0 b7 87 bd 6a ca b0 be
       0.085268974 0.49033424 -0.0662688 -0.3452943
000040 a7 e3 c9 be c9 51 ef be 6e 7f 79 be 2b 5b b8 be
       -0.39431497 -0.46742085 -0.24365017 -0.36007056

weight f4 [20, 20]
000000 50 85 29 3e 4f 6d f9 bd 6a 02 50 3d 80 9f 19 bb
       0.16554761 -0.12179052 0.050783552 -0.0023441017
000010 a1 12 fc bd 47 ad 94 bd e0 31 bd bb 97 bc dc bd
       -0.12308241 -0.072596125 -0.005773768 -0.10778158
000020 72 47 48 3e ac 19 e4 bd 91 5b c4 bc 52 2e 43 be
       0.19558504 -0.11137709 -0.023969444 -0.19060639
000030 a4 1b 43 3e 7b e7 f1 3d d8 c7 c8 3d 10 e0 9c bc
       0.19053513 0.118117295 0.09803742 -0.01914981
000040 cb d5 ba bb a2 58 0d 3e 76 f5 0d 3e 97 a5 18 3d
       -0.0057017556 0.13803342 0.13863167 0.037267294
000050 40 8d 61 3e 5c cc 5a bd 30 1c 82 3d a0 da bd 3d
       0.22026539 -0.05341755 0.063530326 0.09270215
000060 e6 92 9c bd eb 2b 57 be 00 19 05 bc 5e b9 d5 3d
       -0.07645206 -0.21012847 -0.008123636 0.104357466
000070 2a 23 de bd a8 ee 95 3d bb 55 ee 3d b8 7d 34 3e
       -0.10846551 0.07320911 0.116374455 0.17626083
000080 f8 7a a8 3c 14 13 18 be 4d 08 20 be a0 76 d4 3b
       0.020566449 -0.14851028 -0.15628166 0.0064838678
000090 73 7a 33 3e e0 29 0c 3c 60 cb b2 3c 8c 6c 4a be
       0.1752718 0.008554906 0.021825492 -0.1976797
0000a0 50 07 cd 3d 74 c7 af bd d0 67 1e 3d 5e 6e 54 be
       0.100111604 -0.085829645 0.038673222 -0.20745227
0000b0 2b 59 f7 bd 9c 29 16 be 1a af d1 bd 73 61 d6 3d
       -0.12077554 -0.1466431 -0.10238476 0.10467806
0000c0 80 71 39 bd f8 6e d0 bd 78 17 36 3e 94 9c 9b 3d
       -0.045274258 -0.101774156 0.1778239 0.07598224
0000d0 28 12 00 3e 5d 7a bc 3c fd 47 56 be 48 ab cf 3d
       0.12506926 0.023007566 -0.20925899 0.10140091
0000e0 2c 7a 9d 3b 00 66 f5 3d 6a c0 d7 bd 2f f4 12 3e
       0.004805824 0.119823456 -0.10534747 0.14350961
0000f0 6f c9 20 be f0 b0 ab 3d 13 38 4d be a4 7f d5 3d
       -0.15701841 0.083833575 -0.20040922 0.10424736
000100 14 28 35 be cc fd bd 3d 58 8f cd 3d 88 ba 86 3d
       -0.1769107 0.092769235 0.10037106 0.06578547
000110 57 bb 05 be f8 45 40 be d0 8c a8 bd 1a ca 51 be
       -0.13059746 -0.18776691 -0.08229983 -0.20487252
000120 26 97 b3 bd a8 b1 9d 3d ca a1 5b 3e c2 04 b4 bd
       -0.08769064 0.07699901 0.21448436 -0.0878997
000130 aa 4c 57 be 52 b3 3e 3e bf f3 d7 bd b6 53 54 be
       -0.21025339 0.18623093 -0.10544538 -0.20735058
000140 a4 05 98 3d 0c 59 61 3e d5 35 39 3e 9c 2f 79 bd
       0.07422951 0.22006625 0.18086942 -0.06083642
000150 74 57 0b 3e f1 ae e6 bc ae 88 a9 bd f9 11 e5 3d
       0.1360758 -0.02815959 -0.08278023 0.11185069
000160 71 77 4e 3e 32 0d ba bd d6 bc 21 bc 40 75 93 3c
       0.20162751 -0.09084548 -0.009871682 0.018000245
000170 18 22 75 3d ef 75 23 be 32 21 19 3e 2d d8 2a be
       0.059846967 -0.15962957 0.1495407 -0.16684027
000180 b6 a0 36 3e 10 66 0f 3e 70 4f 0d 3d be d4 0a be
       0.17834744 0.14003778 0.034499586 -0.13557717
000190 2c a2 a9 3d c8 ff d1 bc cd e2 fa 3d fe b2 2a be
       0.08282885 -0.025634661 0.1225029 -0.16669843
0001a0 d6 51 62 3e 3c c2 ea bd f0 4a 44 be 44 93 99 3d
       0.2210153 -0.114628285 -0.19169211 0.07498792
0001b0 00 e6 7d 39 dc 12 16 be ee 8d 2f 3e 8e 78 4f be
       0.00024213642 -0.14655632 0.17143986 -0.20260832
0001c0 c4 bf b0 3d 78 4b 7a 3d d8 18 58 3d bc a5 19 3e
       0.086303264 0.06110713 0.052758068 0.15004629
0001d0 f7 13 7a 3b 36 38 4c be a4 83 07 3e 8e 87 07 be
       0.0038158873 -0.19943318 0.1323381 -0.13235304
0001e0 61 ad cf bd 80 1c 36 3d 63 5f 97 3d 7b ed 17 be
       -0.10140491 0.044460773 0.073912404 -0.14836685
0001f0 5e db 87 bd d8 34 5a be 60 cd 1d 3e 1b 40 59 be
       -0.06633638 -0.21309221 0.15410376 -0.2121586
000200 62 97 1e be c0 30 e7 3d f9 6f 54 3e 90 96 d7 bc
       -0.15487435 0.11288595 0.20745839 -0.026316911
000210 99 a2 30 be 3b c7 09 3e 42 57 44 be 82 f0 45 be
       -0.17249526 0.13454907 -0.19173911 -0.19330028
000220 3f 25 04 3e ac fb 0c be a0 3d 56 be 76 45 30 bd
       0.12904833 -0.1376788 -0.20921946 -0.043034993
000230 24 22 55 be 00 8d 1f bb 01 87 13 bd 26 4b 1d be
       -0.20813805 -0.0024345517 -0.03601742 -0.15360698
000240 12 55 4e 3e b6 c2 ad bc 08 c1 49 3e 33 26 98 3d
       0.20149639 -0.02121101 0.19702542 0.07429161
000250 c4 c6 8b bd 1c 77 e7 3d 5a da 39 3b 86 4b e5 bd
       -0.06825021 0.11302015 0.0028358907 -0.111960456
000260 10 4a 97 3d ec 39 16 3e 6c 57 2f bd 60 02 57 3e
       0.07387173 0.14670533 -0.04280798 0.20997
000270 7b 13 6c 3c 00 3d 25 3e ea bd a2 bd 36 b9 dc bc
       0.014408941 0.16136551 -0.079463795 -0.026943784
000280 10 d0 16 bd 00 97 04 3e e1 80 d8 bb 00 c0 ea 3c
       -0.036819518 0.12948227 -0.0066071604 0.028656006
000290 da d9 17 3e 52 c1 0e 3d d8 c5 a9 3c 0e 89 63 be
       0.14829198 0.034852333 0.020724222 -0.22220251
0002a0 5a b8 7a bd e0 28 dc 3d 52 e6 49 bd b0 f2 2f 3e
       -0.061210968 0.10749984 -0.049291916 0.17182422
0002b0 7e e6 04 be 3c 08 f0 3d f8 25 85 3d 30 68 c2 3d
       -0.12978551 0.117203206 0.065013826 0.094925284
0002c0 c7 66 4d 3e f0 7c b5 3d 0a f0 3a be 4e 9a 0c 3d
       0.20058738 0.088617206 -0.1825563 0.034326844
0002d0 5c 39 50 3e 40 94 59 3e c8 8a d0 3d 06 c6 d9 bd
       0.20334381 0.21247959 0.101827204 -0.10633473
0002e0 1c 76 db 3d 30 78 4e 3c 84 8a c1 3d dc 67 57 be
       0.10715887 0.012601897 0.09450248 -0.21035713
0002f0 e8 14 56 be 0a cc ad bd 10 da 0e be 98 7a 05 3e
       -0.20906413 -0.08486183 -0.13950372 0.13035047
000300 b0 3b 34 bc a4 0a 60 3e 00 8e 3d 3c 20 ef e9 bd
       -0.011000559 0.21879059 0.0115695 -0.114225626
000310 ec 4c 0f 3e e8 44 bf 3c e0 88 0c bd 99 6a 1d be
       0.13994187 0.023348287 -0.03431022 -0.15372695
000320 92 38 81 bd fd e8 2b be 2e be 50 3e 14 0f 18 be
       -0.06309618 -0.16788097 0.20385048 -0.14849502
000330 b2 5f 5a 3e 90 6a 1c be 1e a5 2e be f4 5c 51 3e
       0.21325567 -0.15275025 -0.17055175 0.20445615
000340 93 2b 6d be 71 03 45 be d2 2f 59 3e fa e0 01 be
       -0.23161153 -0.19239594 0.21209648 -0.12683478
000350 a8 6a d8 3d 1e 90 35 be 70 70 20 3c 6d ad 41 be
       0.10567218 -0.17730758 0.009792432 -0.18913813
000360 0b ff 5c 3d c8 ad 10 3d cf 50 1e be 4e b9 10 3e
       0.053954165 0.03532198 -0.15460514 0.14133188
000370 40 3d d7 3d a8 d5 b8 bd a3 40 34 be c0 58 e9 bb
       0.105097294 -0.09025127 -0.17602782 -0.0071211755
000380 86 e7 20 3e f0 34 a3 bc 0c e2 cb bd 54 1e 17 be
       0.15713319 -0.019922704 -0.099552244 -0.14757663
000390 99 fc 01 be 00 f1 8b 3b 48 18 ad bc 34 88 84 3d
       -0.12694015 0.004270673 -0.021129742 0.06471291
0003a0 a0 ba 44 3c 96 df 54 3e 9c c2 22 bd ca 5f 29 be
       0.0120073855 0.20788416 -0.039736375 -0.16540447
0003b0 ba 46 5a 3e b0 45 fd 3d 80 2b 2d bd f0 98 22 be
       0.21316043 0.123668075 -0.042277813 -0.15878654
0003c0 96 d4 94 bd c1 31 de bd 20 5d f3 3d 88 e9 5e 3e
       -0.0726711 -0.108493336 0.118829966 0.21768773
0003d0 08 d5 33 be 47 2d 01 be ea 65 54 3e 44 c0 a9 3c
       -0.17561734 -0.12614928 0.20742002 0.020721562
0003e0 57 60 e1 bd fe 63 d5 bd d2 30 c1 bd 64 84 32 bd
       -0.110047035 -0.104194626 -0.0943314 -0.04358329
0003f0 8a f5 ab bd fd 29 38 3e c4 bb 98 3d ef ed 35 be
       -0.08396442 0.17984767 0.074576885 -0.17766546

bias f4 [20]
000000 3b bd 34 3e 03 21 f9 3d 0c c9 bc 3a b6 da c5 bd
       0.1765031 0.121644996 0.0014403178 -0.096608564
000010 8e a8 16 be ef 48 e7 bc d0 59 67 3c 17 d1 4a be
       -0.14712736 -0.02823302 0.014120534 -0.19806324
000020 18 fb b7 bb 0d e9 00 be fc b4 45 3d 5b a5 5c be
       -0.0056146495 -0.12588902 0.048268303 -0.21547453
000030 cc 0f 32 3e 34 8a a4 bd e3 a8 f2 3d 66 d6 de bd
       0.17388839 -0.08034173 0.11848619 -0.10880737
000040 25 f9 5d bb d0 ba 15 bd 40 f1 bb 3d d4 dc 91 bd
       -0.0033870426 -0.03655511 0.09176874 -0.07122198

weight f4 [1, 20]
000000 d8 47 f5 bd ed d7 85 3d 12 ae f2 3d 6e 28 04 3e
       -0.11976594 0.06535325 0.118496075 0.12906048
000010 14 03 19 be d4 c1 06 be 54 73 04 be ab 91 c5 3c
       -0.1494258 -0.13159877 -0.12934619 0.024117311
000020 14 a0 07 3e 5c 5d 4a bd 93 dc f4 3d 3c c5 36 3e
       0.13244659 -0.04940544 0.11956134 0.17848676
000030 0f 62 65 bd ed 0f 44 3e 6e 4b 34 3e bc e0 49 3e
       -0.05600172 0.191467 0.17606899 0.19714636
000040 a0 c9 38 be 80 50 54 3e e4 87 f7 bc d2 7d 52 3e
       -0.18045664 0.20733833 -0.030216165 0.20555809

timegrid f4 [361]
000000 00 00 00 00 61 0b 36 3b 61 0b b6 3b 89 88 08 3c
       0.0 0.0027777778 0.0055555557 0.008333334
000010 61 0b 36 3c 39 8e 63 3c 89 88 88 3c f5 49 9f 3c
       0.011111111 0.013888889 0.016666668 0.019444445
000020 61 0b b6 3c cd cc cc 3c 39 8e e3 3c a6 4f fa 3c
       0.022222223 0.025 0.027777778 0.030555557
000030 89 88 08 3d 3f e9 13 3d f5 49 1f 3d ab aa 2a 3d
       0.033333335 0.036111113 0.03888889 0.041666668
000040 61 0b 36 3d 17 6c 41 3d cd cc 4c 3d 83 2d 58 3d
       0.044444446 0.047222223 0.05 0.05277778
000050 39 8e 63 3d ef ee 6e 3d a6 4f 7a 3d 2e d8 82 3d
       0.055555556 0.058333334 0.061111115 0.06388889
000060 89 88 88 3d e4 38 8e 3d 3f e9 93 3d 9a 99 99 3d
       0.06666667 0.06944445 0.072222225 0.075
000070 f5 49 9f 3d 50 fa a4 3d ab aa aa 3d 06 5b b0 3d
       0.07777778 0.08055556 0.083333336 0.08611111
000080 61 0b b6 3d bc bb bb 3d 17 6c c1 3d 72 1c c7 3d
       0.08888889 0.09166667 0.094444446 0.097222224
000090 cd cc cc 3d 28 7d d2 3d 83 2d d8 3d de dd dd 3d
       0.1 0.10277778 0.10555556 0.108333334
0000a0 39 8e e3 3d 94 3e e9 3d ef ee ee 3d 4a 9f f4 3d
       0.11111111 0.11388889 0.11666667 0.119444445
0000b0 a5 4f fa 3d 00 00 00 3e 2e d8 02 3e 5b b0 05 3e
       0.12222222 0.125 0.12777779 0.13055556
0000c0 89 88 08 3e b7 60 0b 3e e4 38 0e 3e 12 11 11 3e
       0.13333334 0.13611113 0.1388889 0.14166668
0000d0 3f e9 13 3e 6d c1 16 3e 9a 99 19 3e c8 71 1c 3e
       0.14444445 0.14722224 0.15 0.15277779
0000e0 f5 49 1f 3e 23 22 22 3e 50 fa 24 3e 7e d2 27 3e
       0.15555556 0.15833335 0.16111112 0.1638889
0000f0 ab aa 2a 3e d9 82 2d 3e 06 5b 30 3e 34 33 33 3e
       0.16666667 0.16944446 0.17222223 0.17500001
000100 61 0b 36 3e 8f e3 38 3e bc bb 3b 3e ea 93 3e 3e
       0.17777778 0.18055557 0.18333334 0.18611112
000110 17 6c 41 3e 45 44 44 3e 72 1c 47 3e a0 f4 49 3e
       0.18888889 0.19166668 0.19444445 0.19722223
000120 cd cc 4c 3e fb a4 4f 3e 28 7d 52 3e 56 55 55 3e
       0.2 0.20277779 0.20555556 0.20833334
000130 83 2d 58 3e b1 05 5b 3e de dd 5d 3e 0c b6 60 3e
       0.21111111 0.2138889 0.21666667 0.21944445
000140 39 8e 63 3e 67 66 66 3e 94 3e 69 3e c2 16 6c 3e
       0.22222222 0.22500001 0.22777778 0.23055556
000150 ef ee 6e 3e 1d c7 71 3e 4a 9f 74 3e 78 77 77 3e
       0.23333333 0.23611112 0.23888889 0.24166667
000160 a5 4f 7a 3e d3 27 7d 3e 00 00 80 3e 17 6c 81 3e
       0.24444444 0.24722223 0.25 0.25277779
000170 2e d8 82 3e 44 44 84 3e 5b b0 85 3e 72 1c 87 3e
       0.25555557 0.25833333 0.2611111 0.2638889
000180 89 88 88 3e a0 f4 89 3e b7 60 8b 3e cd cc 8c 3e
       0.26666668 0.26944447 0.27222225 0.275
000190 e4 38 8e 3e fb a4 8f 3e 12 11 91 3e 28 7d 92 3e
       0.2777778 0.28055558 0.28333336 0.28611112
0001a0 3f e9 93 3e 56 55 95 3e 6d c1 96 3e 83 2d 98 3e
       0.2888889 0.2916667 0.29444447 0.29722223
0001b0 9a 99 99 3e b1 05 9b 3e c8 71 9c 3e de dd 9d 3e
       0.3 0.3027778 0.30555558 0.30833334
0001c0 f5 49 9f 3e 0c b6 a0 3e 23 22 a2 3e 39 8e a3 3e
       0.31111112 0.3138889 0.3166667 0.31944445
0001d0 50 fa a4 3e 67 66 a6 3e 7e d2 a7 3e 94 3e a9 3e
       0.32222223 0.32500002 0.3277778 0.33055556
0001e0 ab aa aa 3e c2 16 ac 3e d9 82 ad 3e ef ee ae 3e
       0.33333334 0.33611113 0.3388889 0.34166667
0001f0 06 5b b0 3e 1d c7 b1 3e 34 33 b3 3e 4a 9f b4 3e
       0.34444445 0.34722224 0.35000002 0.35277778
000200 61 0b b6 3e 78 77 b7 3e 8f e3 b8 3e a5 4f ba 3e
       0.35555556 0.35833335 0.36111113 0.3638889
000210 bc bb bb 3e d3 27 bd 3e ea 93 be 3e 00 00 c0 3e
       0.36666667 0.36944446 0.37222224 0.375
000220 17 6c c1 3e 2e d8 c2 3e 45 44 c4 3e 5b b0 c5 3e
       0.37777779 0.38055557 0.38333336 0.3861111
000230 72 1c c7 3e 89 88 c8 3e a0 f4 c9 3e b6 60 cb 3e
       0.3888889 0.39166668 0.39444447 0.39722222
000240 cd cc cc 3e e4 38 ce 3e fb a4 cf 3e 11 11 d1 3e
       0.4 0.4027778 0.40555558 0.40833333
000250 28 7d d2 3e 3f e9 d3 3e 56 55 d5 3e 6c c1 d6 3e
       0.41111112 0.4138889 0.4166667 0.41944444
000260 83 2d d8 3e 9a 99 d9 3e b1 05 db 3e c7 71 dc 3e
       0.42222223 0.425 0.4277778 0.43055555
000270 de dd dd 3e f5 49 df 3e 0c b6 e0 3e 22 22 e2 3e
       0.43333334 0.43611112 0.4388889 0.44166666
000280 39 8e e3 3e 50 fa e4 3e 67 66 e6 3e 7d d2 e7 3e
       0.44444445 0.44722223 0.45000002 0.45277777
000290 94 3e e9 3e ab aa ea 3e c2 16 ec 3e d8 82 ed 3e
       0.45555556 0.45833334 0.46111113 0.46388888
0002a0 ef ee ee 3e 06 5b f0 3e 1d c7 f1 3e 33 33 f3 3e
       0.46666667 0.46944445 0.47222224 0.475
0002b0 4a 9f f4 3e 61 0b f6 3e 78 77 f7 3e 8e e3 f8 3e
       0.47777778 0.48055556 0.48333335 0.4861111
0002c0 a5 4f fa 3e bc bb fb 3e d3 27 fd 3e e9 93 fe 3e
       0.4888889 0.49166667 0.49444446 0.49722221
0002d0 00 00 00 3f 0b b6 00 3f 17 6c 01 3f 22 22 02 3f
       0.5 0.50277776 0.50555557 0.5083333
0002e0 2e d8 02 3f 39 8e 03 3f 45 44 04 3f 50 fa 04 3f
       0.51111114 0.5138889 0.5166667 0.51944447
0002f0 5c b0 05 3f 67 66 06 3f 72 1c 07 3f 7e d2 07 3f
       0.5222223 0.52500004 0.5277778 0.5305556
000300 88 88 08 3f 93 3e 09 3f 9f f4 09 3f aa aa 0a 3f
       0.5333333 0.53611106 0.5388889 0.5416666
000310 b6 60 0b 3f c1 16 0c 3f cc cc 0c 3f d8 82 0d 3f
       0.54444444 0.5472222 0.54999995 0.55277777
000320 e4 38 0e 3f ef ee 0e 3f fb a4 0f 3f 06 5b 10 3f
       0.5555556 0.55833334 0.56111115 0.5638889
000330 12 11 11 3f 1d c7 11 3f 28 7d 12 3f 34 33 13 3f
       0.5666667 0.5694445 0.57222223 0.57500005
000340 3e e9 13 3f 49 9f 14 3f 55 55 15 3f 60 0b 16 3f
       0.57777774 0.5805555 0.5833333 0.58611107
000350 6c c1 16 3f 77 77 17 3f 82 2d 18 3f 8e e3 18 3f
       0.5888889 0.59166664 0.5944444 0.5972222
000360 9a 99 19 3f a5 4f 1a 3f b1 05 1b 3f bc bb 1b 3f
       0.6 0.6027778 0.6055556 0.60833335
000370 c8 71 1c 3f d3 27 1d 3f de dd 1d 3f ea 93 1e 3f
       0.61111116 0.6138889 0.6166667 0.6194445
000380 f4 49 1f 3f ff ff 1f 3f 0b b6 20 3f 16 6c 21 3f
       0.6222222 0.62499994 0.62777776 0.6305555
000390 22 22 22 3f 2d d8 22 3f 38 8e 23 3f 44 44 24 3f
       0.6333333 0.6361111 0.63888884 0.64166665
0003a0 50 fa 24 3f 5b b0 25 3f 67 66 26 3f 72 1c 27 3f
       0.64444447 0.6472222 0.65000004 0.6527778
0003b0 7e d2 27 3f 89 88 28 3f 94 3e 29 3f a0 f4 29 3f
       0.6555556 0.65833336 0.6611111 0.66388893
0003c0 aa aa 2a 3f b5 60 2b 3f c1 16 2c 3f cc cc 2c 3f
       0.6666666 0.6694444 0.6722222 0.67499995
0003d0 d8 82 2d 3f e3 38 2e 3f ee ee 2e 3f fa a4 2f 3f
       0.67777777 0.6805555 0.6833333 0.6861111
0003e0 06 5b 30 3f 11 11 31 3f 1d c7 31 3f 28 7d 32 3f
       0.6888889 0.69166666 0.6944445 0.69722223
0003f0 34 33 33 3f 3f e9 33 3f 4a 9f 34 3f 56 55 35 3f
       0.70000005 0.7027778 0.70555556 0.7083334
