result_model/ex1_nsde.pth (torch, 23377 bytes, 21 tensors)

weight f4 [20, 3]
00000000: 52df 84be fab5 8fbe b0c0 d4be 04e1 d93e
00000010: 077c c5be cecc a3be 931e 1abe 35d0 133f
00000020: b760 4cbe 9fe5 09bf c53a 95be 0487 be3e
00000030: a594 a13e 8229 773e b4a1 103f d0b5 96be
00000040: 6702 eb3d aef0 d43e 40e9 a13d 29b6 ebbe
00000050: 38c9 f73d a889 a13e a4c4 c8be 005a 09be
00000060: 4a4e f63e fa9c 043f 332a 03bf d392 a03e
00000070: b197 523d e2f6 f93e 309d 063d 04bd edbd
00000080: 1801 93bd 48dc debe 53af ed3e 40d1 ad3e
00000090: c0c1 d93d c05e bdbc 1823 7cbe 1260 953c
000000a0: 316b 1b3e 8bf4 5ebe fe63 db3c 9ead f03e
000000b0: 0e5d dabe 97aa 3bbe 5563 ea3e f524 0a3f
000000c0: d46a f53e eeff 1dbe b094 b43e e467 163e
000000d0: 0efc 06be 486b b3bd 8ff3 d83e d961 c83e
000000e0: e661 be3e d004 59be 9ec6 13bf 86e7 6bbe
-0.2595163 -0.28068525 -0.4155326 0.42554486 -0.38571188 -0.3199219 -0.15050726 0.57739574
-0.19958769 -0.53866 -0.291464 0.37212384 0.3155872 0.24136928 0.5649674 -0.29435587
0.114750676 0.41589874 0.07905817 -0.46037415 0.12098926 0.31550336 -0.39212525 -0.13413239
0.48106605 0.5180203 -0.51236266 0.31362018 0.051414195 0.4882117 0.03286475 -0.116083175
-0.07177943 -0.43527436 0.46422824 0.33948708 0.10632658 -0.02311647 -0.24622762 0.018234286
0.15177609 -0.21772973 0.026781078 0.4700746 -0.4264912 -0.18326794 0.4577891 0.5396264
0.47933066 -0.1542966 0.3526969 0.14688069 -0.13182089 -0.08760697 0.4237332 0.39137152
0.37184066 -0.21193242 -0.5772494 -0.23037538

bias f4 [20]
00000000: b498 763e 8849 0dbf 2a87 ab3e e7f8 8bbe
00000010: f8af c23e aa83 d9be 3e4d 68be 7ab5 0bbf
00000020: 05d6 cdbe 873a f2bd 54fd 12be 7087 25bc
00000030: f0a0 923e 4f6e 4ebe 924c c13e 3106 e1bd
00000040: 4f01 8abe 18e4 b1bd 82a2 7f3e 0591 91be
0.24081689 -0.55190325 0.3350156 -0.27338335 0.38024879 -0.42483264 -0.22685716 -0.54573786
-0.40202346 -0.118275695 -0.1435445 -0.010103092 0.2863841 -0.20159267 0.3775373 -0.10987509
-0.26954123 -0.086860836 0.24964336 -0.28430954

weight f4 [20, 20]
00000000: c4e8 36be a9c1 39be 8059 a1bc d8cc c03d
00000010: 30dc 103e 9041 5e3c 30f6 60bd 0a6e 97bd
00000020: 8238 5dbe d86c 25be 98e7 a5bd 08e1 15bd
00000030: 7096 a63d 26a6 223e 9957 ecbd 1847 12be
00000040: 312c 61be 68fc 513d beb9 623e 9e61 1c3e
00000050: 0097 563e 106b 513d b489 b0bd a081 373e
00000060: 8046 753d fe42 063e 48ac 16be c2a2 a9bd
00000070: ee41 05be 8ddc 3dbe b0c6 1f3e 0721 13be
00000080: b50b 16be b064 96bc 8a20 1cbe 50f4 fd3c
00000090: 74f7 b0bd b0e7 283e 70df 853d 70b1 c53c
000000a0: bca9 a43d 6879 06bd 985f 5fbe ec47 4a3e
000000b0: 2070 02bd a043 ec3b 059d d2bd bc3b 233e
000000c0: 1c2c 38bd 6ac7 89bd e0aa 393d ac64 28bd
000000d0: 36b9 81bd c88b 273d 4649 073e d533 1bbe
000000e0: 1ad0 3f3e 4819 f93d 74a9 103e c0a6 f63c
000000f0: 80ba bbbb 68bd ebbc 629d b1bc 6e93 29be
00000100: aa6f 7cbd 8208 243d 4a4d f8bd 6c6a 203e
00000110: 9bdc e83d f786 c5bd 52f4 83bd 36f5 2fbd
00000120: f0ea 503c 611c 4e3e 49a3 b13d 5928 0d3e
00000130: b0e6 67bc 003f ab3b 3d1d 46be 30f8 3f3c
00000140: dc0f dd3d 674f 15be b0c9 773d 2ca4 233e
00000150: 007b 80ba 0930 febd 7077 593e a803 1a3e
00000160: ff7d 62be 35f5 12be be4b 033e 9e3f 3bbe
00000170: f872 ccbc 7292 5a3e bfd1 07be c075 e53d
00000180: b2fc 063e ec9c 0b3e 09c8 10be e009 f0bc
00000190: 668a 063e dcc5 abbd 375c 613e be59 ffbd
000001a0: 1450 95bd 8e00 383d c2ac 06be 72ce 90bd
000001b0: b926 d53d 940f 9cbd 526b 64be 8517 0bbd
000001c0: 3c6c 26be bddf 183e 4c9b cbbd 1df3 333e
000001d0: 8601 013e 4862 b33c b979 263d 0b1f eebd
000001e0: 688b ec3d 2cec 383e 8257 0fbe 201d 8bbd
000001f0: b044 143c fc92 ef3d 009b 473e 909f 993d
00000200: a0a4 bf3b a007 c23b 2815 273e 3e66 243e
00000210: 0974 58be 72a9 c4bd 4e3e 22be e487 35be
00000220: 580e 00bd 4863 3e3e b84d 21be 88ff 5fbe
00000230: f074 943d e0ef 17bd 9875 6d3d d040 11bc
00000240: 4b1c d23d 8c14 44be 18bf 56be 724f 9ebd
00000250: 0817 d33c 4477 1d3d 183b b23c f4e0 863d
00000260: 689b 993d f292 333e 75e4 0d3e 2696 e63d
00000270: 1609 a7bd 8ccb 933d 55bb 77bd d89d 20be
00000280: 3a85 82bd 28a1 cb3d 35ad 493d 0399 40be
00000290: 0908 e6bd 52b0 43bd a1bf 4dbe 30d6 a4bc
000002a0: c45a 6e3c 24bc 3c3e e004 4cbe a028 6ebc
000002b0: 6eea 5b3e 4a29 61bd fa0f 26bd 1222 513e
000002c0: 706e eb3d 1c3d dabd ae10 87bd 4a47 05be
000002d0: 6837 0fbe 80a5 d7bd 4090 7c3d d22f bebd
000002e0: a019 80bd 2e41 ce3d bca5 d5bd c2d0 133e
000002f0: 95cd 8dbc 6879 02be 1c09 05bd c956 4e3e
00000300: ccef 1cbe 37ea cb3b 2e4c 203e 7f0b 48be
00000310: 6049 643d 3ee6 193e eac2 6d3d e01a e63c
00000320: 1454 babd de07 5a3e 02f3 64be d0f5 4bbd
00000330: 1d28 0cbe 845c 153e 607a b83d f465 a63d
00000340: 80e2 443d a851 b23d 98ac 573d c366 5abe
00000350: 3e63 aabd 380b 5c3e 907c bf3d 2c8b 143e
00000360: e00f 9c3d b8b1 143e 7cc3 c3bd 38ef c6bc
00000370: 9c41 1ebe e0b2 563e c308 edbd 7edd 8fbd
00000380: e2aa 13be 8cab 553e 50a1 c93d 281b f43d
00000390: 189e 21be beeb 95bd 0a8c 643e a0d4 dbbb
000003a0: ffc5 37be 1a8f 1ebe 9369 d9bd 44ab 4dbd
000003b0: cb8a d8bd 1cbc 07bd b829 003e ae02 0d3e
000003c0: 6cba 10bd e809 013e 40ec 883d 0890 0bbe
000003d0: 8838 aa3c bd61 1abe 7017 19be 4058 863b
000003e0: b151 2c3e f63f 48be 9007 093e b017 053e
000003f0: 88dc 6e3d 30de c63d bb7d 1e3e acc8 17bd
-0.1786223 -0.18140282 -0.019695997 0.09414071 0.14146495 0.013565436 -0.054922283 -0.07394035
-0.21603587 -0.16154802 -0.081008136 -0.03659156 0.081341624 0.15883693 -0.115401454 -0.14284933
-0.21989514 0.051266104 0.22141168 0.15271613 0.2095604 0.051127493 -0.08620015 0.17920542
0.059881687 0.13111493 -0.14714158 -0.08282997 -0.13013431 -0.18541165 0.15603137 -0.14368068
-0.14652903 -0.018358558 -0.15246788 0.031000286 -0.08640948 0.16494632 0.06536758 0.02413246
0.08040187 -0.032830626 -0.2181381 0.19753999 -0.031845212 0.00721021 -0.10283855 0.15940756
-0.04496394 -0.06727488 0.045328975 -0.041111633 -0.06334154 0.04090479 0.13211545 -0.15156491
0.18731728 0.12163025 0.14127141 0.03010881 -0.0057290196 -0.02877684 -0.021681491 -0.16560146
-0.06162993 0.040047176 -0.12124117 0.15665597 0.11370202 -0.09644883 -0.06443085 -0.04295846
0.012751326 0.20128013 0.08673722 0.13784923 -0.014154121 0.005226016 -0.19347091 0.011716887
0.107940406 -0.14581071 0.06049508 0.15980595 -0.0009802282 -0.12411506 0.21236968 0.15040457
-0.22118376 -0.14351352 0.12821862 -0.18285987 -0.024957165 0.21344927 -0.13263606 0.112041
0.13182333 0.1363408 -0.14138807 -0.029301584 0.13138732 -0.08387348 0.22007833 -0.12468289
-0.07290664 0.044922404 -0.1315184 -0.07070626 0.104077764 -0.07620159 -0.22306564 -0.033957977
-0.16252226 0.149291 -0.0994173 0.17573209 0.12598237 0.02189745 0.040643428 -0.11627015
0.11550027 0.18058842 -0.13998225 -0.067926645 0.0090495795 0.11697957 0.19492722 0.07501137
0.0058484823 0.005921319 0.16316664 0.16054627 -0.21138014 -0.09602632 -0.1584408 -0.1772762
-0.03126368 0.1859256 -0.15752304 -0.21874821 0.072488666 -0.037093997 0.057973474 -0.00886555
0.10259303 -0.19148463 -0.20971334 -0.07729997 0.025767818 0.03844382 0.021756694 0.06585875
0.075003445 0.17536524 0.1385668 0.11259107 -0.0815603 0.07216558 -0.060481388 -0.15685213
-0.06373067 0.099428475 0.04923745 -0.1880837 -0.11232001 -0.047775574 -0.20092632 -0.020121664
0.014548007 0.18431145 -0.19923735 -0.014536053 0.21476147 -0.054971017 -0.04054258 0.20423153
0.11495674 -0.10656187 -0.06594978 -0.13015476 -0.1398598 -0.105296135 0.061661005 -0.09286465
-0.062548876 0.10071026 -0.10432002 0.14435104 -0.017309943 -0.12741625 -0.03247939 0.20150293
-0.1532585 0.006222989 0.1565406 -0.19535635 0.05573404 0.15029237 0.058047213 0.028088987
-0.09098068 0.21292064 -0.22358325 -0.049794972 -0.13687177 0.14586073 0.09007716 0.08124915
0.04806757 0.08706981 0.052654833 -0.21328263 -0.0831971 0.21488655 0.0934993 0.14506215
0.076202154 0.1452092 -0.0955877 -0.02428399 -0.15454715 0.20966673 -0.11573937 -0.07024668
-0.14420655 0.20866221 0.09845221 0.11919242 -0.15782964 -0.07320355 0.22319046 -0.0067086965
-0.17946623 -0.15484276 -0.1061584 -0.05021216 -0.10573348 -0.03313838 0.12515914 0.13770553
-0.035334036 0.12601435 0.06685686 -0.13629162 0.02077891 -0.15076347 -0.14950347 0.0040998757
0.16828038 -0.19555649 0.13381791 0.12997317 0.058315784 0.09710348 0.1547765 -0.03705661

bias f4 [20]
00000000: 7c1b 153e 54c6 82bd acf7 ec3d 902c d73b
00000010: f2d1 643e 31b5 f7bd b8ab 853c 12f1 403b
00000020: 973f e0bd dee4 973a 3bdf 5fbe a0cf 363d
00000030: 8a41 4f3e 1f5d f13d 65f5 0c3e 5d3f 36be
00000040: dcb1 87bd 4e2b 1d3d 32fb 463e ec30 2ebd
0.14561266 -0.06385484 0.11570677 0.0065665916 0.22345713 -0.120951064 0.016317233 0.0029440564
-0.10949629 0.0011588593 -0.218625 0.0446316 0.20239845 0.117853396 0.13765486 -0.17797609
-0.06625721 0.038371377 0.19431761 -0.042527124

weight f4 [1, 20]
00000000: 83ab 46be c011 e23c b623 1ebe d74e b83d
00000010: 9605 5fbe 232c e5bc fd81 07be cfe3 09be
00000020: 56a8 3fbe 3e7d f93d 0057 7cba dabd 4b3e
00000030: 7e55 953d 9f36 123d 9fae 2c3e 319f 2bbe
00000040: 8957 27be a450 e73c 9ab0 4abe 18eb 1f3d
-0.19401364 0.027596354 -0.1544331 0.089994125 -0.21779475 -0.027975148 -0.1323318 -0.13465808
-0.18716559 0.12182091 -0.0009626001 0.19896641 0.07291697 0.035696622 0.16863488 -0.16759945
-0.16341986 0.028236695 -0.1979393 0.039042562

weight f4 [20, 3]
00000000: ce7e 6c3d b6a3 a33e d2b4 13bd 7812 ad3d
00000010: 9e7d 6bbe d4de 4f3e a1fe ccbe efb3 493e
00000020: c1a1 45be 2f57 0abf fe35 05bf dc34 d53e
00000030: 40eb 9d3e 3abc 08bf 00dd 783d 9ac1 8a3e
00000040: 5853 52be 8087 11bf c2a3 88be 7c89 fa3e
00000050: ed57 5dbe 6528 aebe 4385 a6be 808e 6cbe
00000060: 64fd aa3e 3ccb aebe 5881 2a3e 735e cdbd
00000070: 3229 8c3e a164 e83e 9827 a83d 9c41 a03e
00000080: d604 e93e a4f8 6b3e d96c 08bf 1c75 bb3e
00000090: 6a45 023f 3b94 06bf 10a7 6e3d 5f65 1f3e
000000a0: e5c1 103f db3f cf3e 077c f33e ca69 9f3e
000000b0: 0ce1 0d3f 8ea6 af3e b920 05bf 8020 8ebd
000000c0: 9c52 f63e 6cf1 01be 58fb aa3d fc4d f23e
000000d0: a08b adbe 4b5e 11bf 704a 95bd cd73 11bf
000000e0: 7a2a c6be 6e31 86be acea 5e3e b5fc 263c
0.057738118 0.3196084 -0.036061116 0.08450788 -0.22997138 0.20299846 -0.40038016 0.19697545
-0.19299985 -0.5403928 -0.5203551 0.4164189 0.30843544 -0.5341221 0.060757637 0.2710083
-0.20539606 -0.5684738 -0.26687437 0.48933017 -0.21615572 -0.34015194 -0.32523546 -0.23101234
0.33396447 -0.3413943 0.16650903 -0.100277804 0.2737518 0.45389274 0.08210677 0.31300056
0.45511502 0.23044068 -0.5329109 0.36612785 0.5088717 -0.5256993 0.058264792 0.15566014
0.5654586 0.40478405 0.47555563 0.31135398 0.5542152 0.3430676 -0.52003056 -0.06939793
0.481099 -0.12689751 0.08348721 0.47325122 -0.33895588 -0.56784505 -0.072895885 -0.5681732
-0.38704282 -0.26209587 0.21769208 0.010192086

bias f4 [20]
00000000: 02d0 cd3e 000b a03e e903 babc b086 bd3d
00000010: c026 673c 095f 0ebf 084b 0e3f 78e9 5f3e
00000020: 9258 133f ff03 c53d 52e3 323e 40b8 7dbc
00000030: 740e 313e 63a4 283e c69b 373e fa16 75be
00000040: 88d7 91bd e4ee 24be ee5d 0a3f 17cb 8cbe
0.4019776 0.31258392 -0.022706943 0.09254205 0.01410836 -0.5561376 0.5558324 0.21866405
0.5755702 0.09619903 0.17469528 -0.015485823 0.1729067 0.16468959 0.17930517 -0.23934546
-0.071211874 -0.16106755 0.54049575 -0.27498695

weight f4 [20, 20]
00000000: b966 48be 7854 56bd 5c53 45be 5487 b83d
00000010: a2f0 563e be96 63be 2657 523e a8a4 14bd
00000020: bced 0dbd 76a0 10be d448 a9bd 60bb a03d
00000030: 009a 51bb 70c8 1bbd 14ed 09bd c0df 9a3d
00000040: a8f1 593d ccc0 d9bd 6a84 86bd 82a1 babd
00000050: 8c2c 8b3d 3c59 5ebe 9390 51be cc18 be3d
00000060: 608a 1cbe 0ceb ce3d f2b7 c9bd f1e1 21be
00000070: 66d6 233e d061 3b3d dcaa 5ebe 8413 2c3e
00000080: 0c34 183e 4062 17be f866 4d3d e014 453e
00000090: a0d1 4f3d 7e65 2cbe eaa0 2f3e e4ad 0cbd
000000a0: d011 383e 18b7 c83c 2dad 52be 4563 38be
000000b0: cce9 febd bb8b 1bbe 4669 1cbe 70df a5bc
000000c0: a425 62bd f6bf 053e 725a 64be 9068 833d
000000d0: b21e 11be a8e7 5d3d 1cc4 7cbd ce0d 09be
000000e0: 30fa 80bd a866 8f3c e21c 5c3e 1c33 c0bd
000000f0: 57b3 59be 7ccc 33bd cc5b 1dbd 2c61 51bd
00000100: 8246 c8bd 282a 3f3e 02cf 003e ec96 48be
00000110: 6c71 01be 6410 63be bcf2 67bd 1dbd 58be
00000120: a604 193e 68d4 c3bd 1026 3a3c 8a2a 353e
00000130: 0e07 9dbd b039 4f3d 64ba 1e3e 908d 40bc
00000140: f60f 5fbe 8890 c4bd 50a6 f73d 6c6a 8abd
00000150: c0ab 70bd d67e 003e b0a6 debd 0447 a13d
00000160: 1057 973d c05c 483b 4b73 fabd 70e5 743d
00000170: a423 ce3d 2cb9 fbbd 9074 aebd 1e22 4fbe
00000180: a4f3 a4bd 666f 473e 3ab5 a3bd 40f8 91bb
00000190: 02e2 49be a670 4a3e b4ff 343e 8f58 31be
000001a0: 2013 153d c455 3cbd ccdc edbd 6c71 0d3e
000001b0: f052 053d 646b 44be c8d1 05be da92 043e
000001c0: 8422 fbbd a31c f5bd 00dd f9ba 3a1b 613e
000001d0: 4409 943d 005f 7abc d071 c63d 9e90 023e
000001e0: 726d 64be 7f36 d2bd 74fb d33d f8e2 573d
000001f0: 4052 5dbc 72ce 84bd 6228 153e b017 653d
00000200: 7c9c 20bd f8b3 31bd 47ad 0fbe f037 293d
00000210: 50e6 413d eeea 99bd 1c6f f93d d402 d33d
00000220: a8b3 a13c 2afb 00be e676 4c3e 68fc d83d
00000230: 4af9 dbbd dff4 34be feef 813d 20f0 653c
00000240: 8c06 1fbd d454 363e 8eac 393e f44a 04be
00000250: 0020 38ba 4b27 ac3d afb6 6a3e b00d 3d3e
00000260: 48a5 383d c920 1e3e 114c d9bd 106c 8bbc
00000270: 3a7e 373e 522c 07be 681d d03c c65e 093e
00000280: 6a97 47bc d844 38bd 4c64 223e f85c 423d
00000290: b85b d7bc 90f8 6f3d ddbd 94bd 108f 423c
000002a0: d0c7 223c dcde 41be 1c60 41bd a9b1 3ebe
000002b0: 9cd1 38bd 9fab bbbc 499a f33d f881 7d3d
000002c0: e4e2 18be a25c 4b3e a634 b9bd 57e2 2e3e
000002d0: 3ecc 86bd 604c fe3c 94af d9bd aa92 38be
000002e0: c093 87bb 0073 123a 44be 2fbe 3c19 b13d
000002f0: 2065 393e 2e6f 413e 38c6 3a3e 32ca 563e
00000300: 16b3 063e b8fb 983c 50df 1cbd 4c92 e53d
00000310: 20c2 673d 00b3 913b 826f cdbd e0de 04be
00000320: 83fd 36be 9ee4 053e 649d 4e3e 8038 803a
00000330: 8c02 95bd f3b5 f6bd 65cc d7bd fa62 2d3e
00000340: a4c5 0dbd a022 083d e48a 213e 6c52 c3bd
00000350: 1bf0 56be e879 a83c 42c0 8abd c0db 9b3b
00000360: 54b1 56be 3616 423e 1057 81bd 5458 c7bd
00000370: bf09 23bd 7085 7c3d fd86 04bc 3cb0 433e
00000380: 8c49 6cbd 08d0 b53c 2a0d d4bd 7098 19bd
00000390: 5e20 fdbd 5ee8 393e 92d1 c83d 40ea 5ebc
000003a0: 6094 ea3c e6c9 ff3d 870d a03b e0f5 553d
000003b0: 88e5 263e f02f df3c 4735 f6bd 1f38 863c
000003c0: e261 293e f873 983d e415 103d 708f 513c
000003d0: f792 33be 5497 4bbe d437 293e a001 c8bd
000003e0: 7dfc 57be 0999 d0bd 7137 b8bc f854 123e
000003f0: 84f3 a3bd 7242 d6bd 0788 603e 02d2 023e
-0.19570436 -0.05232665 -0.1927008 0.09010187 0.20990232 -0.22225472 0.20541057 -0.03628984
-0.03465055 -0.14123711 -0.08265844 0.07848239 -0.003198266 -0.03803295 -0.03367336 0.07562208
0.053208977 -0.10632476 -0.06568225 -0.091128364 0.06795606 -0.21713728 -0.20465307 0.092820734
-0.15287161 0.101034254 -0.09849538 -0.15808846 0.15999755 0.04574758 -0.21744865 0.1680432
0.14863604 -0.14783573 0.050147027 0.19246244 0.050737023 -0.16835591 0.17151228 -0.034345523
0.17975545 0.024501368 -0.20573874 -0.18006618 -0.12446937 -0.15190022 -0.15274534 -0.020248145
-0.05521168 0.13061509 -0.22300127 0.06416428 -0.14171866 0.054176003 -0.061710462 -0.13384172
-0.062977195 0.017505005 0.21495393 -0.09384748 -0.21259819 -0.043896183 -0.038417622 -0.05111806
-0.09779073 0.18668425 0.12578967 -0.19588822 -0.12640923 -0.22174221 -0.056627974 -0.21165891
0.1494318 -0.09561998 0.011361614 0.17692009 -0.07667361 0.050592124 0.1550079 -0.011752501
-0.21783432 -0.0959788 0.120922685 -0.067585796 -0.058757544 0.12548384 -0.10871637 0.07874873
0.07389653 0.0030572861 -0.12229022 0.05978912 0.10065392 -0.12291178 -0.08518326 -0.20227858
-0.08054283 0.19476089 -0.079935506 -0.0044546425 -0.19715121 0.19769534 0.17675668 -0.17318939
0.036395192 -0.04598023 -0.11614379 0.13812798 0.0325498 -0.19181591 -0.13068306 0.12946644
-0.12262443 -0.11968353 -0.0019063056 0.21983042 0.0722833 -0.015281439 0.09689677 0.1275048
-0.22307375 -0.102643006 0.10350695 0.05270669 -0.013508379 -0.06484689 0.14566186 0.055930793
-0.039211735 -0.043384522 -0.14030944 0.04131311 0.047338784 -0.075155124 0.121793956 0.10303274
0.019738987 -0.12595811 0.19967231 0.10595018 -0.107409075 -0.17671536 0.06344603 0.014034301
-0.038824603 0.17805797 0.1813223 -0.12919217 -0.00070238113 0.08405932 0.22921251 0.18462253
0.0450795 0.15442194 -0.10610212 -0.017019302 0.17919245 -0.132005 0.025404647 0.1341506
-0.012182096 -0.04498753 0.15858573 0.047451943 -0.026288852 0.058586657 -0.07262776 0.011874929
0.009935334 -0.1893267 -0.047210798 -0.1862246 -0.045121774 -0.022908984 0.11894662 0.061891526
-0.14930302 0.19859555 -0.09043245 0.1707853 -0.06581925 0.031042278 -0.10629192 -0.18024698
-0.004137486 0.00055865943 -0.17162424 0.08647391 0.18104982 0.18890068 0.18239677 0.20975569
0.13154253 0.018674716 -0.038298905 0.112095445 0.056581616 0.0044463873 -0.10031034 -0.12975645
-0.17870145 0.13075492 0.20177227 0.0009782463 -0.072758764 -0.12046423 -0.10537032 0.16932288
-0.034612313 0.033236146 0.15775639 -0.09537205 -0.2099003 0.020565942 -0.067749515 0.004756421
-0.20966083 0.18953785 -0.06315434 -0.09733644 -0.039804216 0.061650693 -0.008088824 0.19110197
-0.057687327 0.022193924 -0.10354073 -0.03749889 -0.12359689 0.18155047 0.09805597 -0.013605654
0.028635204 0.12489681 0.004884425 0.052236438 0.16298497 0.027244538 -0.120218806 0.016384182
0.16541246 0.07443994 0.035177127 0.012790546 -0.17536531 -0.19881946 0.16525203 -0.09765935
-0.2109241 -0.10185439 -0.022487374 0.14290226 -0.08005431 -0.10461892 0.2192689 0.12775424

bias f4 [20]
00000000: 3eea 2b3e 1888 52be 1c32 d9bd 4e97 babd
00000010: a0dd ae3d 5e25 1c3e 5137 07be 3614 2c3d
00000020: 8e44 d83d 2c0e b63d ecc8 fe3d 8aa7 c5bc
00000030: 2b43 323e 4e41 1cbe 643e b73d a099 59bc
00000040: e428 b03d 80e4 243e 17c2 e53c 8d85 af3d
0.16788575 -0.20559728 -0.10605261 -0.0911089 0.08538365 0.1524863 -0.13204695 0.042011462
0.10559951 0.08889422 0.124406666 -0.02412774 0.17408435 -0.15259287 0.08947447 -0.013281256
0.08601549 0.16102791 0.02804665 0.08570395

weight f4 [1, 20]
00000000: 56ae 0f3e 64ab 293e d881 173d d8b0 af3d
00000010: c0fb 273e 10b5 493c 20fe 5dbc 285d 52be
00000020: 04f8 1e3e de24 223e 9cfb d53d 2431 153e
00000030: 8ee9 e4bd 3448 963c 3d63 4a3e 7088 933d
00000040: 607d f03d 2d7c a7bd 4c7b 483e e00f c73d
0.14031348 0.16569287 0.036989063 0.08578652 0.16404629 0.012311235 -0.013549358 -0.20543349
0.15524298 0.15834376 0.10448381 0.14569527 -0.111773595 0.018344976 0.19764419 0.07203758
0.117426634 -0.081779815 0.19578284 0.09719825

weight f4 [20, 3]
00000000: 1614 103f 3a76 f8be 7c87 9dbe a9a1 13bf
00000010: 162e bdbe e28d 063f 5fa2 ab3e 6408 063e
00000020: eaa1 a63c a0a6 403d f8b6 94bd 00b8 afbb
00000030: 5eb6 333e cda0 003f 67b7 8f3e 411d 8abe
00000040: 18bf 3ebe 3c90 bfbd 16d4 113f 389c 0abf
00000050: ea7b 033f 2a2d 103f 6e62 b3be d0af ce3e
00000060: 501e 7a3e 4c2d e0bd 0c87 183e 2e3a 063f
00000070: 5576 743e 9b59 37be 73fc 0d3f 9a18 a03e
00000080: 9fcf 683e a0f8 66bd 6a47 17be 1879 7b3e
00000090: bc4f 2a3e 3d24 f3be d5f7 11bf 045b d4bd
000000a0: 00d4 7dbd 1674 823e a854 31bd c76c 0c3f
000000b0: 3971 84be b9f9 0ebf a788 113c 6cbd d03e
000000c0: 0c6b 213e 8816 04bf 0068 e23b 93bb 033f
000000d0: e9d4 ef3d 52ca 1f3e 5002 d83e 5918 0bbf
000000e0: aa1e c2be 3f81 0fbf cf64 ad3e 9251 51be
0.5628065 -0.485277 -0.3076743 -0.5766855 -0.36949223 0.52560246 0.33522317 0.13089138
0.020340879 0.047033906 -0.07261461 -0.0053625107 0.17550036 0.5024536 0.28069612 -0.26975444
-0.18627584 -0.093536824 0.5696424 -0.5414462 0.5136095 0.56318915 -0.35036033 0.4036851
0.24425626 -0.1094614 0.14895266 0.52432525 0.23873265 -0.17905276 0.5546333 0.3126877
0.22735451 -0.05638945 -0.14773336 0.24557912 0.16631979 -0.47488585 -0.57018787 -0.10368922
-0.061969757 0.25479192 -0.043293625 0.5485348 -0.25867632 -0.55849797 0.008882678 0.40769517
0.15763491 -0.5159688 0.0069093704 0.5145809 0.11710531 0.15604523 0.42189264 -0.54334027
-0.3791402 -0.5605659 0.33865973 -0.20441273

bias f4 [20]
00000000: 0480 683e 157d 0fbf ca18 80be 5c6e 6f3e
00000010: 5c3b fbbd eeef 09bf 9871 ddbd c46e 0d3f
00000020: 001c 23bb 2421 233e 0fda a43e e0cf 42bd
00000030: 1f45 febe 64aa 283e a4f3 dfbe d651 953d
00000040: d2e5 4cbe c7a6 bb3e 4c08 7c3e 8647 fe3e
0.22705084 -0.56050235 -0.25018913 0.23381943 -0.12267181 -0.5388173 -0.10812682 0.5524714
-0.0024888515 0.15930611 0.32197616 -0.047561526 -0.4966211 0.16471249 -0.4374057 0.072909996
-0.20009544 0.3665068 0.2461254 0.49663943

weight f4 [20, 20]
00000000: d8ef 42be 2d6c 52be 008d 71ba 534f 4ebe
00000010: b067 893c 5660 0a3e dca7 853d 869e 11be
00000020: 12f1 0f3e 3050 21be c895 3d3e 00e7 98bd
00000030: 8bae 2abe 3aba 55be 802d e7bc e0cd 10be
00000040: 30eb d3bc 9474 2abe d4df 613e 10d3 58bd
00000050: d892 31be 6ea6 44be 1c23 393e 38bd 473d
00000060: aac7 553e cee4 5e3e dbc2 5fbe 144e 0fbe
00000070: 2466 543e 5fe1 553e 35ab 48bd 0c4a 8f3d
00000080: e94a 44be 571c 08be bae1 21be e6f2 f2bd
00000090: 08e8 bf3d 9182 223e dcd1 b33d 30b7 443e
000000a0: 789c 3f3d 50ea ddbd cf4d 14be 7282 513e
000000b0: b1ea 0ebd fa90 4bbe 6e31 60be a0dd 613d
000000c0: 88df e4bc 2c9e 323e 6ebc e13d 682f 8cbd
000000d0: 2650 c5bd 0d4e 14be 35d3 72bd 616a 21be
000000e0: 46e8 203e 4bda 473e a832 93bc 68b8 33bd
000000f0: b335 10be b826 373d f8ab a13d 2be6 d9bd
00000100: b5af 38be 8418 1dbd 580d 733d b861 07be
00000110: 90d1 013e 82e6 00be 86ef a6bd 86a6 60be
00000120: 543a 993d 5ac0 423e 00b7 703d afa6 ecbd
00000130: d8dc 2fbe 9a80 0d3e 00f1 ae3d 6882 3bbe
00000140: be49 3bbe d39b d5bd 8075 5bbe 0099 d6bc
00000150: bed8 9ebd 8c57 d43d a0b9 1a3d e00d 41be
00000160: 9cf7 373e e2c7 123e 0733 04be fc3f 29bd
00000170: cc92 043e 2a60 43be 4054 613d aad9 353e
00000180: fc8a 04bd f7ff 51be 18fa 313e 06dc e9bd
00000190: 5a35 52be f0e6 b03d 2ac5 373e 8668 1f3e
000001a0: db51 48be 0061 db3a 887a 283e e0cd 83bb
000001b0: 3c69 1cbe 5404 1a3e a8f7 323e 165c 343e
000001c0: 880e 1e3d 64a7 433e 424e f63d 9cd8 10be
000001d0: c876 323d 0edd 62be 90f1 573d d86d a9bd
000001e0: d09d 1a3d 08c4 c23d a89f ab3c a4d0 563e
000001f0: dc36 f33d d8cc acbd dac0 623e 3863 323e
00000200: 803e 513e 2c00 17be b8f1 073e cc2d ba3d
00000210: 20be 853d 381b 373e d01d 30be 30ce 96bd
00000220: 7c51 353e f872 3abd ef36 0bbe 3ccb 1abd
00000230: 3c6c 263e f016 233e b41c 4abe a25f 0a3e
00000240: 244a 48be a06f d83c d889 a9bc f03c 583d
00000250: 5c2c c63d b95c dcbd d026 313e c533 23be
00000260: dc74 9dbd 9875 183e 2060 debc 7629 38be
00000270: 1079 6cbc 2e5f 093e e686 203e 486c 213d
00000280: 024b afbd 06a1 a7bd f875 e7bc 1446 00be
00000290: c8d7 90bd 5cd5 58be 6e4e 99bd 4013 43be
000002a0: 00b6 373b 80b5 403d c00d 423d c069 fdbb
000002b0: 16a1 d8bd b8e3 dc3d 2e70 0fbe 5c6e 9ebd
000002c0: 005c 5bbd b6a7 ffbd 9032 fbbd bcb0 1c3e
000002d0: 58cb 363e 4f82 31be 8841 e6bc 5cd4 d8bd
000002e0: a093 ad3d e491 29be 66bd 4e3e 70be 5e3e
000002f0: 28e6 453e 3c13 59be d818 e93d 285a eabc
00000300: e008 ce3d ee5b 2bbe 2c30 1cbe d855 10bd
00000310: 8093 f13a 0a02 98bd 60a7 47bc f85c 3c3e
00000320: 645f 2dbe 967d 5cbe d4e4 5a3e ac9f 13bd
00000330: 88dc 5ebe 98c1 343d c03e 0abd 70a9 013d
00000340: 890e 19be da11 01be 62c5 0a3e a471 59be
00000350: 1056 5f3d 4a6a 0f3e a03e eb3c 2042 853b
00000360: 3683 4a3e b805 89bd 1cb4 fd3d 7973 2cbe
00000370: 44ce 28be 38f0 0e3e ece3 e8bd 781b babd
00000380: b941 453d 201d 353e 1485 e43d e81b 213e
00000390: a0fb 90bd 9c81 1f3e dc3f 83bc 40cd f0bc
000003a0: 80e7 713d 59e5 ccbd f934 493e 864f 223e
000003b0: 981a 283e 77db 5a3e 40c8 65bc ad55 0cbd
000003c0: a058 c63d ac61 1c3e 1c8c c63d 7809 d03d
000003d0: ea1a 273e 6a16 613e 26be 90bd 8639 593e
000003e0: 46e8 22be dc99 d8bd 805d 833a e873 90bd
000003f0: c4ec 35be 2f08 2cbe 6e37 4dbe 6869 253e
-0.19036806 -0.20549078 -0.0009214431 -0.20147447 0.016773075 0.13513312 0.06526157 -0.14220628
0.14056805 -0.15753245 0.18514168 -0.07465935 -0.16668145 -0.20871821 -0.028219938 -0.14141035
-0.025868982 -0.16646034 0.2205804 -0.05293566 -0.17341173 -0.19204113 0.180798 0.048764437
0.20876947 0.2176697 -0.21851675 -0.13994628 0.20742089 0.20886753 -0.0489914 0.06996545
-0.19169201 -0.13292061 -0.15808764 -0.118627355 0.09370428 0.1587012 0.08780262 0.19210505
0.04678008 -0.10835707 -0.14482807 0.20459917 -0.034891788 -0.19879523 -0.21893856 0.055143
-0.02793862 0.1744315 0.11022268 -0.068449795 -0.09634428 -0.14482899 -0.059283454 -0.15763237
0.15713605 0.19516866 -0.01796849 -0.043877035 -0.14082985 0.04471466 0.078941286 -0.10639604
-0.18035777 -0.038353458 0.059338897 -0.1322087 0.12677598 -0.12587932 -0.08151154 -0.21938524
0.07481828 0.19018689 0.058768272 -0.1155523 -0.17174089 0.13818589 0.08542061 -0.18311465
-0.18289849 -0.10430112 -0.21431541 -0.026196003 -0.07756184 0.10368261 0.037774682 -0.18852949
0.17965549 0.14334062 -0.1291009 -0.041320786 0.12946624 -0.19079652 0.055011988 0.17758814
-0.03235911 -0.20507799 0.1738056 -0.11418919 -0.20528165 0.08637798 0.17946306 0.15567216
-0.19562475 0.0016737282 0.16452992 -0.004022345 -0.15274519 0.15040714 0.17477286 0.17613253
0.038588077 0.19106823 0.12026645 -0.1414513 0.04357031 -0.22154638 0.052720606 -0.08272904
0.037748158 0.09510046 0.020950153 0.20978028 0.11875698 -0.08437508 0.2214388 0.17420661
0.20433998 -0.1474616 0.13275802 0.09090766 0.06530404 0.17881477 -0.17198873 -0.07363546
0.17706865 -0.0455198 -0.13595174 -0.037791476 0.16252226 0.15926719 -0.19737512 0.13513044
-0.19559532 0.026420414 -0.020695612 0.05279249 0.0967643 -0.10759873 0.17299962 -0.15937717
-0.07688305 0.14888608 -0.027145445 -0.17984566 -0.01443316 0.13415214 0.1567646 0.039409906
-0.085592285 -0.0818501 -0.028254494 -0.12526733 -0.07072407 -0.2117514 -0.074856624 -0.19050312
0.0028032064 0.047048092 0.047376394 -0.0077335536 -0.105776 0.107856214 -0.14007637 -0.07735893
-0.053554535 -0.1248316 -0.122655034 0.15301794 0.17851007 -0.17334865 -0.02810742 -0.10587379
0.08475423 -0.16559559 0.20189437 0.21752334 0.19326079 -0.21198744 0.11381692 -0.028607443
0.100602865 -0.16734287 -0.15252751 -0.035238117 0.0018430799 -0.07422264 -0.012185901 0.1839484
-0.1693092 -0.21532282 0.21376354 -0.036040947 -0.21763813 0.044129938 -0.03375125 0.03165573
-0.14946951 -0.12604466 0.13551858 -0.21234757 0.054525435 0.1400539 0.028716385 0.0040667206
0.19776616 -0.06690544 0.12387869 -0.16840924 -0.16484934 0.13958824 -0.11371598 -0.090872705
0.04815838 0.17686892 0.11158195 0.15733302 -0.07079244 0.15576786 -0.016021661 -0.029394746
0.059058666 -0.10004682 0.19649114 0.15850648 0.16416395 0.21372782 -0.014024794 -0.034261394
0.096848726 0.15271634 0.096946925 0.10158056 0.1631886 0.21981207 -0.07067518 0.2121335
-0.15908918 -0.10576221 0.0010022372 -0.07053357 -0.177661 -0.16799997 -0.20040676 0.1615349

bias f4 [20]
00000000: 5af5 593e 070f 6bbd 7aa0 00be 4021 603e
00000010: b072 a93d 9d23 053e 2a74 3f3e b449 0abe
00000020: a891 2a3e 3450 87bd e041 233e 00e6 fc3d
00000030: b843 36bd 8e88 303d bbc4 2ebe bef4 283e
00000040: aa9c 03be b23c 4ebe 593f 5fbd 9a1b b1bd
0.21285 -0.057387378 -0.12561217 0.21887684 0.08273828 0.13001867 0.18696657 -0.13504678
0.16657126 -0.066070944 0.15943098 0.123485565 -0.044498175 0.04309898 -0.17067234 0.16499612
-0.12852731 -0.20140341 -0.054503772 -0.08647843

weight f4 [1, 20]
00000000: 4026 c33b 50b0 ce3d 6cb9 693d c468 873d
00000010: 2cd8 83bd 55ad c93d 7c87 9a3d 048b 8bbd
00000020: ce54 343e de6a 1bbe 555b debd e27c 17be
00000030: 747b cbbd c8af 113d 9513 32bd c40c 71bd
00000040: 0057 c8bd c57b 1ebe ff0b 6b3d bcce 043e
0.0059554875 0.10092223 0.057061598 0.06611779 -0.06437716 0.098475136 0.07545373 -0.068136245
0.17610475 -0.15177485 -0.10857264 -0.14793733 -0.09935656 0.03556803 -0.043475706 -0.058850065
-0.09782219 -0.15476902 0.057384487 0.12969488

weight f4 [20, 3]
00000000: b425 e6be af3e f7be 8ce2 cd3e 524a 943e
00000010: d4fb ed3e bf73 123f 1ad6 9e3e 0e13 02bf
00000020: 58a3 e4be 1464 d1be 9ea6 02bf aee0 8ebe
00000030: 1e96 88be 3285 fb3e 55b1 cbbe 3baf 8cbe
00000040: b1fa 123f 742b e2bd e1cf 89be acc7 01be
00000050: 08cb cdbe f4aa 25be 8a48 133f 4722 423e
00000060: 9454 ea3d eec5 8c3e df80 9f3e ceb1 d03d
00000070: 63a9 123e 433d b73e c571 e9be 2821 91be
00000080: 103f 02bd 2ab8 c93e 5d7c c73e f2c9 61be
00000090: c65a dbbe cc2d f93e 0390 c1be 4014 76bd
000000a0: ac2f 32be 74c3 e63e eedb aebe e682 12bf
000000b0: c49e ccbe b0a1 f6bd 3050 94be a4d4 f23e
000000c0: 1cb2 b33d a55f a63e 3f40 0fbf b367 8abe
000000d0: 61de 1d3e 28df 7ebe 8fef 09bf 5cdc 593e
000000e0: f029 ecbe 7176 383e b09c ae3e daf8 2ebe
-0.4495064 -0.4829001 0.40211904 0.28962952 0.46481192 0.57207865 0.31022722 -0.50810325
-0.4465587 -0.40896666 -0.5103549 -0.27905792 -0.2667703 0.49125057 -0.3978373 -0.2747744
0.57413775 -0.11043444 -0.26916412 -0.12673825 -0.40193963 -0.16178495 0.5753256 0.18958388
0.11441913 0.27494758 0.31153008 0.101901636 0.14322428 0.35788926 -0.45594612 -0.2834561
-0.031798422 0.3939832 0.3896207 -0.22049692 -0.42842692 0.48667753 -0.37805185 -0.060077906
-0.17400998 0.45070994 -0.34152168 -0.57230985 -0.3996488 -0.12042558 -0.28967428 0.47427857
0.08774206 0.32494846 -0.55957407 -0.2703224 0.15416862 -0.24889815 -0.5388116 0.21275467
-0.46125746 0.18013932 0.34103918 -0.17087117

bias f4 [20]
00000000: 216d 0cbf de54 e6be d7ce 93be 4c6a 2b3e
00000010: 30f3 d93e a216 053f cf54 06bf 3414 d23e
00000020: e601 433e 06b5 21be 10b4 543d 9135 0d3f
00000030: 6e3f 923e e0f5 3a3d d7f3 a6be d4d7 04bf
00000040: 4f7b 57be fa13 a8be 7168 b93e a3c3 32bd
-0.5485402 -0.44986624 -0.28868744 0.16739768 0.4256835 0.5198766 -0.5247316 0.4103104
0.19043693 -0.15791711 0.051929533 0.5515986 0.28564018 0.04564464 -0.3260791 -0.5189183
-0.21043132 -0.3282774 0.36212495 -0.043643605

weight f4 [20, 20]
00000000: c842 4e3d 2177 39be 5867 023d 943a 303e
00000010: dbb6 cebd e0b9 1c3d 677b debd 504d d63c
00000020: 980f 33bd b095 01be 0336 58be 1ef1 383e
00000030: f658 263e 62c4 3cbe bc27 50be 80d3 5e3e
00000040: 722a 92bd 2cf7 1abe 54a2 603e aa75 0fbe
00000050: f81c 173e e95f 923d 1e68 89bd d775 11be
00000060: 48fe f6bc 54cb 0e3c 1896 203d 1843 aebd
00000070: c80b 0bbe 875a 603e 14a9 d83d 5fe0 133e
00000080: 6164 3cbd 5038 64bd 6aa7 4bbe 406f b9bb
00000090: 449e 9bbd a828 803d a578 fcbd d889 593e
000000a0: 0003 24bb 8ba1 35bd 8891 283e c0b8 87bd
000000b0: 0eac 353e 58a4 21bd 663d 0e3e 3ffb 073d
000000c0: 372c a03d 6f39 fe3d 7485 193e 8fb1 ed3d
000000d0: 718c 5fbd c4be 063e 14a2 20bd a6b3 0b3e
000000e0: a0c8 ed3d df6b 0f3e 90d8 6f3d 7294 273b
000000f0: 8a03 033e c087 1abe 85ab 30be a339 57be
00000100: f0ea 0e3e a4b2 79bd 602d 6dbd ec48 ba3d
00000110: d0b9 7c3d 07f1 f1bd a8cc 62bd 243e 27be
00000120: c884 56be bc09 f53d 60b0 d13b 584d 4b3e
00000130: 0487 ac3d a8d8 183e 80a8 a8bb e4e8 883d
00000140: 961a d1bd 7863 13be ca64 043e 40cd 9fbc
00000150: 363e 173e be0b 373e 5eb1 37be a802 05be
00000160: d10a 4c3e 85c8 4dbd 50ee 573c c5b6 98bd
00000170: 1b1c 483e 2eed 3abe 60f0 41be 3667 40be
00000180: 81b4 4c3d 2829 bbbd 08cd 78bc 6648 15be
00000190: 6040 7d3d 3a27 423e d523 f3bd 1096 993c
000001a0: 18f9 adbc f091 d5bc 3c52 5cbe 86a2 34be
000001b0: a4a0 7abd 582c e13d 701b 2b3c c0ab 4ebe
000001c0: 9e7c 543e 18ca bcbd 37dc 3ebe c09f 5c3c
000001d0: 191d fdbd a071 4b3e 3c18 b2bd d0b0 d23c
000001e0: 6759 2cbe b31b 5abe 4026 1fbd 9e34 4d3e
000001f0: baef 273e 405e c33c b055 673d 7093 723d
00000200: 008d ef3b f8b2 77bd 5296 b6bd 4a28 27be
00000210: 405e 1cbe 30b0 513d 4f48 f5bd 80b3 8d3a
00000220: 2074 8f3c a8bd 533d 3887 16be aed1 3b3e
00000230: a42a 273e 5243 5d3e 7eae 08be 207e eabd
00000240: 3233 353e 4f52 4e3d 20f7 60be 24ff bb3c
00000250: 5a7a 3f3d cbce a6bc ea44 84bd 4fcc 52be
00000260: 6b16 63be b07c 043e 1eef cebd c2b6 223e
00000270: 3111 223e 7740 edbd b141 45be 5d6c 203e
00000280: d466 99bd ecb8 2fbe 900a 433d b082 13be
00000290: 7bb0 49be 05c8 13bd d0a2 eb3d 4ddc bf3d
000002a0: 22f6 3d3e 5908 9e3c 980c 693d 506b 42bb
000002b0: 32e5 063e 0e22 013e e0ac bc3b 6b63 1fbe
000002c0: cea2 0b3e 299b 2abc 5e43 ef3c 1140 c03d
000002d0: acb6 443e a3e2 e33d 9030 a8bc c474 af3d
000002e0: 76dc d73d a799 d93c 8026 d0bc 31f2 01bd
000002f0: f1a5 293c 8dd0 d33d 0068 b73d 6346 1bbe
00000300: 9bf5 423e 601d de3b a060 77bd 70bc aa3d
00000310: f8c7 a73d 04ab b03d dd52 00be 1ec6 163e
00000320: e868 de3d 0f72 5c3e f7f9 debd 808e b53b
00000330: 166b e4bd fd23 393e 7605 55be f29b 48be
00000340: 3dbd 0e3e d701 1ebe ea7b 8fbd f3d0 08be
00000350: d11e 35be 005f ca3b 6825 103e e676 62be
00000360: cdb0 143d 0b75 3d3e 4b66 503e a618 243e
00000370: 989a 4e3d bc49 3d3e 7891 a03c 2cd8 df3d
00000380: ba7b f5bd 0eb1 21be bfc7 2abe 4ca9 433e
00000390: 2a9a 093e 78c1 0d3e 60a7 773d 4bb3 03bc
000003a0: 04e0 62be fd62 43be 58ab 5a3e 54bf f13d
000003b0: 3277 493e 64a9 d3bd 6294 d9bd c6b1 55bb
000003c0: 4e3b 3e3e fe25 3dbd ced3 ffbd e8d7 dabc
000003d0: 6227 623e be0d 53be 8ed7 453e 4b5c 6d3d
000003e0: 8279 9a3d 3a69 493d 3472 083e c95f 5dbe
000003f0: 4771 263e 104d 10bc e8e6 8abc 08ab a6bc
0.050356656 -0.1811185 0.031836838 0.17209846 -0.10093471 0.0382632 -0.10863381 0.026159912
-0.043716043 -0.12654757 -0.21114354 0.18060729 0.16244873 -0.18434289 -0.20327657 0.21760368
-0.07137002 -0.15133351 0.21936923 -0.14009729 0.14757144 0.071472 -0.06709312 -0.14205109
-0.030150548 0.008715469 0.03920564 -0.08508891 -0.13578713 0.21909533 0.10579124 0.1444106
-0.045994166 -0.055717766 -0.19888082 -0.005659014 -0.07598546 0.062577546 -0.123276986 0.2124399
-0.0025026202 -0.044343513 0.16461766 -0.06627035 0.17741415 -0.03946337 0.13890609 0.03319859
0.07820933 0.12413298 0.14992315 0.11606132 -0.054577295 0.13158709 -0.03921707 0.13642749
0.11610532 0.14005993 0.05855614 0.0025570658 0.12794319 -0.15090847 -0.1725293 -0.2101808
0.13956809 -0.06096138 -0.0579046 0.0909594 0.061700642 -0.118135504 -0.055370957 -0.16332299
-0.2094909 0.11964747 0.0063991994 0.19853723 0.0842419 0.14926398 -0.00514704 0.06685045
-0.10210149 -0.14393413 0.12929073 -0.01950705 0.14769825 0.17875573 -0.17938754 -0.12989295
0.19926001 -0.05024006 0.013179377 -0.074567355 0.19541971 -0.1825454 -0.18939352 -0.18789372
0.04997683 -0.09138709 -0.015185602 -0.14578399 0.06182897 0.18960276 -0.11872069 0.018748313
-0.021236941 -0.026070565 -0.21515745 -0.17640123 -0.061188355 0.10994786 0.010443553 -0.20182705
0.20750663 -0.09218234 -0.18638693 0.013465822 -0.123590656 0.19867563 -0.086960286 0.025719076
-0.1683098 -0.21299629 -0.038854837 0.20039603 0.16400042 0.023848653 0.056478202 0.05922264
0.0073105097 -0.060473412 -0.0891539 -0.16323963 -0.15270329 0.051193416 -0.119766824 0.0010810941
0.017511427 0.051694542 -0.1470002 0.18341705 0.1632486 0.21607712 -0.13347813 -0.11449838
0.1769531 0.050371464 -0.2196927 0.022948809 0.046747543 -0.020362278 -0.06458457 -0.2058575
-0.2217652 0.1293819 -0.10104202 0.15890029 0.1582687 -0.11584561 -0.1926334 0.15666337
-0.07490316 -0.17160386 0.047617495 -0.14405322 -0.19696228 -0.036079425 0.115056634 0.09368191
0.18550923 0.01929109 0.056896776 -0.0029666014 0.13173369 0.12610647 0.005757913 -0.15565269
0.13636324 -0.01041297 0.029206928 0.0938722 0.19210309 0.11127212 -0.020530969 0.08567193
0.105400965 0.026562525 -0.025408983 -0.031725112 0.010354505 0.10342512 0.08955383 -0.15163569
0.19039004 0.006778404 -0.060394883 0.08336723 0.08192438 0.08626369 -0.1253161 0.14724013
0.10859853 0.21527885 -0.10887521 0.005540669 -0.111532375 0.18080135 -0.20802864 -0.19590738
0.13939376 -0.1543039 -0.070060566 -0.13360958 -0.17687537 0.0061758757 0.1407677 -0.22115669
0.036301423 0.1850168 0.20351522 0.16025028 0.0504404 0.18485159 0.019600615 0.109299034
-0.119864896 -0.15790197 -0.1667776 0.1910755 0.13437715 0.13843334 0.060462356 -0.008038352
-0.22155768 -0.1908073 0.21354425 0.11804071 0.19674376 -0.10335043 -0.10624005 -0.0032607182
0.1857731 -0.04617881 -0.124915704 -0.02671428 0.22085336 -0.20610711 0.19320509 0.057949346
0.07542707 0.049172617 0.13324815 -0.2161857 0.1625415 -0.008807436 -0.016955808 -0.020345226

bias f4 [20]
00000000: 3072 25be dccd 4b3e 0169 85bd 4405 dbbd
00000010: bb79 6d3d 0082 cebb 9808 133d 9c16 34be
00000020: b097 46be 0b6c 2ebe aebb 24be 17af c4bc
00000030: f97f 523e b1b0 bd3d f486 993d 56ad 17be
00000040: 4a85 603e 7ca5 2dbd 1295 5bbe 5c1c 453e
-0.1615684 0.19902748 -0.065141685 -0.10694364 0.05797742 -0.0063021183 0.035896868 -0.1758675
-0.19393802 -0.17033403 -0.16087219 -0.02400927 0.2055663 0.09262217 0.074964434 -0.14812216
0.21925846 -0.042394146 -0.21443585 0.192491

weight f4 [1, 20]
00000000: b6c6 143e 7a74 53be dc99 4cbe 569a 613e
00000010: bbc5 c8bd c0ee bcbc 8480 5b3e b00f 213e
00000020: e6aa 38be af5d d93d 6ce5 bfbd bba3 5ebe
00000030: 9b68 11bd d3a2 fb3c 0452 c43d 6e46 5b3e
00000040: 0587 153e 6489 d5bd 5968 b13c d4b6 5ebe
0.14528927 -0.20649901 -0.19980568 0.2203153 -0.09803339 -0.023063064 0.21435744 0.1572864
-0.18033943 0.10613572 -0.093699306 -0.21742146 -0.03550015 0.03071729 0.09585956 0.21413586
0.14602287 -0.10426596 0.021656202 -0.21749431

timegrid f4 [361]
00000000: 0000 0000 610b 363b 610b b63b 8988 083c
00000010: 610b 363c 398e 633c 8988 883c f549 9f3c
00000020: 610b b63c cdcc cc3c 398e e33c a64f fa3c
00000030: 8988 083d 3fe9 133d f549 1f3d abaa 2a3d
00000040: 610b 363d 176c 413d cdcc 4c3d 832d 583d
00000050: 398e 633d efee 6e3d a64f 7a3d 2ed8 823d
00000060: 8988 883d e438 8e3d 3fe9 933d 9a99 993d
00000070: f549 9f3d 50fa a43d abaa aa3d 065b b03d
00000080: 610b b63d bcbb bb3d 176c c13d 721c c73d
00000090: cdcc cc3d 287d d23d 832d d83d dedd dd3d
000000a0: 398e e33d 943e e93d efee ee3d 4a9f f43d
000000b0: a54f fa3d 0000 003e 2ed8 023e 5bb0 053e
000000c0: 8988 083e b760 0b3e e438 0e3e 1211 113e
000000d0: 3fe9 133e 6dc1 163e 9a99 193e c871 1c3e
000000e0: f549 1f3e 2322 223e 50fa 243e 7ed2 273e
000000f0: abaa 2a3e d982 2d3e 065b 303e 3433 333e
00000100: 610b 363e 8fe3 383e bcbb 3b3e ea93 3e3e
00000110: 176c 413e 4544 443e 721c 473e a0f4 493e
00000120: cdcc 4c3e fba4 4f3e 287d 523e 5655 553e
00000130: 832d 583e b105 5b3e dedd 5d3e 0cb6 603e
00000140: 398e 633e 6766 663e 943e 693e c216 6c3e
00000150: efee 6e3e 1dc7 713e 4a9f 743e 7877 773e
00000160: a54f 7a3e d327 7d3e 0000 803e 176c 813e
00000170: 2ed8 823e 4444 843e 5bb0 853e 721c 873e
00000180: 8988 883e a0f4 893e b760 8b3e cdcc 8c3e
00000190: e438 8e3e fba4 8f3e 1211 913e 287d 923e
000001a0: 3fe9 933e 5655 953e 6dc1 963e 832d 983e
000001b0: 9a99 993e b105 9b3e c871 9c3e dedd 9d3e
000001c0: f549 9f3e 0cb6 a03e 2322 a23e 398e a33e
000001d0: 50fa a43e 6766 a63e 7ed2 a73e 943e a93e
000001e0: abaa aa3e c216 ac3e d982 ad3e efee ae3e
000001f0: 065b b03e 1dc7 b13e 3433 b33e 4a9f b43e
00000200: 610b b63e 7877 b73e 8fe3 b83e a54f ba3e
00000210: bcbb bb3e d327 bd3e ea93 be3e 0000 c03e
00000220: 176c c13e 2ed8 c23e 4544 c43e 5bb0 c53e
00000230: 721c c73e 8988 c83e a0f4 c93e b660 cb3e
00000240: cdcc cc3e e438 ce3e fba4 cf3e 1111 d13e
00000250: 287d d23e 3fe9 d33e 5655 d53e 6cc1 d63e
00000260: 832d d83e 9a99 d93e b105 db3e c771 dc3e
00000270: dedd dd3e f549 df3e 0cb6 e03e 2222 e23e
00000280: 398e e33e 50fa e43e 6766 e63e 7dd2 e73e
00000290: 943e e93e abaa ea3e c216 ec3e d882 ed3e
000002a0: efee ee3e 065b f03e 1dc7 f13e 3333 f33e
000002b0: 4a9f f43e 610b f63e 7877 f73e 8ee3 f83e
000002c0: a54f fa3e bcbb fb3e d327 fd3e e993 fe3e
000002d0: 0000 003f 0bb6 003f 176c 013f 2222 023f
000002e0: 2ed8 023f 398e 033f 4544 043f 50fa 043f
000002f0: 5cb0 053f 6766 063f 721c 073f 7ed2 073f
00000300: 8888 083f 933e 093f 9ff4 093f aaaa 0a3f
00000310: b660 0b3f c116 0c3f cccc 0c3f d882 0d3f
00000320: e438 0e3f efee 0e3f fba4 0f3f 065b 103f
00000330: 1211 113f 1dc7 113f 287d 123f 3433 133f
00000340: 3ee9 133f 499f 143f 5555 153f 600b 163f
00000350: 6cc1 163f 7777 173f 822d 183f 8ee3 183f
00000360: 9a99 193f a54f 1a3f b105 1b3f bcbb 1b3f
00000370: c871 1c3f d327 1d3f dedd 1d3f ea93 1e3f
00000380: f449 1f3f ffff 1f3f 0bb6 203f 166c 213f
00000390: 2222 223f 2dd8 223f 388e 233f 4444 243f
000003a0: 50fa 243f 5bb0 253f 6766 263f 721c 273f
000003b0: 7ed2 273f 8988 283f 943e 293f a0f4 293f
000003c0: aaaa 2a3f b560 2b3f c116 2c3f cccc 2c3f
000003d0: d882 2d3f e338 2e3f eeee 2e3f faa4 2f3f
000003e0: 065b 303f 1111 313f 1dc7 313f 287d 323f
000003f0: 3433 333f 3fe9 333f 4a9f 343f 5655 353f
0.0 0.0027777778 0.0055555557 0.008333334 0.011111111 0.013888889 0.016666668 0.019444445
0.022222223 0.025 0.027777778 0.030555557 0.033333335 0.036111113 0.03888889 0.041666668
0.044444446 0.047222223 0.05 0.05277778 0.055555556 0.058333334 0.061111115 0.06388889
0.06666667 0.06944445 0.072222225 0.075 0.07777778 0.08055556 0.083333336 0.08611111
0.08888889 0.09166667 0.094444446 0.097222224 0.1 0.10277778 0.10555556 0.108333334
0.11111111 0.11388889 0.11666667 0.119444445 0.12222222 0.125 0.12777779 0.13055556
0.13333334 0.13611113 0.1388889 0.14166668 0.14444445 0.14722224 0.15 0.15277779
0.15555556 0.15833335 0.16111112 0.1638889 0.16666667 0.16944446 0.17222223 0.17500001
0.17777778 0.18055557 0.18333334 0.18611112 0.18888889 0.19166668 0.19444445 0.19722223
0.2 0.20277779 0.20555556 0.20833334 0.21111111 0.2138889 0.21666667 0.21944445
0.22222222 0.22500001 0.22777778 0.23055556 0.23333333 0.23611112 0.23888889 0.24166667
0.24444444 0.24722223 0.25 0.25277779 0.25555557 0.25833333 0.2611111 0.2638889
0.26666668 0.26944447 0.27222225 0.275 0.2777778 0.28055558 0.28333336 0.28611112
0.2888889 0.2916667 0.29444447 0.29722223 0.3 0.3027778 0.30555558 0.30833334
0.31111112 0.3138889 0.3166667 0.31944445 0.32222223 0.32500002 0.3277778 0.33055556
0.33333334 0.33611113 0.3388889 0.34166667 0.34444445 0.34722224 0.35000002 0.35277778
0.35555556 0.35833335 0.36111113 0.3638889 0.36666667 0.36944446 0.37222224 0.375
0.37777779 0.38055557 0.38333336 0.3861111 0.3888889 0.39166668 0.39444447 0.39722222
0.4 0.4027778 0.40555558 0.40833333 0.41111112 0.4138889 0.4166667 0.41944444
0.42222223 0.425 0.4277778 0.43055555 0.43333334 0.43611112 0.4388889 0.44166666
0.44444445 0.44722223 0.45000002 0.45277777 0.45555556 0.45833334 0.46111113 0.46388888
0.46666667 0.46944445 0.47222224 0.475 0.47777778 0.48055556 0.48333335 0.4861111
0.4888889 0.49166667 0.49444446 0.49722221 0.5 0.50277776 0.50555557 0.5083333
0.51111114 0.5138889 0.5166667 0.51944447 0.5222223 0.52500004 0.5277778 0.5305556
0.5333333 0.53611106 0.5388889 0.5416666 0.54444444 0.5472222 0.54999995 0.55277777
0.5555556 0.55833334 0.56111115 0.5638889 0.5666667 0.5694445 0.57222223 0.57500005
0.57777774 0.5805555 0.5833333 0.58611107 0.5888889 0.59166664 0.5944444 0.5972222
0.6 0.6027778 0.6055556 0.60833335 0.61111116 0.6138889 0.6166667 0.6194445
0.6222222 0.62499994 0.62777776 0.6305555 0.6333333 0.6361111 0.63888884 0.64166665
0.64444447 0.6472222 0.65000004 0.6527778 0.6555556 0.65833336 0.6611111 0.66388893
0.6666666 0.6694444 0.6722222 0.67499995 0.67777777 0.6805555 0.6833333 0.6861111
0.6888889 0.69166666 0.6944445 0.69722223 0.70000005 0.7027778 0.70555556 0.7083334
