result_model/ex1_nsde.pth (torch, 23313 bytes, 21 tensors)

weight f4 [20, 3]
00000000: 06d4 cfbe 4873 233e 58b9 c5bd a8d3 f13e
00000010: c8fa 7a3e 40df c2bd be8e 13bf 66a5 6dbe
00000020: 384b 233e 636b 10bf 4822 1ebe a4cb d03e
00000030: 6c70 c03e e0ee 6f3e a859 b63d 001c 973e
00000040: 50ff 683d b375 98be b3b7 e6be 30f5 d5bd
00000050: b88c 58be 906c 98bd 3cd0 103e 1957 09bf
00000060: aeab bb3e 0e19 74be 8095 11bf 94f6 dfbe
00000070: 7728 84be eced c1be 9734 95be cc3b 033f
00000080: 3adc 02be 9a79 46be 7449 11bf 3a16 bfbe
00000090: d41f f83e 6ab1 813e c0ef f0bc c382 81be
000000a0: ec81 193e 4cc4 c2bd e834 9c3e fe64 a13e
000000b0: 9a62 bbbe 73f1 89be e035 0dbf 7e51 0fbf
000000c0: fa12 bc3e e00f 8fbc ac84 1f3e c317 a6be
000000d0: 18ce bd3e b297 9fbe bee6 febe 0ea9 8f3e
000000e0: 0ecd 37be ea6e efbe 2413 893e b4f3 373e
-0.4059145 0.15961945 -0.09654492 0.47231793 0.24509728 -0.09515238 -0.5763968 -0.23207626
0.15946662 -0.5641386 -0.15442765 0.40780365 0.3758577 0.23430967 0.08903819 0.2951355
0.05688411 -0.29777297 -0.45062026 -0.104471564 -0.2114743 -0.07442582 0.14141935 -0.53648525
0.3665442 -0.23837683 -0.56868744 -0.43742812 -0.25812122 -0.37876832 -0.29141685 0.5126312
-0.12779322 -0.19382325 -0.56752706 -0.37321645 0.48461783 0.2533067 -0.029411197 -0.25295076
0.14990968 -0.09510097 0.30509114 0.31522363 -0.36598665 -0.26942024 -0.5516033 -0.5598372
0.36733228 -0.017463624 0.15577954 -0.32440004 0.370713 -0.31170422 -0.49785417 0.28058666
-0.17949316 -0.46764308 0.26772416 0.17964059

bias f4 [20]
00000000: 95cd cabe 00e1 e6bd 6689 073f b4e4 df3e
00000010: e0d4 403d 707c 70bd 5c84 093e f068 a53d
00000020: a248 86be 0cd1 9c3e a8d5 f1be d83f ccbe
00000030: a078 ee3c 5476 e1be 5c4f 5abe 8c95 483e
00000040: ac46 f9bd ee57 8a3e ec2a 053f e4c3 393e
-0.39609972 -0.11273384 0.5294403 0.43729174 0.047078013 -0.058712423 0.13429397 0.08076656
-0.2622729 0.3062824 -0.4723332 -0.3989246 0.029110253 -0.4403559 -0.21319336 0.19588298
-0.12171683 0.2702021 0.5201862 0.18141133

weight f4 [20, 20]
00000000: 6095 3abe e846 4d3e 0ced 45bd 25a8 5ebe
00000010: 5ef2 e8bd 4c4f cebd 8608 0cbe e032 443d
00000020: 2c01 323e 18f1 113e e0c2 fb3b 5015 903d
00000030: 80c3 293d 6298 80bd aceb 32be d2ab 34be
00000040: 76c9 13be a2c5 003e 8079 4abb 188b 843c
00000050: ef41 1fbe 48da 073e 28f7 cdbc 5031 cf3d
00000060: 2049 a63b f004 e53d 428f c4bd 4cb8 64be
00000070: d732 3abe 8422 a83d 547f 2fbe e66a 88bd
00000080: 0638 513e 4b7d 5fbe 30b3 933d fcfa 4e3e
00000090: aaa0 0d3e d067 efbc f2a5 14be a48f 2c3e
000000a0: a8d3 563e c461 1b3e 74d7 1ebe b8b5 0f3e
000000b0: d486 c73d 04d5 e13d 10aa 40bd 06b3 c7bd
000000c0: 2d9f 0bbe 4c83 c43d 7e42 87bd 7378 dbbd
000000d0: 2088 053d 21f6 12be 4800 1f3d c594 28be
000000e0: 913d 2fbe 246f 69bd b000 563e ceb9 cebd
000000f0: ffb3 ffbd 1877 28bd 563f 1cbe 7542 2ebe
00000100: a018 853d 1f92 3cbe 0e13 5d3e 60c4 3a3e
00000110: d893 bfbc e81d 4e3d b6b8 afbd b435 0b3e
00000120: 75c6 e1bd 958f 37be cac3 533e b44f b1bd
00000130: 74be 393e c0eb 323e 00e6 9b3d 9415 29bd
00000140: 0014 51b9 0056 46bb fcab 243e db54 ccbd
00000150: d4fd 0f3e b401 2b3e e89e 4abd 5e21 d3bd
00000160: c43a ab3d cd72 cbbd 7470 09bd 90ab da3d
00000170: c0a6 47bd a1ac 4dbe 70b9 60be d896 cabc
00000180: 1596 5dbe 00ca cfbc acbd 4d3e ca19 d0bd
00000190: 00f9 c6bb 9242 ffbd ecdf adbd b8fe 93bc
000001a0: 2043 cebc 4674 183e 6eb7 373e 6021 91bd
000001b0: 1813 7c3d 1077 0e3e 0ef9 2cbe d620 5b3e
000001c0: 545e 54bd d007 4f3c 9ce4 1a3e 5adf 3cbe
000001d0: 9cff 0f3e 00c8 343c 88c8 ad3d f40e bdbd
000001e0: 5a88 94bd f813 5cbd a886 613e 008f e43c
000001f0: 48ad 4fbd 48b0 54bd 98fe 7abd cad3 4f3e
00000200: 2ea9 62be 76b1 4ebe 9860 eb3d c040 493b
00000210: 18fd 3fbe 2269 0d3e 1a8f 083e e8b7 61bd
00000220: ec78 be3d b0c1 c73d 56d9 063e 02b8 01be
00000230: 08b5 c4bc dacb 8cbd a868 903d 663d 343e
00000240: 9424 13bd d6a5 3d3e f258 413e 40b5 1c3d
00000250: ca73 603e bcf5 2fbe 82fc 52be 82d9 05be
00000260: 528a 2ebe a8c1 133d d84b 69bd a47a 553e
00000270: 386f ea3d a01b b13b 0a9a 0cbe ac20 23bd
00000280: 603c d4bb 966d 3c3e a4b9 483e e64b 5c3e
00000290: 00de 0c3d 81a6 19be b428 1dbd 38d4 a2bc
000002a0: 40f1 ff3d 68f4 de3d c8c5 fdbd 7820 26bd
000002b0: e008 c33d decb 523e 1e93 423e 08e6 6d3d
000002c0: e84d 833d 50b9 643d 2c7f 3b3e 5419 79bd
000002d0: c691 413e ee10 a2bd 580f 583d c474 593e
000002e0: 64f6 6bbd 600b b33c b2c1 17be 9a7b 4a3e
000002f0: 0866 32be 70e8 a03c 0243 c4bd 1f66 07be
00000300: 2cb5 393e 4c08 f2bd 3c4b 26bd 3092 2fbc
00000310: 846b 43bd 10ce 1dbe 94ef 393e 8af2 093e
00000320: a40f 2abe 994e 5dbe 706d 0cbe 7a54 81bd
00000330: 80ac 15bc 0030 49bc a02e 5a3d 50c3 e13d
00000340: 40f1 e1bb 6034 ffbb 98c5 1dbd 4881 57be
00000350: b240 1ebe 9652 483e e64b 51be 30a7 573e
00000360: 149b 443e 44df d83d 8c8e 5a3e 6861 3abd
00000370: a4ab 5bbe cc0f 613e 746a 8cbd e015 7bbd
00000380: 00fa a03b fce9 4fbd 26c5 0dbe cff2 33be
00000390: ec5b 64bd beb9 08be 486a a93d 0bdc 5ebe
000003a0: 809b ed3d 804e 413e 491b e7bd 606a fc3b
000003b0: 2882 f7bd e863 cfbc 6008 dd3b 8022 893d
000003c0: d4b4 c53d 42d0 343e 7c9a 3bbd d014 223c
000003d0: 1e2f 3fbe df21 44be f57b 26be 340a 193e
000003e0: 2876 913d a2bd 0abe 004c 133e a6d0 bdbd
000003f0: 9422 5e3e 5263 1ebe ac3d c63d 202e 493d
-0.18221045 0.2004658 -0.04832177 -0.2174383 -0.11374353 -0.100737184 -0.13675126 0.04790008
0.1738326 0.14252126 0.007683143 0.07035315 0.04144621 -0.06279065 -0.17472714 -0.17643669
-0.1443232 0.12575391 -0.0030895174 0.016179606 -0.15552495 0.13266861 -0.025142267 0.101168275
0.005074635 0.111825824 -0.09597637 -0.22335929 -0.18183456 0.08209708 -0.17138416 -0.06661014
0.20431527 -0.21825139 0.07211912 0.2021293 0.1383082 -0.029224306 -0.14516428 0.1685167
0.20979178 0.15174013 -0.15511876 0.14034164 0.09742513 0.11026958 -0.047037184 -0.09750943
-0.1363494 0.095953554 -0.06604479 -0.10716333 0.032600522 -0.14351703 0.038818628 -0.16463001
-0.1711333 -0.056990758 0.208987 -0.10094033 -0.124855034 -0.0411292 -0.15258536 -0.17017539
0.064988375 -0.18415116 0.215893 0.18238974 -0.023385927 0.05032149 -0.08580153 0.13594705
-0.11024181 -0.17925866 0.20680156 -0.0865778 0.18139058 0.17472744 0.076122284 -0.041280344
-0.00019939244 -0.0030263662 0.16081232 -0.099771224 0.14061671 0.16699868 -0.04946795 -0.10309099
0.08360818 -0.09934006 -0.03355451 0.10677254 -0.04874301 -0.20085384 -0.21945739 -0.024730131
-0.21639283 -0.025364876 0.20091885 -0.10161169 -0.0060721636 -0.12463869 -0.08489975 -0.018065795
-0.025178492 0.14888105 0.17941067 -0.07086444 0.061541647 0.13912606 -0.16891882 0.21399245
-0.05184777 0.01263614 0.1512627 -0.18444577 0.14062351 0.011034012 0.08485514 -0.09231368
-0.072525695 -0.05372998 0.22024024 0.027900219 -0.050702363 -0.051925927 -0.061277956 0.20295635
-0.2213485 -0.20184883 0.11493033 0.003070876 -0.18748891 0.13809636 0.13335839 -0.055107027
0.09300408 0.0975374 0.13168845 -0.1266785 -0.024012104 -0.06874819 0.070512116 0.17601547
-0.035923555 0.18520293 0.18881586 0.03825879 0.2191917 -0.17183584 -0.20604137 -0.13071254
-0.17044953 0.036073357 -0.056957096 0.20847565 0.114469945 0.0054049045 -0.13730636 -0.03982608
-0.006476924 0.18401179 0.19602066 0.21513328 0.034391403 -0.15004922 -0.038368896 -0.019876584
0.12497187 0.108864605 -0.123912394 -0.04055831 0.09523177 0.20585582 0.19001433 0.058080703
0.06411344 0.05584079 0.18310231 -0.06081517 0.18903264 -0.07913385 0.052749008 0.21235949
-0.057608023 0.02185601 -0.14819983 0.19773713 -0.17421734 0.019642085 -0.09583093 -0.1322255
0.18135518 -0.11817989 -0.040599093 -0.010716006 -0.047709957 -0.15410638 0.18157798 0.13471428
-0.16607529 -0.21612014 -0.13713622 -0.06314941 -0.0091353655 -0.0122795105 0.05326712 0.11023581
-0.0068952143 -0.007788226 -0.03851852 -0.2104541 -0.15454367 0.19562754 -0.20439109 0.2105987
0.19199783 0.105894595 0.2134344 -0.04550305 -0.21452194 0.21978682 -0.06856242 -0.06130016
0.004912615 -0.050760254 -0.13844737 -0.17573093 -0.055751726 -0.13352105 0.08272225 -0.21763627
0.11601925 0.18877602 -0.11284501 0.0077031106 -0.12085372 -0.025316194 0.006745383 0.066960335
0.09653631 0.17657569 -0.045801625 0.009892657 -0.18670318 -0.19153546 -0.16258223 0.14945298
0.07102615 -0.13548902 0.1438446 -0.09268312 0.21692878 -0.15467575 0.09679732 0.049116254

bias f4 [20]
00000000: 2201 9fbd 48b2 2f3d 6468 e93d 9c71 14be
00000010: 7029 b63d b089 0fbe 80df c33d f06b 04be
00000020: 3685 5fbe 1082 ae3d 38c2 0f3d 90f5 7cbd
00000030: d814 fa3d c6f4 613e bcde 073e deab 4abe
00000040: 9c99 d93d 5c88 5ebd 7cfd 8a3d 108d 613c
-0.07763888 0.04289463 0.11396864 -0.14496464 0.08894622 -0.14017367 0.095641136 -0.129318
-0.2182816 0.08520901 0.03509733 -0.061757624 0.12211007 0.2206603 0.1326856 -0.19792125
0.10625002 -0.05432926 0.067866296 0.013766542

weight f4 [1, 20]
00000000: 30b1 eb3c 4da0 cfbd 40df 253d 72c8 9dbd
00000010: 62b9 3c3e e866 2a3e 30c1 363e 8987 4bbe
00000020: 108f 243e c0ef bebd 3a3f f6bd 9888 c4bc
00000030: b684 1f3e c0cb 653b d88b 41be 02b2 223e
00000040: ad8e f4bd fab8 0c3e aa8b 13be 2047 a8bc
0.028771013 -0.10137997 0.04049611 -0.077042475 0.18430093 0.16640818 0.17847133 -0.19875921
0.16070199 -0.093230724 -0.12023778 -0.023990914 0.15577969 0.0035064071 -0.18901002 0.15888217
-0.11941276 0.13742438 -0.14408746 -0.020541728

weight f4 [20, 3]
00000000: fcf2 f2be 3238 073f 3d06 d1be 23ba 113f
00000010: de55 b03e 1c08 ff3d 4004 493d dab5 143f
00000020: 35a6 c83e f306 09bf a0d6 9b3d d0b0 ec3e
00000030: fdb4 24bf 47d5 94be a408 b33e e458 f03b
00000040: 7e58 303c 3ade e03e 2132 d8be 0167 b63e
00000050: f3cc 233f 239e 09bf eebb 67be dd8f d7be
00000060: 253b 66be 9d09 dd3e 3563 3d3e 50fb 0b3d
00000070: d6ff 8839 c043 dcbe 1fb3 9ebd 16b2 44bd
00000080: 86fe 103e bbce 53be 63c3 983e 3607 debe
00000090: 1373 a93d 15b6 9cbe 3ced e13e d45f f53e
000000a0: d21b c13e 09f8 243d 1633 ca3e 6ea7 59be
000000b0: 1d21 d03e f4cf 063e a42b 073f a4ac 75be
000000c0: 310a c5be c9e9 88be 4668 1a3e 63a7 083f
000000d0: b817 8f3e f070 0e3e 7593 63be 6f6f f43e
000000e0: d5b7 cebe 8643 7fbe 761d 1d3e 13a4 ff3e
-0.47451007 0.5282012 -0.40825072 0.5692465 0.3444051 0.124527186 0.04907632 0.58089983
0.39189306 -0.5352623 0.07609296 0.46228647 -0.64338666 -0.29068968 0.3496753 0.0073348153
0.010763286 0.43919545 -0.42225745 0.3562546 0.639846 -0.5375692 -0.22630283 -0.42101946
-0.224835 0.43171397 0.18494876 0.034175217 0.00026130554 -0.4302044 -0.077490084 -0.0480214
0.14159593 -0.2068433 0.29836568 -0.43364877 0.08273902 -0.30607668 0.44126308 0.47924674
0.37716538 0.040275607 0.394921 -0.21255276 0.40650263 0.13165265 0.52800965 -0.23991638
-0.38484338 -0.26740864 0.1507884 0.5338041 0.27947783 0.1391027 -0.22224219 0.47741267
-0.40374628 -0.24928102 0.1534327 0.49929866

bias f4 [20]
00000000: 8f49 d53d 176d 153f 5b45 ed3e 3cd3 c93e
00000010: 6305 553e 1de3 01bf 8366 94bd af2f 32be
00000020: b2fb ff3e 2a54 de3e 5f56 283e 3b77 163f
00000030: 9b69 bcbe b2e1 583e 460b febe e1a4 d8be
00000040: 5f2b fc3e 02a7 e5be b6da 5ebe cd45 523e
0.10414421 0.5836958 0.46341977 0.39418972 0.20802836 -0.5073717 -0.07246115 -0.17401002
0.49996716 0.43423587 0.16439198 0.5877568 -0.3679932 0.21179846 -0.49617976 -0.42313293
0.4925184 -0.4485398 -0.21763119 0.2053444

weight f4 [20, 20]
00000000: 4c99 d23d c087 3b3d eefa a0bd b0d3 3dbd
00000010: 78d3 42bd c8dc b1bc dcbf d9bd f618 2f3e
00000020: 2ce3 22be 5474 50be 807a d83c 9082 eabc
00000030: 2c30 bd3d 42a9 163e 40f9 bb3b 00d2 d43b
00000040: 48a3 b5bd 809a 7fbc ba92 2fbe c5fb 1ebe
00000050: 1af3 4bbe 5cdd d23d e022 01be 305d 2a3d
00000060: c05f 4f3b 7257 363e 4fb4 2fbe 7013 1dbc
00000070: b09d 113c 004c 5d3d 3423 c43d 7919 eabd
00000080: 2023 cdbc 10ce cd3c e848 afbc c805 b73d
00000090: d060 023e 7e33 1cbe 0ada 0e3e af65 52be
000000a0: 4064 1e3e 1e06 b3bd 6e88 013e f45c 4fbd
000000b0: 6cc7 02be 9572 9bbd dd3b f3bc e00f febd
000000c0: e883 983d fc1b a0bd ea12 5bbe a855 9cbb
000000d0: 4de8 98bd 74a2 eebd 3a94 463e 9321 8a3e
000000e0: 66df 233e 3603 92bd acab 5d3d 3665 94bd
000000f0: 5b64 0a3e fdd7 113e 1711 803d 935a e5bd
00000100: fe3e c0bd 5f9a 44be 8f49 83be 3275 a8be
00000110: 4502 133e ae90 833c 5c05 f33d 0050 b3bd
00000120: 0829 f5bd c161 d5bd 60aa 51bc 6f51 363d
00000130: d4a9 05be d5fc 35be b18e f2ba 3c51 48be
00000140: e10b e03d 7039 88bc b0ab 9ebc e421 fd3d
00000150: d75d 0bbe ac0e 4b3e 36bb 12be dd63 263e
00000160: 1eac 27be ea79 ca3d f89b 83bd c1dd 6abe
00000170: a035 2cbc b6c1 afbd b0d4 7a3c 0edc f6bb
00000180: 4064 2a3d 1ec9 51be ecdd 36be 48c3 d33c
00000190: 5228 1fbe e74b b13d 2f16 1c3e 9c74 8abe
000001a0: 216e 05be daa6 61be 0880 303d b188 173e
000001b0: e4a1 10bd 8ff4 9b3e c2f6 cbbc 2266 593e
000001c0: 68fc e33d 7642 40bd d947 55be fe23 803e
000001d0: e825 f13d 3777 0abc c667 133e eba3 3bbc
000001e0: f350 533d 79b4 033e ea37 3e3e c4cc fb3d
000001f0: af25 08be ea5c 3b3e 1716 74bc edaf 253e
00000200: 560f 1cbe 6774 823e 2c45 2d3c ccc7 ca3d
00000210: 6ccd 23be 37c0 28bd 9783 343e d107 00be
00000220: 22cc f33d 407e cd3c 57df 64be 1bbd 203d
00000230: 2d5f 803d d988 1f3e 43f0 f2bd 87b9 66bc
00000240: 807c 2bbe 38e7 f2bd 0d23 5cbd 8b99 1d3e
00000250: caef b43d 93a1 d63c f067 f5bc 5e56 2a3d
00000260: 580d 07be 604a 0ebe 089b 053d 4237 e1bd
00000270: 0c46 2bbd 6565 36bd de2e c7bc 1672 febd
00000280: 55a2 843e 01ec 563e b7c1 643e d4de 13be
00000290: 22b0 993d 21b1 1ebe 4ed3 7dbd d26e 713d
000002a0: a599 26be cd1e 92bd de5e 3cbe c5da 13be
000002b0: 0b6a 56be 793c 063e 8eee 5d3e c766 243e
000002c0: 544b 453e 5b67 bfba d4c3 3a3e 7ee6 53be
000002d0: aedf 603c 85f1 eb3b ae92 99bd 3ee9 4fbe
000002e0: 29a6 47be 9fd6 f4bd e042 f53d 380a 963d
000002f0: fd93 fcbd 1e12 27be e0ad f3bc 28e5 bcbc
00000300: 58c1 253d bce6 b83d 3750 fabd df62 01be
00000310: 7e69 8cbd 5e58 fa3c b79b f53d ef7d 63be
00000320: df7d c83d eaaf 5d3e d57e ec3c dc7a 06be
00000330: ccb4 30bd 20d4 91bc d354 96bd bb1f 4d3e
00000340: 0d39 293e de83 273d 4644 453e 5266 4c3e
00000350: eb27 47be 22a8 df3d f66c 0ebe 9774 25be
00000360: e063 b3bc f0d7 403e c1b2 6e3e 4453 d7bd
00000370: f837 1ebd ce55 b6bc 7e7b 00be 2bb4 77bc
00000380: bb51 043e 9af9 3b3e 5c08 893d b4ed 6bbd
00000390: 251b 9cbb c0cb 6ebc 7a36 f03d c688 1b3e
000003a0: dcee e2bd f899 3fbe e39b 2ebe d0e9 c13d
000003b0: 681b fabc 06a3 0cbe 1cc2 39be da50 c23c
000003c0: c1b4 0e3e 0b3d 893d b993 82bd bd55 a5bd
000003d0: db8c 4cbe 1ee9 1ebe 3069 a9bd 868b 473c
000003e0: 3192 753e 7c99 c3bd 5f64 9e3d 7bca ae3d
000003f0: 95b3 89bd 2b9c 3dbe 95fb 0e3e 2662 663e
0.10283145 0.04578376 -0.07860361 -0.04634446 -0.047564954 -0.021711722 -0.106322974 0.17099366
-0.15906972 -0.20356876 0.0264256 -0.02862671 0.09237704 0.14713004 0.0057365 0.0064947605
-0.08869034 -0.0156008005 -0.17145815 -0.1552573 -0.19916955 0.10296127 -0.1261096 0.041592777
0.0031642765 0.17806795 -0.17158626 -0.009587154 0.008887693 0.054027557 0.09577027 -0.1143064
-0.025041163 0.025122672 -0.02139707 0.089366496 0.12732244 -0.15254018 0.13950363 -0.20546602
0.1546793 -0.08741401 0.126497 -0.050625756 -0.12771386 -0.07590214 -0.029691631 -0.12405372
0.07447034 -0.078178376 -0.21393934 -0.004770953 -0.07466183 -0.11652079 0.19392481 0.2697874
0.16003188 -0.07129519 0.054118797 -0.07245867 0.13514845 0.14242549 0.0625326 -0.11198916
-0.09387015 -0.19199513 -0.25642058 -0.32901913 0.14356335 0.0160602 0.118662566 -0.08755493
-0.11970717 -0.10419036 -0.012796968 0.044511255 -0.13053066 -0.17772229 -0.001850566 -0.19562238
0.10939766 -0.01662895 -0.019368976 0.1235998 -0.13610016 0.19829816 -0.14329228 0.16249032
-0.16374251 0.098865345 -0.06426233 -0.22936155 -0.010510832 -0.08581869 0.015309498 -0.007533557
0.041599512 -0.20486876 -0.17858094 0.025849953 -0.15542725 0.08657055 0.15242837 -0.2704209
-0.13030292 -0.22036305 0.04309085 0.14798237 -0.03531064 0.3046002 -0.024897937 0.21230367
0.11132127 -0.046938382 -0.20828189 0.2502746 0.11774808 -0.008451275 0.14395055 -0.011452655
0.05159087 0.12861814 0.18576017 0.12294915 -0.13295625 0.18297163 -0.014897845 0.16180392
-0.15240225 0.25479433 0.010575574 0.099013895 -0.15996331 -0.041198935 0.17628323 -0.12502982
0.119041696 0.025084615 -0.22350822 0.039242845 0.06268153 0.15579547 -0.118622325 -0.014082319
-0.16746712 -0.11860508 -0.053744365 0.15390603 0.08834799 0.026200091 -0.029956788 0.041586272
-0.13188684 -0.1389556 0.032618552 -0.10996868 -0.04181485 -0.04453029 -0.02431434 -0.12424104
0.259051 0.20988466 0.22339521 -0.14440471 0.07504298 -0.15497257 -0.061969094 0.058943577
-0.16269548 -0.07134781 -0.18395564 -0.14438923 -0.2093889 0.13109006 0.21673033 0.16054831
0.19267017 -0.0014602946 0.18238765 -0.20693395 0.013725204 0.007200422 -0.0749868 -0.20303819
-0.19496979 -0.11954998 0.11975646 0.07326168 -0.12332914 -0.16315505 -0.029745996 -0.023058489
0.04046759 0.09028384 -0.12222331 -0.12635373 -0.068560585 0.030559715 0.11992591 -0.22216009
0.09789633 0.21649137 0.028869072 -0.13132805 -0.04314117 -0.017801344 -0.07340398 0.20031635
0.1652567 0.040897243 0.19264325 0.19960907 -0.19448821 0.10920741 -0.13908753 -0.16157757
-0.02189821 0.18832374 0.23310377 -0.105139285 -0.038627595 -0.022257712 -0.12547109 -0.015118639
0.12921803 0.18356934 0.066910475 -0.05759974 -0.004763978 -0.014574945 0.117291406 0.15188894
-0.11080715 -0.18711078 -0.17051654 0.09468424 -0.030530646 -0.13734064 -0.18140453 0.023720194
0.1393614 0.06701096 -0.06375832 -0.08072994 -0.19975607 -0.15518615 -0.08272016 0.012179261
0.23981549 -0.09550759 0.07733988 0.08534714 -0.06723706 -0.18516605 0.13963158 0.22498378

bias f4 [20]
00000000: 20cc 803b f010 f4bd 0467 de3d 68f8 143e
00000010: 7f98 273e e4d3 0cbe 7745 7fbe 9b1b fd3d
00000020: bc42 813c cf01 423d e6cb 713e a185 8e3d
00000030: d0ec ffbd 0f80 523d 8198 02be 4332 35be
00000040: c77e 463c dac6 273c a266 403e a6c2 4fba
0.0039305836 -0.11917293 0.108594924 0.14547884 0.16366766 -0.13752705 -0.24928842 0.12358781
0.015778892 0.047365006 0.23612937 0.069590814 -0.1249634 0.051391657 -0.12753488 -0.17694955
0.012115187 0.010240281 0.18789151 -0.0007925428

weight f4 [1, 20]
00000000: c02b 3f3e 42b3 013e b38a 96bd d209 47bc
00000010: 81d4 1a3c 8345 1dbe 0d42 263e eac1 5f3e
00000020: d56c fcbd a3f1 05bb b433 59be 78b4 1b3d
00000030: 1d98 4abd 24cf 223e ad30 d3bd a1f8 31be
00000040: 371b 1f3e e132 43be 8ed6 32be b48b 11be
0.18669033 0.12666038 -0.073506735 -0.012148337 0.009450079 -0.15358548 0.16236134 0.21851316
-0.123254456 -0.0020438216 -0.2121113 0.038013905 -0.049461473 0.1589933 -0.103120185 -0.1738
0.15537725 -0.19062378 -0.17464659 -0.14213449

weight f4 [20, 3]
00000000: 8b2e d3be 644a bb3e 22ed 02be 251e b8be
00000010: de19 d63e 2ed3 0cbf 358b 1ebe e057 0b3f
00000020: e57c c8be 9a86 b1bd 346a d03e 590a 9c3e
00000030: e5d3 f0bc 7390 d5bd 4dc6 05bf 04f4 803e
00000040: 1a16 053f 0495 333d e684 fabe 908d ae3d
00000050: 015b 6a3d b3a1 353e 9cf0 28be 9e19 b1be
00000060: 2c77 ce3e 4276 903e 56c4 28be bc69 5fbe
00000070: 5db4 a73e 1173 33be 8486 73be 60e3 fcbe
00000080: 88ee 033e 43e3 bbbe 2501 0e3e 1959 e5be
00000090: 5e5f 86be f92e b63d 2cbd dc3d fc53 dc3e
000000a0: e260 d4be 47b0 19bf 2a3f 8d3e 9fbb 203f
000000b0: 5b34 00bf 9a2f 39be 51f7 f6be d8c7 a73d
000000c0: 046b 1c3f 5ea4 8cbe 60c2 a7be 8285 86be
000000d0: dce0 0dbe 0f3e 5d3e 230b 1b3f 9b39 213f
000000e0: b1d2 563c b4cf adbe 20bc c83e 2115 51be
-0.41246447 0.36580193 -0.12785771 -0.35960498 0.4181661 -0.55009735 -0.15482791 0.5443096
-0.39157787 -0.08668251 0.40706027 0.30476645 -0.029397914 -0.10427942 -0.5225571 0.2518617
0.5198685 0.043843284 -0.48929518 0.08523095 0.057215694 0.17737465 -0.16498035 -0.34589857
0.40325296 0.28215224 -0.16481146 -0.21817678 0.32754794 -0.17524363 -0.23781782 -0.49392223
0.12883961 -0.36696824 0.13867624 -0.4479454 -0.26244634 0.08895678 0.10778269 0.43032825
-0.41480166 -0.600346 0.27587253 0.6278629 -0.5007989 -0.18084565 -0.48235562 0.08192414
0.6110079 -0.27469152 -0.32765484 -0.26273733 -0.13855308 0.21605705 0.6056387 0.62978524
0.013111756 -0.33947527 0.39206028 -0.20418216

bias f4 [20]
00000000: 8f1d 103f 3973 373e ccbb cb3b 74b2 b43e
00000010: fb53 c63d 354b 36be 348c 1dbf b1d1 e53c
00000020: 8bff 743e 180a e73e 17db 0d3f 5ad9 c23e
00000030: a647 063f 85aa 05be 35c2 f7bd 9d04 ff3e
00000040: d176 123f e324 b53e 8f4d d13e e267 15be
0.562951 0.17915048 0.0062174555 0.352924 0.09683987 -0.17802127 -0.6154206 0.02805409
0.23925607 0.45124888 0.5541243 0.3805645 0.52453077 -0.1305333 -0.12097589 0.49808207
0.5721255 0.35379705 0.40879485 -0.1459041

weight f4 [20, 20]
00000000: 796d 48bd 4ae1 7cbe a308 103e 1ad8 20bc
00000010: f924 6e3d 5867 38be c8bc cb3d 0d59 1dbc
00000020: 6d57 9f3c ab9e 6e3d 65e5 d0bd ed33 943d
00000030: 57a8 23be 3683 56be 0c9a 2a3e 18bc 55be
00000040: 9612 95bc b4d4 543e 0958 62be 8433 243e
00000050: 620d 2abe 7ae1 03be 08ca 6e3c ef69 553c
00000060: 00d7 9fba 0647 063e 094a d73d 3c97 9cbd
00000070: bdfa 86be 255e 02be 5b1e babd 3e26 e0bd
00000080: 4b15 0b3d a8e2 4c3d f7ac 34be 0050 0bbe
00000090: b48c 3fbe 544d 4a3e 1dfe fb3d 91cc 87be
000000a0: 160b 013e 9e1f babd b19a 3abe d09c 433e
000000b0: a897 9f3d 235b 56be 4ff2 58bd 645e bf3d
000000c0: f8b5 013d 5e46 3cbe c6e7 65bc 10ea 413d
000000d0: dfc4 02be 2173 e5bd 4d72 62be b814 3a3e
000000e0: aec6 a5bd 7e00 cabd dddf c1bd 0ccf 8c3d
000000f0: b21b 9a3d c2b0 243e 85c7 933b a846 20be
00000100: 20c6 e43d ec70 793d 877a 03be f5a8 54be
00000110: 67fc da3d a951 9bbc 60fd f3bb 4897 fd3c
00000120: 50ad 00be 30d6 bc3d 6d19 9cbd 986b 03bd
00000130: d6fb b93d a5c0 be3d 64ce 06bd b3ba 6f3e
00000140: 18b4 323e bf23 6e3d d50d 813e 38dd 823e
00000150: e0a4 c03c c83d 183e cc81 3e3e b2c4 e93d
00000160: a38b f83d f803 873e cae0 47be e13e 803e
00000170: b086 973e 3724 ea3d 2ee9 10bc 342c 8e3c
00000180: 0ebf 43bd c96a b2bd 5cac d2bd 986d 023b
00000190: d9b3 6cbe c08d e83c bac5 7d3d 3a3d 3dbb
000001a0: b015 ddbc 24a2 fc3d 5b18 30be 58e2 ad3c
000001b0: cba7 08bd 22f6 72bd 9e66 4e3e 77aa 5ebe
000001c0: 325c 55bc 289d 783d 98ed 63be c04d 6a3c
000001d0: 70fb 823d ded6 18be f728 ed3c 455a 72be
000001e0: 74d5 d0bc f5d0 b7bd 23ad 05bd 5493 023e
000001f0: 2d3f 2bbe b03e 733d 8f7d 70be 7348 313e
00000200: 50ad 933d 7633 3abe abaa c8bd c572 913d
00000210: 6ec8 6bbe 645c 5ebe 96cf c8bd 942d 4d3d
00000220: 5044 4e3c 10e2 59bd 0ec8 af3b 1c34 963d
00000230: facc 8a3d e5dd e13d 49b7 ccbd 0379 dcbd
00000240: f8ac 813e 6b5b 7d3e fb29 cf3d e501 133e
00000250: faf5 693e d436 24be b687 393e bca4 c8bc
00000260: 267c f53d f4fd c33d b59c 6e3e 659b b23d
00000270: 0a2e b73d ee80 553e 608c 8e3e 2307 8b3e
00000280: b267 d33d 8f39 0c3e d846 7e3e 7c83 fdbd
00000290: c947 27bd 7bd7 b53c 4152 163e c6d9 903c
000002a0: 5823 223e 879d fcbd 5399 22bd 3521 223e
000002b0: acbb 023e 0169 6fbe 4d6b 583e 0032 42ba
000002c0: 67d7 56be 6844 c6bd 762a 3c3e a285 af3d
000002d0: a707 393d 1f67 8f3e 1383 3f3e 70af 543d
000002e0: 0eb3 8c3d 290e e7bd 1a91 06be 8ea6 38be
000002f0: b94d 0e3e d79c 703e 5308 3e3e aeae 803e
00000300: 15c3 953e 933c 64be 0a9e ca3d 24e2 cb3b
00000310: 50b8 99be c187 02be d1a2 833e 2a38 e53d
00000320: 24ed d5bd 329a e9bd 028d 033e c08b ac3d
00000330: 445b cc3d 013f 103e eaf6 1b3c 302d ea3c
00000340: 3b65 323e cbc4 42be db22 2a3e b2d4 e5bd
00000350: 369b 78bd 80cc 8e3d b088 3dbd dfd6 e13d
00000360: 9ff7 2ebe caec 433e ce55 e4bd a5d6 74be
00000370: 3a24 b73d 25a8 243d 2ab4 40be 0d26 87bd
00000380: 67cf d3bc 3c6c 0ebe 8063 b3bc 3fae b73d
00000390: 38c4 b33d 9621 9ebd 7b54 d43d db9e dbbc
000003a0: 596b 173e 614d 713d 0330 183e deff 3dbe
000003b0: 54e2 063e f617 9b3d aefa b03d bb20 42be
000003c0: 9ed9 98bd 68ac 78bd bb14 30be 416a 233d
000003d0: 4879 bc3d 1352 643e a802 2dbc d09b 34be
000003e0: 3388 573e 6975 4ebe 9ee8 6cbe 681e c6bd
000003f0: 4843 93bd b01b bcbc ac3c 33be 09d9 333e
-0.048932526 -0.24695316 0.14065795 -0.009817148 0.05814073 -0.18008173 0.099481165 -0.009603751
0.019450868 0.058256786 -0.102000035 0.072364666 -0.15982185 -0.2094849 0.16660327 -0.20872533
-0.018197339 0.20784265 -0.22103895 0.16035277 -0.16606668 -0.12878981 0.014574535 0.013025745
-0.0012194812 0.13113031 0.10512168 -0.07646033 -0.26363173 -0.12731226 -0.09087821 -0.10944794
0.033955853 0.050020844 -0.17644106 -0.13604736 -0.18706018 0.19756061 0.12304328 -0.2652326
0.12601885 -0.09088062 -0.18223073 0.19102788 0.07792598 -0.20933203 -0.05296546 0.093441755
0.03166768 -0.18386218 -0.01403231 0.04734236 -0.12770413 -0.112036 -0.22113915 0.18171966
-0.08094536 -0.09863375 -0.09466527 0.068754286 0.07524814 0.16083053 0.0045098686 -0.15651953
0.11170602 0.060898706 -0.12839709 -0.20767577 0.10692673 -0.018959837 -0.007445976 0.030955926
-0.12566113 0.092205405 -0.07622037 -0.03208503 0.09081237 0.09314088 -0.032911673 0.23411064
0.17451513 0.05813956 0.25205866 0.25559402 0.023516119 0.14867318 0.18604201 0.1141447
0.121360086 0.26370215 -0.19519344 0.25047973 0.29594946 0.11432689 -0.008844657 0.017355062
-0.047789626 -0.08711774 -0.10286781 0.0019901749 -0.23115481 0.028387904 0.061956145 -0.0028875605
-0.02698788 0.12335613 -0.17196791 0.021226093 -0.033363145 -0.05931676 0.20156333 -0.21744715
-0.013022469 0.06069675 -0.22258604 0.014300764 0.06395614 -0.14925715 0.028950198 -0.23667248
-0.025492407 -0.08975402 -0.03263582 0.12751514 -0.16723318 0.059385955 -0.23485397 0.17312793
0.07210791 -0.18183693 -0.09798177 0.07101969 -0.23025677 -0.21714932 -0.09805219 0.050092295
0.012589529 -0.053194106 0.0053644245 0.07334158 0.067773774 0.11028651 -0.09995896 -0.10765269
0.25327277 0.24741904 0.10115429 0.14356191 0.22847739 -0.1603654 0.18118176 -0.024492614
0.1198657 0.09569922 0.23301966 0.087210454 0.08944328 0.20849964 0.27841473 0.27153882
0.10322513 0.13693832 0.24831712 -0.12378594 -0.040839944 0.022197476 0.14679815 0.017681967
0.15833795 -0.123347335 -0.039697003 0.1583298 0.12766904 -0.233799 0.21134682 -0.0007407963
-0.20980607 -0.09681016 0.18375573 0.0857041 0.045173313 0.28008363 0.18702345 0.051925123
0.068700895 -0.11281998 -0.1314129 -0.18032286 0.13896836 0.2349733 0.18557863 0.2513327
0.29250398 -0.22288732 0.09893425 0.0062220264 -0.30023432 -0.12747099 0.25710157 0.11192353
-0.104456216 -0.114063635 0.12846759 0.08425093 0.09978345 0.14086534 0.009519318 0.028586
0.17421429 -0.19020383 0.16614859 -0.11222209 -0.060694896 0.06972599 -0.046272933 0.110273115
-0.17086647 0.19133297 -0.111491784 -0.23910005 0.089424565 0.040199418 -0.18818727 -0.065990545
-0.025855733 -0.13908476 -0.021898031 0.08968782 0.0877766 -0.0772125 0.10367676 -0.026809147
0.14787044 0.058911685 0.14862065 -0.18554637 0.13172275 0.075729296 0.08641563 -0.18957798
-0.07463382 -0.060711294 -0.17195408 0.039896253 0.0920282 0.22296934 -0.010559715 -0.17637563
0.2104805 -0.20161976 -0.23135611 -0.09673768 -0.07190567 -0.022962421 -0.17503613 0.17563261

bias f4 [20]
00000000: 97ca b2bd c6f4 ca3d 22e5 dc3d 56e5 433e
00000010: a03b b9bc 0064 cbba 2d6e 88bd be38 763e
00000020: 212e 4a3e 3fec 4a3e d603 2a3e fb5c 1c3c
00000030: ae3f 0d3d 6137 2abc 37d8 c3bd a4c4 103e
00000040: c96a 363e ae84 413e 2b8f e0bd 6643 13be
-0.08730047 0.09909968 0.10785891 0.19130453 -0.02261144 -0.0015517473 -0.06661639 0.24045083
0.1974416 0.19816683 0.16603026 0.009543653 0.034484558 -0.01038918 -0.09562724 0.14137512
0.17814173 0.1889827 -0.10964807 -0.14381179

weight f4 [1, 20]
00000000: 438d 873d bd7b 233e 8999 b53d 4ece 5bbe
00000010: 1c45 cbbd 6a2e 013e f0ef 913d 53a0 a3bd
00000020: c12e 4cbe 7520 1ebe 091f 783d e317 a9bc
00000030: 7988 10be 380f 84be 157b 81be b404 033e
00000040: 5a7c 3dbe f032 e63d 4409 79bd 1519 4fbe
0.066187404 0.15965171 0.08867175 -0.21465418 -0.09925291 0.12615362 0.071258426 -0.07989564
-0.1993971 -0.15442069 0.060576472 -0.020641273 -0.1411456 -0.2579286 -0.25289217 0.12794763
-0.18504468 0.11240184 -0.060799852 -0.20224412

weight f4 [20, 3]
00000000: 601d 8c3e db13 c3be 737f d03e 1778 633e
00000010: 20fb 06bf e226 0e3e 6abb 58be af98 a0be
00000020: ab02 39bf 4399 ac3d e9e0 643e 84ff a23e
00000030: bbd9 7b3d 0bab 043f 04da d63d 9970 77be
00000040: 164e 28bd 6d52 7ebe 6cf6 8ebd 3aa5 d13e
00000050: ba53 a0be f548 e6be afe1 b03e 428d cb3e
00000060: e0ac 8a3e d8ef 98be 0b49 9e3e dadd d63d
00000070: 740f cfbe 4065 d13e 0782 073f aa9f df3e
00000080: 9780 18bf 6e71 50bd 9d0b dcbe 5f82 0f3f
00000090: ba83 30be b672 30be 8ae9 c9be 7932 54be
000000a0: e03a 393e 6281 1dbe f9b0 d0be 6329 0a3e
000000b0: 823a 753e ee77 133f d593 d6be 7e46 d53e
000000c0: 32ff 053d db5e 863e 36d9 1bbf 47ec c63e
000000d0: 4c0a 5d3e c7a4 d1be 9557 e1be 3033 313f
000000e0: 60ff f73e f8ce 203f b9a9 873d 1873 20bf
0.2736616 -0.38101086 0.40722236 0.2221378 -0.52726936 0.1388202 -0.21165243 -0.31366488
-0.72269696 0.0842767 0.22351421 0.31835568 0.06148694 0.5182349 0.10490802 -0.24164046
-0.041090094 -0.2483613 -0.06980595 0.4094637 -0.31313878 -0.44977537 0.34547183 0.3975621
0.27085018 -0.29870486 0.30915102 0.104915336 -0.40441477 0.4089756 0.5293278 0.43676502
-0.5957121 -0.050889425 -0.4297761 0.56058306 -0.1723775 -0.17231259 -0.3943599 -0.20722379
0.18088865 -0.15381387 -0.4076002 0.1349235 0.239481 0.57604873 -0.41909662 0.41655344
0.032714076 0.26244244 -0.6087831 0.3885214 0.21585959 -0.40946028 -0.44012132 0.6921873
0.48437023 0.6281581 0.06624169 -0.6267562

bias f4 [20]
00000000: 5997 aa3e 8d36 8fbe f579 4a3e fb94 193e
00000010: 2df8 e33e e9dc 083f ebae 053f f3b7 dfbe
00000020: d261 75be b441 e93d da0b df3e 6735 3d3e
00000030: fbce 063e c16f 56be 9072 ea3e ea4c 03bf
00000040: 9565 b13e 9478 c4be b099 02bd ecf5 c6be
0.33318594 -0.27971306 0.19773085 0.14998238 0.4452528 0.5346208 0.5222003 -0.4369503
-0.23963097 0.11389485 0.4356373 0.18477403 0.13164894 -0.20941068 0.4579053 -0.51289237
0.34647813 -0.38373244 -0.03188485 -0.38859499

weight f4 [20, 20]
00000000: 766f 07be 484d 393d e02c 843d b037 f83c
00000010: 407f 2d3c 0a83 05be 7ec0 0ebe e085 333d
00000020: bc0a cebd 2848 43be 0330 55be 1c2d ccbd
00000030: 7c6a 08be f889 6d3d c026 003d c4fb 2d3e
00000040: 24ee e43d 003a e7ba 48c4 5fbe 5107 29be
00000050: fc03 353e f852 033d 99d7 3bbe 0d1d f13d
00000060: 1feb 5bbe bdb0 01be b02e 693c e869 03be
00000070: 2d2a 32be 536b f1bd 785c f4bd 388b 2ebe
00000080: 62dd 37be fb79 35be 6de0 52be 1768 38be
00000090: d2d0 2fbe ffe3 19be 4a1d 363e 04f2 a9bd
000000a0: 8ad2 4e3e ca1b 543e 0316 b33e 69f6 82be
000000b0: 2a12 d33d e9b4 a73d 78df 713e e045 3a3d
000000c0: 40a4 603e 30a4 bcbc ec61 77bd 86d8 3cbe
000000d0: 69e4 703e f252 563e c459 07bd 220d 5d3e
000000e0: 2da5 e3bd 42b3 a23b d51f 03be 5edf 513e
000000f0: 43ef 8f3c 9f0f 1bbe 7438 ce3d a69a 103c
00000100: e654 aebc a032 2b3d f6e7 1c3e 623c d2bc
00000110: d4e4 d53c 673d fa3d dcb9 5abe 7992 373c
00000120: 880f 27bd a820 233d 05b0 0e3e fb26 31be
00000130: a06d 4c3c 60be 1bbe 770b a0bd c0a1 0ebb
00000140: 0e97 4abe a525 22be c22a c0be aec2 b23e
00000150: 7c2c 923e add0 86be 4860 903e 3903 13bd
00000160: 3c04 18be 3746 703e 2a6e 963e 510b 473e
00000170: bcdd 55be 7135 003d 1b9c 053e 7e4b b7bd
00000180: f418 ff3c b6b6 bdbd 3296 513e 6a78 babd
00000190: e9bf 06be a668 3d3e 5c79 813d 62c4 84bd
000001a0: 24de 61bd cfe0 2fbe 482c 46be 6816 d23c
000001b0: 3e81 ccbd 4029 5d3c 3091 7dbc 1262 483e
000001c0: 2010 4f3d 6ce0 4dbd 20e1 f03c 3454 973d
000001d0: f24d 2e3e 78f1 fdbd a8e9 1ebe 406a 25be
000001e0: 8589 52bd 5121 a63d 48ef 63bd 211e 15be
000001f0: 84d6 9f3d fb83 4dbe 1770 4bbe 447f b03c
00000200: ec36 56bc d4fe 943d 7c08 7fbc 9463 ab3d
00000210: b02a cebc cd9e 58be fdd2 79bc 3303 013e
00000220: 9fd4 0fbe c5de 893d bcf2 b13d 44cb 893d
00000230: b4c0 ab3d 00a5 47bc e5b1 b1be 34d4 033e
00000240: a765 01bd 1f52 6ebe b0cd 183e 69c6 bf3d
00000250: dfde 5f3e 383c ff3c cbc3 b43e c41d 283e
00000260: 4b49 3ebe adbc 99bb 3ac3 e63a 121c 9f3d
00000270: d971 003e e929 483e d529 8a3e f9fb 0abd
00000280: ae74 c5bd a48c d3bd 5639 563e 08f5 963c
00000290: 2a19 343e 5481 b2bc 9e03 b9bc 50a7 b23d
000002a0: 5333 c93d 71e2 473e a5a9 b1bd 2cf6 3f3d
000002b0: 58cd 92bd 343a b3bd f9d2 aa3d 7dc3 413e
000002c0: 0507 99bd 69e0 b6bd 9fcb 2fbe fd9f 3bbe
000002d0: 52d4 ca3d 84d2 6abe 6e10 b33c cdf2 a7bd
000002e0: 9459 973e 0e4c 5b3d b330 9d3e 4ffa 813d
000002f0: 55e3 03be a48d 823e e37c bb3d 45e2 2dbe
00000300: 6872 8fbe 9d4d 2cbc 7a71 343e 6ee1 53bd
00000310: a414 663e 5103 473e 3ff8 833e 1003 dcbd
00000320: d9ea 9e3d d720 dfbd 8ec9 4ebe a41c 3f3e
00000330: f927 ff3d fdda 3bbe 923a 893d 44cc e53d
00000340: 1747 7ebc d2dd 353e 522d 943e 9d4e b8bd
00000350: a7db a4be 93a2 98bc cdcf 663e 7276 903b
00000360: f2ce 793e e1cf 0b3e 6be0 8e3c 8ca8 34bc
00000370: ea8d 2bbe 3322 d0bd 498c 953e ab2d 9b3d
00000380: 0fad 473e 60b6 a13d 7f2e 163e 1ed9 76be
00000390: 168d 093e 7025 b53c 2c75 0abd 1b5c 37be
000003a0: d809 803e 249b 863d ed74 36bd 6836 b8bc
000003b0: be6f 013e 8c65 883d 1dce 4fbe ab45 293e
000003c0: 9063 eb3b 1249 393d 7a90 9bbe 3931 723e
000003d0: d252 983e 4810 ac3d 2329 5a3c 7264 bb3e
000003e0: f991 753e 8095 4c3d b5c2 ba3d 8867 13be
000003f0: 0e8e e63d 77ec b23e 3491 bb3e 0c75 c2bb
-0.13226113 0.045239717 0.06453872 0.030299991 0.010589421 -0.13038269 -0.13940617 0.043828845
-0.10060641 -0.19070494 -0.20819096 -0.099695414 -0.1332187 0.057992905 0.031286955 0.16990572
0.11178234 -0.0017641187 -0.21852219 -0.16506697 0.17677301 0.032061547 -0.18343963 0.11773119
-0.2147641 -0.12665077 0.014232323 -0.12833369 -0.17398901 -0.117880486 -0.119316995 -0.17045295
-0.17955545 -0.17722313 -0.20593424 -0.18008457 -0.17169502 -0.1502838 0.1778461 -0.08298114
0.20197502 0.20713726 0.3497773 -0.2557862 0.10306199 0.08188803 0.23620403 0.045476794
0.21937656 -0.02302751 -0.06039612 -0.18441972 0.23524632 0.20930079 -0.03304459 0.21587041
-0.11115489 0.004965217 -0.12805112 0.20495364 0.017570144 -0.15142678 0.10069361 0.008825934
-0.021280717 0.041796327 0.15322861 -0.025663558 0.02611009 0.12218743 -0.21359962 0.011204355
-0.040786296 0.039826065 0.13934334 -0.17300026 0.0124773085 -0.15209341 -0.07814687 -0.002176389
-0.19784185 -0.15834673 -0.37532622 0.34914154 0.28549564 -0.26331082 0.28198457 -0.035891745
-0.14845365 0.23464285 0.29380924 0.1943791 -0.20885366 0.031300966 0.13047831 -0.08949946
0.031139828 -0.09263365 0.20467451 -0.091049984 -0.13159145 0.18496951 0.063219756 -0.064827695
-0.05514349 -0.17175601 -0.1935283 0.02564545 -0.099855885 0.013498604 -0.01547651 0.19568661
0.050552487 -0.050262854 0.029404223 0.07389107 0.17021921 -0.12399572 -0.1551882 -0.16153812
-0.05140068 0.08111823 -0.05564812 -0.14562275 0.078045875 -0.20069878 -0.19866978 0.02154506
-0.013074618 0.07275167 -0.015565988 0.083686024 -0.02516684 -0.21154328 -0.015248057 0.12598877
-0.14045952 0.06731943 0.08688876 0.06728223 0.083863646 -0.012185335 -0.34706035 0.12873918
-0.031591084 -0.23273514 0.14922214 0.093640156 0.21862362 0.031156644 0.35305628 0.16417605
-0.18582647 -0.0046916814 0.001760579 0.07769026 0.1254343 0.19547237 0.2698504 -0.033931706
-0.096413955 -0.103295594 0.2092031 0.018427387 0.17587724 -0.021790184 -0.022584733 0.087233186
0.098242424 0.19519974 -0.08674935 0.046865627 -0.071680725 -0.08751336 0.08341021 0.18922229
-0.07472042 -0.089295216 -0.17167519 -0.1832275 0.09903778 -0.22931868 0.02185842 -0.082006074
0.2956053 0.05353933 0.30701217 0.06346571 -0.12879689 0.25498688 0.091546796 -0.16980846
-0.28016973 -0.010516551 0.17621413 -0.05172866 0.22468811 0.19434859 0.25775334 -0.107427716
0.077596374 -0.108949356 -0.20194075 0.1866327 0.12458796 -0.18345256 0.067006245 0.11220601
-0.015519879 0.17760399 0.28940827 -0.08999369 -0.3219883 -0.018632209 0.22540207 0.004408651
0.2439535 0.13653518 0.017440995 -0.011026513 -0.16753355 -0.10162773 0.29208592 0.0757707
0.1949961 0.078961134 0.14666174 -0.24106261 0.13432726 0.022112578 -0.03380315 -0.17906229
0.2500751 0.065725595 -0.044545103 -0.02248688 0.12640283 0.066599935 -0.2029347 0.16530482
0.0071834996 0.0452357 -0.30383664 0.2365159 0.29750687 0.08401543 0.013315472 0.3660007
0.23981465 0.04994726 0.09119169 -0.14394963 0.112575635 0.34946033 0.3663422 -0.005934363

bias f4 [20]
00000000: 1d7b f7bd cee6 203e 8428 3cbd d5d6 c4bd
00000010: 008e cc3d c181 52be 32ed dcbd 39d1 cdbc
00000020: 7030 68be e944 40bd 472b 9c3c 95c8 1bbd
00000030: 648b 0f3e 1c1d f43d 062c 5dbe 82f4 23bd
00000040: d0aa 00be afba 3f3e 1204 1d3e 9af8 923d
-0.12084029 0.15713045 -0.045937076 -0.096112885 0.09988022 -0.2055731 -0.10787429 -0.02512418
-0.22674727 -0.046940718 0.019063605 -0.038033087 0.14018017 0.11919615 -0.21598825 -0.040028103
-0.1256516 0.18723558 0.15333584 0.07176323

weight f4 [1, 20]
00000000: e01e a93c bdf1 37be a0f8 5dbe 8ce1 993d
00000010: ae4f 733e 1064 4f3d 371f 8039 a0af 8a3e
00000020: a63a 753b 5389 fb3d 177c 0c3e 40f2 8fbe
00000030: 0958 653e 3c5b 213e 94fc 093e 785a 98be
00000040: bdc7 313d 5ceb 8c3e 4ee0 06be 6b97 b9bd
0.020644605 -0.1796331 -0.21676874 0.07513723 0.23760864 0.050632536 0.0002443732 0.27087116
0.003741899 0.12282052 0.13719212 -0.2811451 0.22396864 0.1575746 0.13475257 -0.29756522
0.043403376 0.27523315 -0.13171503 -0.09062084

timegrid f4 [361]
00000000: 0000 0000 610b 363b 610b b63b 8988 083c
00000010: 610b 363c 398e 633c 8988 883c f549 9f3c
00000020: 610b b63c cdcc cc3c 398e e33c a64f fa3c
00000030: 8988 083d 3fe9 133d f549 1f3d abaa 2a3d
00000040: 610b 363d 176c 413d cdcc 4c3d 832d 583d
00000050: 398e 633d efee 6e3d a64f 7a3d 2ed8 823d
00000060: 8988 883d e438 8e3d 3fe9 933d 9a99 993d
00000070: f549 9f3d 50fa a43d abaa aa3d 065b b03d
00000080: 610b b63d bcbb bb3d 176c c13d 721c c73d
00000090: cdcc cc3d 287d d23d 832d d83d dedd dd3d
000000a0: 398e e33d 943e e93d efee ee3d 4a9f f43d
000000b0: a54f fa3d 0000 003e 2ed8 023e 5bb0 053e
000000c0: 8988 083e b760 0b3e e438 0e3e 1211 113e
000000d0: 3fe9 133e 6dc1 163e 9a99 193e c871 1c3e
000000e0: f549 1f3e 2322 223e 50fa 243e 7ed2 273e
000000f0: abaa 2a3e d982 2d3e 065b 303e 3433 333e
00000100: 610b 363e 8fe3 383e bcbb 3b3e ea93 3e3e
00000110: 176c 413e 4544 443e 721c 473e a0f4 493e
00000120: cdcc 4c3e fba4 4f3e 287d 523e 5655 553e
00000130: 832d 583e b105 5b3e dedd 5d3e 0cb6 603e
00000140: 398e 633e 6766 663e 943e 693e c216 6c3e
00000150: efee 6e3e 1dc7 713e 4a9f 743e 7877 773e
00000160: a54f 7a3e d327 7d3e 0000 803e 176c 813e
00000170: 2ed8 823e 4444 843e 5bb0 853e 721c 873e
00000180: 8988 883e a0f4 893e b760 8b3e cdcc 8c3e
00000190: e438 8e3e fba4 8f3e 1211 913e 287d 923e
000001a0: 3fe9 933e 5655 953e 6dc1 963e 832d 983e
000001b0: 9a99 993e b105 9b3e c871 9c3e dedd 9d3e
000001c0: f549 9f3e 0cb6 a03e 2322 a23e 398e a33e
000001d0: 50fa a43e 6766 a63e 7ed2 a73e 943e a93e
000001e0: abaa aa3e c216 ac3e d982 ad3e efee ae3e
000001f0: 065b b03e 1dc7 b13e 3433 b33e 4a9f b43e
00000200: 610b b63e 7877 b73e 8fe3 b83e a54f ba3e
00000210: bcbb bb3e d327 bd3e ea93 be3e 0000 c03e
00000220: 176c c13e 2ed8 c23e 4544 c43e 5bb0 c53e
00000230: 721c c73e 8988 c83e a0f4 c93e b660 cb3e
00000240: cdcc cc3e e438 ce3e fba4 cf3e 1111 d13e
00000250: 287d d23e 3fe9 d33e 5655 d53e 6cc1 d63e
00000260: 832d d83e 9a99 d93e b105 db3e c771 dc3e
00000270: dedd dd3e f549 df3e 0cb6 e03e 2222 e23e
00000280: 398e e33e 50fa e43e 6766 e63e 7dd2 e73e
00000290: 943e e93e abaa ea3e c216 ec3e d882 ed3e
000002a0: efee ee3e 065b f03e 1dc7 f13e 3333 f33e
000002b0: 4a9f f43e 610b f63e 7877 f73e 8ee3 f83e
000002c0: a54f fa3e bcbb fb3e d327 fd3e e993 fe3e
000002d0: 0000 003f 0bb6 003f 176c 013f 2222 023f
000002e0: 2ed8 023f 398e 033f 4544 043f 50fa 043f
000002f0: 5cb0 053f 6766 063f 721c 073f 7ed2 073f
00000300: 8888 083f 933e 093f 9ff4 093f aaaa 0a3f
00000310: b660 0b3f c116 0c3f cccc 0c3f d882 0d3f
00000320: e438 0e3f efee 0e3f fba4 0f3f 065b 103f
00000330: 1211 113f 1dc7 113f 287d 123f 3433 133f
00000340: 3ee9 133f 499f 143f 5555 153f 600b 163f
00000350: 6cc1 163f 7777 173f 822d 183f 8ee3 183f
00000360: 9a99 193f a54f 1a3f b105 1b3f bcbb 1b3f
00000370: c871 1c3f d327 1d3f dedd 1d3f ea93 1e3f
00000380: f449 1f3f ffff 1f3f 0bb6 203f 166c 213f
00000390: 2222 223f 2dd8 223f 388e 233f 4444 243f
000003a0: 50fa 243f 5bb0 253f 6766 263f 721c 273f
000003b0: 7ed2 273f 8988 283f 943e 293f a0f4 293f
000003c0: aaaa 2a3f b560 2b3f c116 2c3f cccc 2c3f
000003d0: d882 2d3f e338 2e3f eeee 2e3f faa4 2f3f
000003e0: 065b 303f 1111 313f 1dc7 313f 287d 323f
000003f0: 3433 333f 3fe9 333f 4a9f 343f 5655 353f
0.0 0.0027777778 0.0055555557 0.008333334 0.011111111 0.013888889 0.016666668 0.019444445
0.022222223 0.025 0.027777778 0.030555557 0.033333335 0.036111113 0.03888889 0.041666668
0.044444446 0.047222223 0.05 0.05277778 0.055555556 0.058333334 0.061111115 0.06388889
0.06666667 0.06944445 0.072222225 0.075 0.07777778 0.08055556 0.083333336 0.08611111
0.08888889 0.09166667 0.094444446 0.097222224 0.1 0.10277778 0.10555556 0.108333334
0.11111111 0.11388889 0.11666667 0.119444445 0.12222222 0.125 0.12777779 0.13055556
0.13333334 0.13611113 0.1388889 0.14166668 0.14444445 0.14722224 0.15 0.15277779
0.15555556 0.15833335 0.16111112 0.1638889 0.16666667 0.16944446 0.17222223 0.17500001
0.17777778 0.18055557 0.18333334 0.18611112 0.18888889 0.19166668 0.19444445 0.19722223
0.2 0.20277779 0.20555556 0.20833334 0.21111111 0.2138889 0.21666667 0.21944445
0.22222222 0.22500001 0.22777778 0.23055556 0.23333333 0.23611112 0.23888889 0.24166667
0.24444444 0.24722223 0.25 0.25277779 0.25555557 0.25833333 0.2611111 0.2638889
0.26666668 0.26944447 0.27222225 0.275 0.2777778 0.28055558 0.28333336 0.28611112
0.2888889 0.2916667 0.29444447 0.29722223 0.3 0.3027778 0.30555558 0.30833334
0.31111112 0.3138889 0.3166667 0.31944445 0.32222223 0.32500002 0.3277778 0.33055556
0.33333334 0.33611113 0.3388889 0.34166667 0.34444445 0.34722224 0.35000002 0.35277778
0.35555556 0.35833335 0.36111113 0.3638889 0.36666667 0.36944446 0.37222224 0.375
0.37777779 0.38055557 0.38333336 0.3861111 0.3888889 0.39166668 0.39444447 0.39722222
0.4 0.4027778 0.40555558 0.40833333 0.41111112 0.4138889 0.4166667 0.41944444
0.42222223 0.425 0.4277778 0.43055555 0.43333334 0.43611112 0.4388889 0.44166666
0.44444445 0.44722223 0.45000002 0.45277777 0.45555556 0.45833334 0.46111113 0.46388888
0.46666667 0.46944445 0.47222224 0.475 0.47777778 0.48055556 0.48333335 0.4861111
0.4888889 0.49166667 0.49444446 0.49722221 0.5 0.50277776 0.50555557 0.5083333
0.51111114 0.5138889 0.5166667 0.51944447 0.5222223 0.52500004 0.5277778 0.5305556
0.5333333 0.53611106 0.5388889 0.5416666 0.54444444 0.5472222 0.54999995 0.55277777
0.5555556 0.55833334 0.56111115 0.5638889 0.5666667 0.5694445 0.57222223 0.57500005
0.57777774 0.5805555 0.5833333 0.58611107 0.5888889 0.59166664 0.5944444 0.5972222
0.6 0.6027778 0.6055556 0.60833335 0.61111116 0.6138889 0.6166667 0.6194445
0.6222222 0.62499994 0.62777776 0.6305555 0.6333333 0.6361111 0.63888884 0.64166665
0.64444447 0.6472222 0.65000004 0.6527778 0.6555556 0.65833336 0.6611111 0.66388893
0.6666666 0.6694444 0.6722222 0.67499995 0.67777777 0.6805555 0.6833333 0.6861111
0.6888889 0.69166666 0.6944445 0.69722223 0.70000005 0.7027778 0.70555556 0.7083334
