result_model/ex2_nsde.pth (torch, 23825 bytes, 21 tensors)

weight f4 [20, 3]
000000 0e cf 0c 3f 02 63 5e be e8 48 40 3e 68 36 ca 3d
       0.5500344 -0.21717456 0.18777812 0.098736584
000010 0e 8b 85 be 00 48 2a bc fa e4 4e be 37 2c ff be
       -0.26082653 -0.010393143 -0.20204535 -0.4983842
000020 1a 34 90 be cf fb 08 bf 66 a6 1a bc d3 bc d2 3e
       -0.2816475 -0.5350923 -0.009439087 0.41159686
000030 49 6b ab 3e ca 0e 66 3e dc 7f a9 be f3 5b 10 3f
       0.3348029 0.22466579 -0.3310536 0.56390303
000040 2b 09 b0 3e 98 7b ac 3e cd 1a a0 3e f8 79 d3 3d
       0.34381995 0.33688045 0.31270447 0.10325998
000050 58 09 59 3e 81 d8 9b 3e 76 f7 17 3e 2d d9 aa be
       0.2119497 0.30438617 0.14840493 -0.33368817
000060 20 85 c3 bc 4a 8f 16 be 4c ed 55 be 6c f4 02 bf
       -0.02386719 -0.14703098 -0.20891303 -0.5115421
000070 3f 64 8e be 38 ce 9b 3d 4b 86 30 3e 10 cd 9b 3e
       -0.27810857 0.076076925 0.17238729 0.30429888
000080 39 56 2d be 68 2c 01 3f 74 ee dc bd 40 22 df be
       -0.16927423 0.50458384 -0.10787669 -0.43580818
000090 99 53 b1 bd 10 a1 0e 3f f1 0f d3 be e6 6e f2 be
       -0.08658523 0.5571451 -0.412231 -0.47350234
0000a0 94 2a a2 3e 14 ab 32 3e 37 1c ed be 8c 2e 1a be
       0.3167311 0.17448074 -0.4631059 -0.15056819
0000b0 9a 64 65 be 7f da ff bd 7f 82 a3 3d 6b 89 a2 3e
       -0.22401658 -0.12492847 0.079838745 0.31745467
0000c0 05 96 c0 3e 50 d2 3d 3e 9a 7d 99 be 92 20 98 3e
       0.37614456 0.18537259 -0.2997864 0.2971235
0000d0 53 20 e5 3e fa ee 9f be 00 eb e5 3e ec 59 22 3e
       0.44751224 -0.31237012 0.44905853 0.15854615
0000e0 27 03 ec 3e e4 9b 4d 3e 8b 64 8e be fa 0d 91 be
       0.46096155 0.20078999 -0.27811083 -0.28330976

bias f4 [20]
000000 90 f9 41 3d 02 e1 04 bf f4 5f a2 3e 8e a6 0e bf
       0.047357142 -0.51905835 0.3171383 -0.5572289
000010 09 e0 33 be 21 1f 15 bf 19 f5 14 bf 3c ec e1 be
       -0.17565931 -0.58250624 -0.5818649 -0.44125545
000020 20 91 f2 bd 48 54 1c 3e a1 4e 92 3a 1c 59 69 3e
       -0.11844087 0.15266526 0.0011162349 0.22787899
000030 dc f3 29 bd 27 c1 15 bf 0c 31 d8 bd 28 cf 19 bf
       -0.041492328 -0.5849785 -0.1055623 -0.6008172
000040 0a 18 fe 3e c4 89 17 be cf 85 79 3e 28 ba 9c bd
       0.49627715 -0.14798647 0.2436745 -0.07652694

weight f4 [20, 20]
000000 0f aa e0 bd 30 9e 9e 3d e8 10 61 bd e1 3a 4a 3e
       -0.10969936 0.077450156 -0.054947764 0.19749023
000010 4d 26 34 be 7f 0e 5c 3e 90 a4 f2 bd 17 30 10 3d
       -0.17592736 0.21489905 -0.11847794 0.035202112
000020 38 9a 39 3e b0 b2 77 bd b5 f6 60 bd 2d 50 05 be
       0.18125236 -0.060473144 -0.05492278 -0.13018866
000030 0c b5 68 bd b5 12 5b bc 94 03 0e be d1 9a 37 be
       -0.056813285 -0.013371159 -0.13868552 -0.17930152
000040 ef cf 5a 3e 8b 1a 54 b9 31 47 b5 bc c5 5c d7 bd
       0.21368383 -0.00020227784 -0.022128673 -0.10515741
000050 dc a8 49 bd 49 f6 e3 bd da 88 2a be a4 c3 c9 3b
       -0.049233302 -0.111309595 -0.16653767 0.0061573554
000060 ea 84 e6 bd bc 87 e6 bd e3 63 42 3e 9c f1 28 3d
       -0.1125582 -0.11256358 0.18983416 0.04124604
000070 38 b2 b3 3d a8 a1 59 3e 63 eb 88 3d 9a 85 55 3e
       0.08774227 0.21253073 0.066855215 0.20851746
000080 02 c3 08 3e 08 3a 94 bd 4b 06 2e be 2e 02 3c 3e
       0.1335564 -0.07237631 -0.16994588 0.18360206
000090 17 31 18 3e bf a3 93 bd eb 0c 36 be 9c a4 d1 3d
       0.14862476 -0.072089665 -0.17778365 0.10236475
0000a0 d8 5c 17 3e 90 5f ca 3d e8 79 c3 3d d0 9d 1d 3e
       0.14781511 0.09881508 0.09544736 0.15392232
0000b0 69 c3 56 be e8 e4 5f 3d b4 24 26 be 52 dd 29 3e
       -0.2097298 0.05466166 -0.16224939 0.16588333
0000c0 2c ca aa bd 1c b9 5e 3e 70 ff f7 3d df 83 5d be
       -0.083393425 0.21750301 0.12109268 -0.21632336
0000d0 58 d1 b0 bc a8 12 5c be a0 7b 51 bc be 4c 02 be
       -0.021584198 -0.21491492 -0.012785822 -0.12724587
0000e0 60 7a f1 3c 49 d3 50 be a8 9f 00 be 6e ca 0e 3e
       0.029477298 -0.20393099 -0.12560904 0.13944408
0000f0 a0 b3 2e 3c 66 4d f5 bd ae 96 4a 3e 14 5d 22 3e
       0.010662943 -0.11977653 0.19784042 0.15855819
000100 e8 ad 51 be 80 e8 6c bd b0 f6 b8 bc 0a 6d 15 be
       -0.20476496 -0.057838917 -0.022578567 -0.14592376
000110 8a fd 22 3e c0 84 3e bd 60 f3 24 3c 06 1a 3b 3e
       0.1591703 -0.04651332 0.010067791 0.18271646
000120 3e df 09 be 20 22 4e 3e 70 45 a1 3d e2 ac 02 be
       -0.13464066 0.20130205 0.07874572 -0.12761262
000130 c6 63 57 3e 1e 7c 4c 3e cc b5 3a be 9f 92 32 be
       0.21034154 0.19969222 -0.18233413 -0.17438744
000140 c0 83 24 bc e6 d8 2d be 50 6b 1c 3c 64 04 40 be
       -0.010041177 -0.16977271 0.00954707 -0.18751675
000150 97 44 a7 3d 03 ab 00 be fa d2 fb bd 47 b0 c9 3d
       0.08167379 -0.12565236 -0.122961 0.09848075
000160 40 e9 bd 3d 38 a9 52 3d 3c 0a c7 3d 78 31 5f bd
       0.092730045 0.05143091 0.09718749 -0.054490536
000170 7c 9d 11 be 6e bf 08 bd f0 45 21 3e 17 fb 5d bd
       -0.14220232 -0.033385687 0.15749335 -0.054194536
000180 9d 6b ed 3d f6 f3 63 3e d0 8d 19 be d2 34 52 3e
       0.11592791 0.22261032 -0.14995503 0.20527962
000190 60 c2 07 3e b8 c6 5d 3e e2 af 13 3e c0 99 8d 3c
       0.13257742 0.21657836 0.14422563 0.017285228
0001a0 0e a5 ba bd 41 c9 19 be 04 0c 15 bd 06 d5 5b be
       -0.09113513 -0.15018179 -0.036388412 -0.2146798
0001b0 54 30 a2 3d 28 54 34 3e 38 a9 36 bd 28 84 42 3d
       0.07919374 0.17610228 -0.044594973 0.047489315
0001c0 11 b1 42 be 54 da c0 bd 7a 41 91 bd 4c cc 16 be
       -0.19012858 -0.09416643 -0.07092567 -0.1472637
0001d0 c4 2c 6e bd 8a 97 5d 3e dc 97 17 bd 98 66 43 3e
       -0.05814816 0.21639839 -0.03701006 0.19082105
0001e0 5c ef d0 bd d0 3f ee 3c 98 79 10 bd 52 45 10 be
       -0.10201904 0.029083163 -0.03527221 -0.14088944
0001f0 84 3d 0f be 72 ed 48 be 02 e9 1e 3e 7c a2 f8 bd
       -0.1398831 -0.19621828 0.15518573 -0.121403664
000200 75 82 1f be c0 6f fd bb 8c a9 5d be b4 b2 bf 3d
       -0.15577109 -0.007734269 -0.21646708 0.09360257
000210 a8 f2 5d 3d a0 6f 91 3b 22 36 2c 3e 00 8f 20 3a
       0.054186493 0.0044383556 0.16817525 0.0006124824
000220 d6 b3 51 3e 38 21 c7 bc f0 5d 4f 3d 6c b9 34 be
       0.20478758 -0.024307832 0.050626695 -0.17648858
000230 f9 9b 0d be d8 0b 5e 3d 68 a1 92 3d 1e c4 57 3e
       -0.1382903 0.054210514 0.07159692 0.21070907
000240 74 33 ac 3d bd b2 3f be 92 0c 64 be 52 85 24 3e
       0.084082514 -0.18720527 -0.2227042 0.16066483
000250 70 9a fa 3c 78 6e 9c 3c 31 71 e1 bd 88 a9 40 3d
       0.03059122 0.019095644 -0.11007918 0.047036678
000260 29 dd de bd 50 28 ea 3c 2e c8 5d 3e 40 37 54 be
       -0.10882027 0.028583676 0.21658394 -0.20724201
000270 20 07 1c 3d f4 9c bf 3d c4 b4 10 be 3c 02 66 bd
       0.038092732 0.09356108 -0.14131457 -0.056154475
000280 84 25 91 3d 80 9a f7 3c 58 86 b5 3c e6 d1 5b 3e
       0.07087234 0.030225039 0.022158787 0.21466789
000290 50 cf 53 be 94 6e 27 3e b8 fb 48 3d b1 af 4b be
       -0.20684552 0.16350776 0.049068183 -0.1989124
0002a0 44 2e 95 3d 28 8a a5 bd 7c 71 93 bd 6c 30 8e bd
       0.07284215 -0.08082992 -0.0719938 -0.069428295
0002b0 3c a4 02 be 80 70 b4 3a 14 e1 63 3e 30 20 ba 3d
       -0.12757963 0.0013766438 0.22253829 0.090881705
0002c0 89 b5 56 be 12 f0 02 be 4c f7 0c be 98 73 36 3d
       -0.20967688 -0.12786892 -0.13766211 0.044543833
0002d0 76 2e 0e be dc 4f 0c bd 94 aa 24 bd e9 c5 4c be
       -0.13884911 -0.034255847 -0.04020174 -0.19997372
0002e0 57 08 fa bd a4 23 60 be 22 7b 3e 3e d6 4b 36 3e
       -0.12208622 -0.21888596 0.18601659 0.17802367
0002f0 9e cd 45 be 4b 41 5d be a8 d0 e0 bc a0 86 b1 bd
       -0.19316718 -0.21606939 -0.027443245 -0.08668256
000300 20 8b 24 be 04 c9 ce 3d 70 1e 2a bc 50 67 74 bd
       -0.16068697 0.100969344 -0.010383233 -0.05966884
000310 a0 ec 92 bb d4 64 57 be 0e a4 45 3e 26 ff 17 3e
       -0.0044837743 -0.21034557 0.19300863 0.14843425
000320 9c 85 e8 3d f4 70 bd 3d 90 08 68 bd 4d 4d 57 bd
       0.11353609 0.0925006 -0.05664879 -0.052563954
000330 8d 5b 72 bd dd a9 b8 bd c2 6e 44 be c4 92 fc bd
       -0.05916934 -0.09016774 -0.19182876 -0.12332681
000340 ac aa 4d bd 86 43 24 be 66 f8 52 be 88 6d 61 3e
       -0.050211594 -0.16041383 -0.20602569 0.22014439
000350 dc 33 0d 3e c0 aa 39 3d 68 c3 c4 3d d3 c8 61 bd
       0.13789314 0.045328856 0.09607583 -0.05512316
000360 18 59 36 3e 0d 79 70 3c 74 95 0f 3e 2c 88 45 3e
       0.17807424 0.014677298 0.14021856 0.19290227
000370 7a ef 9c bd c0 48 20 be c4 f6 11 3e 18 ce 2e be
       -0.07662864 -0.15652752 0.1425429 -0.17070806
000380 58 5e a0 bd 9d b0 4d be 70 18 0b bd 18 ca 46 3d
       -0.07830495 -0.20086904 -0.033958852 0.048532575
000390 f0 01 e1 bc 1a 30 3d 3e 9f 94 2b be f8 38 8b 3d
       -0.027466744 0.1847538 -0.16755913 0.06797975
0003a0 4f a6 62 be 70 c3 a5 bd 1a 3a 16 3e 68 4f 43 bd
       -0.22133754 -0.08093917 0.14670601 -0.04768315
0003b0 98 66 2b be 90 85 ff 3d 30 df 12 3e c8 c2 cf 3c
       -0.16738355 0.12476647 0.14342952 0.025361434
0003c0 56 50 01 be a6 c0 1e 3e 90 0f fa 3d 17 7b f6 36
       -0.12628302 0.15503177 0.122099996 7.345701e-06
0003d0 90 a0 d2 3d 77 b8 d0 3d c7 13 95 bd a9 ed 31 be
       0.10284531 0.10191434 -0.07279163 -0.17375816
0003e0 90 7e 1b 3d f9 b5 20 be 94 41 20 bd f5 a4 05 be
       0.037962496 -0.15694417 -0.03912504 -0.13051207
0003f0 73 00 b2 bd c9 9d 0b 3e 04 37 58 bd 86 b1 22 3d
       -0.08691492 0.13634409 -0.052786842 0.03972008

bias f4 [20]
000000 d0 e8 4f 3e 7a 9d 7d bd e1 dd 33 be 18 47 53 be
       0.20303655 -0.06191776 -0.17565109 -0.20632589
000010 28 74 1a be f0 6e 8a bc 70 1b 0e 3e 00 4f 0b bb
       -0.15083373 -0.016898602 0.13877654 -0.0021256804
000020 7f 7b 50 be 51 94 4b be b5 db 48 bd 50 ac 95 3d
       -0.2035961 -0.19880797 -0.049037654 0.073082566
000030 76 f9 61 3e e6 c2 2c be 86 c3 22 3e 1e 60 18 be
       0.22067818 -0.16871223 0.15894899 -0.14880416
000040 68 16 11 3e 6d 1e 20 3e 22 ea 45 be 48 a7 44 bd
       0.14168704 0.15636607 -0.19327596 -0.048011094

weight f4 [1, 20]
000000 ec 44 9b 3a 1d 1c 4b 3d e9 43 17 be c8 de c1 3d
       0.0011846102 0.049587358 -0.14772 0.0946632
000010 d7 62 4f bd 18 21 17 bd 64 ac 13 bd 26 66 a0 bd
       -0.05063137 -0.036896795 -0.036053076 -0.07831983
000020 10 d0 19 bc 10 dd de bd 56 8f 40 3a 04 86 3f be
       -0.009387985 -0.10882008 0.00073455775 -0.18703467
000030 8c 5f d7 bd 4a 27 e2 bb b4 13 a6 3a 91 22 31 3e
       -0.10516271 -0.0069016563 0.0012670667 0.17298342
000040 a4 80 44 3e 43 de ad bd 30 65 39 bd 96 7b ed bd
       0.19189698 -0.08489659 -0.045262516 -0.11595838

weight f4 [20, 3]
000000 7b 40 c8 be 7c db 51 be 90 b2 09 bf dd 58 2c 3e
       -0.39111695 -0.20493883 -0.5378809 0.16830774
000010 cf 31 a2 be 88 02 0c 3f 05 59 f0 bd c0 a1 e6 3e
       -0.31678626 0.5469136 -0.11735729 0.4504528
000020 f4 cd 00 3f 9b 7c 86 be 9b ca 0b 3e b3 3f bd 3e
       0.5031426 -0.2626694 0.13651507 0.3696266
000030 31 4f ce 3e 83 f8 b1 bd 70 82 e3 3e ce c4 bc 3e
       0.40294793 -0.08689978 0.44435453 0.368689
000040 1d 59 1a 3e da 57 03 3f 77 08 0f be a9 68 b3 3d
       0.15073057 0.51305926 -0.13968073 0.08760197
000050 88 81 d3 3e bf e9 b2 be 3b 4f ec be 94 6c b1 be
       0.41309762 -0.3494396 -0.46154198 -0.3465315
000060 97 be 16 be 09 a5 6d 3e a4 b5 dc be ac 85 05 3f
       -0.14721142 0.23207487 -0.4310733 0.5215709
000070 34 89 ff be e0 b0 91 3c f2 99 39 be f4 20 0e bf
       -0.49909365 0.017784536 -0.18125132 -0.5551903
000080 18 8f 9b be 29 c6 a2 3e 89 74 1b 3f af 32 04 be
       -0.3038261 0.3179181 0.60724694 -0.1290996
000090 5e 1c 6b be 88 a8 b2 be 30 06 af 3e fe 5a 10 3e
       -0.2296004 -0.34894204 0.34184408 0.14097211
0000a0 08 85 0a 3f 9c c7 15 3f f4 bc 5a bd 9a 68 d1 3d
       0.5410924 0.58507705 -0.053402856 0.10225029
0000b0 b1 7e 9a 3d 7c d2 7f be f0 a1 1f be b7 50 84 be
       0.07543696 -0.24982637 -0.15589118 -0.2584283
0000c0 80 27 02 3f ac 9b 03 bf fd fd 11 bf 94 4e cb bd
       0.5084152 -0.5140941 -0.5702818 -0.09927097
0000d0 a2 d7 3e be 40 d8 87 3d 10 d0 e9 3e 1c ee ca be
       -0.18636945 0.06633043 0.45666552 -0.39634788
0000e0 50 a0 51 be c4 03 98 be e4 5f f5 b9 80 e3 8f bc
       -0.2047131 -0.29690373 -0.00046801486 -0.017564535

bias f4 [20]
000000 be de 43 be 85 43 d6 3e 67 e0 8e be 92 90 3e 3e
       -0.19127938 0.41848388 -0.2790558 0.18609837
000010 29 64 21 3e ba c8 1e 3f 47 fe 04 be 30 35 74 3d
       0.15760864 0.62025034 -0.12987624 0.059621036
000020 94 50 e7 3e e2 5e d4 be b4 14 c7 be d6 3b d9 3d
       0.45178664 -0.4147864 -0.38882983 0.10607116
000030 58 a3 e9 3e 99 b8 ad be af 37 a7 3e d8 97 69 3e
       0.45632434 -0.339299 0.3265967 0.2281183
000040 b0 05 b1 3d 3c 84 e0 3e c0 14 39 3d 20 81 f8 be
       0.08643663 0.43850887 0.045185804 -0.48536015

weight f4 [20, 20]
000000 24 d8 16 bd cc 51 99 bd 44 9e 5d bd 5a 7a 5a 3e
       -0.03682722 -0.07486305 -0.054106012 0.21335736
000010 a8 90 ce bc 10 71 0d be 80 73 9c 3b 60 59 8a 3d
       -0.025215462 -0.13812661 0.004774511 0.06755328
000020 b0 60 52 3d 78 6e fe bc 90 90 2a 3e 60 f6 19 3d
       0.05136174 -0.031058535 0.16656709 0.037588477
000030 c0 71 21 3b 30 15 56 be 14 e1 cc 3d 61 e4 1c be
       0.002463445 -0.2090652 0.10003868 -0.15321495
000040 c0 29 af 3d 18 c5 c1 3d 98 99 32 3d d8 a4 23 3e
       0.08552885 0.09461421 0.04360351 0.15980852
000050 00 06 cd 3a 48 01 fb bd 9e a3 74 bd f5 69 04 3d
       0.0015642047 -0.12256104 -0.05972635 0.03232761
000060 d9 60 0d 3e 22 fd d3 3c c3 4a 5a 3c b8 2c 57 3e
       0.13806476 0.025877539 0.013323489 0.21013153
000070 96 d3 c4 3d 95 e1 64 be b4 6a 5a be 86 9a 12 3e
       0.09610669 -0.22351678 -0.21329767 0.14316759
000080 32 03 2c be 75 22 1b 3d da 70 21 3e 02 58 5c be
       -0.16798094 0.037874658 0.15765706 -0.21517947
000090 f0 89 ce bc da 0b 17 3e 20 62 ab bc b8 ef 52 be
       -0.025212258 0.14750615 -0.020920813 -0.20599258
0000a0 77 f2 0c be 14 7f 99 bd 32 a3 a9 bd d0 2e 84 3c
       -0.13764368 -0.07494941 -0.0828308 0.016135603
0000b0 8a 50 bd bd 40 e5 b8 3b c4 34 d0 3d 70 9d 8b 3d
       -0.09243877 0.005642563 0.10166314 0.06817138
0000c0 0f 44 e4 bd 00 d2 af 3d ac 32 41 3e 8a 16 18 3e
       -0.11145794 0.08584976 0.18866986 0.14852348
0000d0 58 48 15 3d 06 6f 0f be 5c 04 09 be da 61 5f 3e
       0.036445946 -0.14007196 -0.13380569 0.21814671
0000e0 67 fc 33 be a8 a1 02 bd 18 57 50 3e 80 c8 31 bb
       -0.17576753 -0.03189245 0.20345724 -0.0027127564
0000f0 1e 93 45 be 34 a4 3a 3e 2c ca 10 be 2e b0 83 be
       -0.19294402 0.18226701 -0.14139622 -0.25720352
000100 ba a9 9e bd 68 c1 4d be 8c 11 0f 3d 2a 31 33 be
       -0.077472165 -0.2009331 0.034928843 -0.17499223
000110 3d 2d 29 3e a3 b4 ca bd b6 c5 3d 3e 5f 10 93 3d
       0.16521163 -0.09897735 0.18532452 0.07180857
000120 b8 fb d2 bd da 2f 39 3d d4 18 33 3e a0 7b 55 3d
       -0.10301918 0.04521165 0.1748994 0.05211985
000130 be 94 fe bd b0 69 f0 bd 9e ee 0f 3e 4d 72 2b be
       -0.12430714 -0.11738908 0.14055869 -0.16742821
000140 a8 c3 55 3e a6 91 19 be a8 ac 5e 3e 75 d9 97 bd
       0.20875418 -0.14996967 0.2174555 -0.074145235
000150 7a 7d af bc b4 8e 5e 3e ae d6 1e 3d c0 4c 2a bd
       -0.021422137 0.21734124 0.038778953 -0.0415771
000160 da ef 5e 3e f8 68 e8 3d c2 52 0f 3e 00 f9 55 3c
       0.21771184 0.11348146 0.13996413 0.0130598545
000170 86 39 0d 3e 37 f8 12 3e 2d 92 af 3c d0 94 92 bd
       0.13791475 0.14352499 0.021432007 -0.0715729
000180 a8 0a 9d bc 6e 25 03 be 48 7f 08 3e 88 ac 1e be
       -0.01917012 -0.12807247 0.13329804 -0.15495503
000190 20 1c 42 bc 7c 23 c5 3d 60 b6 28 bd c4 5c a8 bd
       -0.011847526 0.09625909 -0.04118955 -0.08220819
0001a0 e8 e1 35 3e ec 70 65 bd ba 8a c3 bd 2c 47 4f be
       0.17761958 -0.056015894 -0.09547944 -0.20241994
0001b0 dc d5 68 bd ba ae 3f 3e b0 7d 5e 3c 82 1b a9 bd
       -0.056844577 0.18718997 0.013579771 -0.082572
0001c0 2e 3a a0 bd 8a 18 16 3e 7a 12 e5 bd 24 35 54 3e
       -0.07823597 0.14657798 -0.11185165 0.20723397
0001d0 3c 9c 34 bd b4 54 5c be b8 79 56 3d 80 ce ff 3a
       -0.04409431 -0.21516687 0.052362174 0.0019516498
0001e0 bd c5 59 be 82 f2 23 be 4c d5 39 bd a6 9f 05 3e
       -0.21266837 -0.16010478 -0.04536943 0.13049182
0001f0 be b8 0b be 5c 45 e5 3d 00 59 b7 3a 80 15 e6 3c
       -0.13644692 0.1119487 0.0013988316 0.028086424
000200 2c 07 b1 bd 60 e9 01 bd 8d cb 14 be 4e 64 2e be
       -0.08643946 -0.031716704 -0.14530773 -0.1703045
000210 54 ee ea 3d 70 19 9e 3c 8c f4 1b be 80 36 7a bb
       0.11471239 0.019299239 -0.15230006 -0.0038179457
000220 d8 bc 07 3d f4 2a bd 3d 90 41 0f 3d 29 78 dd bd
       0.03313908 0.09236708 0.034974635 -0.10813934
000230 2c 96 39 3e 84 1d 2e 3e e2 cc 50 3e 3b d4 36 bd
       0.18123692 0.17003447 0.20390657 -0.044635992
000240 42 23 58 3e 72 aa 0d 3b 5e 84 38 be 1e 5e 52 be
       0.211072 0.0021616486 -0.18019244 -0.20543715
000250 42 89 0a 3e 98 e8 76 3d 98 2a 9b 3d 29 4f 5a 3d
       0.13528922 0.060280412 0.075764835 0.05329815
000260 da 52 a4 bd 87 01 69 3d ee ba 00 3d c2 7b b3 bd
       -0.08023615 0.056886222 0.03142827 -0.08763839
000270 14 f3 53 3e dd dc f2 bd 6a 05 5d be 08 b2 0a 3e
       0.20698196 -0.118585326 -0.21584097 0.13544476
000280 70 75 61 3d 04 00 b6 bd f1 e0 18 3e 51 05 d3 bd
       0.055043638 -0.08886722 0.14929558 -0.103037484
000290 62 c4 2d 3e 79 42 32 be 12 b8 65 be c0 a8 bf 3b
       0.16969445 -0.1740817 -0.22433499 0.005848974
0002a0 72 93 8a be 5e ea 3b be 20 2b d7 3b bf d7 0b 3e
       -0.27065617 -0.18351123 0.00656642 0.1365652
0002b0 8c a7 c5 bd 19 3a 5f bd aa bc f3 3d 18 a6 4e 3d
       -0.09651098 -0.054498766 0.11901219 0.050451368
0002c0 48 72 b5 3d ec 5c fd 3d 40 9d 30 bb 43 90 e2 3d
       0.08859688 0.12371239 -0.0026949197 0.11062672
0002d0 a6 1c fc bd c5 87 e0 3d 4c 22 8f bd 8a d3 0b be
       -0.12310152 0.10963396 -0.069889635 -0.13654914
0002e0 75 57 e7 3d 5d 62 3e 3e 14 af a2 3d f6 d1 03 3e
       0.11295978 0.1859221 0.0794355 0.12873062
0002f0 e6 88 ef bd e0 06 bc 3c 06 9c 29 be 53 51 1d bb
       -0.11696033 0.022952497 -0.16563424 -0.0024004772
000300 b8 c8 55 bd fd 32 8b 3e d4 4f 13 3c 19 07 27 be
       -0.052193373 0.27187338 0.0089912005 -0.16311301
000310 40 34 57 bb 20 78 6e bc b0 79 31 bd 9f 06 a6 bd
       -0.003283754 -0.014555007 -0.04332894 -0.081067316
000320 a6 90 8a bd 88 f2 c4 3d c0 69 07 be ba 2e ab bd
       -0.06765871 0.09616572 -0.13223934 -0.08358522
000330 5e b7 58 be 80 88 48 3e f6 e5 48 3e 84 8a 5f bd
       -0.21163699 0.1958332 0.19618973 -0.05457546
000340 b0 a9 07 be 2a 14 16 be b4 91 19 be a0 42 d1 bd
       -0.13248324 -0.1465613 -0.14996988 -0.10217786
000350 28 26 28 bd a3 0b 62 be 40 9c 3b 3e b4 7e 38 3e
       -0.041052014 -0.22074752 0.18321323 0.18017083
000360 70 14 d0 3c e7 1b 5a be c8 9f f9 3d a0 bc c8 bd
       0.02540037 -0.21299706 0.12188679 -0.09801602
000370 fa 56 45 3e 58 60 75 bd a0 bb 93 3d 41 c7 f0 bd
       0.1927146 -0.059906334 0.07213521 -0.11756755
000380 e8 29 5f 3e d4 52 d3 bd ec 70 d5 3d c4 75 bd 3d
       0.2179333 -0.103185326 0.10421929 0.09250978
000390 e2 10 50 3e 90 da dd bd a2 35 cb bd 57 9f 49 be
       0.2031894 -0.10832703 -0.09922339 -0.1968969
0003a0 32 5c ce bd 1c 10 1c bd 48 3c 35 bd 68 6e ea 3d
       -0.100761786 -0.0381013 -0.04424694 0.114468396
0003b0 0c 9e 7b bd 74 df 09 be c8 e0 b0 bd 5a 85 64 be
       -0.061430022 -0.13464147 -0.086366236 -0.22316495
0003c0 33 13 49 be 28 3c 9b bd 72 3c 31 be b0 c3 48 bd
       -0.1963623 -0.07579833 -0.17308214 -0.049014747
0003d0 94 ea 23 bd f0 04 d8 bc 04 b0 80 bd d8 1c 45 3e
       -0.040018633 -0.026369542 -0.06283572 0.19249284
0003e0 10 eb 96 3d 66 74 64 3e 22 b0 0e be 98 76 40 3e
       0.07369053 0.22310027 -0.13934377 0.1879524
0003f0 d2 20 31 3e 40 40 c8 bd 82 01 d4 bd 2e 27 18 3e
       0.17297676 -0.0977788 -0.1035185 0.14858696

bias f4 [20]
000000 90 a0 a1 bd 5e fe 98 3e 58 0b db bd 33 e3 a3 bd
       -0.07891953 0.29881567 -0.10695523 -0.08002319
000010 35 9e 2e 3d 5c 79 38 3e e7 72 eb bd 70 db e6 3d
       0.042631347 0.18015045 -0.11496525 0.11272323
000020 9f 3c 34 be 52 96 fc 3b d0 6c e0 bc b2 7d 30 3e
       -0.1760125 0.0077083493 -0.027395636 0.17235449
000030 7c 54 e0 3d 5c b4 51 3d 21 a2 59 be 4e c6 34 be
       0.10953614 0.051197395 -0.21253254 -0.17653772
000040 36 84 08 be b1 28 95 3e 34 c7 84 3e b8 02 ae 3d
       -0.13331684 0.29132608 0.2593323 0.08496612

weight f4 [1, 20]
000000 10 9a 43 3e 9e b1 76 be 40 e4 9e 3b 31 67 f7 3d
       0.19101739 -0.24091193 0.004848987 0.12080229
000010 30 b3 85 be 28 1f 2e be 60 39 9b 3c 1a 9c 3c be
       -0.26113272 -0.17004073 0.018948257 -0.18418923
000020 80 92 ba 3a 38 f6 3c be ee 74 a8 bd f0 d0 be 3d
       0.0014234334 -0.184533 -0.082254276 0.093171954
000030 08 b3 fb bc fe 85 2d be b1 6d 2f be 48 d2 43 3d
       -0.030725017 -0.16945645 -0.17131688 0.04780796
000040 a0 01 81 3b eb 41 36 be f5 6c 23 be 1a d9 ae bd
       0.0039369613 -0.17798583 -0.15959533 -0.085375026

weight f4 [20, 3]
000000 28 1d 14 3e 56 c3 6f be 60 63 82 bd f4 39 a8 bc
       0.14464247 -0.23414358 -0.063666105 -0.020535447
000010 fa 7a 7d be 13 31 11 3f f0 c9 25 bd 04 5c 05 bf
       -0.24753943 0.56715506 -0.040475786 -0.5209353
000020 83 a8 a3 be 7c 95 a5 bd 02 de 04 bf 8b d2 e2 be
       -0.31964502 -0.080851525 -0.5190126 -0.44301257
000030 f0 30 48 3d e3 b4 12 bf b0 c0 10 3f 0c d7 db bd
       0.048874795 -0.5730726 0.5654402 -0.10734376
000040 a4 d4 a8 3d a1 24 f7 be a7 68 bc bd 76 7d 9d 3d
       0.08243683 -0.48270133 -0.09199648 0.076899454
000050 51 71 e5 be 74 9e bd 3e d3 a3 9b be b0 f5 22 3e
       -0.44813016 0.37034953 -0.30398425 0.15914035
000060 d9 78 a5 be 04 8e d5 bd f0 3c 24 bd ea 5e b8 be
       -0.32318762 -0.10427478 -0.040097177 -0.36009914
000070 be b7 4d be 50 8d 9a 3d 2e 0b 21 3e 06 5d 62 3e
       -0.20089623 0.075464845 0.15726921 0.22105798
000080 7a 3d 5b be 11 2a ee be 82 89 c8 3e f3 67 3b 3d
       -0.2141017 -0.4651647 0.3916741 0.04575343
000090 e0 c7 15 3e b7 a7 f5 be 28 96 4e 3e 10 d1 df 3e
       0.14627028 -0.4797952 0.20174468 0.4371419
0000a0 9d 36 a4 be d0 78 7a 3d 76 6c 7e 3d 9f c2 07 3f
       -0.32072917 0.061150372 0.062115155 0.53031343
0000b0 a4 47 0b bf b0 08 28 3d 92 a1 8d be d0 18 71 bd
       -0.5440619 0.04102391 -0.2766233 -0.058861554
0000c0 0c c8 fa bd 00 ed 5d bc c6 08 84 be f6 7c 0a 3f
       -0.12245187 -0.013545275 -0.25787944 0.54096925
0000d0 a7 fa df 3e 43 6d da 3c 86 0e cf 3e 9d 7c 94 be
       0.4374592 0.026663428 0.40440768 -0.29001322
0000e0 4c 54 02 be f5 48 40 be a1 de cd 3e 58 d8 c9 be
       -0.12727469 -0.18777831 0.40208915 -0.3942287

bias f4 [20]
000000 46 45 5d be ab 31 01 3f a2 96 03 bf c0 5c 38 bd
       -0.21608457 0.5046641 -0.5140172 -0.04501033
000010 d0 8b a3 3d dc 0c 0f 3f 13 eb eb 3e 30 77 f9 3e
       0.079856515 0.55878997 0.46077785 0.48723745
000020 b6 e5 a9 3e 58 7e be 3d 55 fd 6e bd fd 5a 92 3d
       0.33183068 0.09301442 -0.058347065 0.07146261
000030 05 9f 0f bf a4 c2 a7 3e 17 30 46 3e 2c 0c 16 3e
       -0.5610202 0.32765687 0.19354282 0.1465308
000040 38 40 b5 3e 7d f4 e0 3e ac 73 61 3e 8b 72 0a be
       0.35400558 0.4393653 0.22016782 -0.13520257

weight f4 [20, 20]
000000 30 a4 45 3c 54 a5 54 be c0 13 d5 3c 7e c0 47 3e
       0.012063071 -0.20766193 0.026010394 0.19507024
000010 f0 25 92 3d c4 0f 25 be cc 5e 53 be 52 a4 24 be
       0.07136142 -0.16119295 -0.20641631 -0.16078308
000020 15 14 60 be f4 79 10 be 9a ff c3 3d 90 1e 55 3e
       -0.2188266 -0.14109021 0.095702365 0.2081244
000030 52 9e c1 bd 0c a7 69 bd 33 3b c2 bb 94 ee 40 be
       -0.09454025 -0.057044074 -0.0059274673 -0.1884101
000040 2e cd 64 3e 46 be 6c be 32 b7 3f 3e 13 4f f2 3b
       0.22343895 -0.23119459 0.18722227 0.0073946803
000050 4f 0c 22 be 56 9f 59 3d 20 f6 a9 bc 68 2f ca 3d
       -0.15825008 0.05313047 -0.020747244 0.09872323
000060 dc 86 2a bd 90 ab 6e be 0d b9 65 be 1c be 44 3e
       -0.04163252 -0.23307633 -0.22433873 0.19213146
000070 c3 c4 d7 bd a0 1a 0b 3d b8 ef 83 bd 16 69 e0 3d
       -0.10535576 0.03396094 -0.06442207 0.109575436
000080 9a 27 9f bd 90 9a 1e 3d 1b 61 59 bd 48 d3 b1 bc
       -0.07771225 0.03872162 -0.053071123 -0.021707192
000090 b0 d7 65 bc 5c 9c 39 bd 27 fe 25 be 09 ea 14 3e
       -0.014028475 -0.04531513 -0.16210233 0.14542402
0000a0 f4 e2 8f bd 1a 8e dd bd 80 83 06 3e 48 93 6d 3d
       -0.0702571 -0.10818119 0.13136101 0.058001786
0000b0 1a ac 5c 3e 85 94 87 3e f7 56 7e 3c c4 9f f4 3d
       0.21550027 0.264805 0.015523664 0.119445354
0000c0 08 42 3d bd 4a 63 46 3e 3f 06 44 3c e1 7d 5b 3e
       -0.04620555 0.19373813 0.01196438 0.21434738
0000d0 8a 59 3a 3e 0c 70 12 3e f9 53 bc 3d 0a 59 1c be
       0.18198219 0.14300555 0.09195704 -0.1526834
0000e0 80 9a 47 be 3a f6 3b 3e 1c fa 18 be ac 69 b1 3d
       -0.19492531 0.18355647 -0.14939159 0.086627334
0000f0 60 85 60 3d 30 87 7f bd 58 2f d8 bc e0 62 b9 3d
       0.054814696 -0.062384784 -0.026389763 0.09052062
000100 40 f0 fc bd 60 67 2f 3e 58 30 1e be a4 2a 2f bd
       -0.123505116 0.17129278 -0.15448129 -0.042765275
000110 70 d7 ed 3d 30 fc b8 3d 30 49 6c bc 14 a6 c5 bd
       0.11613357 0.09032476 -0.014421746 -0.096508175
000120 fc c7 9d bd 28 b7 a9 3d f7 25 5a be 00 bb f4 bb
       -0.077041596 0.082868874 -0.21303545 -0.007468581
000130 92 7b 0e 3e a8 24 56 3d 58 c3 c4 bd 3c f4 1a be
       0.13914326 0.052281052 -0.09607571 -0.1513223
000140 a0 39 69 3d 2a c4 02 be 3c 02 f0 3d 70 d5 b4 3c
       0.05693972 -0.12770143 0.11719176 0.022074431
000150 4c 80 0a 3e a3 9b 51 be e4 6a 03 3e 65 bb 41 be
       0.13525504 -0.20469527 0.12833744 -0.18919142
000160 dc 9c 10 be 8a 4f 39 be 20 0e 15 be f6 48 f1 bd
       -0.14122337 -0.18096748 -0.1455617 -0.11781494
000170 a0 ef 90 3d 20 f5 81 3c 80 1c 8c ba ca f4 16 be
       0.07076955 0.015863955 -0.0010689646 -0.14741817
000180 30 3c 98 bd e4 b3 3a bd 68 dd 89 3d a2 c4 0b be
       -0.07433355 -0.045581713 0.06731683 -0.13649228
000190 22 bc 35 3e 30 e7 0a 3d 40 36 ef 3d b6 f3 0c 3e
       0.17747548 0.033911884 0.11680269 0.13764843
0001a0 7a ee a0 bd c6 4b af bd b8 13 13 3d f0 72 1a bc
       -0.07857986 -0.085593745 0.035907477 -0.009426817
0001b0 d7 69 e7 bd d0 e7 67 3d 48 9c 02 be ed b8 0b bd
       -0.11299484 0.056617558 -0.12754929 -0.034111906
0001c0 03 f9 eb bd 0e b0 33 3e fe 40 23 be bc 2d b6 3d
       -0.115221046 0.17547628 -0.15942761 0.08895442
0001d0 68 00 99 3d 91 77 3f 3e bb bc 4d be 55 eb 4a be
       0.074707806 0.18697955 -0.20091526 -0.19816335
0001e0 4e 46 1b be 90 d4 a6 3c 8a 72 e4 bd a2 6e e0 bd
       -0.15163538 0.02036503 -0.11154659 -0.109586015
0001f0 fe d2 2e 3e 3c 42 01 bd 20 72 3a 3e e3 0b 0e be
       0.17072675 -0.031557307 0.18207598 -0.13871722
000200 af 5d da bd 98 f4 ae 3d aa 1c 11 be ba 94 0a be
       -0.106624 0.08542746 -0.1417109 -0.13533297
000210 b4 29 58 bd 5a ac 23 be a8 ae 06 bd de 20 3a be
       -0.052774146 -0.15983716 -0.03288141 -0.181766
000220 78 d4 4e 3e 00 a9 ed 3d 68 ee 56 be 00 97 19 ba
       0.20198238 0.116045 -0.20989382 -0.00058589876
000230 60 a1 2a 3c ef 79 0b 3d 80 44 0c 3e d9 8a 0e be
       0.010414451 0.03405183 0.13698006 -0.13920154
000240 bc 07 01 bd 99 a3 e0 3d ab d4 cc bd 50 6a c1 bd
       -0.031501517 0.10968704 -0.10001501 -0.094441056
000250 7a 99 a7 bd 10 ff 18 be d1 a8 1f 3e eb f8 80 3e
       -0.0818357 -0.14941049 0.15591742 0.2518991
000260 76 33 5d 3e 30 81 1f 3e e4 81 c3 3d dc 91 60 bd
       0.21601662 0.15576625 0.09546259 -0.054826602
000270 e4 f3 09 3e 17 e1 14 3e 38 cd d4 3d 66 42 99 3d
       0.13471943 0.1453899 0.10390705 0.074833676
000280 9a 14 0c 3e f8 f7 3d 3e 08 f4 bb 3c dc e2 e6 3d
       0.13679734 0.18551624 0.022943512 0.11273739
000290 b4 80 d5 3d ea 09 37 3e 2c 49 c5 bd 62 bc 3b 3e
       0.10424939 0.17874876 -0.09633097 0.18333581
0002a0 1a d8 a1 bd 00 de 24 3d 7c 1d 45 bd 62 94 12 be
       -0.07902546 0.04025078 -0.04812382 -0.14314416
0002b0 8c f2 16 3e f6 00 4d be 1a 86 2b be 7c 95 bb 3d
       0.14740962 -0.20019898 -0.16750374 0.09159371
0002c0 d4 5b eb 3d 05 ef 46 be 70 4b b4 3d 04 f0 0c be
       0.11492124 -0.19427116 0.08803451 -0.13763434
0002d0 e8 25 aa 3d 57 4c 20 be a2 26 8a bd 48 49 e1 3d
       0.08308011 -0.15654121 -0.0674565 0.110003054
0002e0 f2 a6 1e be 6c 9b b8 bd 8c f8 88 bd ca 54 a0 bd
       -0.15493372 -0.09014019 -0.066880316 -0.07828672
0002f0 00 b9 32 3e f0 77 ca 3c 10 84 26 3d 48 f8 50 bd
       0.17453384 0.024715394 0.04065329 -0.05101803
000300 f0 52 d6 3d 70 54 46 3e 0c 51 4d be dc e5 9b bd
       0.10465038 0.19368148 -0.20050448 -0.076122016
000310 e4 96 f2 3d 65 e0 09 be 20 2b e7 3d 7c 3d 09 be
       0.11845186 -0.13464506 0.11287522 -0.1340236
000320 80 e9 2b bc 40 d0 81 bb d4 30 33 bd ae 3c 24 3e
       -0.010492682 -0.003961593 -0.043747738 0.16038772
000330 ea 81 88 bd c4 51 fe 3d 28 87 b3 3d 30 78 33 be
       -0.06665404 0.12417939 0.087660134 -0.17526317
000340 8b 74 1a be ce 0c 28 3e 20 58 e8 3b f4 4b 2d 3e
       -0.1508352 0.16411135 0.0070905834 0.16923505
000350 1a 6f 2f be 24 29 1b bd a0 7d 34 be b8 8e a6 3d
       -0.17132226 -0.03788103 -0.17626047 0.0813269
000360 2c fe 93 3d 1f 41 0b be b2 9f 0a 3e bb c3 f8 bd
       0.07226214 -0.1359906 0.13537481 -0.121467076
000370 80 75 fa 3b 88 3a 69 bd 80 85 cb ba b8 64 26 3d
       0.0076434016 -0.056940585 -0.0015527457 0.040623397
000380 3c d7 2f be 54 e1 32 be c9 fd 10 be f5 c5 63 be
       -0.17171949 -0.17468768 -0.14159311 -0.22243483
000390 d8 60 de bc 9c ee 0d be 10 a3 09 3d 8e 13 46 3e
       -0.027145788 -0.13860554 0.033602774 0.19343397
0003a0 80 8b dd ba 00 8e d0 3d 9c 8c 5b be ac 98 78 bd
       -0.0016902536 0.10183334 -0.21440357 -0.060692474
0003b0 dc 0a 6e bd cd d9 62 be 98 51 a0 3d 62 b0 97 bd
       -0.058115825 -0.22153397 0.07828063 -0.07406689
0003c0 0d cc 53 be 5a b9 be 3d 1a a2 14 be 46 4e 1b be
       -0.20683308 0.09312697 -0.14514962 -0.15166578
0003d0 60 d2 8b 3c ee 3a 8b 3e 2a e9 cd 3d 24 cb 40 3e
       0.017068088 0.27193397 0.10054238 0.18827492
0003e0 b8 7d 3f 3e 02 89 2d 3e 5f 22 4b 3c 58 10 80 bc
       0.18700302 0.16946796 0.012398331 -0.015632793
0003f0 4c a2 99 3d ea ca ca bd 01 df 84 3e a4 db 06 3e
       0.07501659 -0.09901984 0.25951388 0.13169724

bias f4 [20]
000000 ef 62 89 3c c8 c5 ba bd 33 ad fe 3d b6 bf 3b 3e
       0.016770808 -0.09119755 0.12435379 0.1833485
000010 18 c2 37 3e 39 88 84 bd 8c ff 3b 3e 85 7f d7 3d
       0.17945135 -0.06471295 0.18359202 0.10522369
000020 7c 95 a0 3d fc 7b b6 3d f4 7b 02 bd b6 f3 ea bd
       0.07841012 0.08910367 -0.031856492 -0.114722654
000030 78 f2 ad 3d 72 e5 b5 3d 01 28 0e be 9f e8 ee bd
       0.08493513 0.08881654 -0.13882448 -0.11665463
000040 da d2 29 bc d1 33 0f be 33 26 f7 bd 91 ed 97 bd
       -0.010365212 -0.1398461 -0.12067833 -0.07418359

weight f4 [1, 20]
000000 5e 11 cd ba 91 fa 17 3e e6 76 8b bd 1e ab 0a be
       -0.0015645435 0.14841677 -0.068097875 -0.13541839
000010 34 7a 4f be c3 05 19 be dc b1 0e be 86 c8 4d be
       -0.2026146 -0.14943604 -0.13935035 -0.20096025
000020 d6 65 2d be 40 b4 b6 3d 6a cf 83 bd 84 d0 ee 3d
       -0.16933379 0.08921099 -0.064360455 0.11660865
000030 dd af fc bd 6c 7b 14 3e 0f a1 b4 3d 49 ed 94 3d
       -0.12338231 0.14500207 0.08819782 0.07271821
000040 af 51 e5 3d 7a 45 28 be 14 36 10 3e fa 56 ae 3c
       0.111972205 -0.16432753 0.14083129 0.021281708

weight f4 [20, 3]
000000 4e 70 ca be 36 23 3e be a0 9f 33 3e a8 0f 08 3f
       -0.39538807 -0.1856812 0.17541361 0.5314889
000010 44 00 12 bf 5a bd a7 3e 1f ae 26 be 0e a1 8f 3e
       -0.57031655 0.3276165 -0.1627736 0.28052562
000020 0d 6e 45 3d 48 e0 a8 3d f8 e3 55 be f0 fa 77 3e
       0.048200656 0.08245903 -0.20887744 0.24216819
000030 b8 2a 08 bf 88 89 8e bd f7 08 ee be d4 85 05 bf
       -0.53190184 -0.06959826 -0.46491215 -0.5215733
000040 a3 0f 85 3b d5 e6 28 be 00 32 f5 bc c3 f6 bd be
       0.004060702 -0.16494305 -0.029931068 -0.37102327
000050 f8 d2 ee 3e 6e 03 6b 3e 6e 8d 1f 3e ea e6 f3 3e
       0.4664533 0.22950527 0.15581295 0.4763711
000060 5a 6a b1 3d 04 4b 94 3e 37 15 24 3e 78 7f a5 be
       0.08662863 0.28963482 0.16023718 -0.32323813
000070 7d ce 92 be 3e 9e 29 be 0a 8d 8e bd 69 25 db 3e
       -0.28673163 -0.16564271 -0.06960495 0.4280198
000080 dc c3 0f 3f 00 38 d3 be 36 e1 ac be 0d 0e 92 be
       0.5615823 -0.41253662 -0.33765572 -0.28526345
000090 90 29 2a be b5 51 92 be ae a6 07 be e8 34 9a be
       -0.16617417 -0.28577963 -0.13247177 -0.3011849
0000a0 f1 8a 28 3e c6 d6 de 3e 5e f9 3c be c8 0b a4 be
       0.16459252 0.43523234 -0.18454501 -0.32040238
0000b0 0e 34 07 3f 6c 0c 5a be a8 4b b5 be 5a 58 c1 3e
       0.52813804 -0.21293801 -0.35409284 0.3776272
0000c0 e8 a9 55 3e 15 6b df 3e e9 05 4a be 2a 0a 04 3f
       0.20865595 0.43636385 -0.19728817 0.5157801
0000d0 6b 8b 92 be 3c 1e 27 be 00 cd d6 3d 1a 8b ee be
       -0.28621992 -0.16320127 0.104883194 -0.465905
0000e0 37 76 b5 be 62 96 f9 3d 7b d5 0d 3e f6 dd af 3d
       -0.35441753 0.12186886 0.13850968 0.085872576

bias f4 [20]
000000 02 4c 04 3f 16 c5 a8 3e 26 e0 fe bd 76 ee 0b 3f
       0.5167848 0.32962865 -0.12445097 0.5466074
000010 78 0a e4 3e 09 99 1b 3e a8 b1 0a bf cb 66 c2 be
       0.44539237 0.15195097 -0.5417733 -0.3796905
000020 6a 78 d6 3e b0 41 7d bd 43 2c 55 be 1c 6a e5 3e
       0.41888744 -0.061830223 -0.20817666 0.44807518
000030 80 a1 ae 3d fa 8c ee 3e f0 b7 87 bd 6a ca b0 be
       0.085268974 0.46591932 -0.0662688 -0.3452943
000040 5b 1e d7 be c9 51 ef be 6e 7f 79 be 0e b1 ac be
       -0.42015347 -0.46742085 -0.24365017 -0.33728832

weight f4 [20, 20]
000000 50 85 29 3e 4f 6d f9 bd c4 60 51 3d 80 9f 19 bb
       0.16554761 -0.12179052 0.051117674 -0.0023441017
000010 a1 12 fc bd c8 70 61 bd e0 31 bd bb ba 10 dc bd
       -0.12308241 -0.055039197 -0.005773768 -0.10745378
000020 c9 fd 47 3e ac 19 e4 bd ae 12 c1 bc 52 2e 43 be
       0.19530405 -0.11137709 -0.023568477 -0.19060639
000030 a4 1b 43 3e 7d 13 f2 3d d8 c7 c8 3d 10 e0 9c bc
       0.19053513 0.11820123 0.09803742 -0.01914981
000040 5a 32 b6 bb a2 58 0d 3e 76 f5 0d 3e 93 e2 1a 3d
       -0.0055602016 0.13803342 0.13863167 0.037813734
000050 40 8d 61 3e 5c cc 5a bd 24 82 81 3d a0 da bd 3d
       0.22026539 -0.05341755 0.063236505 0.09270215
000060 e6 92 9c bd bf 3a 67 be 00 19 05 bc eb 28 d5 3d
       -0.07645206 -0.22581004 -0.008123636 0.10408195
000070 31 88 dd bd a8 ee 95 3d 17 86 ed 3d b8 7d 34 3e
       -0.10816992 0.07320911 0.11597841 0.17626083
000080 f8 7a a8 3c 74 1c 18 be 4d 08 20 be a0 76 d4 3b
       0.020566449 -0.14854604 -0.15628166 0.0064838678
000090 75 5b 33 3e e0 29 0c 3c 60 cb b2 3c 47 00 4b be
       0.17515357 0.008554906 0.021825492 -0.19824325
0000a0 50 07 cd 3d 74 c7 af bd 92 10 1d 3d 5e 6e 54 be
       0.100111604 -0.085829645 0.03834588 -0.20745227
0000b0 2b 59 f7 bd 43 e6 26 be 1a af d1 bd ab bd d5 3d
       -0.12077554 -0.16298775 -0.10238476 0.10436567
0000c0 cf 52 38 bd f8 6e d0 bd 27 a9 35 3e 94 9c 9b 3d
       -0.045000847 -0.101774156 0.17740308 0.07598224
0000d0 28 12 00 3e 09 e9 bb 3c fd 47 56 be 48 ab cf 3d
       0.12506926 0.022938268 -0.20925899 0.10140091
0000e0 81 b2 98 3b 00 66 f5 3d 6a c0 d7 bd 55 5b 12 3e
       0.004659951 0.119823456 -0.10534747 0.14292653
0000f0 6f c9 20 be f0 b0 ab 3d 13 38 4d be a4 7f d5 3d
       -0.15701841 0.083833575 -0.20040922 0.10424736
000100 14 28 35 be cc fd bd 3d 58 8f cd 3d 88 ba 86 3d
       -0.1769107 0.092769235 0.10037106 0.06578547
000110 57 bb 05 be f8 45 40 be d0 8c a8 bd 1a ca 51 be
       -0.13059746 -0.18776691 -0.08229983 -0.20487252
000120 26 97 b3 bd a8 b1 9d 3d ca a1 5b 3e c2 04 b4 bd
       -0.08769064 0.07699901 0.21448436 -0.0878997
000130 aa 4c 57 be 52 b3 3e 3e bf f3 d7 bd b6 53 54 be
       -0.21025339 0.18623093 -0.10544538 -0.20735058
000140 a4 05 98 3d 0c 59 61 3e 05 8d 39 3e 9c 2f 79 bd
       0.07422951 0.22006625 0.18120201 -0.06083642
000150 74 57 0b 3e 5a 79 2e bc ae 88 a9 bd 1f bc e5 3d
       0.1360758 -0.01064905 -0.08278023 0.11217522
000160 53 2d 4e 3e 32 0d ba bd 48 22 1b bc 40 75 93 3c
       0.20134477 -0.09084548 -0.0094686225 0.018000245
000170 18 22 75 3d 01 61 23 be 32 21 19 3e 2d d8 2a be
       0.059846967 -0.15954973 0.1495407 -0.16684027
000180 c0 c5 36 3e 10 66 0f 3e 70 4f 0d 3d fb 43 0a be
       0.17848873 0.14003778 0.034499586 -0.13502495
000190 2c a2 a9 3d c8 ff d1 bc 89 8e fb 3d fe b2 2a be
       0.08282885 -0.025634661 0.12283046 -0.16669843
0001a0 d6 51 62 3e 56 d9 c6 bd f0 4a 44 be 08 3b 9a 3d
       0.2210153 -0.09709422 -0.19169211 0.075307906
0001b0 c2 b3 3e b8 dc 12 16 be 16 f6 2f 3e 8e 78 4f be
       -4.5466943e-05 -0.14655632 0.17183718 -0.20260832
0001c0 c4 bf b0 3d c1 9a 7a 3d d8 18 58 3d bc a5 19 3e
       0.086303264 0.06118274 0.052758068 0.15004629
0001d0 ee 7c 81 3b 36 38 4c be a4 83 07 3e d9 f8 06 be
       0.0039516604 -0.19943318 0.1323381 -0.13180865
0001e0 61 ad cf bd 80 1c 36 3d 2c 0b 98 3d 7b ed 17 be
       -0.10140491 0.044460773 0.07424006 -0.14836685
0001f0 5e db 87 bd 94 39 48 be 60 cd 1d 3e 1c ec 58 be
       -0.06633638 -0.19553214 0.15410376 -0.21183819
000200 eb e2 1e be c0 30 e7 3d fd d7 54 3e 90 96 d7 bc
       -0.1551625 0.11288595 0.20785518 -0.026316911
000210 99 a2 30 be f9 da 09 3e 42 57 44 be 82 f0 45 be
       -0.17249526 0.13462438 -0.19173911 -0.19330028
000220 ba 48 04 3e ac fb 0c be a0 3d 56 be 79 0a 2e bd
       0.12918368 -0.1376788 -0.20921946 -0.042490456
000230 24 22 55 be 00 8d 1f bb a0 10 15 bd 26 4b 1d be
       -0.20813805 -0.0024345517 -0.036392808 -0.15360698
000240 12 55 4e 3e 6a e2 0a bd 08 c1 49 3e 71 63 97 3d
       0.20149639 -0.03390733 0.19702542 0.07392014
000250 d1 7e 8b bd 1c 77 e7 3d 6b df 1a 3b 86 4b e5 bd
       -0.06811298 0.11302015 0.0023631703 -0.111960456
000260 10 4a 97 3d 36 0f 16 3e 6c 57 2f bd 60 02 57 3e
       0.07387173 0.1465424 -0.04280798 0.20997
000270 9d 78 68 3c 00 3d 25 3e ea bd a2 bd 5c af e1 bc
       0.014188913 0.16136551 -0.079463795 -0.027549438
000280 10 d0 16 bd 00 97 04 3e e7 e8 e2 bb 00 c0 ea 3c
       -0.036819518 0.12948227 -0.006924737 0.028656006
000290 da d9 17 3e 01 97 98 3c d8 c5 a9 3c e5 d8 63 be
       0.14829198 0.018626692 0.020724222 -0.22250707
0002a0 1a 94 79 bd e0 28 dc 3d 44 92 4b bd b0 f2 2f 3e
       -0.060932256 0.10749984 -0.049700037 0.17182422
0002b0 7e e6 04 be 60 e7 ef 3d f8 25 85 3d 30 68 c2 3d
       -0.12978551 0.11714053 0.065013826 0.094925284
0002c0 d9 42 4d 3e f0 7c b5 3d 0a f0 3a be 5b 47 0a 3d
       0.20045032 0.088617206 -0.1825563 0.033759456
0002d0 5c 39 50 3e 40 94 59 3e c8 8a d0 3d 06 c6 d9 bd
       0.20334381 0.21247959 0.101827204 -0.10633473
0002e0 1c 76 db 3d 30 78 4e 3c 84 8a c1 3d dc 67 57 be
       0.10715887 0.012601897 0.09450248 -0.21035713
0002f0 e8 14 56 be 0a cc ad bd 10 da 0e be 98 7a 05 3e
       -0.20906413 -0.08486183 -0.13950372 0.13035047
000300 b0 3b 34 bc a4 0a 60 3e 00 8e 3d 3c 20 ef e9 bd
       -0.011000559 0.21879059 0.0115695 -0.114225626
000310 ec 4c 0f 3e e8 44 bf 3c e0 88 0c bd 99 6a 1d be
       0.13994187 0.023348287 -0.03431022 -0.15372695
000320 92 38 81 bd fd e8 2b be e9 67 50 3e 14 0f 18 be
       -0.06309618 -0.16788097 0.20352139 -0.14849502
000330 b2 5f 5a 3e ee 2b 2d be 1e a5 2e be 9f 0a 51 3e
       0.21325567 -0.16911289 -0.17055175 0.20414208
000340 2d e4 6c be 71 03 45 be 30 c1 58 3e fa e0 01 be
       -0.23133917 -0.19239594 0.21167445 -0.12683478
000350 a8 6a d8 3d 9b a2 35 be 70 70 20 3c 6d ad 41 be
       0.10567218 -0.1773781 0.009792432 -0.18913813
000360 cd 64 5c 3d c8 ad 10 3d cf 50 1e be 35 20 10 3e
       0.05380707 0.03532198 -0.15460514 0.14074786
000370 40 3d d7 3d a8 d5 b8 bd a3 40 34 be c0 58 e9 bb
       0.105097294 -0.09025127 -0.17602782 -0.0071211755
000380 86 e7 20 3e f0 34 a3 bc 0c e2 cb bd 54 1e 17 be
       0.15713319 -0.019922704 -0.099552244 -0.14757663
000390 99 fc 01 be 00 f1 8b 3b 48 18 ad bc 34 88 84 3d
       -0.12694015 0.004270673 -0.021129742 0.06471291
0003a0 a0 ba 44 3c 96 df 54 3e 9c c2 22 bd ca 5f 29 be
       0.0120073855 0.20788416 -0.039736375 -0.16540447
0003b0 ba 46 5a 3e b0 45 fd 3d 80 2b 2d bd f0 98 22 be
       0.21316043 0.123668075 -0.042277813 -0.15878654
0003c0 96 d4 94 bd c1 31 de bd da 07 f4 3d 88 e9 5e 3e
       -0.0726711 -0.108493336 0.1191556 0.21768773
0003d0 08 d5 33 be 6d 44 de bd ea 65 54 3e 0b 6d ac 3c
       -0.17561734 -0.10852895 0.20742002 0.02104809
0003e0 e4 f3 e1 bd fe 63 d5 bd ed 6a c0 bd 64 84 32 bd
       -0.110328466 -0.104194626 -0.093953945 -0.04358329
0003f0 8a f5 ab bd 49 41 38 3e c4 bb 98 3d ef ed 35 be
       -0.08396442 0.17993654 0.074576885 -0.17766546

bias f4 [20]
000000 8a 4d 1c 3e 3a 72 14 3e fe 1e cd 3c b6 da c5 bd
       0.15263954 0.14496699 0.025039192 -0.096608564
000010 f1 1d 2f be 50 68 55 bd f9 ef 1f bc cb 57 35 be
       -0.17101265 -0.052101433 -0.009761804 -0.17709272
000020 c4 15 92 3c 0d e9 00 be 2a 38 93 3d 5b a5 5c be
       0.017832644 -0.12588902 0.07188447 -0.21547453
000030 b1 fc 19 3e f7 fa 69 bd 51 95 11 3e 66 d6 de bd
       0.150378 -0.057124104 0.14217116 -0.10880737
000040 11 77 de bc d0 ba 15 bd 7f 6d 8b 3d d4 dc 91 bd
       -0.027156385 -0.03655511 0.06807994 -0.07122198

weight f4 [1, 20]
000000 0c 83 f3 bd c7 43 86 3d 4b 01 f2 3d 6e 28 04 3e
       -0.118902296 0.06555896 0.11816653 0.12906048
000010 32 3a 19 be 21 0b 07 be cf c0 04 be 58 d3 b3 3c
       -0.14963606 -0.13187839 -0.12964176 0.021951362
000020 74 c4 07 3e 5c 5d 4a bd 23 bb f3 3d 3c c5 36 3e
       0.13258535 -0.04940544 0.11900928 0.17848676
000030 64 a9 61 bd a0 23 46 3e b8 3a 34 3e bc e0 49 3e
       -0.055093184 0.19349527 0.17600524 0.19714636
000040 0b ae 38 be 80 50 54 3e 05 9e f7 bc d2 7d 52 3e
       -0.18035142 0.20733833 -0.030226717 0.20555809

timegrid f4 [361]
000000 00 00 00 00 61 0b 36 3b 61 0b b6 3b 89 88 08 3c
       0.0 0.0027777778 0.0055555557 0.008333334
000010 61 0b 36 3c 39 8e 63 3c 89 88 88 3c f5 49 9f 3c
       0.011111111 0.013888889 0.016666668 0.019444445
000020 61 0b b6 3c cd cc cc 3c 39 8e e3 3c a6 4f fa 3c
       0.022222223 0.025 0.027777778 0.030555557
000030 89 88 08 3d 3f e9 13 3d f5 49 1f 3d ab aa 2a 3d
       0.033333335 0.036111113 0.03888889 0.041666668
000040 61 0b 36 3d 17 6c 41 3d cd cc 4c 3d 83 2d 58 3d
       0.044444446 0.047222223 0.05 0.05277778
000050 39 8e 63 3d ef ee 6e 3d a6 4f 7a 3d 2e d8 82 3d
       0.055555556 0.058333334 0.061111115 0.06388889
000060 89 88 88 3d e4 38 8e 3d 3f e9 93 3d 9a 99 99 3d
       0.06666667 0.06944445 0.072222225 0.075
000070 f5 49 9f 3d 50 fa a4 3d ab aa aa 3d 06 5b b0 3d
       0.07777778 0.08055556 0.083333336 0.08611111
000080 61 0b b6 3d bc bb bb 3d 17 6c c1 3d 72 1c c7 3d
       0.08888889 0.09166667 0.094444446 0.097222224
000090 cd cc cc 3d 28 7d d2 3d 83 2d d8 3d de dd dd 3d
       0.1 0.10277778 0.10555556 0.108333334
0000a0 39 8e e3 3d 94 3e e9 3d ef ee ee 3d 4a 9f f4 3d
       0.11111111 0.11388889 0.11666667 0.119444445
0000b0 a5 4f fa 3d 00 00 00 3e 2e d8 02 3e 5b b0 05 3e
       0.12222222 0.125 0.12777779 0.13055556
0000c0 89 88 08 3e b7 60 0b 3e e4 38 0e 3e 12 11 11 3e
       0.13333334 0.13611113 0.1388889 0.14166668
0000d0 3f e9 13 3e 6d c1 16 3e 9a 99 19 3e c8 71 1c 3e
       0.14444445 0.14722224 0.15 0.15277779
0000e0 f5 49 1f 3e 23 22 22 3e 50 fa 24 3e 7e d2 27 3e
       0.15555556 0.15833335 0.16111112 0.1638889
0000f0 ab aa 2a 3e d9 82 2d 3e 06 5b 30 3e 34 33 33 3e
       0.16666667 0.16944446 0.17222223 0.17500001
000100 61 0b 36 3e 8f e3 38 3e bc bb 3b 3e ea 93 3e 3e
       0.17777778 0.18055557 0.18333334 0.18611112
000110 17 6c 41 3e 45 44 44 3e 72 1c 47 3e a0 f4 49 3e
       0.18888889 0.19166668 0.19444445 0.19722223
000120 cd cc 4c 3e fb a4 4f 3e 28 7d 52 3e 56 55 55 3e
       0.2 0.20277779 0.20555556 0.20833334
000130 83 2d 58 3e b1 05 5b 3e de dd 5d 3e 0c b6 60 3e
       0.21111111 0.2138889 0.21666667 0.21944445
000140 39 8e 63 3e 67 66 66 3e 94 3e 69 3e c2 16 6c 3e
       0.22222222 0.22500001 0.22777778 0.23055556
000150 ef ee 6e 3e 1d c7 71 3e 4a 9f 74 3e 78 77 77 3e
       0.23333333 0.23611112 0.23888889 0.24166667
000160 a5 4f 7a 3e d3 27 7d 3e 00 00 80 3e 17 6c 81 3e
       0.24444444 0.24722223 0.25 0.25277779
000170 2e d8 82 3e 44 44 84 3e 5b b0 85 3e 72 1c 87 3e
       0.25555557 0.25833333 0.2611111 0.2638889
000180 89 88 88 3e a0 f4 89 3e b7 60 8b 3e cd cc 8c 3e
       0.26666668 0.26944447 0.27222225 0.275
000190 e4 38 8e 3e fb a4 8f 3e 12 11 91 3e 28 7d 92 3e
       0.2777778 0.28055558 0.28333336 0.28611112
0001a0 3f e9 93 3e 56 55 95 3e 6d c1 96 3e 83 2d 98 3e
       0.2888889 0.2916667 0.29444447 0.29722223
0001b0 9a 99 99 3e b1 05 9b 3e c8 71 9c 3e de dd 9d 3e
       0.3 0.3027778 0.30555558 0.30833334
0001c0 f5 49 9f 3e 0c b6 a0 3e 23 22 a2 3e 39 8e a3 3e
       0.31111112 0.3138889 0.3166667 0.31944445
0001d0 50 fa a4 3e 67 66 a6 3e 7e d2 a7 3e 94 3e a9 3e
       0.32222223 0.32500002 0.3277778 0.33055556
0001e0 ab aa aa 3e c2 16 ac 3e d9 82 ad 3e ef ee ae 3e
       0.33333334 0.33611113 0.3388889 0.34166667
0001f0 06 5b b0 3e 1d c7 b1 3e 34 33 b3 3e 4a 9f b4 3e
       0.34444445 0.34722224 0.35000002 0.35277778
000200 61 0b b6 3e 78 77 b7 3e 8f e3 b8 3e a5 4f ba 3e
       0.35555556 0.35833335 0.36111113 0.3638889
000210 bc bb bb 3e d3 27 bd 3e ea 93 be 3e 00 00 c0 3e
       0.36666667 0.36944446 0.37222224 0.375
000220 17 6c c1 3e 2e d8 c2 3e 45 44 c4 3e 5b b0 c5 3e
       0.37777779 0.38055557 0.38333336 0.3861111
000230 72 1c c7 3e 89 88 c8 3e a0 f4 c9 3e b6 60 cb 3e
       0.3888889 0.39166668 0.39444447 0.39722222
000240 cd cc cc 3e e4 38 ce 3e fb a4 cf 3e 11 11 d1 3e
       0.4 0.4027778 0.40555558 0.40833333
000250 28 7d d2 3e 3f e9 d3 3e 56 55 d5 3e 6c c1 d6 3e
       0.41111112 0.4138889 0.4166667 0.41944444
000260 83 2d d8 3e 9a 99 d9 3e b1 05 db 3e c7 71 dc 3e
       0.42222223 0.425 0.4277778 0.43055555
000270 de dd dd 3e f5 49 df 3e 0c b6 e0 3e 22 22 e2 3e
       0.43333334 0.43611112 0.4388889 0.44166666
000280 39 8e e3 3e 50 fa e4 3e 67 66 e6 3e 7d d2 e7 3e
       0.44444445 0.44722223 0.45000002 0.45277777
000290 94 3e e9 3e ab aa ea 3e c2 16 ec 3e d8 82 ed 3e
       0.45555556 0.45833334 0.46111113 0.46388888
0002a0 ef ee ee 3e 06 5b f0 3e 1d c7 f1 3e 33 33 f3 3e
       0.46666667 0.46944445 0.47222224 0.475
0002b0 4a 9f f4 3e 61 0b f6 3e 78 77 f7 3e 8e e3 f8 3e
       0.47777778 0.48055556 0.48333335 0.4861111
0002c0 a5 4f fa 3e bc bb fb 3e d3 27 fd 3e e9 93 fe 3e
       0.4888889 0.49166667 0.49444446 0.49722221
0002d0 00 00 00 3f 0b b6 00 3f 17 6c 01 3f 22 22 02 3f
       0.5 0.50277776 0.50555557 0.5083333
0002e0 2e d8 02 3f 39 8e 03 3f 45 44 04 3f 50 fa 04 3f
       0.51111114 0.5138889 0.5166667 0.51944447
0002f0 5c b0 05 3f 67 66 06 3f 72 1c 07 3f 7e d2 07 3f
       0.5222223 0.52500004 0.5277778 0.5305556
000300 88 88 08 3f 93 3e 09 3f 9f f4 09 3f aa aa 0a 3f
       0.5333333 0.53611106 0.5388889 0.5416666
000310 b6 60 0b 3f c1 16 0c 3f cc cc 0c 3f d8 82 0d 3f
       0.54444444 0.5472222 0.54999995 0.55277777
000320 e4 38 0e 3f ef ee 0e 3f fb a4 0f 3f 06 5b 10 3f
       0.5555556 0.55833334 0.56111115 0.5638889
000330 12 11 11 3f 1d c7 11 3f 28 7d 12 3f 34 33 13 3f
       0.5666667 0.5694445 0.57222223 0.57500005
000340 3e e9 13 3f 49 9f 14 3f 55 55 15 3f 60 0b 16 3f
       0.57777774 0.5805555 0.5833333 0.58611107
000350 6c c1 16 3f 77 77 17 3f 82 2d 18 3f 8e e3 18 3f
       0.5888889 0.59166664 0.5944444 0.5972222
000360 9a 99 19 3f a5 4f 1a 3f b1 05 1b 3f bc bb 1b 3f
       0.6 0.6027778 0.6055556 0.60833335
000370 c8 71 1c 3f d3 27 1d 3f de dd 1d 3f ea 93 1e 3f
       0.61111116 0.6138889 0.6166667 0.6194445
000380 f4 49 1f 3f ff ff 1f 3f 0b b6 20 3f 16 6c 21 3f
       0.6222222 0.62499994 0.62777776 0.6305555
000390 22 22 22 3f 2d d8 22 3f 38 8e 23 3f 44 44 24 3f
       0.6333333 0.6361111 0.63888884 0.64166665
0003a0 50 fa 24 3f 5b b0 25 3f 67 66 26 3f 72 1c 27 3f
       0.64444447 0.6472222 0.65000004 0.6527778
0003b0 7e d2 27 3f 89 88 28 3f 94 3e 29 3f a0 f4 29 3f
       0.6555556 0.65833336 0.6611111 0.66388893
0003c0 aa aa 2a 3f b5 60 2b 3f c1 16 2c 3f cc cc 2c 3f
       0.6666666 0.6694444 0.6722222 0.67499995
0003d0 d8 82 2d 3f e3 38 2e 3f ee ee 2e 3f fa a4 2f 3f
       0.67777777 0.6805555 0.6833333 0.6861111
0003e0 06 5b 30 3f 11 11 31 3f 1d c7 31 3f 28 7d 32 3f
       0.6888889 0.69166666 0.6944445 0.69722223
0003f0 34 33 33 3f 3f e9 33 3f 4a 9f 34 3f 56 55 35 3f
       0.70000005 0.7027778 0.70555556 0.7083334
