result_model/ex2_nsde.pth (torch, 23377 bytes, 21 tensors)

weight f4 [20, 3]
00000000: dfe3 8cbe 727d 7b3d 3de0 b43e 3919 e83e
00000010: 6736 b8bd cefb c7bc 2467 073f 1a17 f4bd
00000020: 624e 1bbe d5d3 f7be 58e9 cebd a08c 043e
00000030: b401 dc3e babc fd3e 0fc9 d43e 20aa 94be
00000040: 8af4 cfbe 78e6 213e 4e99 5fbd ad7b 813c
00000050: 2ff6 8f3e 23c8 ce3e 64a9 a8bd 1986 3b3e
00000060: 2c4b 0fbf cbb6 bebe e315 0bbe 326f 7dbe
00000070: 3e5f e1bd 3ddc 35be 5003 34bd 3aaf 543e
00000080: 2428 4abe ed1d 67bd b3a2 c83e c2ba b83e
00000090: 6988 603e df8c 75be b44d 043f 09c4 e9b7
000000a0: 19f3 12be dc55 d4be 72a4 17bb 82ce c53e
000000b0: 23f9 f73d 3ae2 d43e 2b55 863d 3a4e 8b3d
000000c0: 86ed 7b3d b549 b4be 6540 0fbf 65b8 8e3e
000000d0: dd94 873e 2ea1 ff3e 159f c33c 33d7 31be
000000e0: 10ba 6c3e bc96 513e 55dc b73e ab2f bbbe
-0.27517602 0.06139893 0.3532733 0.45331743 -0.089947514 -0.024412062 0.52891755 -0.11918469
-0.1516662 -0.48403803 -0.101031005 0.12944269 0.4297005 0.4955805 0.41559646 -0.29036045
-0.40616256 0.15810573 -0.054589562 0.015806044 0.2811751 0.40387067 -0.08235434 0.18312873
-0.5597408 -0.37248835 -0.13582568 -0.24749449 -0.11004494 -0.17759795 -0.04394847 0.20769969
-0.19741875 -0.056425024 0.3918663 0.36079985 0.21927036 -0.2397952 0.51681066 -2.786705e-05
-0.14350547 -0.41471756 -0.0023138789 0.38634115 0.12108066 0.41578847 0.06559213 0.0680203
0.061505817 -0.35212484 -0.55957633 0.27875057 0.2648076 0.49927658 0.023879567 -0.17367248
0.23117852 0.20467657 0.35910287 -0.36559805

bias f4 [20]
00000000: 6185 fabe 7dfc 0a3f 115a 6f3d dbc2 cdbe
00000010: facf 91be d2b7 23be b632 813e 21b1 9c3e
00000020: 8576 123c ec70 d43e b286 233e 7cc3 b5bd
00000030: d721 09be dfa8 073f 7c4f e0bd cfd3 903e
00000040: 9e77 f43d aea0 9f3e f960 d1be 8f45 dd3e
-0.48929885 0.54291517 0.058435503 -0.40187725 -0.28478986 -0.1598809 0.25234002 0.3060389
0.00893939 0.41492403 0.15969351 -0.08875176 -0.13391815 0.5299205 -0.109526604 0.28286597
0.11936878 0.31177276 -0.40894297 0.43217131

weight f4 [20, 20]
00000000: 8adb 103d 769e 183e 20a1 4e3c e7a7 e6bd
00000010: 9c8e d23d 1007 35be bb0f 41bc a4c1 c0bd
00000020: 0037 9e3a c623 89bd b093 d53d bd5b 8ebb
00000030: 2164 b4bd 9f94 f0bd d4c3 313e 7873 0f3e
00000040: 7189 1dbe 70d6 393d c076 c23b d6c5 fb3d
00000050: e6c5 403e 1a22 ef3d 0ea1 91bd 3b03 d0bc
00000060: aa1e 54be f61d f63d 6607 313e 21f5 e8bc
00000070: 12fe 05be 68c5 21be 82ed 363e b0eb 553d
00000080: b6f5 623d 6a57 ccbb 107f 17bd 18b8 943d
00000090: b8ec a6bd 705c 143d 2e03 e13d 7eed 9cbd
000000a0: e42f 8a3d 04ef 013e e0d4 e8bb 027a 1a3e
000000b0: 588d 613d a0e7 35bd 765d 1f3e c8a5 64bd
000000c0: dab2 0abe 5c08 cc3d bc84 e63d 5a6c 3abe
000000d0: 22f0 53be 208e 47bc 59b1 f5bd 1255 0cbe
000000e0: 8092 cdbb 600d 7f3d 88a3 e2bc 4ec0 1bbe
000000f0: d42f 4dbd 9f07 fb3d 7b02 473c 0024 c4bd
00000100: 2c3f 65bd 589d 8d3d d8fe 223e 3acb 46be
00000110: 9c21 943d 712c 1fbe 208a ed3d 38cd e8bd
00000120: 397a 323e c931 d3bd aee7 273e d8ef ea3d
00000130: 28f2 a23b 1615 32be 7fdf 873d 8cab ddbd
00000140: d8c2 3a3e a801 8e3c dc07 49bd 046b 9a3d
00000150: 681e e5bc 6cc1 1cbd ea0b 053e 284b 583e
00000160: e097 583e babb 2abe 54db 23bd 5845 763d
00000170: b063 28be dfb8 39be 8845 b3bd a4d6 b13d
00000180: 0445 f8bd e2b1 64be 94fa d83d a0cd bb3d
00000190: bcf0 023e cb05 82bd faa1 5b3e 3504 0fbe
000001a0: ea0e de3d 2bfd 7b3d d0ae 863d 1e37 64be
000001b0: 6c6d 363e af73 2cbe 3313 2b3e bb8d 903d
000001c0: 5b70 13bd 9a6c 10be 9112 f23d e8e4 6cbe
000001d0: 4d1b 0ebd 005e e33d a491 0e3d 30c8 283e
000001e0: 8c6f 1ebe 7a33 ca3d 3d33 fc3d 0366 10be
000001f0: 2fa9 25be 6e70 943d 7249 40be e669 cebd
00000200: 88c4 05be b22e 2d3e 9557 513e c65e 08bd
00000210: 0a08 a23c 9672 273e eb81 3abd 2ce8 2cbe
00000220: 77d9 513d 9ae1 143e df82 483e 486b 233e
00000230: 3337 dbbd 980d 5ebe 58d7 de3d 5047 bbbd
00000240: 692e 58be 8ec7 e5bd c97e ddbd 00d1 8e3d
00000250: 3846 c53d 3cf4 3c3e 0081 3c3c a4d2 053e
00000260: 7301 60be d8f1 9a3c c07b 4abd 5561 4fbe
00000270: 34ac 63be b030 2abd 1110 0abe 3ccc 4a3e
00000280: dc8a 1bbd 7066 343e 6003 70bd 39c9 54be
00000290: 70fb b33d 5565 64be 4ed0 35be 809f 803c
000002a0: 38c3 bcbd c02a 98bc 1ef7 55be c8e1 573d
000002b0: 104c cd3d a67b 103e d168 5dbe a28d 30be
000002c0: ac72 3ebe e479 07be 5a88 4c3e 6a5d 383e
000002d0: ccf0 ad3c a836 59be 7cc0 1f3d 7f73 09bd
000002e0: 941c cebd 75e6 f33c 7b2e 87bd 336d 11be
000002f0: 98ac b23d 1ebe 993d d51d 2fbe f6f7 b23d
00000300: 797e 1f3e e875 4e3e f543 413e 44f9 4fbd
00000310: 745b d93b d598 383e c2a9 843c 80b9 cf3c
00000320: c4ca 383e a237 2c3d a9b8 a4bd 69a5 57be
00000330: ea66 f1bd f3e6 d8bd 656e b23d f3b9 233e
00000340: 5940 383e 89cb fe3d 070a ea3d ccff c03d
00000350: 5c35 aebb 7a2d 573e 26b6 153e 51dd a83c
00000360: 5063 cbbc 6128 1f3e 5394 08be 35de a6bb
00000370: dab0 103e c0bd cb3d 4271 543e a804 213d
00000380: b0fe fcbd 1a6f acbd 6eec 0bbe e0ad 213d
00000390: 18ff 2cbe 6a09 19be dc25 a83d 9c5c 00be
000003a0: d8a6 14be fc67 1e3e 5ec7 62be fed6 5c3e
000003b0: 48f5 32be 201b 8bbb ac22 7ebd e428 36be
000003c0: 88c6 d7bc 8ee4 02be 7367 5b3d 7400 8f3c
000003d0: 2963 4cbe b781 3dbe 79eb 763d f9ba 35bd
000003e0: 08dc 2c3e 281c 4a3e 80e3 7abd 00f4 203e
000003f0: a72e c63d b40f 40be 580a bebd a46f d53d
0.03536562 0.14904198 0.012611657 -0.112624936 0.10281107 -0.17678475 -0.011783536 -0.09411934
0.0012070835 -0.06696276 0.1042856 -0.004344432 -0.088081606 -0.11747097 0.17359859 0.14008892
-0.15384461 0.04537052 0.0059345663 0.122935936 0.18825492 0.11676426 -0.07110797 -0.025392165
-0.20714822 0.12017433 0.17287979 -0.0284372 -0.13085201 -0.15797961 0.1786404 0.052226722
0.05541011 -0.0062360065 -0.03698641 0.072616756 -0.08150619 0.036220968 0.109869346 -0.076624855
0.06747416 0.12688833 -0.007105455 0.15085605 0.055066437 -0.044410348 0.15562996 -0.055822164
-0.13544789 0.09962532 0.11255786 -0.18205395 -0.20697072 -0.012179881 -0.11996717 -0.13704327
-0.0062735677 0.062268615 -0.027665868 -0.15210077 -0.05009444 0.12257313 0.0121465875 -0.09577179
-0.05596845 0.069147766 0.15917528 -0.19413462 0.07232973 -0.15544297 0.11598611 -0.11367267
0.17429437 -0.1031223 0.16396973 0.11471528 0.004972715 -0.17390856 0.06634425 -0.108237356
0.1823839 0.017334774 -0.04907976 0.07539943 -0.0279686 -0.0382704 0.12992826 0.2112242
0.21151686 -0.16673175 -0.04000409 0.060124725 -0.16444278 -0.18136929 -0.087534964 0.086835176
-0.12122539 -0.22333482 0.10594669 0.09170079 0.12787145 -0.06348761 0.21448508 -0.13966449
0.108426884 0.061520737 0.065763116 -0.2228665 0.17815179 -0.16841005 0.16706543 0.07058283
-0.035995822 -0.14103928 0.118199475 -0.23134196 -0.034694005 0.111019135 0.034806862 0.16482615
-0.1547224 0.098730996 0.123144604 -0.14101414 -0.1617782 0.07248007 -0.18778017 -0.10078792
-0.13063252 0.16912344 0.20443566 -0.033293508 0.019779224 0.16352305 -0.045534056 -0.16885442
0.05123278 0.14539185 0.19581173 0.15958893 -0.10703888 -0.21684873 0.10880917 -0.09144461
-0.21111454 -0.11219703 -0.10815198 0.06973457 0.09632534 0.18452543 0.011505365 0.13068634
-0.21875553 0.018914148 -0.049434423 -0.20251973 -0.22233659 -0.04155034 -0.13482691 0.19804472
-0.037974223 0.17617202 -0.05859697 -0.20779885 0.08788192 -0.2230428 -0.17755243 0.015701056
-0.092169225 -0.018575072 -0.20895049 0.052705556 0.100242734 0.14109668 -0.21622016 -0.17241529
-0.18598431 -0.13230091 0.19973889 0.18004385 0.021232985 -0.21212256 0.039001927 -0.03355741
-0.100640446 0.029772976 -0.06600662 -0.14201812 0.08724326 0.07506965 -0.17101224 0.08738701
0.15575589 0.20162165 0.1887358 -0.050774828 0.0066332165 0.18027051 0.016194228 0.025357008
0.18046099 0.042045243 -0.08043034 -0.21059193 -0.117872074 -0.10590925 0.08712462 0.15988903
0.17993297 0.12441165 0.11427694 0.094237894 -0.0053164195 0.21013442 0.14620265 0.020613344
-0.02482763 0.15542747 -0.13337831 -0.005092407 0.14129964 0.09948301 0.2074633 0.03931108
-0.12353265 -0.084196284 -0.1366441 0.03947246 -0.16894186 -0.14944997 0.08210346 -0.12535328
-0.14516771 0.15469354 -0.22146365 0.21566388 -0.1747638 -0.004245177 -0.062044784 -0.17789036
-0.026339784 -0.12782499 0.053565454 0.01745627 -0.19959702 -0.18506514 0.060283158 -0.044367764
0.1688081 0.19737303 -0.061252117 0.15718079 0.09676867 -0.1875599 -0.09279317 0.104216844

bias f4 [20]
00000000: 1e2a f73d 3488 ca3d 3080 f13c 70ea 7b3d
00000010: 743a c5bd 067a 45bd 247f c1bc 0f4a 49be
00000020: a2c1 d7bd 6e73 c73d 92ef 523d 7002 5a3c
00000030: 85a1 f0bc 5400 29be 5f8d 373d 649d 4dbe
00000040: 2be0 9cbd 9c0c 5b3e b51b 01bd 97bd 1bbc
0.1206858 0.0988926 0.02948007 0.061502874 -0.0963029 -0.048212074 -0.023620196 -0.19657157
-0.105349794 0.09738813 0.051498003 0.013306245 -0.029373894 -0.16504031 0.044812556 -0.20079571
-0.07659944 0.21391529 -0.031520564 -0.009505651

weight f4 [1, 20]
00000000: eff4 3cbe 01ef 2a3e 481b 91bc 24d8 693d
00000010: 5c4c 0e3e bdab 283e cf1d 593b 24b0 233e
00000020: 72b0 2f3e 2a55 ac3d 1f87 1cbc 1ab8 2bbe
00000030: a4c7 03be 48a1 babc a523 56be f49e fdbd
00000040: adfc 113e 74b3 583d fa49 583d 64b5 12be
-0.1845281 0.16692735 -0.017713204 0.057090893 0.13896316 0.16471763 0.003312934 0.15985161
0.17157152 0.08414681 -0.0095537 -0.16769448 -0.12869126 -0.022781983 -0.20912035 -0.123838335
0.14256544 0.052905515 0.052804925 -0.14327008

weight f4 [20, 3]
00000000: baf3 70bc 7b2a ad3e cb25 073f b81c b83e
00000010: 76b0 fd3e 5c62 bf3d 67ee bdbe db96 6fbe
00000020: 1ce7 cebe 9be5 14bf 0513 46be 0182 fdbe
00000030: d121 bb3e a9d4 74be aa08 c0be 37dd 49bd
00000040: c3b8 833e 6e1a a13e 5e44 8bbe 98d0 093f
00000050: 20d1 fcbe 71f4 e33e bea6 babd fb64 083f
00000060: bda4 b6be 4994 cf3e 816d 46be 19bf 67be
00000070: 4988 703e 5f4a 0c3f ea3c 833d cff6 55be
00000080: 038c babe 6df8 adbe f768 f4bd d3dd e1ba
00000090: bee6 9fbe 0eb8 043e 1c56 013f 6dc8 0b3e
000000a0: a9ed bf3e 082b 92be dd40 ab3e 0642 1d3d
000000b0: d01c d13e e455 793e 5b76 95bd e1bc 66bd
000000c0: 1c18 043f 7812 90bd 5b62 ab3d 3f82 26bd
000000d0: 8136 0b3f 26a7 94be 1d33 fbbd 00d4 4e3e
000000e0: 2d20 22be 7233 023f 89f5 58bd eb27 933e
-0.014706546 0.33821473 0.5279204 0.3595941 0.49548692 0.093449324 -0.3709595 -0.2339739
-0.40410697 -0.5816285 -0.19343193 -0.49513248 0.36549237 -0.23909248 -0.3750661 -0.049283233
0.257269 0.31465477 -0.27200598 0.53833914 -0.493783 0.44522431 -0.09113835 0.53279084
-0.3567256 0.4054282 -0.1937771 -0.22631492 0.23489489 0.5480098 0.06408103 -0.20894931
-0.36434945 -0.33978596 -0.11934083 -0.0017232246 -0.3123073 0.12960836 0.5052202 0.13650675
0.37486008 -0.28548455 0.33447924 0.038393043 0.40842295 0.24349171 -0.07297965 -0.056332473
0.5159929 -0.07034773 0.08368369 -0.040651556 0.5438004 -0.29033774 -0.122656085 0.20198059
-0.15832587 0.5085975 -0.052968536 0.28741392

bias f4 [20]
00000000: 94b5 a53e a062 5a3e 4638 ddbc ca43 e63e
00000010: cbb8 a9be 4110 48be df77 a6be fd50 6abe
00000020: a49d 513b ab63 c5be e93b 073e d611 a23e
00000030: 15f9 013f f6a1 9d3e a93b 5eba b314 09bf
00000040: 24d3 0fbf 006d 013e 8cfd 703e 9e54 80be
0.32365096 0.21326685 -0.027004372 0.44973594 -0.33148798 -0.1953745 -0.3251333 -0.22882457
0.003198483 -0.38552603 0.13206448 0.31654233 0.50770694 0.3078763 -0.0008477518 -0.5354721
-0.5618155 0.12639236 0.2353422 -0.25064558

weight f4 [20, 20]
00000000: 2cce 15be cc07 14bd ed23 22be 40c5 cf3d
00000010: e0b7 193e 24c7 183e 48db 0f3d c439 443e
00000020: 5b67 0dbe 86c7 1dbe a954 10bd 9014 5abd
00000030: b812 b9bd 05eb 30be 8021 013a 17b4 d0bd
00000040: 54f4 94bd 8838 343e 70c1 ea3c e4fb 173e
00000050: 9aee 333e 86b2 30be 3153 d23d 0162 42be
00000060: 1c47 06be bd57 4bbe 68e4 4d3d 6cf3 633e
00000070: be39 e3bd 40bd 9d3d ffa5 ffba f8c6 e93d
00000080: 802c 963c d4a1 40be 5c6d 4fbb c111 913c
00000090: 9fa4 b03d b04b b93d 58da 63bd e90e 413e
000000a0: fc00 b2bd d44b 0a3e b8a0 5ebd 5563 e23c
000000b0: 02e3 1a3e 5560 1cbd f231 32be 3eba f8bb
000000c0: d221 02be feb9 643e d42a 513e 680e 003c
000000d0: 6166 3d3e d852 533e a2e2 623e 1056 2cbd
000000e0: 5e3b 0e3e 9950 d03d ba5f 82bc 6aea d2bd
000000f0: 0a16 833d 8685 51be d1b7 2bbe bf53 f0bd
00000100: 28bd 01bd 9964 743e df04 e03d af6c 7a3d
00000110: 21a4 1b3e 56b4 94bc 511c 5bbe 34c5 303e
00000120: 7334 d63c c56b 0b3e 0d40 563e d470 913d
00000130: 78f4 02bd 7aa6 debd d8a2 1bbe 4453 ecbd
00000140: 45c6 9cbc 5f7b a43d 7e31 9bbb 994b 573d
00000150: 2ecc 143e 8d21 273e b95b fb3d 8732 bf3d
00000160: c811 293e a9ed 58bd 9bca d6bd 0fec af3d
00000170: b6ae 0d3e b5ec acbc f228 673c e341 a2bc
00000180: c318 85bc 7f6b 903c 938a 443e 73a8 56be
00000190: 1de0 0e3e 077b bbbd d9a1 d4bd 746e 96bd
000001a0: 886d 1dbe 69b2 523e e34b 293d db92 2ebd
000001b0: 8e46 353e 7447 bcbd a07b cc3c 3832 183d
000001c0: fc85 f33c cc52 223e b6c7 9c3d 54e1 483e
000001d0: 80da bc3d a300 1bbe acd4 3c3e 1589 143e
000001e0: 20cb 233d dae5 8fbd f44e b73d 3ea3 9fbd
000001f0: 80f8 1bbb 80a7 d7bc 8608 56be f081 85bd
00000200: 17ea f6bd fa49 a1bd ba57 17be 5ca6 903d
00000210: 193a febd 7031 84bd a8da 963d e534 f3bd
00000220: 64ee 453e 34c8 ae3d 7f29 1abe e845 bfbd
00000230: d8d3 403e d64f dfbd 0fe7 5bbe f5f2 043e
00000240: bec0 a13d 61c7 e63d fe73 563b af85 25be
00000250: da19 f0bd ab7b 0f3e 69ac 2c3e 2346 34bc
00000260: 55a9 00bc 0b53 efbd 11b9 203e 9664 2b3e
00000270: 062d 463e ca09 f5bd 43b8 2f3d d6ea 5d3e
00000280: 488b 39be 737f b1bd 31e0 193d 0563 e53d
00000290: f0a1 c33d bb48 fa3c 0f82 15be 5a95 29be
000002a0: f629 2e3e 9694 f33d 83cd bb3d 1fd9 163e
000002b0: a0d4 c9bc 2d85 423e 3607 b23d cf5a 45be
000002c0: a605 2c3e 4807 ba3c ef60 113e 302d 3e3e
000002d0: 52ab 5e3c dc2c 723e 6127 743d 78b4 ac3c
000002e0: 894d 6b3d f155 cbbc 1d8f 36be c809 5a3e
000002f0: 0330 823d cbe8 e5bd f78e 593e b958 983d
00000300: 52b0 be3d e1ac 593e 3e32 fc3d 0aaa c03d
00000310: ba6c 61bd 6560 3f3e 73fa 3a3e eb4a 1e3d
00000320: b5c5 483e d536 51bd 8eeb e7bd 6621 113e
00000330: 275e 3d3e 3fdb aa3c 1b1b 50be 0f4c 5dbe
00000340: 4059 bbbd cf73 a23d d46c 2c3e 5192 50bb
00000350: 3f79 9c3d fe17 41be b885 d33d e84a 58be
00000360: cff4 063e 9cf7 0dbe d023 933d 1836 1c3c
00000370: d9e6 563d b9e2 b93d 4857 273d c548 4abe
00000380: bd35 f7bd 18e1 053d ebdd 213e 9e31 f1bd
00000390: cb88 f03d 61ae 903b 0caa 003e bd10 2ebe
000003a0: ccc0 203d 99a1 2dbe ddf0 0c3e 909e 2d3c
000003b0: 90e5 2dbd a9ce 263e 91f1 053c c167 203e
000003c0: 20f3 573e c5d3 7b3d 21f3 253e 7573 f23d
000003d0: b313 3fbc 12b6 5e3e 9554 51be f04d 20be
000003e0: 52cb 9bbc a28b 95bc ba66 a9bd 6e8c 81bd
000003f0: 3756 463e 1fd0 4d3b b701 d9bd 0703 ccbd
-0.1462943 -0.03614025 -0.15834017 0.10145044 0.15011549 0.14919716 0.035121232 0.19162661
-0.13808958 -0.15408143 -0.03523699 -0.053242266 -0.090367734 -0.17277153 0.00049259514 -0.101905994
-0.072731644 0.1759969 0.028656691 0.14842182 0.17571488 -0.17255601 0.10269774 -0.18982698
-0.13113064 -0.19857688 0.050266653 0.22260827 -0.11094998 0.07702112 -0.0019504427 0.114149034
0.018331766 -0.18811733 -0.0031650877 0.017708661 0.08625149 0.09047639 -0.05562815 0.18853344
-0.08691594 0.13505489 -0.054352492 0.027635256 0.15125659 -0.038177807 -0.17401865 -0.007590561
-0.12708214 0.22336575 0.20426494 0.007815935 0.18496086 0.20637071 0.22156766 -0.042074263
0.13889834 0.10171623 -0.015914787 -0.10298617 0.06400688 -0.20461091 -0.16769339 -0.11734723
-0.031674534 0.238665 0.10938429 0.061138805 0.15199329 -0.018152397 -0.2139752 0.17262727
0.026148057 0.1361533 0.20922871 0.071015984 -0.031971425 -0.10871597 -0.15198839 -0.11539319
-0.019137511 0.08031344 -0.0047361245 0.05256233 0.14531013 0.16321392 0.12273354 0.09335809
0.1651069 -0.052961025 -0.10487863 0.085899465 0.13836178 -0.021108964 0.014108883 -0.019806808
-0.016247159 0.017629383 0.19193487 -0.20962696 0.1395268 -0.09154325 -0.103824325 -0.07345286
-0.15373814 0.2057587 0.041332137 -0.04262052 0.17702696 -0.09193316 0.024961293 0.037157267
0.029726975 0.15851897 0.07655279 0.19617206 0.09221363 -0.15136962 0.18440503 0.14505418
0.039988637 -0.070262626 0.08950606 -0.07794808 -0.002379924 -0.026324987 -0.20901689 -0.06518924
-0.12056368 -0.07875438 -0.14779559 0.070629805 -0.12413425 -0.06454742 0.07365924 -0.11875323
0.1932922 0.085342795 -0.15054892 -0.093395054 0.18830812 -0.10903899 -0.2147486 0.12983306
0.07898091 0.11268497 0.0032722945 -0.16164277 -0.11723681 0.1401202 0.16862644 -0.01100305
-0.007852872 -0.11685761 0.15695597 0.16737589 0.19353113 -0.11964758 0.042900335 0.21671614
-0.18119538 -0.08666887 0.03756732 0.11200527 0.095523715 0.030552259 -0.14600395 -0.1656088
0.17008194 0.11893575 0.091700576 0.14731263 -0.02463752 0.18996115 0.086927816 -0.19272922
0.1679903 0.02270855 0.14197133 0.18571925 0.013590651 0.23649925 0.059607867 0.021082148
0.05744699 -0.024821253 -0.17828031 0.21292794 0.06356814 -0.11226042 0.21245943 0.074387975
0.09310974 0.21257354 0.123142704 0.094074324 -0.05503533 0.18689115 0.18259601 0.038645666
0.19606669 -0.051077683 -0.11324225 0.14172897 0.18492948 0.020856498 -0.2032284 -0.21611045
-0.091478825 0.07932245 0.1683839 -0.0031825493 0.07640313 -0.18856809 0.10328239 -0.21122324
0.13179325 -0.13863987 0.07184565 0.009534381 0.052466247 0.09076447 0.040854722 -0.19754322
-0.12070797 0.03268537 0.15807311 -0.11777042 0.11744841 0.004415319 0.12564868 -0.16998573
0.039246365 -0.16956176 0.13763757 0.010596886 -0.042455256 0.16289772 0.00817527 0.15664579
0.21088839 0.061481256 0.16206028 0.11838428 -0.0116624115 0.21749142 -0.20442422 -0.15654731
-0.01901785 -0.018255059 -0.08271547 -0.06325613 0.19368826 0.0031404567 -0.1059603 -0.09961515

bias f4 [20]
00000000: 2e52 ffbc c75c 463e a39f 233e 3785 313e
00000010: a009 e0bd 18c4 233e 3869 18be 1d7c fabd
00000020: c4e1 2f3e 79aa 543d 5ecc 233e e37a 0f3d
00000030: 47e3 e8bd 5ca2 34be cbaa ecbd 0b13 8ebd
00000040: fd08 2d3d 5246 0a3e 98a7 42be 0cda 423e
-0.031167116 0.19371329 0.15978865 0.17335974 -0.10939336 0.15992773 -0.14883888 -0.12230704
0.17175967 0.051920388 0.15995929 0.035029303 -0.11371475 -0.1764006 -0.11556014 -0.06937226
0.0422449 0.13503388 -0.19009244 0.19028491

weight f4 [1, 20]
00000000: 09e9 3b3c 0ec3 073e b4e5 dbbd c00f 8dbd
00000010: 24e3 2e3e 27f3 143e 009a d1bb 4db6 aa3d
00000020: b2d4 083e 5f87 cfbd e324 a73c beb5 16bd
00000030: 5174 7fbc 6c1d 55be fa0e 513e 1124 033e
00000040: c434 883d 1c69 bc3d 2648 2a3e 8fa0 2bbe
0.011469134 0.13258001 -0.10737172 -0.0688777 0.17078835 0.1454588 -0.006396532 0.08335552
0.13362387 -0.10133242 0.020403331 -0.036794417 -0.015591697 -0.20812005 0.2041587 0.12806727
0.06650689 0.091997355 0.16629085 -0.16760467

weight f4 [20, 3]
00000000: b7ac 4d3d def6 f73e 5779 843e 2251 0a3f
00000010: 1b94 133f 4f0a 1fbe 4fb5 43be 809f ddbe
00000020: abb2 b5bd 09b9 413d 8cce fd3e 1243 853d
00000030: d85d 0dbe d613 0fbf cd8d a3bc fcaf aebe
00000040: ec63 24bd 22b0 e8be 0edd 81be 8377 ff3e
00000050: 0833 09bf 1c77 c53e 7e7d e53d 61a5 f8be
00000060: 1a2e 9c3e 1ec4 04bf 894e b93e e983 e73d
00000070: 4117 fa3e 18c1 02bf dfed 9abe 0e60 bd3e
00000080: a984 8e3e 3d1c 05bf 5e1b 86be 1398 3e3e
00000090: 45f7 6f3e 6436 d63c eefc a2bc 6f13 8a3d
000000a0: c6ed 54be 12fe 0dbf 0989 873e 750d 58be
000000b0: f7eb 6abe 866b 0abe 80ea d3be cac5 963e
000000c0: c83c d6be 8adf a63e 537d 6bbd 588d fa3b
000000d0: f44b 23be 0ad7 093f fe5c 14be 07a1 643e
000000e0: d26c e9be 3019 373e f3d6 e63e 9e46 c6be
0.05021354 0.48430532 0.25873825 0.5403005 0.57647866 -0.15531276 -0.19112132 -0.4328575
-0.08871969 0.047295604 0.49571645 0.06506933 -0.1380533 -0.5588964 -0.019965077 -0.3411864
-0.040134355 -0.4544688 -0.25363964 0.49895868 -0.5359349 0.38567436 0.11205576 -0.48563674
0.30503923 -0.5186175 0.3619273 0.11304457 0.48845866 -0.5107589 -0.30259606 0.36987346
0.27835587 -0.51996213 -0.26192755 0.18612699 0.2343417 0.026148982 -0.019895997 0.06741988
-0.20793828 -0.55465806 0.26471737 -0.21098883 -0.22941576 -0.1351758 -0.41389847 0.29447776
-0.41843247 0.32592422 -0.057492565 0.007646244 -0.15946943 0.5384375 -0.14488599 0.22327052
-0.45590836 0.17880702 0.45085868 -0.38725752

bias f4 [20]
00000000: afa4 d63e 6963 0dbe 1f77 cf3e 0785 d83e
00000010: 218e 563e acc3 edbe af2d 153f 2c67 d0bd
00000020: af78 48be c404 e73e 5318 853d 0b23 0d3d
00000030: 46bd a93e d791 b0be 3494 0a3e 799b f9be
00000040: 20b2 03bf 839c a83d e11c 88bd c3f7 f03e
0.4192252 -0.13807453 0.4052057 0.42288992 0.20952655 -0.46438348 0.5827283 -0.101759285
-0.19577287 0.45120823 0.0649878 0.034457248 0.33152217 -0.34486267 0.13533098 -0.4875143
-0.5144367 0.08232977 -0.06646133 0.47064027

weight f4 [20, 20]
00000000: 0573 973d c7b3 3e3e d771 2e3d 9f39 3b3e
00000010: 19cf 583e 46d2 06be 55e3 75bc 05b6 af3b
00000020: 3105 d4bd 6ecc c23c df03 45bd e2c2 0a3e
00000030: 264b c2bd 79af e1bd e1f5 ddbd f266 c33d
00000040: f25a 36be 7b70 363e 5564 9abd c397 20be
00000050: 68e5 a7bd b88c ef3d a0d1 71bc 8a99 f7bc
00000060: f843 70bd 9e07 a9bd a830 77be 36c7 b43b
00000070: 9ae3 0bbe b550 ea3d 0c1e cf3b 45ef 3dbe
00000080: c0e0 fdbd 8c44 d13d c6cb 0cbe 9a8f 4d3e
00000090: d051 323e 9f0e 85bd 5bfa 333e 4eb9 503d
000000a0: b87f a63d 872a 81bd 0227 383c 09aa 4e3e
000000b0: 1893 3abe 9b66 e93d eb75 e3bd d087 ddbd
000000c0: 2c2d 423e 8483 c2bc 9b72 b23d b74d 0dbe
000000d0: bbad b3bd 0ea1 54be d6a8 043e a88e f83d
000000e0: 5d44 093e 64bf 3e3e e0f7 12be 3844 5fbe
000000f0: 2851 9d3d c99d a2bd c401 4cbe 5c4b 503e
00000100: 669d c63d b930 a2bc 738d 8b3d 2f09 b03d
00000110: d72f bebd 303c 713e 63a3 4abd ca4d efbd
00000120: 9a28 00bc 8837 f33d 3cdb 1f3e 9599 d53d
00000130: 79f0 853d 827b 5f3e 6a56 0ebe 05a1 a0bd
00000140: 3c32 45bc 588b e1bd f5e7 0dbe 02d5 ca3c
00000150: 44a9 3e3e 1868 193d 472e cf3c 21bc 9c3d
00000160: e08e 41bd aa4f cd3d d02c c23d 182f acbc
00000170: 66c3 5e3e 3062 e23c 9653 41be 70dd 053c
00000180: 292b 983d 146d 36be a8c2 e4bd bdea a63d
00000190: f6fc 2ebe 10fa c7bc a2a8 323e 5128 5cbe
000001a0: c88a 423e 9b2c 03be 2020 373e e06a 6ebd
000001b0: 680b 153d 904f 1cbc 2e95 1fbe b2a9 f03d
000001c0: d03a 09bd 36fb e7bd 2abb 5b3e 0c5b b0bd
000001d0: e893 94bc 956a 1bbd 807b b6bb 2e8e 33be
000001e0: 6fe5 123e abcb 293e 17b4 07be 13ae 0f3e
000001f0: 5a43 e0bd 6669 c3bd 3052 753e c465 9b3d
00000200: f812 eb3d db83 2a3e bf4c 533e 00e8 9e3d
00000210: a734 653e 104c 0e3e 5ea5 91bd 1555 4ebe
00000220: 7e02 9d3d b72d 35bd ab0e 74bd c772 763e
00000230: 3932 22be 113e f43d 9331 0fba 3400 edbd
00000240: baed f03c f692 a6bc f47c 3f3e 2ce0 e13c
00000250: f672 5bbd 86d3 803d 0a1f 423e cf2e 143e
00000260: 7813 5fbc 7c21 1cbe bcea b73d 7016 b63d
00000270: 110b 36bd fb8a 38bc 0c81 e6bd c3e5 a43c
00000280: 6e2f 0a3e ca86 3d3e c62a d4bd bbac 393e
00000290: 1ece d9bd 84f2 3c3e cce5 363e d09c 4cbe
000002a0: 6011 17be 4e0f d03c ee50 d13c 121b 563e
000002b0: fe7b 06be 9ce2 adbd d0bb e83c 4465 873d
000002c0: 879d e5bd 70fc 8a3d 194f 29be edc5 383e
000002d0: 7954 a63d 3015 453d 402d 4f3e 38c5 5bbe
000002e0: a0e1 4dbd 7e65 17be 6502 dfbd 20f1 9c3d
000002f0: e19b ebbd 90e0 42be 2d44 5b3e b8d0 e4bc
00000300: 20ab e13d e883 a3bc 2a2b 4cbe d57e 01be
00000310: 4e09 163d 1c26 9ebd 7288 42be f340 583e
00000320: c1d2 19be 44e8 e13d d8eb 50bd 3e52 c9bd
00000330: f8ae 36bd 301e 3e3e d544 0b3e be13 053e
00000340: 9432 003e 5aa5 f73c a660 163e 1665 c7bd
00000350: e042 5b3e 588d 32bd 040a 6dbd 00a0 71bb
00000360: 9506 083e abc3 1fbe 9421 6d3d 9dd3 933c
00000370: 4800 033e cf2a e93d 40bc 38bd bfcf 0fbd
00000380: 989c 4f3e 32d9 11be 8331 d03c 0781 a4bd
00000390: 44dd e73c 0ea2 09be b509 07bd 6075 c83d
000003a0: e242 e63d ca39 933d 7766 1b3e d94b 4dbe
000003b0: 7cbd 75bd 0109 33be 67c0 27bd d379 1fbd
000003c0: 4412 303e efed 803d 4abc c5bd 6f4f 12be
000003d0: 0686 4a3e 5c07 8fbd 6fc4 143e b066 da3d
000003e0: a74c 94bb 3a7b 753e d90b 2abd ad86 b83c
000003f0: e709 ea3d 5daf 723c e283 433e d658 633e
0.07394985 0.18623267 0.042589035 0.182837 0.21172751 -0.1316615 -0.015007813 0.0053622746
-0.10352553 0.02377912 -0.048099395 0.13550904 -0.0948699 -0.11019797 -0.10837913 0.0954112
-0.1780813 0.17816345 -0.07538668 -0.15682893 -0.08198053 0.11696762 -0.014759451 -0.03022458
-0.05865857 -0.08253406 -0.24139655 0.005516912 -0.13661042 0.11441175 0.0063207205 -0.18548305
-0.12396383 0.102181524 -0.13749608 0.20074311 0.17414021 -0.064969294 0.17575972 0.05095797
0.08129829 -0.063069396 0.011239769 0.20182051 -0.18220174 0.113965236 -0.111064754 -0.1081692
0.18962544 -0.023744352 0.087132655 -0.13799177 -0.08773371 -0.20764562 0.12955031 0.121365845
0.13404985 0.18627697 -0.1435237 -0.21803367 0.07681495 -0.079402514 -0.19922549 0.20341247
0.0969799 -0.019798623 0.06814089 0.08595502 -0.092864685 0.23558116 -0.049472224 -0.11684759
-0.00782218 0.11875826 0.15610975 0.10429684 0.06540007 0.21824458 -0.13900152 -0.07843212
-0.012035903 -0.11012906 -0.13858016 0.024759773 0.18619257 0.037452787 0.025290621 0.0765307
-0.047255397 0.1002496 0.094812036 -0.02101855 0.21754226 0.02763471 -0.18879542 0.008170471
0.07430107 -0.17815048 -0.1116994 0.081502415 -0.17088684 -0.024411231 0.17447141 -0.21499754
0.18998253 -0.12809984 0.17883348 -0.058207393 0.03638783 -0.009540454 -0.15584251 0.11751117
-0.033503354 -0.113272116 0.21458116 -0.08611116 -0.018136933 -0.03794344 -0.0055689216 -0.17534706
0.14345334 0.165816 -0.13252293 0.14031248 -0.10950346 -0.095415875 0.23957133 0.0758777
0.114782274 0.16651861 0.20634745 0.07759094 0.22383367 0.13896203 -0.071116194 -0.20149644
0.07666491 -0.04423305 -0.0595843 0.24067222 -0.15839471 0.11925901 -0.0005462404 -0.11572304
0.029410232 -0.020333748 0.1870001 0.027572714 -0.053576432 0.06290345 0.18957153 0.14470981
-0.013615482 -0.15247148 0.08980319 0.08890998 -0.044444147 -0.011263604 -0.112550825 0.02012909
0.13494655 0.18508449 -0.10359721 0.18132298 -0.10635017 0.18451887 0.17861098 -0.19981694
-0.14752722 0.025397923 0.025551286 0.20908764 -0.13133237 -0.08490488 0.028409868 0.06611112
-0.112116866 0.0678643 -0.1653408 0.18044253 0.08121581 0.04811591 0.20232105 -0.21461952
-0.050264 -0.1478481 -0.108891286 0.076631784 -0.11504341 -0.19030976 0.21412726 -0.027931556
0.11018968 -0.019960359 -0.19938341 -0.12646039 0.036629967 -0.077221125 -0.18997362 0.21118526
-0.15021802 0.11030629 -0.051006168 -0.098301396 -0.044600457 0.18566203 0.13600476 0.12995812
0.12519294 0.030230213 0.14685306 -0.097360775 0.2141223 -0.043591827 -0.05787088 -0.003686905
0.13283761 -0.15601985 0.05789335 0.018045241 0.12793076 0.11385118 -0.045101404 -0.03511023
0.2027458 -0.1424301 0.025414234 -0.080324225 0.02830375 -0.13440725 -0.03296824 0.097880125
0.11243226 0.07188757 0.15175806 -0.20048465 -0.05999516 -0.17483903 -0.040954974 -0.03893454
0.17194468 0.06295382 -0.09655054 -0.14288114 0.19777688 -0.069838256 0.14528058 0.10664117
-0.0045257392 0.23972788 -0.041515205 0.022525156 0.1142767 0.014812318 0.19093278 0.22201857

bias f4 [20]
00000000: 8f5a 3cbe db8b 60bd fa9e cf3d 5bff 36bd
00000010: 717e aebc ffa2 d03d c6ee 1e3e c1a5 a1bd
00000020: 401b e3bb cee0 48bd 38af c43d 037e 1abe
00000030: ed6a 453e 298b 19be b501 acbc f69d 8ebd
00000040: 6a52 eabd 65e7 14be 52ce 0fbe ad34 153d
-0.1839392 -0.054820877 0.10137744 -0.04467712 -0.021300526 0.10187339 0.15520772 -0.07892943
-0.0069307387 -0.049042515 0.09603733 -0.15087132 0.1927907 -0.14994492 -0.020996908 -0.069637224
-0.114415005 -0.14541395 -0.14043549 0.03642719

weight f4 [1, 20]
00000000: 47fc a93c 75ae b63d 5ba0 3cbe c451 fcbd
00000010: 107a 04be d55b 2f3e c810 d4bd b304 d0bd
00000020: a0cc 49be 409c ba3c 3836 65be 954a 083e
00000030: 7bdd 6ebe 4796 edbd f538 a13d 1742 11be
00000040: 680a 103e 1d98 343e 64df a83d 92ea ddbd
0.020750178 0.08919994 -0.18420546 -0.12320283 -0.12937188 0.17124875 -0.10354763 -0.10157146
-0.19706964 0.022779584 -0.22383964 0.13309701 -0.23326676 -0.11600929 0.07872192 -0.14185368
0.1406647 0.17636152 0.082457334 -0.10835756

weight f4 [20, 3]
00000000: 97c9 a6be d5f4 003f f3cc 6d3d da2c 053f
00000010: 8c8d 323e 0eea 733e b646 043f 1d4e 80bc
00000020: 0db0 433e 015e 833a 439a 8ebe ce7a c43e
00000030: 2d89 b2be f655 a7be eb10 093f 66cd db3e
00000040: 39f2 5f3e de03 20be 197b 5f3e 0a29 423e
00000050: 6f4d f6be 184e 833e 0257 0fbe ceb4 9bbc
00000060: e363 903e 92bd aa3e 4aa2 d4be 3ad6 0f3f
00000070: 5a61 61be e429 3d3d cce5 f8be 74c0 12bf
00000080: 7d45 c1be dc2a e93d 8764 a13e 3a4a 78be
00000090: d894 ba3e d18e 9ebe ef18 323d a01e 713e
000000a0: 441d cd3e c79d e3be 4fff dc3e e86b 033f
000000b0: 3179 7bbd d04b 10bc 8141 a6bd aef2 2bbe
000000c0: 1eee a7bd e8de 3ebe 2655 823e 63ce a13e
000000d0: a740 eebd 3185 cabe f6be aa3e 728b a7bd
000000e0: 833f 93be 7a02 763e c8ce 283e c464 19be
-0.32575676 0.50373584 0.058056783 0.52021563 0.17436808 0.23819754 0.51670396 -0.015662247
0.19110127 0.0010022522 -0.27852067 0.38374943 -0.34870282 -0.3268277 0.5354144 0.42930144
0.21869744 -0.15626475 0.21824302 0.18960968 -0.48105952 0.25645518 -0.13998035 -0.019007113
0.28201208 0.33347756 -0.41530067 0.5618626 -0.22009793 0.04618253 -0.4861282 -0.5732491
-0.37748328 0.11385128 0.3152201 -0.24247065 0.36441684 -0.30968335 0.04348081 0.23546839
0.4006139 -0.44456312 0.43163535 0.51336527 -0.061394874 -0.008807138 -0.08117963 -0.16791794
-0.08199714 -0.1863972 0.25455588 0.31602773 -0.11633425 -0.39554742 0.33348817 -0.08180894
-0.28759393 0.24024382 0.16485131 -0.14979845

bias f4 [20]
00000000: 6103 7c3e eac8 8b3e 020b 94be 9dcf e8be
00000010: fc73 f6be b968 89bc c312 c73e a74a c13e
00000020: 416a 72be b604 e0be 1f36 803e 5233 b8be
00000030: 3145 bcbe 84aa 9b3d e3cd d1bd aa74 55be
00000040: 6bc2 b4bd 4cb3 86bd 7dc9 0abf f667 053f
0.24610664 0.27301723 -0.28914648 -0.45470896 -0.48135364 -0.016773568 0.38881502 0.37752268
-0.23673345 -0.43753594 0.2504129 -0.35976654 -0.3677154 0.07600883 -0.10244348 -0.20845285
-0.08826145 -0.06577167 -0.54213697 0.52111757

weight f4 [20, 20]
00000000: d660 a53d 121c 1cbe 35ab 243e f55a c3bd
00000010: 2985 2b3e ef21 2fbe 450d dcbd ccd2 8d3c
00000020: bc8f 4cbd 4e87 403e 60f4 32be ef8e 4e3e
00000030: 32fb 2d3e f834 e33d e6c3 fd3d 05dd f03d
00000040: b818 e3bd 3fa2 5cbe 15f6 3f3e 5724 5dbe
00000050: 6ac9 ca3d d6a1 49be a00e a3bd 7460 193e
00000060: 2a21 b8bd 8a14 383e 825c 003d 009b 46be
00000070: 0747 2fbe c0b5 013d 8835 453d 3291 623e
00000080: ce49 07be a0fc 793c 5a5a 93bc 0c92 45bd
00000090: d5a4 efbd ca68 3fbe 60d1 883c a693 c0bd
000000a0: a919 283e eda1 3bbe 67e3 1bbe a512 91bd
000000b0: d1e0 b2bd abca 513e a72c 123c 02a4 84bd
000000c0: 7569 5bbd 822c 2b3e 6ccf 463e d784 993d
000000d0: 3f7d dc3d 0343 54bd 246f 8a3d e8b0 66bd
000000e0: 9cc7 8bbd 7172 0e3e 91c4 a83d 60b7 f0bd
000000f0: d094 fb3c 8eaf 39be 4c6c d7bd 06e5 00be
00000100: 10e8 c4bc 97bc 3abe d8a2 353e 7a05 2c3e
00000110: 1c96 e63d fe90 00be 0c68 d6bd 402e 6e3c
00000120: ff4e 3fbe 2340 22be 7a40 42be e4f9 27be
00000130: 4857 23bd 8efe 353e d6b1 0bbe 4870 eebc
00000140: 7a23 c03d 9167 293e 591b ce3d 1676 d33d
00000150: 8b9d ff3c 1f34 41bd a029 17be 5a83 203e
00000160: 32ab a6bd d9ad c6bd e0cc 42be 2acb 1cbe
00000170: 9a01 3e3e d437 fd3c a8f0 fd3d 9c13 2cbd
00000180: 2819 b13d 95c5 0abe 2ba6 0abd 8b2f 0bbe
00000190: 5ab1 b23d 252d 893b a866 38bb 7250 403e
000001a0: 3258 5d3e f666 173e d544 1bbe c0b6 49be
000001b0: ae13 f93d c2f1 08be a974 063e 7a34 213e
000001c0: 0e07 3e3e c538 0abe d08a dcbd 1713 83bd
000001d0: dd37 f8bd 407b 273e 46f8 09bd b9c3 14bd
000001e0: a979 673d 2bdb 833d 094c 123e 9a1c 373d
000001f0: 6ece 013e fcbf 8cbd db98 9dbd 815f 4cbc
00000200: eec6 52be b13b 0c3e d0c3 4c3e 088b 973d
00000210: 2147 353e 46bb 0e3e 8b8f 39be 7eb2 b43d
00000220: 4b9b 3bbd a9d2 8f3d 7ea0 9fbd beaf 393e
00000230: c072 353d ee53 c1bd 9004 60bd 2630 b43d
00000240: 2576 2e3c 04c6 e13d e079 3e3e c5ab 503e
00000250: 48f6 5dbd a9ac 633e 41ed 813c dc42 58bd
00000260: 45b6 133e 7065 58be f4e3 a2bd ac13 3ebe
00000270: e79c 53be 86a2 7dbd c400 ecbd fc11 ca3d
00000280: 0dc6 74bd 665b 01be f596 9abd 4336 4cbe
00000290: 107a 2f3c bbe7 06bd a913 7dbc 7c5e 443e
000002a0: dd9b 60be 54ee 1fbd 6fe2 63be 8af4 483d
000002b0: 38ff 173d d92f 533d 409c ca3d b00a a33d
000002c0: 20be abbc 24e4 d9bd 6c75 25be 9ef8 eb3d
000002d0: b0a3 cd3d b000 4e3d aa0d 4ebe 5a39 6f3d
000002e0: 327f 5a3e 4b78 59be 7075 93bd 477f 49be
000002f0: a478 403e 7c96 4ebe 52c3 ec3c 74ff a13d
00000300: 0867 4c3e 58a7 9bbd ea3d 4bbe ff7f 88bd
00000310: d34c 533e d27d 4cbe e470 993d 6a2f 25be
00000320: 3ecf b9bd 3009 7dbd e8d3 3f3d b1dd 14be
00000330: 1192 a0ba b83e 54be be3a 423e b982 543e
00000340: 3492 4d3e 6efe 9fbd 702c fd3d 588d 883c
00000350: 4174 38bd 6197 4dbe 405e 48bc e3f2 5abd
00000360: 7d47 263e 648e 993d 3b38 57be 95f8 03be
00000370: 0e76 22be c0f1 233b 8e82 233e dc8c 7dbd
00000380: 1885 293d 7448 51be 00c9 9a3d 3512 f3bd
00000390: 7be8 0dbe 2051 11bd cc02 26be b819 143d
000003a0: 4e61 453e d858 51bd 6487 05bd 251e d5bd
000003b0: 4aaf acbd d82f 0d3d d4e5 3ebd 7a2b 87bd
000003c0: ffda cdba 7f46 52be f0a4 083e c8f6 e5bb
000003d0: 91a0 19bd ba8c 323e 6025 a63d da01 293e
000003e0: ef8c 40be b5e4 debd a3ff 9a3d 36bb d2bb
000003f0: def2 4c3e b60f 51be 96f4 613e 3691 82bd
0.080751106 -0.15245083 0.16080935 -0.09538833 0.16750015 -0.17102788 -0.107447185 0.01731243
-0.049941763 0.18801615 -0.17476034 0.20171712 0.16990355 0.11094087 0.1239088 0.11760906
-0.11088699 -0.21546267 0.18746217 -0.21595894 0.09901698 -0.19690642 -0.07961774 0.149782
-0.089907005 0.17976585 0.031338222 -0.19395065 -0.17116939 0.03166747 0.048146755 0.221257
-0.13211748 0.015257984 -0.017987419 -0.048234984 -0.11701361 -0.18692318 0.0167014 -0.09403162
0.16416039 -0.18323489 -0.15223466 -0.07083634 -0.087342866 0.20487468 0.008921779 -0.064765945
-0.05356737 0.16716197 0.19415063 0.0749604 0.10766076 -0.05182172 0.0675948 -0.056321055
-0.06825182 0.13910843 0.08240617 -0.11753726 0.030710608 -0.18133375 -0.10518703 -0.12587366
-0.024036437 -0.18236004 0.17737901 0.16798964 0.112591 -0.1255531 -0.10469064 0.014537394
-0.18682478 -0.15844779 -0.18969908 -0.1640392 -0.03987816 0.17772886 -0.13642058 -0.029106274
0.093817666 0.16543414 0.1006381 0.103252575 0.031203052 -0.047168847 -0.14761972 0.15675107
-0.08138122 -0.097011276 -0.19023466 -0.15311876 0.18555298 0.03091041 0.12399417 -0.04201089
0.08647376 -0.13551934 -0.033849876 -0.13592355 0.087252334 0.00418629 -0.002813736 0.18780687
0.21615675 0.1478537 -0.15162976 -0.1969862 0.12161957 -0.13373473 0.1313044 0.15742674
0.18557379 -0.13498218 -0.10768664 -0.064001255 -0.1212003 0.1635561 -0.033684038 -0.03631947
0.05651251 0.06438287 0.14286818 0.04470501 0.12676403 -0.068725556 -0.076951705 -0.012473942
-0.20583698 0.13694645 0.19996572 0.07399565 0.17702915 0.13938627 -0.18121164 0.08823107
-0.045802396 0.07022602 -0.07794283 0.18133447 0.044298887 -0.094398364 -0.05469185 0.08798246
0.010648285 0.110240966 0.18601179 0.20378025 -0.05418995 0.22233833 0.015860202 -0.052798137
0.14424999 -0.21132445 -0.07953635 -0.18562192 -0.20665322 -0.061922573 -0.115235835 0.098667115
-0.05975919 -0.12632522 -0.07548324 -0.19942574 0.010710254 -0.03293584 -0.015446582 0.19176668
-0.21934457 -0.039045647 -0.22254346 0.049061336 0.03710863 0.051559303 0.098930836 0.07961023
-0.020964682 -0.106392175 -0.16158074 0.11522029 0.100409865 0.050293624 -0.201224 0.058404304
0.21337584 -0.21237294 -0.07200134 -0.19677459 0.18796021 -0.20174593 0.02890173 0.07910052
0.19961178 -0.07600278 -0.19847837 -0.06665038 0.20634775 -0.19969872 0.07492235 -0.16131368
-0.090727314 -0.06177634 0.04683295 -0.14537694 -0.0012250562 -0.2072705 0.18967721 0.20752992
0.20075303 -0.078122005 0.123619914 0.01666896 -0.045032743 -0.20077278 -0.012229502 -0.05345429
0.16238208 0.07497862 -0.21017544 -0.12887795 -0.15865347 0.002501592 0.15967771 -0.061901912
0.041386694 -0.20437795 0.07557869 -0.11868707 -0.13858216 -0.035477757 -0.16212004 0.03615734
0.192754 -0.05111012 -0.03259982 -0.1040614 -0.08431871 0.034469455 -0.0466059 -0.06600089
-0.0015705525 -0.20534705 0.13344169 -0.007017944 -0.037506644 0.17436495 0.081125975 0.16504613
-0.18803762 -0.10883466 0.0756829 -0.0064310087 0.20014521 -0.2041615 0.22065958 -0.06375353

bias f4 [20]
00000000: d40f 0f3e 1dca 5d3e 6e1a 4f3d 00de 9bbb
00000010: aa49 d0bc 6ad3 6bbe 51e1 323e 9633 23be
00000020: 7a7d 2e3e f05b 4dbe 7f4c f83d 8c96 5cbe
00000030: 3084 203d 40c3 0b3e 8de7 6f3d 1028 36be
00000040: 37fc a4bd 95d9 55be 90f9 f7bd 20c5 773d
0.13970882 0.21659131 0.050562315 -0.004756689 -0.02542575 -0.23029867 0.17468764 -0.15937647
0.17040053 -0.20054603 0.121239655 -0.21541804 0.039188564 0.136487 0.058570433 -0.1778872
-0.08055919 -0.20883782 -0.12108147 0.060490727

weight f4 [1, 20]
00000000: 584c 983d d68d 32be ce87 fc3d bebf 083e
00000010: 3e97 df3c 3f0a 1cbc ed1b cc3d 33c1 b53d
00000020: a2ab e03d 5fbf de3d 4e49 62bd 0f47 11be
00000030: 9b6a 14bb 76a6 fd3b 3b45 a7bd 8930 283e
00000040: 4eb8 303e 0045 c8bd 9240 b93d e80f f3bc
0.074364364 -0.17436919 0.1233059 0.13354394 0.027293798 -0.009523927 0.09966264 0.088747405
0.10970236 0.10876345 -0.05524569 -0.14187263 -0.002264655 0.007740791 -0.081675015 0.16424765
0.17257807 -0.09778786 0.09045519 -0.02967067

timegrid f4 [361]
00000000: 0000 0000 610b 363b 610b b63b 8988 083c
00000010: 610b 363c 398e 633c 8988 883c f549 9f3c
00000020: 610b b63c cdcc cc3c 398e e33c a64f fa3c
00000030: 8988 083d 3fe9 133d f549 1f3d abaa 2a3d
00000040: 610b 363d 176c 413d cdcc 4c3d 832d 583d
00000050: 398e 633d efee 6e3d a64f 7a3d 2ed8 823d
00000060: 8988 883d e438 8e3d 3fe9 933d 9a99 993d
00000070: f549 9f3d 50fa a43d abaa aa3d 065b b03d
00000080: 610b b63d bcbb bb3d 176c c13d 721c c73d
00000090: cdcc cc3d 287d d23d 832d d83d dedd dd3d
000000a0: 398e e33d 943e e93d efee ee3d 4a9f f43d
000000b0: a54f fa3d 0000 003e 2ed8 023e 5bb0 053e
000000c0: 8988 083e b760 0b3e e438 0e3e 1211 113e
000000d0: 3fe9 133e 6dc1 163e 9a99 193e c871 1c3e
000000e0: f549 1f3e 2322 223e 50fa 243e 7ed2 273e
000000f0: abaa 2a3e d982 2d3e 065b 303e 3433 333e
00000100: 610b 363e 8fe3 383e bcbb 3b3e ea93 3e3e
00000110: 176c 413e 4544 443e 721c 473e a0f4 493e
00000120: cdcc 4c3e fba4 4f3e 287d 523e 5655 553e
00000130: 832d 583e b105 5b3e dedd 5d3e 0cb6 603e
00000140: 398e 633e 6766 663e 943e 693e c216 6c3e
00000150: efee 6e3e 1dc7 713e 4a9f 743e 7877 773e
00000160: a54f 7a3e d327 7d3e 0000 803e 176c 813e
00000170: 2ed8 823e 4444 843e 5bb0 853e 721c 873e
00000180: 8988 883e a0f4 893e b760 8b3e cdcc 8c3e
00000190: e438 8e3e fba4 8f3e 1211 913e 287d 923e
000001a0: 3fe9 933e 5655 953e 6dc1 963e 832d 983e
000001b0: 9a99 993e b105 9b3e c871 9c3e dedd 9d3e
000001c0: f549 9f3e 0cb6 a03e 2322 a23e 398e a33e
000001d0: 50fa a43e 6766 a63e 7ed2 a73e 943e a93e
000001e0: abaa aa3e c216 ac3e d982 ad3e efee ae3e
000001f0: 065b b03e 1dc7 b13e 3433 b33e 4a9f b43e
00000200: 610b b63e 7877 b73e 8fe3 b83e a54f ba3e
00000210: bcbb bb3e d327 bd3e ea93 be3e 0000 c03e
00000220: 176c c13e 2ed8 c23e 4544 c43e 5bb0 c53e
00000230: 721c c73e 8988 c83e a0f4 c93e b660 cb3e
00000240: cdcc cc3e e438 ce3e fba4 cf3e 1111 d13e
00000250: 287d d23e 3fe9 d33e 5655 d53e 6cc1 d63e
00000260: 832d d83e 9a99 d93e b105 db3e c771 dc3e
00000270: dedd dd3e f549 df3e 0cb6 e03e 2222 e23e
00000280: 398e e33e 50fa e43e 6766 e63e 7dd2 e73e
00000290: 943e e93e abaa ea3e c216 ec3e d882 ed3e
000002a0: efee ee3e 065b f03e 1dc7 f13e 3333 f33e
000002b0: 4a9f f43e 610b f63e 7877 f73e 8ee3 f83e
000002c0: a54f fa3e bcbb fb3e d327 fd3e e993 fe3e
000002d0: 0000 003f 0bb6 003f 176c 013f 2222 023f
000002e0: 2ed8 023f 398e 033f 4544 043f 50fa 043f
000002f0: 5cb0 053f 6766 063f 721c 073f 7ed2 073f
00000300: 8888 083f 933e 093f 9ff4 093f aaaa 0a3f
00000310: b660 0b3f c116 0c3f cccc 0c3f d882 0d3f
00000320: e438 0e3f efee 0e3f fba4 0f3f 065b 103f
00000330: 1211 113f 1dc7 113f 287d 123f 3433 133f
00000340: 3ee9 133f 499f 143f 5555 153f 600b 163f
00000350: 6cc1 163f 7777 173f 822d 183f 8ee3 183f
00000360: 9a99 193f a54f 1a3f b105 1b3f bcbb 1b3f
00000370: c871 1c3f d327 1d3f dedd 1d3f ea93 1e3f
00000380: f449 1f3f ffff 1f3f 0bb6 203f 166c 213f
00000390: 2222 223f 2dd8 223f 388e 233f 4444 243f
000003a0: 50fa 243f 5bb0 253f 6766 263f 721c 273f
000003b0: 7ed2 273f 8988 283f 943e 293f a0f4 293f
000003c0: aaaa 2a3f b560 2b3f c116 2c3f cccc 2c3f
000003d0: d882 2d3f e338 2e3f eeee 2e3f faa4 2f3f
000003e0: 065b 303f 1111 313f 1dc7 313f 287d 323f
000003f0: 3433 333f 3fe9 333f 4a9f 343f 5655 353f
0.0 0.0027777778 0.0055555557 0.008333334 0.011111111 0.013888889 0.016666668 0.019444445
0.022222223 0.025 0.027777778 0.030555557 0.033333335 0.036111113 0.03888889 0.041666668
0.044444446 0.047222223 0.05 0.05277778 0.055555556 0.058333334 0.061111115 0.06388889
0.06666667 0.06944445 0.072222225 0.075 0.07777778 0.08055556 0.083333336 0.08611111
0.08888889 0.09166667 0.094444446 0.097222224 0.1 0.10277778 0.10555556 0.108333334
0.11111111 0.11388889 0.11666667 0.119444445 0.12222222 0.125 0.12777779 0.13055556
0.13333334 0.13611113 0.1388889 0.14166668 0.14444445 0.14722224 0.15 0.15277779
0.15555556 0.15833335 0.16111112 0.1638889 0.16666667 0.16944446 0.17222223 0.17500001
0.17777778 0.18055557 0.18333334 0.18611112 0.18888889 0.19166668 0.19444445 0.19722223
0.2 0.20277779 0.20555556 0.20833334 0.21111111 0.2138889 0.21666667 0.21944445
0.22222222 0.22500001 0.22777778 0.23055556 0.23333333 0.23611112 0.23888889 0.24166667
0.24444444 0.24722223 0.25 0.25277779 0.25555557 0.25833333 0.2611111 0.2638889
0.26666668 0.26944447 0.27222225 0.275 0.2777778 0.28055558 0.28333336 0.28611112
0.2888889 0.2916667 0.29444447 0.29722223 0.3 0.3027778 0.30555558 0.30833334
0.31111112 0.3138889 0.3166667 0.31944445 0.32222223 0.32500002 0.3277778 0.33055556
0.33333334 0.33611113 0.3388889 0.34166667 0.34444445 0.34722224 0.35000002 0.35277778
0.35555556 0.35833335 0.36111113 0.3638889 0.36666667 0.36944446 0.37222224 0.375
0.37777779 0.38055557 0.38333336 0.3861111 0.3888889 0.39166668 0.39444447 0.39722222
0.4 0.4027778 0.40555558 0.40833333 0.41111112 0.4138889 0.4166667 0.41944444
0.42222223 0.425 0.4277778 0.43055555 0.43333334 0.43611112 0.4388889 0.44166666
0.44444445 0.44722223 0.45000002 0.45277777 0.45555556 0.45833334 0.46111113 0.46388888
0.46666667 0.46944445 0.47222224 0.475 0.47777778 0.48055556 0.48333335 0.4861111
0.4888889 0.49166667 0.49444446 0.49722221 0.5 0.50277776 0.50555557 0.5083333
0.51111114 0.5138889 0.5166667 0.51944447 0.5222223 0.52500004 0.5277778 0.5305556
0.5333333 0.53611106 0.5388889 0.5416666 0.54444444 0.5472222 0.54999995 0.55277777
0.5555556 0.55833334 0.56111115 0.5638889 0.5666667 0.5694445 0.57222223 0.57500005
0.57777774 0.5805555 0.5833333 0.58611107 0.5888889 0.59166664 0.5944444 0.5972222
0.6 0.6027778 0.6055556 0.60833335 0.61111116 0.6138889 0.6166667 0.6194445
0.6222222 0.62499994 0.62777776 0.6305555 0.6333333 0.6361111 0.63888884 0.64166665
0.64444447 0.6472222 0.65000004 0.6527778 0.6555556 0.65833336 0.6611111 0.66388893
0.6666666 0.6694444 0.6722222 0.67499995 0.67777777 0.6805555 0.6833333 0.6861111
0.6888889 0.69166666 0.6944445 0.69722223 0.70000005 0.7027778 0.70555556 0.7083334
