result_model/ex2_nsde.pth (torch, 23313 bytes, 21 tensors)

weight f4 [20, 3]
0	0xbe87902c	-0.26477182
1	0x3db15028	0.08657867
2	0x3de58b58	0.11208218
3	0xbed11487	-0.40835974
4	0x3cce10e0	0.025154531
5	0xbe958ebf	-0.2921047
6	0x3f0b53ac	0.5442455
7	0x39fa8800	0.00047785044
8	0xbef0e388	-0.47048593
9	0xbf0e3184	-0.55544305
10	0xbe71907e	-0.23590276
11	0xbbe5f100	-0.007017255
12	0xbe6b9058	-0.23004282
13	0x3d447250	0.04796058
14	0x3da9aef0	0.0828532
15	0x3dfb1df0	0.122615695
16	0x3e018e70	0.12651992
17	0xbeb10fc7	-0.3458235
18	0x3ee4d878	0.44696403
19	0x3e951c1a	0.29123002
20	0x3ed706e4	0.41997445
21	0x3e998bc0	0.29989433
22	0xbd35b3e0	-0.044360995
23	0xbbe63f80	-0.0070266128
24	0x3efb37dc	0.49066055
25	0xbefbfc13	-0.49215755
26	0x3ee17510	0.44034624
27	0xbedbece8	-0.42954183
28	0x3df65938	0.12028736
29	0x3ef9aa80	0.48762894
30	0xbef4c000	-0.47802734
31	0xbee5389a	-0.44769746
32	0xbe882677	-0.26591846
33	0xbeac452c	-0.33646524
34	0xbe5bdeb4	-0.21471673
35	0x3ed7dc98	0.42160487
36	0xbeb08540	-0.34476662
37	0x3f03e000	0.5151367
38	0xbe4c9eca	-0.19982448
39	0x3f114ac8	0.5675473
40	0x3eadca6e	0.33943504
41	0xbda60a54	-0.08107439
42	0xbe5c7356	-0.21528372
43	0x3e2a31c0	0.1662054
44	0x3ee51574	0.4474293
45	0x3e3d1428	0.1846472
46	0xbdd92ed4	-0.10604635
47	0xbecc4428	-0.3989575
48	0xbe9f67a6	-0.31133765
49	0x3e3ebf98	0.18627775
50	0x3dd9abc8	0.10628468
51	0xbf08d7e3	-0.53454417
52	0x3ea6f4cc	0.3260864
53	0xbed392a2	-0.4132281
54	0x3ea78564	0.32718956
55	0xbf03f8ff	-0.5155181
56	0x3e9a26fc	0.30107868
57	0xbe2d4d90	-0.16924119
58	0x3c7a9100	0.01529336
59	0x3e5978bc	0.21237463

bias f4 [20]
0	0x3e89a658	0.26884723
1	0xbe80d15b	-0.25159726
2	0x3ec547fa	0.38531476
3	0xbec0db7c	-0.37667453
4	0x3efb1100	0.49036407
5	0x3eb381a2	0.3505984
6	0xbee0089a	-0.43756562
7	0x3ea78c68	0.3272431
8	0xbdb687ec	-0.08912644
9	0x3dc257d0	0.09489405
10	0x3dbfc3e8	0.09363538
11	0x3dc7ce50	0.09756148
12	0xbeff9fd0	-0.49926615
13	0x3ea92d2c	0.33042276
14	0xbe1424f2	-0.14467219
15	0xbe433132	-0.19061735
16	0xbd198490	-0.037479937
17	0x3e77fc68	0.24217379
18	0x3e7aa438	0.24476707
19	0xbe55985c	-0.20858902

weight f4 [20, 20]
0	0x3e3ce6b4	0.18447381
1	0xbe4288b3	-0.18997459
2	0x3e3b6cde	0.18303248
3	0x3defcd88	0.11709124
4	0xbd66b3d8	-0.056323856
5	0x3d8d2830	0.06892431
6	0x3e31422e	0.17310402
7	0xbd80fb38	-0.06297916
8	0xbcdf9fa8	-0.02729781
9	0xbe00130a	-0.12507263
10	0xbe501794	-0.20321494
11	0x3bef6780	0.0073060393
12	0xbe491c31	-0.1963966
13	0x3d2ae288	0.041719943
14	0x3d5fdc90	0.054653704
15	0x3d3fffb0	0.046874702
16	0xbc8f9110	-0.017525226
17	0x3db058b8	0.08610672
18	0x3b3e7d80	0.0029066503
19	0xbdb22b10	-0.0869962
20	0x3d5319d0	0.05153829
21	0xbe27fd3c	-0.16405195
22	0xbe292ffc	-0.16522211
23	0x3d46d710	0.048544943
24	0x3cb57280	0.022149324
25	0xbd8bd996	-0.068286106
26	0xbdbc51a0	-0.09195256
27	0xbe328aab	-0.1743571
28	0xbe613b70	-0.2199533
29	0xbe286e56	-0.1644834
30	0xbd3b8650	-0.045782387
31	0xbe3dee57	-0.1854795
32	0x3dd511b8	0.1040377
33	0x3e525dde	0.2054362
34	0xbd1d0e20	-0.03834355
35	0x3b9c2100	0.004764676
36	0x3e3fffa8	0.18749869
37	0xbe308ab5	-0.17240413
38	0x3e3016f0	0.1719625
39	0x3dced0d8	0.100984275
40	0x3dda2df4	0.10653296
41	0x3e07823e	0.13233277
42	0xbd9e3b90	-0.077262044
43	0x3e2d0c16	0.16899142
44	0xbdab4f78	-0.08364767
45	0x3dc94bb8	0.09828895
46	0x3e2cfe08	0.1689378
47	0xbd902f8e	-0.0704032
48	0x3e318710	0.17336679
49	0x3e594f0e	0.21221563
50	0xbe0d31b8	-0.13788497
51	0x3e3eb8a2	0.1862512
52	0x3d0c2d30	0.03422278
53	0xbdc2f782	-0.095198646
54	0xbdc39a86	-0.095509574
55	0xbd68f4a0	-0.056873918
56	0xbe09adec	-0.13445252
57	0x3df6f850	0.120590806
58	0xbdfb750e	-0.12278186
59	0x3d0257e8	0.031822115
60	0x3e3ef8de	0.18649623
61	0x3daec6cc	0.08534011
62	0x3de72b58	0.11287564
63	0x3db1156c	0.08646664
64	0x3e33b430	0.17549205
65	0x3decc37c	0.11560723
66	0x3e4d11fe	0.20026395
67	0xbddd958d	-0.1081954
68	0xbd0e3e24	-0.03472723
69	0xbdc4483c	-0.0958409
70	0xbbf19440	-0.007372409
71	0xbd097ca8	-0.033566147
72	0x3e0e7920	0.13913393
73	0x3dedabb0	0.116050124
74	0x3e26babc	0.16282171
75	0xbe413e00	-0.18871307
76	0xbdb7c41e	-0.08972953
77	0x3d7087a0	0.058723092
78	0x3b205700	0.0024465919
79	0xbe406c23	-0.18791251
80	0x3db61694	0.08891025
81	0x3dca7200	0.09885025
82	0x3e22628c	0.15857905
83	0x3d95f22c	0.07321581
84	0xbdc132ae	-0.094334945
85	0xbe4d4fd3	-0.20049982
86	0x3e19de88	0.15026295
87	0x3dc0db04	0.09416774
88	0x3dcaa718	0.09895152
89	0xbda5600c	-0.0807496
90	0xbc931920	-0.017956316
91	0xbcecb460	-0.028894603
92	0xbd9822c8	-0.07428509
93	0xbbfc3400	-0.0076966286
94	0x3d1bd500	0.03804493
95	0xbe044afd	-0.12919231
96	0xbe588a7e	-0.2114658
97	0xbd48a3cc	-0.048984334
98	0x3e1aae1a	0.15105477
99	0x3de6cf3c	0.112699956
100	0xbd1f8ee0	-0.038954616
101	0xbe27af3c	-0.1637544
102	0x3d292690	0.04129654
103	0x3e5c041c	0.21485943
104	0xbe5c93ca	-0.21540752
105	0x3cdfba30	0.02731046
106	0xbdc7e996	-0.0976135
107	0xbe1973a6	-0.14985523
108	0xbda5c4fa	-0.08094211
109	0xbddb4cd5	-0.10708014
110	0x3e625d60	0.22105932
111	0x3db8de50	0.09026778
112	0x3e0a2304	0.1348992
113	0xbe29bdfe	-0.16576383
114	0x3e3d0d70	0.18462157
115	0xbd9e90f2	-0.0774249
116	0x3e467fca	0.19384685
117	0x3e24f7fc	0.16110224
118	0x3e24d68e	0.16097471
119	0x3e39ac6a	0.18132177
120	0x3e03704a	0.12835804
121	0xbcad8118	-0.02117972
122	0x3d6ff6b8	0.0585849
123	0x3e0bf004	0.13665777
124	0xbcc27588	-0.023737684
125	0x3df55b48	0.11980301
126	0x3e1cfd4c	0.15331
127	0x3d5c6cc0	0.05381465
128	0x3e2353be	0.15949914
129	0x3e3d131e	0.18464324
130	0x3e42f3c8	0.19038308
131	0xbcaee038	-0.02134715
132	0xbe6265ce	-0.22109148
133	0xbe129bae	-0.143172
134	0xbcde5c78	-0.027143702
135	0xbe4c0494	-0.19923621
136	0xbe5870bb	-0.21136753
137	0xbe2b3e83	-0.16723065
138	0x3e1dba8e	0.15403196
139	0x3d93aaec	0.07210335
140	0xbe26da22	-0.16294149
141	0xbe400b19	-0.18754233
142	0xbd764008	-0.06011966
143	0xbe4d5e65	-0.2005554
144	0x3e09353e	0.13399217
145	0x3da66b38	0.08125919
146	0x3d509e98	0.050932497
147	0x3df30214	0.11865631
148	0xbc188f30	-0.009311482
149	0xbdaa6b18	-0.08321208
150	0x3d0e4a98	0.034739107
151	0xbdd02bbf	-0.10164594
152	0xbd945a58	-0.07243794
153	0xbcc627b8	-0.024188861
154	0x3d8fc8d8	0.0702073
155	0xbae29280	-0.0017286092
156	0x3e264af4	0.1623953
157	0xbdbf17c2	-0.09330703
158	0xbe5853b6	-0.21125683
159	0xbc318c90	-0.010836735
160	0xbe13ea78	-0.14444911
161	0x3be7e840	0.007077247
162	0x3dc664e8	0.09687215
163	0x3b876a40	0.004132539
164	0xbd0c9c90	-0.034328997
165	0xbd283ab8	-0.041071624
166	0xbd5b3438	-0.053516597
167	0x3df58e3c	0.1199002
168	0x3d1c11f0	0.038103044
169	0x3df17fc4	0.117919475
170	0xbdb1d576	-0.086832926
171	0x3dcf0344	0.10108045
172	0x3e1a08b8	0.15042388
173	0xbdc56cb2	-0.096398726
174	0xbe222bec	-0.15837067
175	0x3d993de0	0.07482505
176	0x3e2c8738	0.16848457
177	0x398ce600	0.00026874244
178	0x3c6cd360	0.014454693
179	0xbd872ca2	-0.0660031
180	0x3e62ea74	0.2215975
181	0xbe2d69e0	-0.1693492
182	0x3dcd6dc4	0.10030702
183	0x3d1d0d18	0.038342565
184	0x3e3e1810	0.18563867
185	0x3e509ae4	0.20371586
186	0x3e1d0fc8	0.15338051
187	0xbde1a11a	-0.11017056
188	0xbe1d2e06	-0.15349588
189	0x3d0a8368	0.033816725
190	0xbe11810e	-0.14209387
191	0x3e21745c	0.15767044
192	0x3e47e774	0.19521886
193	0x3dd44578	0.103648126
194	0x3e003d54	0.12523395
195	0x3df1aab0	0.11800134
196	0x3d9b5f60	0.07586551
197	0x3dfc6bec	0.12325272
198	0x3e5d04f4	0.2158392
199	0xbca05aa0	-0.019574463
200	0x3dd07818	0.10179156
201	0x3e27107e	0.16314885
202	0x3da8352c	0.08213267
203	0xbe428e0c	-0.18999499
204	0x3e0cc924	0.13748604
205	0x3cb22b50	0.021749169
206	0xbdd69a46	-0.10478644
207	0xbe1f64b2	-0.15565756
208	0x3de8bfd8	0.11364716
209	0x3e2fe096	0.17175516
210	0xbe01b4ca	-0.12666622
211	0x3e22c3fe	0.15895078
212	0xbdbe6f48	-0.09298569
213	0x3d832b70	0.064047694
214	0xbe0fb576	-0.14034066
215	0x3da1b128	0.07895118
216	0x3c340e50	0.0109897405
217	0x3d154e70	0.036451757
218	0xbd5e8938	-0.05433008
219	0xbca80b50	-0.020513207
220	0x3daade3c	0.08343169
221	0x3d4ca388	0.049960643
222	0xbc4359e0	-0.011923283
223	0xbe4d9606	-0.2007676
224	0xbe16abaa	-0.14713922
225	0xbd2a9670	-0.041647375
226	0xbe4941e6	-0.19654045
227	0x3e00741a	0.12544289
228	0xbd8ddd16	-0.069269344
229	0x3c9c3c00	0.019071579
230	0x3d83b7a0	0.06431508
231	0x3d8e140c	0.069374174
232	0xbdca8002	-0.09887697
233	0x3df5a67c	0.11994645
234	0xbd0eb374	-0.03483911
235	0xbdd10f7a	-0.1020803
236	0x3e23b57a	0.15987197
237	0x3debec98	0.11519736
238	0xbd69e2c0	-0.05710101
239	0xbdb6260a	-0.08893974
240	0x3c9e27a8	0.019306019
241	0x3e12e84e	0.1434643
242	0xbe524f06	-0.20537958
243	0xbdad87a4	-0.08473137
244	0xbe1a3b34	-0.15061647
245	0x3e481aa2	0.1954141
246	0x3c977938	0.018490419
247	0x3bcde800	0.00628376
248	0x3c5de800	0.013544083
249	0x3dff0bc4	0.12453416
250	0x3e0735b8	0.13204086
251	0xbdde746b	-0.10862049
252	0xbdaab62c	-0.08335528
253	0xbe45c179	-0.19312085
254	0x3e441e4e	0.19152185
255	0xbdbff614	-0.093731076

bias f4 [20]
0	0x3c70a350	0.014687374
1	0x3c258ac0	0.010103881
2	0x3e3c1800	0.1836853
3	0xbd79e31c	-0.061007604
4	0x3d106970	0.035256803
5	0x3e014c44	0.1262675
6	0xbd6aca98	-0.057322115
7	0xbdaed7ee	-0.08537279
8	0x3d92f664	0.071759015
9	0xbd69b758	-0.057059616
10	0xbd06059c	-0.032720193
11	0x3e61a480	0.22035408
12	0x3d0da410	0.03458029
13	0xbe2e7de8	-0.17040217
14	0xbcd65a10	-0.026165992
15	0xbe48824d	-0.19580956
16	0x3e1f5e7a	0.15563384
17	0x3d278668	0.040899664
18	0x3d05fdf8	0.032712907
19	0xbe1520d8	-0.1456331

weight f4 [1, 20]
0	0x3e384c3a	0.17997828
1	0x3e642f2e	0.22283623
2	0x3e464be8	0.19364893
3	0xbe10c288	-0.14136708
4	0x3e3d8ae0	0.18510008
5	0xbe00688e	-0.12539884
6	0xbe07d9fc	-0.13266748
7	0x3e350c6c	0.1768052
8	0x3dc9f5cc	0.09861335
9	0xbdfe78ab	-0.12425359
10	0x3dc52dc4	0.0962787
11	0x3e218e6a	0.15776983
12	0xbdfb3574	-0.12266055
13	0xbd27207c	-0.040802464
14	0x3e0b123c	0.13581175
15	0x3c5ebc60	0.013594717
16	0x3dd1bb84	0.10240844
17	0xbd1fbe4c	-0.03899984
18	0x3d344eb8	0.044020385
19	0x3e317438	0.1732949

weight f4 [20, 3]
0	0x3e307263	0.17231135
1	0xbed1a7d0	-0.40948343
2	0x3f066657	0.5249991
3	0x3dfc52b0	0.12320459
4	0x3eaa8917	0.33307716
5	0xbed8c1a0	-0.42335224
6	0xbda47be1	-0.080314405
7	0x3eeaf962	0.4589339
8	0x3dde3522	0.10849978
9	0xbc369609	-0.01114417
10	0x3e999608	0.29997277
11	0xbf0b8033	-0.5449249
12	0x3f0155a8	0.50521326
13	0xbf26ee6e	-0.65207565
14	0xbd9bcfee	-0.07608019
15	0x3f0ea671	0.5572272
16	0xbe01708c	-0.1264059
17	0xbea247a4	-0.31695282
18	0x3e6f0997	0.23343502
19	0xbea8ea3f	-0.32991216
20	0x3dfb7dd8	0.12279862
21	0x3f2d724d	0.67752534
22	0xbe3ae831	-0.18252636
23	0xbf045001	-0.51684576
24	0xbe24d7df	-0.16097973
25	0x3ddea8b1	0.10872019
26	0xbf03f76d	-0.51549417
27	0xbeeabd08	-0.45847344
28	0xbcc5dcaf	-0.024153082
29	0x3f1f0704	0.6212008
30	0x3bc82ef9	0.006109115
31	0x3eabcd5f	0.33555123
32	0x3e2b839a	0.16749421
33	0xbea0f63d	-0.31437865
34	0xbf1b891c	-0.6075609
35	0x3e8435b8	0.25822234
36	0x3dbce23f	0.092228405
37	0xbf0183d4	-0.5059178
38	0x3f03d80a	0.51501524
39	0x3e6bf5e5	0.2304302
40	0xbea016d4	-0.31267416
41	0xbd008d08	-0.031384498
42	0xbefbe1f2	-0.4919582
43	0xbcc889b0	-0.024479717
44	0x3f063cb8	0.524364
45	0x3e959f4a	0.2922309
46	0xbe284c5a	-0.16435376
47	0x3df80a7d	0.121113755
48	0x3ef27da0	0.4736147
49	0xbeb50b96	-0.35360402
50	0x3ed6eccc	0.41977537
51	0x3d1cc3e7	0.038272765
52	0xbe5b131d	-0.2139401
53	0xbf042219	-0.5161453
54	0x3ec86125	0.39136615
55	0x3da6a3e2	0.08136727
56	0x3dc2cd41	0.09511805
57	0x3e153dfd	0.14574428
58	0x3efc6553	0.49296054
59	0xbe9066cd	-0.2820343

bias f4 [20]
0	0xbed313fd	-0.41226187
1	0xbede28ea	-0.4339059
2	0x3d801ba7	0.06255274
3	0xbdc81759	-0.09770078
4	0xbeb392cd	-0.35072938
5	0xbd45d85e	-0.048302047
6	0x3e366546	0.1781207
7	0x3cbfe383	0.023423916
8	0xbe8a7e8b	-0.2704967
9	0x3e9ec6c9	0.31011036
10	0xbe57c2e4	-0.21070439
11	0xbe5c23b0	-0.21497989
12	0xbeb4c498	-0.3530624
13	0xbd93b243	-0.07211735
14	0x3e61f125	0.22064646
15	0xbe0cd018	-0.13751256
16	0x3ee1a7a5	0.44073215
17	0xbdd9fafc	-0.106435746
18	0xbf0e0e16	-0.55490243
19	0xbf12302c	-0.57104754

weight f4 [20, 20]
0	0x3e98457f	0.2974052
1	0x3dc7376b	0.09727367
2	0x3e086827	0.13320981
3	0x3bfb9a26	0.007678288
4	0x3d98ad7c	0.074549645
5	0xbea31547	-0.3185217
6	0x3ce12975	0.027485589
7	0xbf07b0bb	-0.53004044
8	0x3e24671b	0.16054957
9	0xbda8ab96	-0.082358524
10	0x3e23a0a6	0.15979251
11	0xbd7308c7	-0.059334543
12	0x3e5fe769	0.2186562
13	0x3e307b2d	0.17234488
14	0xbe62aa3a	-0.22135249
15	0x3e1b9dbe	0.15196893
16	0x3e07795a	0.13229886
17	0xbe1cdf85	-0.15319641
18	0xbd105910	-0.035241187
19	0xbcb468ab	-0.022022566
20	0x3d9056be	0.07047795
21	0xbda16974	-0.07881442
22	0x3d178785	0.036994476
23	0xbdacf82b	-0.08445772
24	0x3d65a030	0.05606097
25	0x3dd99fc7	0.10626178
26	0xbdade246	-0.08490424
27	0xbe10dd96	-0.14147028
28	0x3ccef57e	0.025263544
29	0xbd8881c4	-0.06665376
30	0xba567050	-0.0008180188
31	0xbe21b0dc	-0.15790123
32	0xbdc822df	-0.09772276
33	0xbd03123c	-0.03199981
34	0x3dde2972	0.10847749
35	0xbe65c476	-0.22438225
36	0xbbbd4448	-0.005775962
37	0xbe5e5e66	-0.21715698
38	0x3d2240c6	0.039612554
39	0x3cd3f591	0.025873931
40	0xbd548388	-0.05188325
41	0x3e0df8ca	0.13864437
42	0x3b5d8aa9	0.0033804572
43	0xbe2c1d32	-0.16808012
44	0x3e180ec0	0.14849377
45	0xbe2d9c99	-0.16954269
46	0xbb8ea8a0	-0.0043535978
47	0xbdd05a08	-0.10173422
48	0x3dbaa180	0.09112835
49	0x3deaa8a0	0.11457944
50	0xbda542bb	-0.080693685
51	0xbdad786c	-0.08470234
52	0xbe435be6	-0.19078025
53	0x3dd45b58	0.10368985
54	0xbddab784	-0.10679534
55	0x3e01a096	0.12658915
56	0x3ce7275f	0.028217016
57	0xbe505df2	-0.20348337
58	0x3e448a4d	0.19193383
59	0xbe1c08e9	-0.15237774
60	0xbcec3dd0	-0.028838068
61	0xbe3bedf2	-0.18352488
62	0x3e53f2a6	0.20698032
63	0x3ca603d0	0.02026549
64	0x3e573af0	0.21018577
65	0xbdf293c2	-0.11844589
66	0x3d632058	0.055450767
67	0x3dc6a3e4	0.096992284
68	0xbdc3bc14	-0.095573574
69	0xbe42b022	-0.19012502
70	0xbe4d52c3	-0.20051102
71	0x3e4b01de	0.19824931
72	0x3ca97e90	0.020690233
73	0xbdf4b233	-0.11948051
74	0xbe24dc16	-0.16099581
75	0xbe401627	-0.1875845
76	0xbe520d40	-0.20512867
77	0x3c1decb0	0.00963895
78	0xbd8816c4	-0.06644967
79	0xbda0f5b8	-0.07859367
80	0x3d8326aa	0.06403859
81	0xbe424b1a	-0.18973961
82	0xbe351572	-0.17683962
83	0x3dc442e8	0.09583074
84	0xbd9ff694	-0.07810703
85	0x3d0738a8	0.033013016
86	0xbd668de6	-0.05628767
87	0xbe2c02f0	-0.16797996
88	0xbe01636a	-0.1263558
89	0x3cde44fc	0.027132504
90	0x3dd0cc92	0.10195269
91	0xbd84436f	-0.064581744
92	0x3d82c14d	0.063845254
93	0x3c379880	0.011205792
94	0xbe99f19a	-0.3006714
95	0x3dc5354e	0.09629308
96	0x3d1dfe55	0.038572628
97	0x3e5d309c	0.21600574
98	0x3db75221	0.08951212
99	0xbdb0949e	-0.086220965
100	0x3e5519b2	0.20810583
101	0xbd4b866d	-0.049688745
102	0xbd1a68ec	-0.037697718
103	0x3e4b3778	0.19845378
104	0x3e21c2a6	0.15796909
105	0xbe6fb678	-0.2340945
106	0x3d13142f	0.03590792
107	0xbdcc0f46	-0.09963851
108	0xbe20798b	-0.15671365
109	0xbe90a8e2	-0.28253847
110	0x3e47727a	0.19477263
111	0xbd8ef23c	-0.06979796
112	0x3dd3123f	0.103062145
113	0x3e28322a	0.16425386
114	0xbc644ef7	-0.013934842
115	0x3e5cb38e	0.2155287
116	0x3eab11b1	0.33411935
117	0xbe2e4db1	-0.17021824
118	0xbe156085	-0.145876
119	0xbc8c58c9	-0.01713218
120	0x3e3b7eac	0.1831004
121	0xbe42d809	-0.19027723
122	0xbd3da094	-0.046295717
123	0xbe629837	-0.22128378
124	0x3d7a0408	0.061039
125	0xbce0f760	-0.027461708
126	0xbcb490de	-0.022041734
127	0xbd5434c4	-0.051808134
128	0xbdf840c5	-0.12121729
129	0xbdfaf795	-0.12254254
130	0xbe1da99b	-0.1539673
131	0xbc2703d6	-0.010193786
132	0x3ceeb5c6	0.02913941
133	0xbcd23b40	-0.025663018
134	0x3e297e9f	0.16552208
135	0x3e12c166	0.14331588
136	0x3d3e0624	0.046392575
137	0x3e05b078	0.13055599
138	0xbb9cf413	-0.004789838
139	0xbd5d1cef	-0.05398267
140	0xbe15c6c4	-0.14626604
141	0x3d6f54bd	0.058430422
142	0xbe04f6af	-0.12984727
143	0xbe423970	-0.18967223
144	0x3e4c015a	0.1992239
145	0xbc74e3f3	-0.014946925
146	0x3dd6a5c4	0.10480836
147	0xbe09f531	-0.1347244
148	0x3e42aa31	0.19010235
149	0xbde2a397	-0.110663585
150	0x3bfa0c71	0.0076308777
151	0x3e5805fa	0.2109603
152	0x3e2a5038	0.16632164
153	0xbdc1a667	-0.09455567
154	0xbcc90fd0	-0.024543673
155	0x3da650a4	0.0812085
156	0xbcbf5bf0	-0.023359269
157	0xbacc9563	-0.0015608486
158	0xbdd5745f	-0.10422587
159	0x3d299dce	0.04141026
160	0xbe27a9e9	-0.1637341
161	0xbd80e058	-0.0629279
162	0xbd818374	-0.06323901
163	0xbde403e9	-0.11133558
164	0xbe2b658b	-0.16737954
165	0x3e264110	0.16235757
166	0x3e57d088	0.21075642
167	0xbd0e0f60	-0.03468263
168	0xbe049d03	-0.1295052
169	0xbe222424	-0.15834099
170	0xbd831144	-0.063997775
171	0x3d869a9c	0.06572458
172	0xbd54bacc	-0.051935956
173	0x3dc5e000	0.09661865
174	0xbe037242	-0.12836555
175	0x3d6c33e0	0.05766666
176	0xbcbb12d0	-0.022836119
177	0xbe30c789	-0.17263617
178	0xbe3e44c2	-0.18580917
179	0x3e385d76	0.18004403
180	0x3d5b64a7	0.053562786
181	0x3dd98f89	0.1062308
182	0xbe33571e	-0.17513701
183	0x3db4f18d	0.08835135
184	0xbe8e847f	-0.27835461
185	0x3e43503f	0.1907358
186	0xbddc2491	-0.10749162
187	0x3d71fd55	0.059079487
188	0xbd9a2021	-0.07525659
189	0x3d73145a	0.05934558
190	0x3ce30541	0.027712466
191	0x3cc62731	0.02418861
192	0x3e0f2384	0.13978392
193	0xbd9ee4a8	-0.077584565
194	0xbd368c2b	-0.04456727
195	0xbe68ecc8	-0.22746575
196	0xbe3a1a7c	-0.18174165
197	0x3d25c029	0.04046646
198	0xbdb2a74d	-0.08723316
199	0xbe81956e	-0.25309318
200	0x3e2a434e	0.16627237
201	0xbb1dd1a3	-0.0024081252
202	0x3d92ac0c	0.071617216
203	0x3d84c831	0.06483496
204	0x3d09e924	0.033669606
205	0xbeae9126	-0.34095114
206	0xbd58b07a	-0.052902676
207	0xbe196510	-0.14979959
208	0x3de04e4f	0.10952436
209	0xbd423749	-0.047416005
210	0x3e5929f2	0.21207407
211	0x3d0530df	0.03251731
212	0x3ea156ff	0.31511685
213	0x3ddb2d6c	0.10702023
214	0xbceee138	-0.029160127
215	0x3cfdbb6a	0.030973155
216	0xbd38e8c7	-0.04514387
217	0x3e38a5a5	0.18031938
218	0xbd504562	-0.05084742
219	0x3e641d69	0.22276844
220	0xbe544505	-0.20729454
221	0xbdf49c5f	-0.11943888
222	0xbe53dff9	-0.20690908
223	0xbe0f4796	-0.13992152
224	0x3e4153ac	0.18879575
225	0xbe30d1c9	-0.17267527
226	0x3ddd812c	0.10815653
227	0xbd48c9ec	-0.049020693
228	0x3e2c7612	0.16841915
229	0x3cfc2660	0.030780017
230	0xbd94c46a	-0.072640255
231	0x3e3667dc	0.17813057
232	0x3d1f7608	0.038930923
233	0xbddb9aa6	-0.10722856
234	0xbdd4b39c	-0.1038582
235	0xbdbca524	-0.092111856
236	0xbe4081db	-0.18799536
237	0x3e1aa9cc	0.15103835
238	0xbe1ee40c	-0.1551668
239	0x3c2f4c70	0.010699376
240	0x3e210249	0.15723528
241	0x3e089f67	0.13342057
242	0x3e5948b1	0.21219136
243	0xbc6fdce3	-0.014640066
244	0xbd4202a0	-0.047365785
245	0xbf0526ff	-0.5201263
246	0x3de9238c	0.11383733
247	0xbe319053	-0.17340212
248	0x3e257e26	0.16161403
249	0xbe80c08e	-0.25146908
250	0xbe146454	-0.14491397
251	0xbd3ce1b7	-0.046113696
252	0x3e783730	0.24239802
253	0x3df0468f	0.11732208
254	0xbd87aa52	-0.06624283
255	0xbcae128d	-0.02124908

bias f4 [20]
0	0xbdaabf6c	-0.08337292
1	0xbe169ab1	-0.14707448
2	0x3dd79f4a	0.10528429
3	0xbdcaa947	-0.09895568
4	0xbe8069e8	-0.250808
5	0xbcba5e6b	-0.0227501
6	0x3dc2ac5b	0.095055304
7	0xbe351ac8	-0.17685997
8	0x3e3ee126	0.18640575
9	0x3dea563f	0.114422314
10	0xbdfd2547	-0.12360626
11	0xbe48504c	-0.19561881
12	0xbcc7d20a	-0.024392147
13	0xbd1afa34	-0.03783627
14	0x3e53b596	0.20674738
15	0x3e0dfbc8	0.13865578
16	0xbe40778a	-0.187956
17	0x3d56a432	0.052402683
18	0xbd934d0c	-0.0719243
19	0x3e501609	0.20320906

weight f4 [1, 20]
0	0x3e68eb22	0.22745946
1	0xbda1433d	-0.07874153
2	0x3de38c61	0.111107595
3	0x3e43e50a	0.1913034
4	0xbde7d6f4	-0.11320296
5	0x3e1d093a	0.15335551
6	0x3dfb05bf	0.12256955
7	0xbccdec15	-0.025136987
8	0xbe0f16b3	-0.13973503
9	0xbe8da9dc	-0.27668655
10	0x3d871ffc	0.065978974
11	0xbd749f68	-0.059722334
12	0x3e02fb7c	0.12791246
13	0x3d7aa1d1	0.061189476
14	0x3d5c01d2	0.053712673
15	0xbc182197	-0.009285352
16	0x3e1d54cb	0.15364377
17	0xbdd79c8c	-0.10527906
18	0xbd44c4ac	-0.048039123
19	0x3db23680	0.08701801

weight f4 [20, 3]
0	0x3d8716fe	0.06596182
1	0xbeb5ecd4	-0.35532248
2	0xbe5c0ce0	-0.21489286
3	0x3ca8d6e7	0.020610286
4	0x3ece3643	0.40275773
5	0x3ea1c220	0.31593418
6	0x3ebf0fb9	0.37316683
7	0x3ee2eea1	0.44322684
8	0x3d4a332b	0.049365204
9	0xbe456105	-0.19275291
10	0x3ec89c6f	0.3918185
11	0x3c7a8189	0.015289673
12	0x3e61010f	0.2197306
13	0x3f14b548	0.58089113
14	0x3e86db32	0.26339108
15	0xbeb7d3ea	-0.35903865
16	0xbe0b5e2d	-0.13610144
17	0xbf06ddbc	-0.5268209
18	0x3d10c6b2	0.03534574
19	0x3f14775c	0.5799463
20	0x3f04b003	0.5183107
21	0xbe51068b	-0.20412652
22	0xbdb1fc03	-0.086906455
23	0x3e6c9970	0.23105407
24	0x3efefb51	0.49801114
25	0xbdc3ee2f	-0.09566914
26	0x3dbc613b	0.09198233
27	0xbede7e66	-0.4345581
28	0x3eecaacc	0.46224058
29	0xbd23fb30	-0.040034473
30	0x3ef3c99f	0.47614762
31	0x3ef07db7	0.46970913
32	0xbe9244c2	-0.28568083
33	0xbee85052	-0.4537378
34	0x3ea958f4	0.33075678
35	0xbe51bb21	-0.2048154
36	0xbede7782	-0.43450552
37	0xbeb62b10	-0.3557973
38	0xbc5a2140	-0.0133135915
39	0xbf005b4a	-0.50139296
40	0xbe0cdda5	-0.13756426
41	0x3e8bb09c	0.2728318
42	0xbe41da12	-0.18930843
43	0x3da467e6	0.080276296
44	0xbf0b2220	-0.54348946
45	0xbee1bec0	-0.44090843
46	0x3eec6e93	0.4617811
47	0x3d2d3f6a	0.042296804
48	0xbe27b199	-0.16376342
49	0x3e6ffae7	0.23435555
50	0xbe8a283c	-0.2698382
51	0x3ea42aff	0.32064053
52	0x3cde11ae	0.02710804
53	0xbf42f389	-0.76152855
54	0xbe367efc	-0.17821878
55	0xbe38d2c4	-0.1804915
56	0xbe22fbfb	-0.15916435
57	0x3de2ba9d	0.1107075
58	0x3ec81526	0.39078635
59	0x3eb3e3c2	0.35134703

bias f4 [20]
0	0xbedd08db	-0.4317082
1	0xbe8c59a8	-0.27412152
2	0xbd024fb2	-0.031814285
3	0x3f1e090f	0.6173257
4	0xbe796fb2	-0.24359015
5	0x3db45ff2	0.088073626
6	0xbeb76876	-0.35821885
7	0x3da6027a	0.08105941
8	0x3e67b572	0.2262781
9	0xbe5280a3	-0.20556884
10	0x3eea478b	0.45757708
11	0x3ea7b116	0.32752293
12	0x3c416b00	0.011805296
13	0x3dafd3bf	0.08585309
14	0x3f479df7	0.7797541
15	0x3dc854d3	0.09781804
16	0x3ec1e951	0.3787332
17	0xbdee3b37	-0.11632388
18	0x3eaf965f	0.34294412
19	0x3e93de50	0.28880548

weight f4 [20, 20]
0	0x3df5c684	0.120007545
1	0x3e4b6e83	0.19866376
2	0xbe38121d	-0.1797566
3	0x3dc107c9	0.09425313
4	0x3d42a22e	0.047517948
5	0xbda4bd5f	-0.08043932
6	0x3e5bb69c	0.21456379
7	0x3dc11645	0.09428076
8	0x3e3d5e9e	0.18493125
9	0xbe1cbc7f	-0.1530628
10	0xbda9d8c3	-0.08293297
11	0xbdcea21a	-0.10089512
12	0xbe15dc4f	-0.14634822
13	0x3ea7a25f	0.32741067
14	0x3e2f4eb4	0.17119867
15	0xbe439ed6	-0.1910356
16	0xbd618194	-0.055055216
17	0xbd9c0903	-0.07618906
18	0xbc8c11b0	-0.017098278
19	0xbe21ee4c	-0.1581356
20	0x3e53bcb6	0.20677456
21	0x3e86ca40	0.2632618
22	0xbde7d9f2	-0.11320867
23	0xbc009b82	-0.007849576
24	0x3dcee875	0.101029314
25	0xbe09dd41	-0.13463308
26	0x3de28e39	0.11062283
27	0x3d954eb2	0.072904006
28	0x3d599bf8	0.05312726
29	0x3cd47354	0.025933899
30	0x3e053a2b	0.1301047
31	0x3e8bc1cb	0.2729629
32	0x3e44e7e4	0.19229084
33	0xbe20302a	-0.15643373
34	0x3e18e18b	0.14929788
35	0x3e83a266	0.25709838
36	0x3a62694a	0.0008636905
37	0x3ef8615e	0.48511785
38	0xbd616a65	-0.055033106
39	0x3cddd4d7	0.027079029
40	0x3e530c47	0.20610152
41	0x3e3f9837	0.18710409
42	0x3e9888a8	0.2979176
43	0x3e8d1197	0.27552482
44	0x3e613a85	0.2199498
45	0xbe1926a2	-0.14956143
46	0x3e29508c	0.16534632
47	0xbd7ccea5	-0.06172051
48	0xbd5efe1f	-0.054441568
49	0xbe143b1c	-0.14475673
50	0x3db0a002	0.08624269
51	0x3caba4eb	0.020952662
52	0xbe2d5162	-0.16925576
53	0xbe03bdaf	-0.12865327
54	0x3ee86d66	0.45395964
55	0xbd9eca54	-0.07753435
56	0x3d49d11e	0.049271695
57	0x3e9b6fce	0.30358738
58	0xbbdd326b	-0.006750395
59	0x3e8d8bd4	0.27645743
60	0xbd804a87	-0.06264215
61	0x3d9f3744	0.07774213
62	0xbe4c41d1	-0.19946982
63	0x3da96ea4	0.08273056
64	0xbe6d20c9	-0.23157038
65	0x3ddc4382	0.107550636
66	0xbdea83f5	-0.1145095
67	0x3e526bae	0.20548889
68	0x3c1cfb30	0.009581372
69	0xbe54f712	-0.20797375
70	0x3cc985c1	0.024599912
71	0xbdef1c8f	-0.11675369
72	0xbcb34098	-0.021881387
73	0xbd91485e	-0.07093881
74	0xbd149d23	-0.03628267
75	0x3d96db09	0.073659964
76	0x3dd7ed94	0.10543361
77	0xbd8716bc	-0.06596133
78	0x3e3c9460	0.18415976
79	0x3e3461ac	0.17615384
80	0xbe51caf7	-0.20487581
81	0xbdfd4983	-0.12367537
82	0xbc8ae7d8	-0.016956255
83	0xbe46cc52	-0.1941388
84	0xbe641fed	-0.22277804
85	0x39c88c00	0.0003825128
86	0x3d44e6a8	0.048071533
87	0x3daa3754	0.08311334
88	0xbe09fdf4	-0.13475782
89	0xbe37f5a0	-0.17964792
90	0x3defe398	0.11713332
91	0xbdf9c2db	-0.12195369
92	0x3d54d9b8	0.051965445
93	0x3e0d4444	0.13795573
94	0xbdbdd560	-0.09269214
95	0x3e21cc7e	0.15800664
96	0xbe456012	-0.19274929
97	0x3db8fee4	0.090329915
98	0x3bcc0520	0.006226197
99	0xbc7ba440	-0.0153589845
100	0xbdf157db	-0.11784335
101	0x3ddfe5bb	0.109324895
102	0x3d110406	0.035404228
103	0xbe684ae4	-0.22684819
104	0x3d9ccad8	0.07655877
105	0xbe4815a3	-0.19539504
106	0xbe1afa24	-0.15134484
107	0x3e3748cd	0.17898865
108	0xbcdc3248	-0.026879445
109	0x3e1c7bb8	0.1528157
110	0xbdbc6825	-0.091995515
111	0xbe3d7485	-0.1850148
112	0x3dde93a8	0.10868007
113	0xbe4c4c57	-0.19950996
114	0x3d71e718	0.05905828
115	0xbdc983e1	-0.09839607
116	0xbcdd06b5	-0.026980737
117	0x3e1dac94	0.15397865
118	0x3e1571a2	0.14594129
119	0x3d6bbc93	0.057552885
120	0x3db73c53	0.08947053
121	0xbd7acf23	-0.061232697
122	0x3e0407fc	0.12893671
123	0xbd4dd346	-0.050250314
124	0x3e86ea52	0.26350647
125	0xbe68c644	-0.22731882
126	0xbb5b96e1	-0.003350668
127	0xbe79fb19	-0.24412192
128	0xbe2798c7	-0.16366874
129	0x3e73a5ff	0.23793791
130	0x3e4021ea	0.18762937
131	0x3e4f0ab8	0.20218933
132	0x3d1c4788	0.038154155
133	0x3b946313	0.004528412
134	0x3e75aa19	0.23990668
135	0x3e1cc27f	0.1530857
136	0xbdb4818b	-0.08813771
137	0x3efacb0c	0.48983037
138	0xbc23b740	-0.009992421
139	0x3e03fa9c	0.12888569
140	0x3e0c6ee0	0.1371417
141	0xbe57e29c	-0.21082538
142	0x3ccb32d8	0.024804518
143	0xbdb59694	-0.08866611
144	0xbd24892b	-0.040169876
145	0xbe42e8d1	-0.19034125
146	0x3d079782	0.033103473
147	0x3dc4c3d0	0.09607661
148	0xbe0a2e9a	-0.1349434
149	0x3e4a0574	0.19728643
150	0xbe139113	-0.1441081
151	0x3e590482	0.21193126
152	0xbe009350	-0.12556195
153	0x3e558596	0.2085174
154	0xbdf3159b	-0.11869355
155	0x3a773304	0.0009429904
156	0x3cfe0dd8	0.03101246
157	0x3d72397e	0.05913686
158	0x3d925e84	0.07146934
159	0xbe134506	-0.14381799
160	0x3e75cd8e	0.24004194
161	0x3e247cb2	0.16063192
162	0x3c148a9c	0.00906625
163	0x3d1ad896	0.03780421
164	0x3e0acb1f	0.13554047
165	0x3e2698c7	0.16269217
166	0x3e35fcb0	0.17772174
167	0xbd9a5307	-0.075353675
168	0x3cd3854e	0.0258204
169	0xbdb47f93	-0.08813395
170	0x3de90892	0.11378588
171	0x3b325237	0.0027209648
172	0xbcd43500	-0.025904179
173	0xbe81b790	-0.2533536
174	0x3f0b82a7	0.54496235
175	0x3db8327c	0.08994004
176	0xbd442d18	-0.047894567
177	0x3f08e890	0.5347986
178	0xbe1c839b	-0.15284579
179	0x3e1c76d7	0.15279709
180	0xbd89aa60	-0.067219496
181	0xbdadf952	-0.0849482
182	0x3d7cfc39	0.061763976
183	0x3e094321	0.13404514
184	0xbe18b6a9	-0.1491343
185	0xbd9a66bc	-0.07539126
186	0xbd762a4c	-0.06009893
187	0xbd57f22c	-0.052721187
188	0xbe63b9d6	-0.2223886
189	0x3de25400	0.11051178
190	0xbe2e099b	-0.16995852
191	0x3e0c231d	0.1368527
192	0xbc0d19c0	-0.008612096
193	0xbe4b060d	-0.19826527
194	0xbe38ec97	-0.18059002
195	0x3d5a351a	0.053273298
196	0x3d08a48c	0.03336005
197	0xbe4c0fbc	-0.19927877
198	0xbe159d39	-0.14610757
199	0xbd3def70	-0.046370924
200	0x3e20cd7e	0.15703389
201	0xbe41f3f7	-0.18940721
202	0x3e130152	0.14355972
203	0xbe134e50	-0.14385343
204	0xbd8d3ff6	-0.06896965
205	0xbd2e91c8	-0.042619497
206	0x3a84c600	0.0010129809
207	0xbdd44dd0	-0.10366404
208	0xbc80d988	-0.015728727
209	0x3e2affe2	0.16699174
210	0x3e247ac2	0.16062453
211	0xbe2fe7a0	-0.17178202
212	0x3e2c7966	0.16843185
213	0x3e0a99fa	0.135353
214	0xbe11a101	-0.14221574
215	0xbd80ecfe	-0.06295203
216	0xbd98333c	-0.07431647
217	0xbd85d5be	-0.06534909
218	0xbd0d6ca8	-0.03452745
219	0xbd05e0a8	-0.032684952
220	0xbd491263	-0.0490898
221	0xbd9d601f	-0.07684349
222	0xbe659713	-0.22420911
223	0x3d2c65d5	0.042089302
224	0xbe147252	-0.14496735
225	0xbe1cd410	-0.1531527
226	0xbe40bf2d	-0.18822928
227	0x3c1bd020	0.00951007
228	0x3cc0c740	0.02353251
229	0x3e2ee806	0.17080697
230	0x3dd22b61	0.1026218
231	0xbc5ce88b	-0.013483177
232	0xbd252624	-0.040319577
233	0x3bd3c660	0.006462857
234	0xbea267ea	-0.31719905
235	0x3e5aae43	0.21355538
236	0x3d435ee0	0.0476979
237	0xbc4c3020	-0.012462646
238	0x3dee5c5c	0.1163871
239	0xbdd2aab0	-0.10286462
240	0xbd88b016	-0.06674211
241	0x3de4ef03	0.111784
242	0xbbbf59f1	-0.0058395793
243	0xbe3260c3	-0.17419724
244	0x3e3b2b10	0.18278146
245	0xbd28d98a	-0.041223086
246	0xbdcab6c6	-0.098981425
247	0xbe05283c	-0.1300363
248	0xbd3ccab4	-0.04609175
249	0x3c1785ed	0.009248239
250	0xbd92b769	-0.07163889
251	0x3d4e78ba	0.050408103
252	0x3e4a6a04	0.19767004
253	0x3e411aba	0.18857852
254	0x3d8c0ce7	0.068383984
255	0x3dab9f0f	0.083799474

bias f4 [20]
0	0x3dd1ce6a	0.102444485
1	0xbe095930	-0.13412929
2	0xbe100e26	-0.14067897
3	0xbd45c1ab	-0.0482804
4	0xbe4de051	-0.20105101
5	0x3ddc3618	0.10752505
6	0x3db8c849	0.09022576
7	0xbcec680d	-0.028858209
8	0x3e8f184f	0.27948233
9	0xbdb1b24c	-0.086765856
10	0xbe2ffa2c	-0.17185277
11	0xbe390e79	-0.18071927
12	0xbdb4c6b9	-0.08826966
13	0xbe242d17	-0.16032825
14	0xbd9c0e1e	-0.0761988
15	0xbe5913f8	-0.21199024
16	0xbe1df862	-0.15426782
17	0xbcb63720	-0.022243083
18	0xbdc0dd40	-0.094172
19	0x3e330ac0	0.1748457

weight f4 [1, 20]
0	0x3e2c653e	0.16835496
1	0xbdad6144	-0.084658176
2	0xbdcad05a	-0.09903021
3	0x3d204b4e	0.039134316
4	0x3e23838c	0.1596815
5	0xbb6290e0	-0.0034571216
6	0xbe67e318	-0.22645223
7	0x3d90cd6e	0.070704326
8	0xbe51d183	-0.20490079
9	0x3d5922a5	0.053011555
10	0xbe3a8faa	-0.18218866
11	0x3cdb7e8a	0.026793737
12	0x3df6ccb3	0.12050762
13	0x3c68e0f3	0.014213788
14	0xbe49e9d4	-0.19718105
15	0x3d96bac1	0.07359839
16	0x3e674561	0.2258506
17	0x3dd12364	0.10211828
18	0xbd2cf138	-0.04222223
19	0xbe43b22a	-0.19110933

weight f4 [20, 3]
0	0xbdc28d59	-0.09499616
1	0x3e9ec13b	0.31006798
2	0xbee5f0e5	-0.4491035
3	0xbe209308	-0.15681088
4	0x3e627385	0.2211438
5	0xbedc0306	-0.42971057
6	0x3ea84c8f	0.3287091
7	0xbf081d97	-0.5317015
8	0x3e5e98ef	0.21738027
9	0x3e89ab94	0.26888716
10	0xbeaa4da2	-0.33262354
11	0x3bbc9380	0.005754888
12	0xbe829572	-0.25504643
13	0xbdff2fdd	-0.12460301
14	0xbeff1772	-0.49822575
15	0xbe80179e	-0.25018018
16	0xbe593951	-0.2121327
17	0x3d027e2b	0.031858604
18	0x3efd6828	0.49493527
19	0xbf21606b	-0.6303775
20	0x3ec49b5a	0.38399774
21	0xbe7a941d	-0.24470563
22	0xbeb4c45a	-0.35306054
23	0x3f2983fa	0.66217005
24	0x3ea3f24d	0.32020798
25	0x3e56e228	0.2098471
26	0xbe172e4f	-0.14763759
27	0x3f010737	0.50401634
28	0xbee5c738	-0.44878554
29	0xbf0c804b	-0.5488326
30	0x3e8d6891	0.2761884
31	0xbc044705	-0.008073573
32	0xbf1643ac	-0.5869701
33	0xbd440a12	-0.047861166
34	0x3f1fac9e	0.6237277
35	0xbec0e69e	-0.37675947
36	0xbe7cf002	-0.2470093
37	0x3dfccdca	0.12343939
38	0x3f3885b2	0.72079
39	0xbe9106d7	-0.2832553
40	0x3f173835	0.5907014
41	0xbe365918	-0.17807424
42	0xbe4a78d8	-0.1977266
43	0x3dbe73f9	0.09299464
44	0xbf0b1b92	-0.54338944
45	0x3eb3b7b0	0.3510108
46	0x3ed76932	0.42072445
47	0xbec305ec	-0.38090456
48	0xbd07467e	-0.03302621
49	0xbd0d2358	-0.034457535
50	0xbece54f0	-0.40299177
51	0xbe4e8cb8	-0.20170867
52	0x3ece8058	0.40332294
53	0xbd816780	-0.06318569
54	0x3e626ed5	0.22112592
55	0xbd1be9bd	-0.038064707
56	0x3e623c7f	0.2209339
57	0x3eb84c16	0.3599555
58	0x3f0f0879	0.55872303
59	0x3ddeb963	0.108752035

bias f4 [20]
0	0xbeb6aced	-0.35678807
1	0x3f0616df	0.5237865
2	0x3c9902b6	0.01867805
3	0x3d7d9240	0.061907053
4	0x3f05d010	0.52270603
5	0xbed3c1ab	-0.41358694
6	0x3efcbf39	0.4936464
7	0x3e2f57df	0.17123364
8	0x3ea00372	0.3125263
9	0x3e08c15f	0.13355015
10	0x3e31ec90	0.17375398
11	0x3e6a62d9	0.2288927
12	0x3ea0a566	0.3137619
13	0x3ea0f83d	0.3143939
14	0x3e9b1b4c	0.30294263
15	0xbecce34c	-0.40017164
16	0x3eb326b4	0.34990466
17	0xbedb77fa	-0.42864972
18	0xbef73278	-0.48280692
19	0x3ea739ea	0.32661372

weight f4 [20, 20]
0	0x3e85fd39	0.26169756
1	0x3e056eb1	0.13030507
2	0x3e6b3887	0.22970782
3	0x3e235210	0.15949273
4	0x3e7a858f	0.24465011
5	0xbe51ab97	-0.20475613
6	0xbd75d9b0	-0.060022056
7	0x3eecf390	0.46279573
8	0xbd53e5f3	-0.05173297
9	0x3df69a26	0.1204112
10	0xbd41f15c	-0.04734932
11	0x3d996ddb	0.074916564
12	0x3ee8189a	0.4533127
13	0x3e3126d7	0.17299972
14	0x3e50ef91	0.20403887
15	0xbd18bc6e	-0.037289076
16	0x3e51ee2b	0.2050101
17	0x3e6e201e	0.23254439
18	0x3d8d2cb1	0.0689329
19	0x3e35305a	0.17694226
20	0xbd510e64	-0.051039115
21	0x3c90e050	0.017685086
22	0x3e139a80	0.14414406
23	0x3de44f50	0.1114794
24	0x3e2796d0	0.16366124
25	0xbe338198	-0.17529905
26	0x3e0e7832	0.13913038
27	0xbdccea8c	-0.10005674
28	0x3d9c7d9c	0.076411456
29	0xbe2df79e	-0.1698899
30	0xbe622526	-0.22084484
31	0xbe0ae90e	-0.13565466
32	0xbdab06ac	-0.08350882
33	0xbe455320	-0.19269991
34	0x3d556990	0.052102625
35	0xbdc5117e	-0.09622477
36	0xbb188d00	-0.0023277402
37	0xbca37648	-0.019953862
38	0xbe2f0a07	-0.17093669
39	0x3e627c98	0.22117841
40	0xbdc4ccf5	-0.09609405
41	0xbe4ef5db	-0.20210974
42	0x3e00d8b4	0.12582666
43	0x3d94c0e8	0.072633564
44	0xbb516958	-0.003195366
45	0x3d93cf57	0.07217281
46	0x3d88ba17	0.06676119
47	0xbe91def5	-0.28490415
48	0xbdca610c	-0.098817915
49	0xbe65d08c	-0.22442836
50	0x3ea9a08f	0.3313031
51	0xbe6b0ce3	-0.22954135
52	0x3c7acc0d	0.015307439
53	0x3e209fa4	0.15685898
54	0xbdfb984f	-0.1228491
55	0xbd1f7d66	-0.03893795
56	0x3e1b1a56	0.15146765
57	0x3da2d3d7	0.079505615
58	0xbe829fe8	-0.25512624
59	0x3dba8894	0.091080815
60	0xbe2fd794	-0.1717208
61	0x3c771df0	0.015082821
62	0x3df7e55d	0.121042944
63	0x3df8617c	0.12127969
64	0xbe2fb5ee	-0.17159244
65	0xbdb55d3a	-0.08855672
66	0x3d63ba8b	0.055597823
67	0x3d66765a	0.056265213
68	0xbd94438a	-0.072394446
69	0xbe447161	-0.19183876
70	0xbd143c98	-0.0361906
71	0xbe343d47	-0.176015
72	0xbd071a08	-0.03298381
73	0xbe02af1a	-0.12762108
74	0xbe1bf4ca	-0.15230098
75	0x3dd6fc87	0.104973845
76	0x3e634700	0.22195053
77	0xbe7750c1	-0.24151899
78	0xbe782190	-0.24231553
79	0xbd8fcfc5	-0.07022051
80	0xbe022d0d	-0.12712498
81	0xbd640a34	-0.055673793
82	0x3df12696	0.11774938
83	0xbdeec108	-0.116579115
84	0xbd949360	-0.07254672
85	0x3d9573c1	0.07297469
86	0xbe1f4af9	-0.15555944
87	0xbdd647ce	-0.104629144
88	0xbdd5daba	-0.104421094
89	0xbe5c8c51	-0.21537901
90	0x3e2ace88	0.16680348
91	0x3de5b582	0.112162605
92	0x3df60fea	0.12014754
93	0xbe361a33	-0.17783432
94	0x3c37bb60	0.011214107
95	0xbe2cf733	-0.16891174
96	0x3e5822de	0.21107051
97	0xbc01322c	-0.007885497
98	0xbda9f575	-0.0829877
99	0xbe69b616	-0.22823367
100	0xbe000bf5	-0.12504561
101	0x3e237761	0.15963508
102	0xbe0baf54	-0.13641101
103	0x3de31b40	0.11089182
104	0x3ea4563b	0.3209704
105	0xbdd6e1ee	-0.104923114
106	0x3e2537ce	0.16134569
107	0x3ef8e0b2	0.4860893
108	0x3dbd6c3e	0.09249161
109	0x3dcac3ea	0.09900649
110	0x3ce7bd83	0.028288608
111	0x3e5dcf97	0.2166122
112	0x3e8a9144	0.27063954
113	0x3e725353	0.23664598
114	0x39c2c4f1	0.00037149296
115	0xbdb919f1	-0.09038151
116	0xbdf4f8bb	-0.11961504
117	0xbd6fd3b0	-0.05855149
118	0x3eb80118	0.35938334
119	0x3e8cb92d	0.27485028
120	0xbd80adf5	-0.0628318
121	0xbd4a2933	-0.049355697
122	0xbd3f0b1c	-0.046641454
123	0x3d496e78	0.049177617
124	0xbeb78441	-0.3584309
125	0xbd2c54ac	-0.042072937
126	0x3cc451f8	0.023964867
127	0xbd65d7ab	-0.05611388
128	0x3cb24d6f	0.021765439
129	0xbe51e761	-0.2049842
130	0x3e749c29	0.23887695
131	0x3c7567ae	0.014978332
132	0xbe4fdddc	-0.20299476
133	0xbd02a847	-0.031898763
134	0x3e45816e	0.19287655
135	0x3e3ed5c2	0.1863623
136	0x3e0b62de	0.13611934
137	0xbddd1ab8	-0.10796112
138	0xbe21a336	-0.15784916
139	0x3de2a511	0.1106664
140	0x3e169ac6	0.14707479
141	0xba467296	-0.0007570175
142	0xbde0cb3f	-0.10976266
143	0xbd282964	-0.0410551
144	0x3e8563a9	0.26052597
145	0xbe6f03e5	-0.2334133
146	0xbe000bb1	-0.1250446
147	0x3ef0cc97	0.4703109
148	0xbdd5c858	-0.10438603
149	0x3eef235f	0.46706674
150	0x3e3c0e70	0.18364882
151	0x3e581ddb	0.21105139
152	0x3e5c3c72	0.21507433
153	0x3e56bd5d	0.20970674
154	0xbe08d865	-0.13363798
155	0x3b0bab98	0.0021311995
156	0x3e6576e2	0.22408631
157	0xbd5dfbfb	-0.054195385
158	0x3eb74e33	0.3580185
159	0x3d7c8690	0.061651766
160	0xbdb14abb	-0.08656832
161	0xbd0529a2	-0.032510407
162	0x3de31fd4	0.11090055
163	0x3e0dd99c	0.13852543
164	0x3e1f856a	0.15578237
165	0xbd176b40	-0.036967516
166	0x3e51c0f4	0.20483762
167	0xbe2a8e88	-0.16655934
168	0xbe1e6356	-0.15467581
169	0x3cf2c797	0.029636187
170	0x3db3ebf5	0.087852396
171	0xbe07cdb5	-0.13262065
172	0xbe3ff0d6	-0.18744215
173	0xbe659025	-0.22418268
174	0xbd335298	-0.04377994
175	0x3e204d53	0.15654497
176	0x3aedcee2	0.0018143321
177	0x3e048a39	0.12943353
178	0xbdd8e346	-0.10590224
179	0x3e2b750f	0.16743873
180	0xbe581c82	-0.21104625
181	0x3e01d0f3	0.12677364
182	0x3e065850	0.13119626
183	0xbe3d1030	-0.18463206
184	0xbe1e4fee	-0.15460178
185	0xbd46296c	-0.048379347
186	0xbdee6bf3	-0.116416834
187	0xbd6396e8	-0.055563837
188	0xbe4c82d4	-0.19971782
189	0x3e210298	0.15723646
190	0xbe432f80	-0.19061089
191	0x3e380478	0.17970455
192	0xbe1316d2	-0.14364174
193	0xbe54ab3b	-0.20768444
194	0xbe686fdb	-0.2269892
195	0xbdb15329	-0.0865844
196	0x3ccda87b	0.025104752
197	0x3e082e1c	0.1329884
198	0x3dd0919f	0.10184025
199	0x3e0fe11a	0.14050713
200	0xbd02ef14	-0.031966284
201	0x3ba3d9c0	0.005000323
202	0xbda4bdba	-0.08044
203	0x3e5b387a	0.21408263
204	0x3d911608	0.0708428
205	0x3dd62ba4	0.104575425
206	0xbd45f070	-0.048325002
207	0xbe50bdde	-0.20384929
208	0xbe1e3716	-0.15450701
209	0x3dcbf814	0.099594265
210	0xbe5fbe07	-0.21849833
211	0xbde74b3c	-0.11293647
212	0x3e179e0c	0.14806384
213	0xbd8650f8	-0.06558412
214	0xbe0a56cc	-0.13509673
215	0xbe56a819	-0.20962562
216	0xbe649d64	-0.22325665
217	0x3d767520	0.060170293
218	0xbe3ed54c	-0.18636054
219	0xbe178b77	-0.14799295
220	0xbdf11249	-0.11771066
221	0xbe098a5a	-0.13431683
222	0xbdc93bdd	-0.09825871
223	0x3b622a80	0.0034510195
224	0x3e9155a8	0.28385663
225	0xbe63e569	-0.22255482
226	0x3e73f2c5	0.23823078
227	0x3eb61007	0.35559103
228	0x3caa360b	0.020777723
229	0x3e09107f	0.13385199
230	0xbe273672	-0.16329363
231	0x3d83d5da	0.06437273
232	0x3e872da6	0.26402014
233	0x3e7ddfbf	0.24792384
234	0xbde89588	-0.11356646
235	0x3e1a233f	0.15052508
236	0xbbc34ced	-0.005960098
237	0x3e880715	0.26567903
238	0x3d8cf67b	0.0688295
239	0x3d58b321	0.052905206
240	0x3de5736c	0.112036556
241	0x3e6b9080	0.23004341
242	0x3e1c3cd3	0.15257578
243	0x3e0f3cee	0.13988087
244	0x3ea53937	0.32270214
245	0x3e178138	0.14795387
246	0x3bc43c86	0.0059886603
247	0x3e2ee6dd	0.17080255
248	0x3d8519c9	0.06499059
249	0x3ed28c98	0.4112289
250	0x3e3d307b	0.18475525
251	0x3e246533	0.1605423
252	0x3ea5bff6	0.32373017
253	0x3e5afab6	0.21384701
254	0xbde0b8d5	-0.10972754
255	0x3e1bf314	0.15229446

bias f4 [20]
0	0x3e673c82	0.22581676
1	0xbe230ff8	-0.1592406
2	0xbe36e982	-0.17862514
3	0xbdd81e13	-0.10552611
4	0xbc8e379c	-0.017360501
5	0x3dd06b9b	0.10176774
6	0xbd63345c	-0.055469856
7	0x3e7953f8	0.24348438
8	0xbd480a06	-0.048837684
9	0xbe804ccb	-0.25058588
10	0x3e0d10ca	0.13775936
11	0xbce7c01a	-0.028289843
12	0xbe398663	-0.1811767
13	0xbe669f03	-0.22521596
14	0x3b9c1cbb	0.004764167
15	0xbdea1de0	-0.114314795
16	0xbd61e8ac	-0.055153534
17	0x3e835dc5	0.25657478
18	0xbc946ef7	-0.018119318
19	0x3caf97f4	0.021434762

weight f4 [1, 20]
0	0xbdc62120	-0.09674287
1	0x3d951b84	0.07280639
2	0x3daf6799	0.085646816
3	0x3e8d6108	0.2761309
4	0xbe00ea2f	-0.12589334
5	0xbe9a2ba7	-0.3011143
6	0x3d25b536	0.04045602
7	0xbde4f4ed	-0.111795284
8	0x3d84c2fc	0.06482503
9	0x3e2a1d67	0.16612779
10	0xbd93463e	-0.07191132
11	0xbdcd2617	-0.10017031
12	0xbd6a433c	-0.057193026
13	0x3e4fe32b	0.20301501
14	0xbdcccaea	-0.0999964
15	0x3c0a0e80	0.008426309
16	0x3ea10e53	0.3145624
17	0xbe4c7990	-0.19968247
18	0xbebc8f70	-0.36828184
19	0x3cf7bb61	0.030240716

timegrid f4 [361]
0	0x00000000	0.0
1	0x3b360b61	0.0027777778
2	0x3bb60b61	0.0055555557
3	0x3c088889	0.008333334
4	0x3c360b61	0.011111111
5	0x3c638e39	0.013888889
6	0x3c888889	0.016666668
7	0x3c9f49f5	0.019444445
8	0x3cb60b61	0.022222223
9	0x3ccccccd	0.025
10	0x3ce38e39	0.027777778
11	0x3cfa4fa6	0.030555557
12	0x3d088889	0.033333335
13	0x3d13e93f	0.036111113
14	0x3d1f49f5	0.03888889
15	0x3d2aaaab	0.041666668
16	0x3d360b61	0.044444446
17	0x3d416c17	0.047222223
18	0x3d4ccccd	0.05
19	0x3d582d83	0.05277778
20	0x3d638e39	0.055555556
21	0x3d6eeeef	0.058333334
22	0x3d7a4fa6	0.061111115
23	0x3d82d82e	0.06388889
24	0x3d888889	0.06666667
25	0x3d8e38e4	0.06944445
26	0x3d93e93f	0.072222225
27	0x3d99999a	0.075
28	0x3d9f49f5	0.07777778
29	0x3da4fa50	0.08055556
30	0x3daaaaab	0.083333336
31	0x3db05b06	0.08611111
32	0x3db60b61	0.08888889
33	0x3dbbbbbc	0.09166667
34	0x3dc16c17	0.094444446
35	0x3dc71c72	0.097222224
36	0x3dcccccd	0.1
37	0x3dd27d28	0.10277778
38	0x3dd82d83	0.10555556
39	0x3dddddde	0.108333334
40	0x3de38e39	0.11111111
41	0x3de93e94	0.11388889
42	0x3deeeeef	0.11666667
43	0x3df49f4a	0.119444445
44	0x3dfa4fa5	0.12222222
45	0x3e000000	0.125
46	0x3e02d82e	0.12777779
47	0x3e05b05b	0.13055556
48	0x3e088889	0.13333334
49	0x3e0b60b7	0.13611113
50	0x3e0e38e4	0.1388889
51	0x3e111112	0.14166668
52	0x3e13e93f	0.14444445
53	0x3e16c16d	0.14722224
54	0x3e19999a	0.15
55	0x3e1c71c8	0.15277779
56	0x3e1f49f5	0.15555556
57	0x3e222223	0.15833335
58	0x3e24fa50	0.16111112
59	0x3e27d27e	0.1638889
60	0x3e2aaaab	0.16666667
61	0x3e2d82d9	0.16944446
62	0x3e305b06	0.17222223
63	0x3e333334	0.17500001
64	0x3e360b61	0.17777778
65	0x3e38e38f	0.18055557
66	0x3e3bbbbc	0.18333334
67	0x3e3e93ea	0.18611112
68	0x3e416c17	0.18888889
69	0x3e444445	0.19166668
70	0x3e471c72	0.19444445
71	0x3e49f4a0	0.19722223
72	0x3e4ccccd	0.2
73	0x3e4fa4fb	0.20277779
74	0x3e527d28	0.20555556
75	0x3e555556	0.20833334
76	0x3e582d83	0.21111111
77	0x3e5b05b1	0.2138889
78	0x3e5dddde	0.21666667
79	0x3e60b60c	0.21944445
80	0x3e638e39	0.22222222
81	0x3e666667	0.22500001
82	0x3e693e94	0.22777778
83	0x3e6c16c2	0.23055556
84	0x3e6eeeef	0.23333333
85	0x3e71c71d	0.23611112
86	0x3e749f4a	0.23888889
87	0x3e777778	0.24166667
88	0x3e7a4fa5	0.24444444
89	0x3e7d27d3	0.24722223
90	0x3e800000	0.25
91	0x3e816c17	0.25277779
92	0x3e82d82e	0.25555557
93	0x3e844444	0.25833333
94	0x3e85b05b	0.2611111
95	0x3e871c72	0.2638889
96	0x3e888889	0.26666668
97	0x3e89f4a0	0.26944447
98	0x3e8b60b7	0.27222225
99	0x3e8ccccd	0.275
100	0x3e8e38e4	0.2777778
101	0x3e8fa4fb	0.28055558
102	0x3e911112	0.28333336
103	0x3e927d28	0.28611112
104	0x3e93e93f	0.2888889
105	0x3e955556	0.2916667
106	0x3e96c16d	0.29444447
107	0x3e982d83	0.29722223
108	0x3e99999a	0.3
109	0x3e9b05b1	0.3027778
110	0x3e9c71c8	0.30555558
111	0x3e9dddde	0.30833334
112	0x3e9f49f5	0.31111112
113	0x3ea0b60c	0.3138889
114	0x3ea22223	0.3166667
115	0x3ea38e39	0.31944445
116	0x3ea4fa50	0.32222223
117	0x3ea66667	0.32500002
118	0x3ea7d27e	0.3277778
119	0x3ea93e94	0.33055556
120	0x3eaaaaab	0.33333334
121	0x3eac16c2	0.33611113
122	0x3ead82d9	0.3388889
123	0x3eaeeeef	0.34166667
124	0x3eb05b06	0.34444445
125	0x3eb1c71d	0.34722224
126	0x3eb33334	0.35000002
127	0x3eb49f4a	0.35277778
128	0x3eb60b61	0.35555556
129	0x3eb77778	0.35833335
130	0x3eb8e38f	0.36111113
131	0x3eba4fa5	0.3638889
132	0x3ebbbbbc	0.36666667
133	0x3ebd27d3	0.36944446
134	0x3ebe93ea	0.37222224
135	0x3ec00000	0.375
136	0x3ec16c17	0.37777779
137	0x3ec2d82e	0.38055557
138	0x3ec44445	0.38333336
139	0x3ec5b05b	0.3861111
140	0x3ec71c72	0.3888889
141	0x3ec88889	0.39166668
142	0x3ec9f4a0	0.39444447
143	0x3ecb60b6	0.39722222
144	0x3ecccccd	0.4
145	0x3ece38e4	0.4027778
146	0x3ecfa4fb	0.40555558
147	0x3ed11111	0.40833333
148	0x3ed27d28	0.41111112
149	0x3ed3e93f	0.4138889
150	0x3ed55556	0.4166667
151	0x3ed6c16c	0.41944444
152	0x3ed82d83	0.42222223
153	0x3ed9999a	0.425
154	0x3edb05b1	0.4277778
155	0x3edc71c7	0.43055555
156	0x3eddddde	0.43333334
157	0x3edf49f5	0.43611112
158	0x3ee0b60c	0.4388889
159	0x3ee22222	0.44166666
160	0x3ee38e39	0.44444445
161	0x3ee4fa50	0.44722223
162	0x3ee66667	0.45000002
163	0x3ee7d27d	0.45277777
164	0x3ee93e94	0.45555556
165	0x3eeaaaab	0.45833334
166	0x3eec16c2	0.46111113
167	0x3eed82d8	0.46388888
168	0x3eeeeeef	0.46666667
169	0x3ef05b06	0.46944445
170	0x3ef1c71d	0.47222224
171	0x3ef33333	0.475
172	0x3ef49f4a	0.47777778
173	0x3ef60b61	0.48055556
174	0x3ef77778	0.48333335
175	0x3ef8e38e	0.4861111
176	0x3efa4fa5	0.4888889
177	0x3efbbbbc	0.49166667
178	0x3efd27d3	0.49444446
179	0x3efe93e9	0.49722221
180	0x3f000000	0.5
181	0x3f00b60b	0.50277776
182	0x3f016c17	0.50555557
183	0x3f022222	0.5083333
184	0x3f02d82e	0.51111114
185	0x3f038e39	0.5138889
186	0x3f044445	0.5166667
187	0x3f04fa50	0.51944447
188	0x3f05b05c	0.5222223
189	0x3f066667	0.52500004
190	0x3f071c72	0.5277778
191	0x3f07d27e	0.5305556
192	0x3f088888	0.5333333
193	0x3f093e93	0.53611106
194	0x3f09f49f	0.5388889
195	0x3f0aaaaa	0.5416666
196	0x3f0b60b6	0.54444444
197	0x3f0c16c1	0.5472222
198	0x3f0ccccc	0.54999995
199	0x3f0d82d8	0.55277777
200	0x3f0e38e4	0.5555556
201	0x3f0eeeef	0.55833334
202	0x3f0fa4fb	0.56111115
203	0x3f105b06	0.5638889
204	0x3f111112	0.5666667
205	0x3f11c71d	0.5694445
206	0x3f127d28	0.57222223
207	0x3f133334	0.57500005
208	0x3f13e93e	0.57777774
209	0x3f149f49	0.5805555
210	0x3f155555	0.5833333
211	0x3f160b60	0.58611107
212	0x3f16c16c	0.5888889
213	0x3f177777	0.59166664
214	0x3f182d82	0.5944444
215	0x3f18e38e	0.5972222
216	0x3f19999a	0.6
217	0x3f1a4fa5	0.6027778
218	0x3f1b05b1	0.6055556
219	0x3f1bbbbc	0.60833335
220	0x3f1c71c8	0.61111116
221	0x3f1d27d3	0.6138889
222	0x3f1dddde	0.6166667
223	0x3f1e93ea	0.6194445
224	0x3f1f49f4	0.6222222
225	0x3f1fffff	0.62499994
226	0x3f20b60b	0.62777776
227	0x3f216c16	0.6305555
228	0x3f222222	0.6333333
229	0x3f22d82d	0.6361111
230	0x3f238e38	0.63888884
231	0x3f244444	0.64166665
232	0x3f24fa50	0.64444447
233	0x3f25b05b	0.6472222
234	0x3f266667	0.65000004
235	0x3f271c72	0.6527778
236	0x3f27d27e	0.6555556
237	0x3f288889	0.65833336
238	0x3f293e94	0.6611111
239	0x3f29f4a0	0.66388893
240	0x3f2aaaaa	0.6666666
241	0x3f2b60b5	0.6694444
242	0x3f2c16c1	0.6722222
243	0x3f2ccccc	0.67499995
244	0x3f2d82d8	0.67777777
245	0x3f2e38e3	0.6805555
246	0x3f2eeeee	0.6833333
247	0x3f2fa4fa	0.6861111
248	0x3f305b06	0.6888889
249	0x3f311111	0.69166666
250	0x3f31c71d	0.6944445
251	0x3f327d28	0.69722223
252	0x3f333334	0.70000005
253	0x3f33e93f	0.7027778
254	0x3f349f4a	0.70555556
255	0x3f355556	0.7083334
