result_model/ex3_nsde.pth (torch, 22036 bytes, 20 tensors)

weight f4 [20, 4]
0	0x3ea81db1	0.32835153
1	0x3cbb1bb3	0.022840356
2	0x3eacbdbb	0.33738503
3	0xbed7bd44	-0.42136586
4	0xbd649dca	-0.055814542
5	0xbd865139	-0.06558461
6	0x3ee46f97	0.44616386
7	0x3ea647eb	0.32476744
8	0xbdc59a6b	-0.096485935
9	0x3e6e02f3	0.23243313
10	0xbec35992	-0.38154274
11	0xbe9027bf	-0.28155324
12	0xbf05f1c6	-0.5232204
13	0xbd294376	-0.0413241
14	0xbe85480e	-0.26031536
15	0x3eb580ac	0.3544973
16	0x3c2d0292	0.010559695
17	0xbe09f219	-0.13471259
18	0x3e79f9e0	0.24411726
19	0x3df4ce5c	0.119534224
20	0x3c55183d	0.013006267
21	0x3ea1955d	0.31559268
22	0xbeabad58	-0.33530688
23	0xbd004714	-0.031317785
24	0xbec713ee	-0.38882393
25	0xbeff5eab	-0.49876913
26	0x3eaec056	0.34131116
27	0xbea3c228	-0.31984067
28	0xbe03dfff	-0.12878416
29	0x3e1f3dc7	0.1555091
30	0xbeabb835	-0.33538976
31	0x3dd20929	0.102556534
32	0x3eb7da5f	0.3590879
33	0x3e575788	0.21029484
34	0xbd00e8af	-0.031471904
35	0xbdf005ec	-0.117198795
36	0xbe4d6778	-0.20059001
37	0xbed1955c	-0.40934265
38	0xbbcd4100	-0.006263852
39	0xbd220140	-0.039551973
40	0xbe996abc	-0.29964244
41	0xbd8bf250	-0.06833327
42	0xbe999228	-0.2999432
43	0xbde3d830	-0.11125219
44	0xbe4a9766	-0.19784316
45	0x3e14e102	0.14538959
46	0xbe26bb01	-0.16282274
47	0xbe6f1944	-0.23349482
48	0x3e0d4f5e	0.13799807
49	0xbd2b7101	-0.041855816
50	0xbebf8682	-0.3740731
51	0x3dd7d9f1	0.10539616
52	0x3d5709a0	0.052499413
53	0xbdcff500	-0.10154152
54	0xbeef37c6	-0.4672224
55	0xbd780ea0	-0.060560822
56	0x3da15164	0.07876852
57	0xbf041732	-0.51597893
58	0xbd4e43f9	-0.050357793
59	0xbe300b6c	-0.17191857
60	0xbe88787e	-0.26654428
61	0xbed97a40	-0.42476082
62	0x3c6b36c0	0.014356315
63	0x3ee50f56	0.44738263
64	0xbea30f66	-0.31847686
65	0xbd8a426a	-0.06750949
66	0x3edf7654	0.43644965
67	0xbcfc0689	-0.030764835
68	0x3c43c949	0.011949846
69	0x3e599633	0.21248703
70	0xbe89c0c5	-0.26904884
71	0x3ea009cb	0.3125747
72	0x3d7ed7a6	0.062217377
73	0x3e3d15e5	0.18465383
74	0x3ee7ecc5	0.45297828
75	0x3e1a9647	0.15096389
76	0xbedf93df	-0.43667504
77	0x3ea690b2	0.3253227
78	0xbef654d0	-0.48111582
79	0xbecf14aa	-0.40445453

bias f4 [20]
0	0xbf28f202	-0.65994275
1	0x3ea43e75	0.320789
2	0xbed62ef6	-0.41832703
3	0x3edd811f	0.43262574
4	0xbee64bb5	-0.44979635
5	0x3d0748bd	0.033028353
6	0xbd68882e	-0.056770496
7	0x3e934b24	0.28768265
8	0xbe052f15	-0.13006242
9	0x3da5b7f8	0.0809173
10	0xbd163800	-0.0366745
11	0xbe3046ca	-0.17214504
12	0x3e6155e4	0.22005421
13	0xbd7a9620	-0.061178327
14	0xbefb9912	-0.4914022
15	0x3e2542e4	0.16138798
16	0x3d939128	0.07205421
17	0xbed4bfe2	-0.41552645
18	0xbe2f8a82	-0.1714268
19	0xbf14b5ac	-0.5808971

weight f4 [20, 20]
0	0xbdecb844	-0.115585834
1	0xbdaf6678	-0.08564466
2	0xbd0adbed	-0.033901144
3	0xbd678c9d	-0.056530584
4	0xbe6b9332	-0.2300537
5	0x3c95bd9e	0.018278893
6	0x3e28bd17	0.16478382
7	0x3b0a0c9f	0.0021064652
8	0x3d290711	0.041266505
9	0x3d1af880	0.037834644
10	0xbae87c00	-0.001773715
11	0xbe04bfa4	-0.1296373
12	0xbea9be5c	-0.33153045
13	0x3d6d7110	0.057969153
14	0x3e29080a	0.16506973
15	0x3dca9f50	0.09893668
16	0x3d28ed79	0.041242097
17	0xbe97d96b	-0.29658064
18	0xbd81cf1a	-0.063383296
19	0xbe2ecb6e	-0.1706979
20	0x3e134a51	0.14383818
21	0x3e13d7cd	0.1443779
22	0xbd56dfd6	-0.05245956
23	0x3ddb76c7	0.10716014
24	0xbe395a98	-0.18100965
25	0xbddcd3c1	-0.10782576
26	0xbd70c44c	-0.058780953
27	0xbc91318c	-0.017723821
28	0xbe126ddb	-0.14299719
29	0xbe002618	-0.12514532
30	0x3d59b2a0	0.053148866
31	0xbe694941	-0.2278185
32	0x3e11b087	0.14227496
33	0xbe62ac0a	-0.2213594
34	0xbcb76090	-0.022384912
35	0x3e3b0392	0.1826308
36	0xbe34bba1	-0.176497
37	0xbddeac02	-0.10872652
38	0xbd957331	-0.07297362
39	0xbdbeaadd	-0.09309933
40	0xbdbc3d49	-0.09191377
41	0x3ce7723a	0.02825271
42	0xbe6b92fa	-0.23005286
43	0xbd100d34	-0.03516884
44	0xbe984589	-0.2974055
45	0xbcc80fb6	-0.024421554
46	0xbed4b386	-0.41543216
47	0xbe5e18fe	-0.21689221
48	0x3e1dcda6	0.1541048
49	0x3e0c6480	0.13710213
50	0x3e17f2c0	0.14838696
51	0xbdc98cae	-0.09841286
52	0xbe24944e	-0.16072199
53	0xbe4e542e	-0.201493
54	0xbe46a2f0	-0.19398093
55	0xbd77c604	-0.060491577
56	0x3d5b403a	0.053528048
57	0x3b33715c	0.00273808
58	0x3e33a981	0.1754513
59	0x3cbbc269	0.02291985
60	0xbe1cb8d2	-0.15304878
61	0xbe3e91f9	-0.18610372
62	0x3d02538d	0.03181796
63	0xbdc83f4d	-0.09777699
64	0x3e6b4f51	0.22979476
65	0x3e1acb1f	0.15116547
66	0x3de2984c	0.110642046
67	0x3e07578d	0.13216992
68	0x3d34fcff	0.04418659
69	0xbd64ba34	-0.05584164
70	0x3e022826	0.12710628
71	0x3aa48227	0.0012550995
72	0x3dbaf307	0.09128385
73	0x39c93400	0.0003837645
74	0xbde2bfd6	-0.11071746
75	0x3e178a04	0.14798743
76	0xbf03277f	-0.5123214
77	0x3dd81ca5	0.105523385
78	0xbd745d36	-0.059659205
79	0x3e2ed53d	0.17073531
80	0xbd1c1088	-0.038101703
81	0xbd791258	-0.06080851
82	0x3bc71c80	0.0060763955
83	0x3e0107a4	0.12600571
84	0xbe33011c	-0.17480892
85	0xbddab8d9	-0.10679788
86	0xbd6a8b3c	-0.05726169
87	0xbe33c938	-0.17557228
88	0xbe350b20	-0.17680025
89	0xbc0641f0	-0.008194432
90	0x3cd7f1c0	0.026360393
91	0xbe23ce95	-0.15996774
92	0xbdb9421c	-0.090458125
93	0xbd778758	-0.06043181
94	0x3da733f4	0.08164206
95	0xbe1cab82	-0.152998
96	0xbdb2f9fc	-0.08739087
97	0xbe37dd24	-0.17955452
98	0x3d41f750	0.047354996
99	0x3e1dc2f6	0.15406403
100	0x3e2f7d95	0.1713775
101	0x3d54d05d	0.051956523
102	0xb9ff7cd3	-0.0004873039
103	0xbd35cd27	-0.0443851
104	0x3e2b0e4a	0.1670467
105	0xbe059d76	-0.13048348
106	0xbe8c69bf	-0.27424428
107	0x3de2f0d2	0.11081089
108	0xbd63ac5e	-0.055584304
109	0x3ded02dc	0.11572811
110	0x3df6ac8c	0.120446295
111	0x3de1c166	0.11023216
112	0x3cc609b0	0.024174541
113	0xbe2f79ea	-0.1713635
114	0xbe164a54	-0.14676791
115	0x3d55f240	0.05223298
116	0xbdc4525c	-0.09586021
117	0xbde881cb	-0.11352881
118	0xbe28b5f4	-0.1647566
119	0x3d4bcd79	0.0497565
120	0x3da2c28f	0.07947265
121	0x3d622331	0.055209342
122	0xbe123375	-0.14277442
123	0xbdf9e9d5	-0.12202803
124	0x3e18a70e	0.14907476
125	0xbc9be138	-0.019028291
126	0xbec8c74c	-0.3921455
127	0x3e123a1c	0.1427998
128	0xbe2ece56	-0.17070898
129	0x3cccb768	0.024989799
130	0xbcf0bd38	-0.029387102
131	0xbda9e09f	-0.08294796
132	0xbc8d8e50	-0.017279774
133	0xbe1291d6	-0.14313444
134	0x3e04fa2d	0.1298606
135	0x3e406c80	0.1879139
136	0x3dbb7c5a	0.091545776
137	0xbe06dea5	-0.1317087
138	0xbc6ae350	-0.014336422
139	0xbcf11f77	-0.029433949
140	0xbe2f0d90	-0.17095017
141	0x3d3ddaa7	0.0463511
142	0xbd5e409c	-0.054260835
143	0x3d8ca6fe	0.06867789
144	0xbd97bdf0	-0.074092746
145	0xbe25511f	-0.16144226
146	0x3e365494	0.17805701
147	0xbe0776e2	-0.13228944
148	0xbd9b508c	-0.075837225
149	0xbc2cc040	-0.010543883
150	0x3d550088	0.05200246
151	0x3e001e62	0.1251159
152	0xbe7d4316	-0.24732623
153	0xbc5fa950	-0.013651207
154	0x3d46a168	0.048493773
155	0x3e1662ea	0.1468617
156	0xbd8425f6	-0.06452553
157	0xbe53c11d	-0.20679136
158	0x3d0cf409	0.034412418
159	0x3e06a65c	0.13149399
160	0xbe5982cf	-0.21241306
161	0x3e4d88ee	0.20071766
162	0xbdefe0de	-0.11712812
163	0xbd019fd4	-0.031646565
164	0xbd0b5c94	-0.034023836
165	0x3e3dc56c	0.18532342
166	0xbe0daa28	-0.1383444
167	0x3d14cfa0	0.03633082
168	0xbe58d234	-0.21173936
169	0xbdbd6576	-0.09247868
170	0x3e633536	0.22188267
171	0x3e03560e	0.12825796
172	0x3e4ee440	0.20204258
173	0x3e2ce4bc	0.1688413
174	0xbe491e5c	-0.19640487
175	0xbd7e9ce8	-0.062161356
176	0xbdee4364	-0.116339475
177	0xbe33c4f8	-0.17555606
178	0xbd43087c	-0.047615513
179	0xbda3d2a4	-0.07999161
180	0x3dd446cd	0.10365067
181	0xbebc9e66	-0.36839598
182	0x3e2d80aa	0.16943613
183	0xbd39ff33	-0.045409393
184	0xbe316dd1	-0.17327048
185	0xbc54d0a5	-0.012989198
186	0xbeba41c9	-0.36378315
187	0x3dafa666	0.0857666
188	0x3d72f596	0.05931624
189	0x3e5adb52	0.21372727
190	0xbe200573	-0.15627079
191	0xbdd461e5	-0.103702344
192	0xbd8961cd	-0.06708107
193	0x3e1f9486	0.15584001
194	0x3e49c748	0.19704926
195	0xbe2f8430	-0.1714027
196	0xbed99a97	-0.42500755
197	0x3e1d29f9	0.15348043
198	0x3d1c56e7	0.038168814
199	0x3d9381ca	0.0720249
200	0xbe335e61	-0.17516471
201	0x3d8a565b	0.06754752
202	0x3de84baa	0.11342557
203	0xbe5d252c	-0.21596211
204	0xbe920842	-0.28521925
205	0x3e3c2ec2	0.18377212
206	0xbe5f1786	-0.21786317
207	0xbd9a585c	-0.075363845
208	0xbde368e2	-0.11103989
209	0x3cb89540	0.022532105
210	0x3e118100	0.14209366
211	0xbcb0e5a8	-0.021593884
212	0xbe7c1f31	-0.24621274
213	0x3d816450	0.06317961
214	0x3d47bcc8	0.04876402
215	0xbcba6060	-0.022751033
216	0x3e0acde6	0.13555107
217	0x3d95ddfe	0.07317732
218	0xbe8e1a29	-0.27754334
219	0x3de77e8a	0.11303432
220	0x3e55ab3c	0.20866102
221	0xbdcf6aa9	-0.10127766
222	0xbe390865	-0.18069609
223	0xbdc46d32	-0.0959114
224	0xbdcefdc4	-0.10106996
225	0xbe2df3f0	-0.16987586
226	0xbdaa1522	-0.08304812
227	0xbe336c9a	-0.17521897
228	0x3d2a0c40	0.04151559
229	0x3e448be4	0.19193989
230	0xbbb0cfa0	-0.0053958446
231	0x3d3a5bc8	0.045497686
232	0x3e1b87f4	0.15188581
233	0x3d40c8c0	0.04706645
234	0xbe159212	-0.14606503
235	0x3e2e1ef0	0.17003989
236	0xbe2d050a	-0.16896453
237	0xbdefe5cd	-0.11713753
238	0xbe58206a	-0.21106115
239	0xbcb8f9e0	-0.022580087
240	0xbc43395d	-0.011915532
241	0x3daacfa0	0.083403826
242	0x3d2396b0	0.03993863
243	0xbd95c0e2	-0.0731218
244	0xbd0ba39f	-0.034091588
245	0xbd0d3ff1	-0.034484807
246	0xbe8bb046	-0.27282923
247	0x3e45d5c2	0.19319823
248	0xbe469bcb	-0.19395368
249	0xbd6dff20	-0.058104634
250	0xbe13fc84	-0.14451796
251	0xbe52f49d	-0.20601125
252	0xbdc92efe	-0.09823416
253	0xbdc48b8a	-0.095969275
254	0x3de96170	0.11395538
255	0xbd4cc780	-0.049994946

bias f4 [20]
0	0xbe944add	-0.28963366
1	0x3d81f790	0.06346047
2	0x3d80a9c3	0.062823795
3	0x3e111a7d	0.1417026
4	0x3d412d60	0.047162414
5	0xbda4ff88	-0.08056551
6	0x3d091ecf	0.033476647
7	0xbdeaea3e	-0.114704594
8	0xbccd4008	-0.025054947
9	0xbd4a89ae	-0.049447708
10	0xbe5b3f96	-0.21410975
11	0xbe08ec5a	-0.13371411
12	0xbde2ce82	-0.110745445
13	0xbd3c6fe4	-0.046005145
14	0x3e034bb9	0.12821855
15	0xbe740431	-0.23829724
16	0xbe411341	-0.18855001
17	0x3d4d0886	0.050056957
18	0xbe25e6be	-0.16201302
19	0xbe5c50d0	-0.21515203

weight f4 [1, 20]
0	0xbd488daf	-0.048963245
1	0xbd52905f	-0.051407214
2	0x3d5764c0	0.052586317
3	0xbda86a74	-0.08223429
4	0xbdf7aa81	-0.12093068
5	0x3de538f8	0.111925066
6	0x3dc98064	0.09838942
7	0x3d4e5f59	0.0503839
8	0x3bf63d80	0.0075146556
9	0xbd9173ab	-0.0710214
10	0x3e1a092f	0.15042566
11	0xbd2080d8	-0.039185375
12	0xbd78785b	-0.060661655
13	0xbe378ecd	-0.17925568
14	0xbdab8f36	-0.08376925
15	0x3df8ebc3	0.12154343
16	0xbda574c2	-0.080789104
17	0xbd38ba03	-0.04509927
18	0xbdcae583	-0.09907057
19	0xbc4dd2ab	-0.012562434

weight f4 [20, 4]
0	0x3e4c923c	0.19977659
1	0xbe0e3180	-0.1388607
2	0xbef72da0	-0.48276997
3	0x3dcad0a0	0.09903073
4	0x3da71389	0.08158023
5	0xbe20aade	-0.1569018
6	0x3ef57d1f	0.47947022
7	0xbec4f5b3	-0.38468704
8	0xbeceda04	-0.40400708
9	0xbe5c5770	-0.2151773
10	0xbe29d5f0	-0.16585517
11	0xbd1d92a0	-0.03846991
12	0x3e1235d2	0.14278343
13	0x3e8609fb	0.2617949
14	0xbe912745	-0.28350273
15	0x3e12127d	0.14264865
16	0x3ecc9616	0.39958256
17	0xbc6225c0	-0.013802946
18	0xbe9dbf04	-0.30809796
19	0xbd9ee298	-0.07758063
20	0x3e821c52	0.25412232
21	0xbe4f4368	-0.20240557
22	0xbeed9610	-0.4640355
23	0x3e93dbc4	0.28878605
24	0xbe36dd2f	-0.17857812
25	0x3be81d3e	0.007083564
26	0xbd97ad8d	-0.07406149
27	0xbe5a18fb	-0.21298592
28	0x3ea2c837	0.31793377
29	0x3f06718f	0.52517027
30	0xbe37041c	-0.17872661
31	0x3f73989d	0.95154744
32	0x3e9f7e85	0.31151214
33	0x3eb001dc	0.3437642
34	0xbea404ee	-0.3203501
35	0x3f22be4c	0.6357162
36	0x3ed7e8b8	0.42169738
37	0xbc9aa1c0	-0.018875957
38	0xbd8b26f8	-0.06794542
39	0xbe7f768c	-0.24947566
40	0x3d55afbf	0.052169558
41	0xbebe1f83	-0.37133417
42	0x3edb3842	0.4281636
43	0x3e91fa86	0.28511447
44	0x3d82d158	0.063875854
45	0xbe0619c0	-0.1309576
46	0xbea9c416	-0.33157414
47	0xbda7e990	-0.081988454
48	0xbb95b80b	-0.004569059
49	0x3edd4b68	0.43221593
50	0x3e12ab79	0.14323224
51	0x3f02d953	0.5111286
52	0x3ea73e96	0.32664937
53	0xbe0df9fc	-0.13864893
54	0x3b44f900	0.0030055642
55	0xbe4c1798	-0.19930875
56	0xbdeac3e0	-0.114631414
57	0xbebcfef8	-0.36913276
58	0xbbe6d080	-0.007043898
59	0xbe1601c0	-0.14649105
60	0xbe942942	-0.28937727
61	0x3e08d0fa	0.13360968
62	0x3e408004	0.18798834
63	0x3e9b6fe7	0.30358812
64	0xbd241640	-0.04006028
65	0xbe969f1c	-0.29418266
66	0xbde57630	-0.11204183
67	0xbe250bb8	-0.16117752
68	0xbe245eec	-0.16051835
69	0xbd763990	-0.06011349
70	0xbc875f80	-0.01652503
71	0x3dd0fc28	0.10204345
72	0xbec15eb2	-0.3776756
73	0xbeb516d8	-0.3536899
74	0xbec9f6a8	-0.39445996
75	0x3e7e4b54	0.24833423
76	0x3eb08c49	0.3448203
77	0xbf0cf7c5	-0.55065566
78	0x3dcad9ea	0.09904845
79	0xbeaa2307	-0.3322985

bias f4 [20]
0	0x3d097ff0	0.033569276
1	0xbf4cfbb0	-0.80071545
2	0xbe87a448	-0.26492524
3	0x3ed1aca6	0.40952033
4	0xbef730be	-0.48279375
5	0x3e16c3a8	0.14723074
6	0xbdb9f3f4	-0.090797335
7	0x3f680537	0.9063296
8	0x3f60bdac	0.87789416
9	0xbe89ae28	-0.26890683
10	0x3f19546c	0.5989444
11	0x3e54cb08	0.20780575
12	0x3ebeb25b	0.3724545
13	0x3e3138a0	0.17306757
14	0x3eebdd52	0.46067291
15	0x3f1c0e59	0.6095939
16	0xbe7972e0	-0.24360228
17	0x3e24fe38	0.16112602
18	0x3ee78f34	0.45226443
19	0xbe8377ed	-0.25677434

weight f4 [20, 20]
0	0x3e508ba4	0.20365769
1	0x3cf7512d	0.030190075
2	0xbe578b19	-0.21049155
3	0x3e5b912a	0.21442094
4	0x3bc9a940	0.0061542094
5	0xbe5c440f	-0.21510337
6	0xbd20880f	-0.039192256
7	0xbe66a3fd	-0.22523494
8	0xbdd01815	-0.10160843
9	0x3dfc9818	0.12333697
10	0xbe0999c0	-0.13437557
11	0x3dd7907c	0.10525605
12	0xbdcfe010	-0.101501584
13	0xbe46d9cc	-0.1941902
14	0xbddd8da4	-0.108180314
15	0x3d8242dd	0.063604094
16	0x3d808b4c	0.06276569
17	0xbdf8773f	-0.121321194
18	0x3e340b24	0.17582375
19	0x3d5e5eef	0.054289754
20	0x3d323100	0.04350376
21	0x3df16c80	0.11788273
22	0x3d83b848	0.06431633
23	0xbd860718	-0.06544322
24	0xbd39d554	-0.04536946
25	0x3de8077c	0.113295525
26	0xbcf6e3d8	-0.030137941
27	0xbe947ad1	-0.2899995
28	0xbe83a086	-0.25708407
29	0x3c9b6c78	0.01897262
30	0xbd297907	-0.041375186
31	0xbe0c80d8	-0.13721025
32	0xbdd5772b	-0.1042312
33	0xbd5b8344	-0.05359198
34	0xbde48c37	-0.11159556
35	0xbe32861b	-0.1743397
36	0x3d6f59e8	0.05843535
37	0xbd62bd14	-0.0553561
38	0x3e28c4b0	0.1648128
39	0x3e8c3a56	0.27388257
40	0x3da06830	0.07832372
41	0xbcf0a9fb	-0.029377928
42	0xbe5ae878	-0.21377742
43	0xbe5f9db4	-0.21837503
44	0x3daa9a78	0.08330244
45	0xbdffc1bc	-0.12488124
46	0x3d05866f	0.03259891
47	0xbe6ee4a1	-0.23329403
48	0x3ca8f690	0.020625383
49	0xbd70d298	-0.058794588
50	0xbe0cd3eb	-0.13752715
51	0x3e10f276	0.14154992
52	0xbd8ad256	-0.067784
53	0xbe198a62	-0.14994195
54	0xbde8a2c0	-0.11359167
55	0x3daaf5b3	0.08347645
56	0x3e0f9c6e	0.14024517
57	0x3dca9368	0.09891397
58	0xbd6cab78	-0.057780713
59	0xbdbc674d	-0.091993906
60	0x3dadce6c	0.084866375
61	0x3ddc016c	0.10742459
62	0x3df4d394	0.11954418
63	0x3dc5c64f	0.09656965
64	0xbe0d62d0	-0.13807225
65	0xbdf5775d	-0.11985657
66	0xbeab6e86	-0.3348276
67	0xbe2d75f7	-0.16939531
68	0xbda16534	-0.07880631
69	0x3e2a83b8	0.16651809
70	0x3e2de28a	0.16980949
71	0xbe393542	-0.18086722
72	0xbdbcf265	-0.092259206
73	0xbd91558c	-0.07096395
74	0xbd05a654	-0.032629326
75	0xbe2423b1	-0.1602924
76	0xbdb40fb8	-0.087920606
77	0x3e36114a	0.17780033
78	0x3e01baee	0.12668964
79	0x3e62cd1d	0.22148557
80	0x3e0ccf0e	0.1375086
81	0xbf0eb482	-0.55744183
82	0x3b296ac0	0.0025850981
83	0x3d92da23	0.071705125
84	0x3e4ca216	0.19983706
85	0x3de9d508	0.114175856
86	0x3cf140ff	0.029449938
87	0x3e4d3c8e	0.20042631
88	0xbd7645db	-0.060125213
89	0x3de5bef0	0.11218059
90	0xbe3163bd	-0.17323203
91	0x3df39024	0.11892727
92	0x3d4d62e5	0.05014314
93	0xbdc49c7a	-0.09600158
94	0x3e53bf42	0.20678428
95	0xbd912b2c	-0.070883125
96	0xbdccb765	-0.09995917
97	0xbe2761b2	-0.16345862
98	0x3c22fb60	0.009947628
99	0xbda9a25d	-0.082829215
100	0x3d8485ac	0.064708084
101	0xbd184910	-0.037179053
102	0x3e371e28	0.17882597
103	0xbe22e711	-0.15908457
104	0x3e1857fc	0.14877313
105	0xbde95a1b	-0.113941394
106	0xbe2829d6	-0.16422209
107	0xbd9ed514	-0.07755485
108	0x3e164fe0	0.14678907
109	0xbd56d638	-0.05245039
110	0x3c595950	0.013265923
111	0x3e321edc	0.17394584
112	0xbe0aafee	-0.13543674
113	0xbe1c4baf	-0.15263246
114	0xbdfbce1f	-0.12295174
115	0x3b4bc600	0.003109336
116	0xbe10f292	-0.14155033
117	0xbe40ad2e	-0.18816063
118	0x3e16f25e	0.14740893
119	0xbe0286b8	-0.12746704
120	0x3c82d6d8	0.015971586
121	0x3db158cd	0.086595155
122	0x3e480038	0.19531333
123	0xbe1d16f7	-0.15340792
124	0xbe236f99	-0.1596054
125	0x3e29c020	0.16577196
126	0x3ca99622	0.020701472
127	0xbe65c683	-0.22439007
128	0x3d07b7a4	0.033134118
129	0x3dce266c	0.10065922
130	0x3d392035	0.04519673
131	0x3e2aa4c6	0.16664419
132	0xbe62c48a	-0.22145286
133	0xbe00b1e9	-0.12567867
134	0xbd390564	-0.045171157
135	0xbc8c7641	-0.017146232
136	0x3dd90d64	0.10598257
137	0x3e07e1ba	0.13269702
138	0x3d155f60	0.03646791
139	0x3e1da31a	0.1539425
140	0x3dbb58f4	0.09147826
141	0x3dedb9e9	0.11607725
142	0x3cda7100	0.02666521
143	0xbb63255c	-0.003465972
144	0x3d9eba48	0.07750374
145	0xbc6c4010	-0.014419571
146	0x3e7cc187	0.246832
147	0xbb6cbcd8	-0.0036123302
148	0x3e548425	0.20753534
149	0x3e065d9a	0.13121644
150	0x3ea693f4	0.32534754
151	0x3d891050	0.066925645
152	0xbe24b9de	-0.16086528
153	0x3e292c26	0.16520748
154	0xbd732c80	-0.05936861
155	0xbe0f27c5	-0.13980015
156	0xbdfe9290	-0.12430298
157	0xbe62c01b	-0.22143595
158	0xbd8bf97e	-0.06834696
159	0x3e6a1f8c	0.22863597
160	0xbdbe172e	-0.09281765
161	0xbe9bb1db	-0.3040913
162	0x3dd60b1c	0.10451338
163	0xbddce873	-0.10786524
164	0xbe3e48f2	-0.18582514
165	0x3e11252c	0.14174336
166	0xbe0810bf	-0.13287638
167	0x3e071fd6	0.13195738
168	0x3e76b23d	0.2409143
169	0x3e361e98	0.17785108
170	0x3d99d959	0.07512159
171	0x3d1832d8	0.037157863
172	0x3ded14f4	0.11576262
173	0xbc4f3dc0	-0.012649
174	0xbe25ea69	-0.16202702
175	0x3e7777d9	0.24166812
176	0xbe452a38	-0.19254386
177	0xbe3d85a8	-0.18508017
178	0xbd45267c	-0.048132405
179	0xbd4860e2	-0.04892052
180	0xbe00f226	-0.12592372
181	0x3e1140cd	0.14184876
182	0x3cd54778	0.026035056
183	0x3df5265c	0.11970207
184	0x3d931d20	0.071832895
185	0xbe28f03b	-0.1649789
186	0x3dd664f1	0.10468472
187	0x3d15ff6f	0.036620554
188	0x3e2d948c	0.16951197
189	0x3dd42bf0	0.10359943
190	0xbd80d731	-0.062910445
191	0x3d6fd278	0.058550328
192	0xbe3d9330	-0.18513179
193	0x3d8b67c4	0.06806901
194	0x3dbcf444	0.092262775
195	0xbbd0c5ae	-0.0063712215
196	0x3e632d56	0.22185263
197	0x3e3328aa	0.17495981
198	0xbdd0408e	-0.10168563
199	0xbe6aba56	-0.22922644
200	0x3e417f48	0.1889621
201	0xbe80fe39	-0.25193956
202	0x3dbbe8d8	0.09175271
203	0x3e4359b0	0.19077182
204	0xbde9ea7d	-0.11421678
205	0x3d9121f4	0.07086554
206	0xbcc810e4	-0.024422117
207	0x3e486de1	0.19573165
208	0x3e7cffa0	0.24706888
209	0x3e0e17e8	0.13876307
210	0x3d8cd69c	0.06876871
211	0x3bffff20	0.0078123957
212	0xbdf9352c	-0.12168345
213	0x3dfe8ec0	0.12429571
214	0x3d2d6950	0.042336762
215	0xbde862bc	-0.11346957
216	0x3d923820	0.07139611
217	0x3e3a704a	0.18206897
218	0x3cea6e00	0.028616905
219	0x3d7821d8	0.06057915
220	0x3e2ccf34	0.16875917
221	0x3f3e352c	0.74299884
222	0x3df6d9c8	0.12053257
223	0xbdc811ef	-0.097690456
224	0x3cd5fdc0	0.026121974
225	0x3e3454d2	0.17610481
226	0xbe3d875c	-0.18508667
227	0xbe6f7840	-0.23385715
228	0x3df6d608	0.12052542
229	0xbe5b9e71	-0.2144716
230	0x3f2efee5	0.6835769
231	0x3d3189f8	0.043344468
232	0xbe149082	-0.1450825
233	0x3e028b3a	0.12748423
234	0x3e4d4d3a	0.20048991
235	0xbd2f63a6	-0.04281964
236	0xbd7df9b4	-0.062005714
237	0xbdec51fe	-0.11539076
238	0xbcb24d68	-0.021765426
239	0xbdbe8bfb	-0.09304043
240	0x3de1f5b4	0.11033192
241	0xbea35a24	-0.3190471
242	0x3e2a9b5e	0.1666083
243	0xbea554a2	-0.32291132
244	0x3d379428	0.044819027
245	0x3e079a4a	0.1324245
246	0xbe36df8b	-0.17858712
247	0xbdfb0ab6	-0.12257902
248	0xbe892461	-0.26785567
249	0x3d213a68	0.03936234
250	0xbe537426	-0.20649776
251	0x3e4a9314	0.19782668
252	0x3d800f22	0.06252886
253	0x3e51a70a	0.20473877
254	0x3dcce008	0.10003668
255	0xbe73e904	-0.23819357

bias f4 [20]
0	0x3d85d196	0.06534116
1	0xbce203c5	-0.027589688
2	0xbe0e6d1e	-0.13908812
3	0xbe935771	-0.2877765
4	0x3e9b5f30	0.3034606
5	0xbe524107	-0.20532618
6	0xbd9217c4	-0.07133439
7	0xbd4eb806	-0.050468467
8	0x3f077a9c	0.5292146
9	0x3e33fefa	0.17577735
10	0x3f14f812	0.58191025
11	0x3e84a17a	0.25904447
12	0xbe4656c4	-0.19369036
13	0xbe4bc357	-0.19898735
14	0x3ceab590	0.028651029
15	0x3ee829ad	0.45344296
16	0xbd7d6a2d	-0.061868835
17	0x3f2c0141	0.67189413
18	0x3ef8d57b	0.48600373
19	0xbe814195	-0.25245348

weight f4 [1, 20]
0	0xbca136da	-0.019679476
1	0xbe035401	-0.12825014
2	0xbda4022d	-0.080082275
3	0xbd9ab3db	-0.07553836
4	0x3d997481	0.074929245
5	0xbdcbc64b	-0.09949931
6	0x3d0597b6	0.032615386
7	0xbb7a64f9	-0.0038207157
8	0x3e816818	0.2527473
9	0x3bd079f7	0.0063621956
10	0x3dabaddd	0.08382771
11	0x3eb8b40c	0.36074865
12	0x3d506cd3	0.050885033
13	0x3d828634	0.063732535
14	0xbe08ac2c	-0.13346928
15	0x3e09cfc5	0.13458164
16	0x3de7e24a	0.11322458
17	0x3e6530e1	0.22381927
18	0x3e52adec	0.20574158
19	0xbd1e15c0	-0.03859496

weight f4 [20, 4]
0	0xbe8b194a	-0.27167732
1	0xbb6174b3	-0.0034401834
2	0xbf0ab5fe	-0.5418395
3	0xbd0134fe	-0.031544678
4	0x3ef87db2	0.48533398
5	0x3e93b1ef	0.2884669
6	0x3c996230	0.018723577
7	0x3eac21c9	0.33619526
8	0xbea3d874	-0.32001078
9	0xbed75876	-0.42059678
10	0x3e65f161	0.2245536
11	0xbe4bd6bd	-0.19906135
12	0x3dbc84ad	0.092049934
13	0xbde98caf	-0.114037864
14	0x3cde3bd7	0.027128143
15	0xbed5a834	-0.4172989
16	0x3ec0b722	0.3763972
17	0xbeba5e3a	-0.36400014
18	0xbd9f2248	-0.077702105
19	0x3e809ef4	0.25121272
20	0x3e26dac1	0.16294385
21	0x3e839c62	0.25705248
22	0xbdc8ae39	-0.09798855
23	0x3e49ae6e	0.19695446
24	0x3e5764f3	0.21034603
25	0xbf2e4aa8	-0.68082666
26	0x3ec97310	0.39345598
27	0xbe441888	-0.19149983
28	0xbd833858	-0.06407231
29	0xbe259e10	-0.16173577
30	0xbe416abc	-0.18888372
31	0xbd863340	-0.06552744
32	0x3e9e88d1	0.30963758
33	0x3e4b126c	0.19831246
34	0xbd8e18cc	-0.069383234
35	0x3dcbf0dd	0.099580504
36	0x3e3f06eb	0.18654983
37	0x3e6cca1b	0.23123972
38	0xbe8b1c90	-0.2717023
39	0xbde7613b	-0.11297842
40	0x3f646f21	0.8923207
41	0x3f0ed697	0.5579619
42	0x3dfb55f6	0.12272255
43	0x3da1dc79	0.0790338
44	0x3ec641ed	0.38722172
45	0x3e6a3b3e	0.22874162
46	0xbd021533	-0.0317585
47	0x3e0cd2d9	0.13752307
48	0x3eb87e10	0.36033678
49	0xbebc77db	-0.36810192
50	0xbd97c09c	-0.07409784
51	0x3d9e3cbe	0.077264294
52	0x3e751eb9	0.23937501
53	0xbee9837a	-0.4560812
54	0x3da31850	0.079636216
55	0x3ef11959	0.4708965
56	0xbd953841	-0.0728612
57	0x3eef1c9c	0.46701515
58	0x3e02d9ce	0.12778398
59	0xbf083482	-0.5320512
60	0x3eefec7a	0.46860105
61	0xbe4bf15c	-0.1991629
62	0xbeea0122	-0.4570399
63	0xbea29fb2	-0.31762463
64	0x3eef961e	0.46794218
65	0xbe8e20b8	-0.27759337
66	0xbeb92194	-0.3615843
67	0x3e260d20	0.16215944
68	0x3e681577	0.22664438
69	0x3d82c2fb	0.06384846
70	0xbe5564eb	-0.20839278
71	0xbcfcac70	-0.030843943
72	0xbc81bf16	-0.015838187
73	0x3e9d2515	0.30692354
74	0x3efaca08	0.48982263
75	0x3d56dd2b	0.052457016
76	0x3db6b45c	0.089211196
77	0x3ecce811	0.40020803
78	0x3eabec29	0.33578613
79	0xbefc5d09	-0.4928973

bias f4 [20]
0	0xbed707d5	-0.41998163
1	0xbee32b0f	-0.4436879
2	0x3e3eea6f	0.18644117
3	0x3d1f44f5	0.038884122
4	0x3e062120	0.13098574
5	0xbe582645	-0.21108349
6	0x3d4d11b6	0.05006572
7	0x3ed6a29a	0.4192093
8	0xbdb14d36	-0.08657305
9	0xbe2e6908	-0.17032254
10	0x3ef4bdb7	0.4780099
11	0xbc19f77f	-0.009397387
12	0xbd9c4283	-0.076298736
13	0x3eb7dc00	0.35910034
14	0xbe78f440	-0.24311924
15	0xbb317f00	-0.0027083755
16	0x3bec6b80	0.0072149634
17	0xbea88970	-0.32917356
18	0x3e259162	0.1616874
19	0xbef30aef	-0.4746928

weight f4 [20, 20]
0	0x3e8ab6df	0.27092645
1	0x3cf89d65	0.030348489
2	0xbe820823	-0.25396833
3	0xbc70f955	-0.014707883
4	0x3e08aa86	0.133463
5	0x3e6ed824	0.23324639
6	0xbed563ff	-0.41677853
7	0xbe1579ca	-0.1459724
8	0xbc600c49	-0.013674804
9	0xbcda8971	-0.026676865
10	0x3ea156d0	0.31511545
11	0x3c96a0e7	0.018387271
12	0x3da2bcf2	0.07946195
13	0x3d148b0e	0.036265425
14	0x3aff1280	0.001946047
15	0x3d09c348	0.0336335
16	0x3e305d66	0.17223129
17	0xbe50ecc8	-0.20402825
18	0x3ec490db	0.38391766
19	0x3d4a6afb	0.04941843
20	0x3e806016	0.25073308
21	0x3e5aa6a4	0.21352631
22	0xbead2486	-0.33816928
23	0x3e338ea7	0.17534886
24	0x3db7acc8	0.08968502
25	0xbda61df6	-0.08111183
26	0xbf050fe9	-0.519774
27	0xbdbd76ca	-0.09251173
28	0x3e2d2d37	0.1691178
29	0x3c20c010	0.009811416
30	0x3ec5bc47	0.38620207
31	0x3e318743	0.17336755
32	0x3bcc680d	0.0062379898
33	0xbda2b293	-0.079442166
34	0x3e998295	0.2998244
35	0x3d2afd00	0.041745186
36	0xbd8fef62	-0.070280805
37	0x3dcc7364	0.099829465
38	0x3df1a218	0.11798495
39	0x3e5bbb78	0.21458232
40	0xbe8fd983	-0.28095636
41	0xbbc4b206	-0.0060026674
42	0x3e0835ea	0.13301817
43	0xbb31e89d	-0.0027146705
44	0xbe2d2ed9	-0.16912402
45	0x3ddcb2fe	0.107763276
46	0xbd04123c	-0.032243952
47	0xbd871858	-0.0659644
48	0xbe2b41b4	-0.16724283
49	0xbd19cdc2	-0.03754974
50	0xbe13a346	-0.14417753
51	0xbdfbf8c3	-0.12303307
52	0x3d0bd3b0	0.034137428
53	0xbe1f9f87	-0.15588199
54	0xbe193797	-0.14962612
55	0x3e424ea2	0.18975309
56	0x3e1162ee	0.14197895
57	0xbe27931f	-0.16364716
58	0xbe6b8054	-0.22998172
59	0x3dfc0454	0.12305513
60	0xbe75c041	-0.2399912
61	0xbe857686	-0.2606699
62	0x3d8c41d0	0.0684849
63	0xbe4628d5	-0.19351514
64	0xbe2f71ab	-0.17133205
65	0x3e10613f	0.14099596
66	0xbd874dba	-0.06606622
67	0xbdfd1737	-0.123579435
68	0xbdc2d522	-0.09513308
69	0x3d1e58be	0.03865885
70	0xbe8ceb45	-0.27523246
71	0xbe3c5aed	-0.1839406
72	0xbd145a20	-0.036218762
73	0x3e5304c6	0.2060729
74	0x3e0a8832	0.13528517
75	0xbd00f578	-0.031484097
76	0xbe19f2a2	-0.15033963
77	0xbe81d146	-0.25354975
78	0x3a26f6a2	0.00063691486
79	0xbce927fe	-0.028461453
80	0xbe1cfc38	-0.15330589
81	0xbd270a48	-0.04078129
82	0xbd8e8ce8	-0.069604695
83	0x3e4b36f0	0.19845176
84	0xbcdbee40	-0.026847005
85	0xbdd6a4be	-0.10480641
86	0xbe0ada7a	-0.13559905
87	0x3e19229c	0.14954609
88	0xbd94d068	-0.07266313
89	0x3e1a8e3a	0.15093318
90	0xbe355f4b	-0.17712133
91	0x3c79e520	0.015252382
92	0x3df1af50	0.11801016
93	0x3d50bbe8	0.05096045
94	0xbe3f785a	-0.18698254
95	0xbe59a0fb	-0.21252815
96	0x3dc3b9d0	0.09556925
97	0x3dfb87d4	0.122817665
98	0xbcde3e58	-0.027129337
99	0x3e0bde86	0.13659105
100	0xbe0f7772	-0.14010409
101	0xbe80dae9	-0.25167015
102	0x3d35ad36	0.04435464
103	0x3de27957	0.110583
104	0x3e5c31e4	0.21503407
105	0xbd814097	-0.06311148
106	0x3d9eb6fa	0.07749744
107	0xbdab5d48	-0.08367401
108	0x3d851e80	0.06499958
109	0x398fbc00	0.00027415156
110	0xbe7de400	-0.24794006
111	0xbe99ae95	-0.30016008
112	0x3c60a18b	0.01371039
113	0x3c4a3a2a	0.012342969
114	0xbd97d5da	-0.07413836
115	0x3d0e7e68	0.03478852
116	0xbe35b6dd	-0.17745538
117	0xbdfa956f	-0.122355334
118	0x3e0e7e7a	0.13915434
119	0xbbd39537	-0.006456997
120	0xbe36d846	-0.1785594
121	0xbe2fa1cd	-0.17151566
122	0x3cfad67d	0.030619854
123	0x3de046f9	0.10951037
124	0xbc981290	-0.018563539
125	0xbe089c3e	-0.13340852
126	0xbe015d7a	-0.12633315
127	0xbe04ec0e	-0.12980673
128	0xbe22eb06	-0.15909967
129	0xbd4a5f3c	-0.04940723
130	0xbdc2e3ab	-0.095160805
131	0x3e307b4a	0.17234531
132	0xbd8de236	-0.06927912
133	0xbe0c9389	-0.13728155
134	0xbe540d00	-0.20708084
135	0xbcaf7e90	-0.021422654
136	0xbe455f5f	-0.19274662
137	0x3ddd2df4	0.107997805
138	0xbd19af59	-0.03752074
139	0xbc38479e	-0.011247544
140	0x3da608e4	0.081071645
141	0xbdd505f7	-0.10401528
142	0x3d46c89d	0.048531163
143	0xbdb22994	-0.08699337
144	0x3d3ea430	0.0465433
145	0xbe4864a6	-0.19569644
146	0xbe3406c2	-0.17580703
147	0x3cda6ae0	0.02666229
148	0x3e0eb381	0.13935663
149	0xbe4d3972	-0.20041445
150	0x3d74cc44	0.059765115
151	0xbe771264	-0.24128109
152	0xbc09c434	-0.008408595
153	0x3e3c646a	0.1839768
154	0xbe92e0cf	-0.2868714
155	0x3e622cc8	0.22087395
156	0xbd181734	-0.037131503
157	0xbd958ce2	-0.07302262
158	0x3d2dcfc4	0.04243447
159	0x3cbbc617	0.022921605
160	0x3dbc0fac	0.09182677
161	0x3e232b0a	0.15934387
162	0xbd50e4f8	-0.05099961
163	0xbcbae4d0	-0.022814184
164	0xbdd1c4a7	-0.102425866
165	0x3df3bc54	0.11901155
166	0x3e5ef70e	0.21773931
167	0xbbae27a0	-0.0053147823
168	0xbd9c6a18	-0.07637423
169	0xbe50f948	-0.20407593
170	0x3dfabf74	0.12243548
171	0xbe086b8c	-0.13322276
172	0xbe4418a0	-0.19150019
173	0x3d9bd078	0.07608122
174	0xbd2fffe0	-0.04296863
175	0xbe2e577f	-0.17025565
176	0x3d222b30	0.039591968
177	0xbe066448	-0.13124192
178	0xbe26a440	-0.16273594
179	0xbe56258c	-0.2091276
180	0x3d95afbc	0.07308909
181	0xbe781d07	-0.24229823
182	0xbe66be5f	-0.22533558
183	0x3d1f3b46	0.038874887
184	0xbe44e088	-0.19226277
185	0x3d2fbd69	0.042905245
186	0xbdeb697a	-0.114947274
187	0xbe64e2e4	-0.22352177
188	0xbc22f507	-0.009946114
189	0xbe522997	-0.20523678
190	0xbe4ccef6	-0.20000824
191	0x3c581d98	0.013190649
192	0xbe1ced10	-0.15324807
193	0xbdf09d4d	-0.11748753
194	0x3d78feed	0.06078999
195	0xbe4bd4b5	-0.1990536
196	0xbe5426ef	-0.20717977
197	0xbc8e6cfc	-0.017385952
198	0x3cde7d97	0.027159495
199	0xbe824886	-0.25445956
200	0xbdd5bc08	-0.10436255
201	0x3de5c381	0.1121893
202	0xbe15028a	-0.1455175
203	0xbe4e20c9	-0.20129694
204	0x3d34e370	0.044162214
205	0x3e0a5742	0.13509849
206	0xbf1cb895	-0.6121915
207	0x3e482010	0.19543481
208	0x3e099b7f	0.13438223
209	0xbe56f069	-0.20990147
210	0xbd924344	-0.07141736
211	0x3e195a4e	0.14975855
212	0x3e4bcc46	0.19902143
213	0xbe0f21bf	-0.13977717
214	0x3e842977	0.25812885
215	0x3dd65b40	0.10466623
216	0xbced5a20	-0.028973639
217	0x3d8edbd5	0.069755234
218	0x3e4b674a	0.1986362
219	0xbd269c1e	-0.04067623
220	0xbe4e6175	-0.20154364
221	0xbd8d77c8	-0.06907612
222	0x3cbd86e7	0.023135616
223	0xbd4f865f	-0.050665256
224	0x3de14fe8	0.11001569
225	0xbddf0d8d	-0.108912565
226	0x3bc48ee2	0.0059984783
227	0x3dd3400c	0.1031495
228	0xbe998b99	-0.29989317
229	0xbe48bd8e	-0.1960356
230	0xbe54990f	-0.20761512
231	0xbc0fa025	-0.008766209
232	0x3e5bdd2d	0.2147109
233	0x3e51d8ef	0.2049291
234	0xbeac4d75	-0.33652845
235	0xbe4cbb9a	-0.1999344
236	0x3c9fe088	0.019516245
237	0xbeacce29	-0.33751038
238	0xbe3a0107	-0.18164454
239	0xbb2662aa	-0.0025388398
240	0x3dea260e	0.114330396
241	0x3d86be15	0.06579224
242	0x3dc13dd0	0.09435618
243	0xbe1743ce	-0.14771959
244	0xbda38856	-0.079849884
245	0x3e01b9db	0.12668554
246	0x3cbe6200	0.02324009
247	0xbda50de0	-0.08059287
248	0xbe8ce3d1	-0.2751756
249	0xbdd94aab	-0.10609945
250	0x3d1ceedf	0.038313743
251	0xbe55b0fd	-0.20868297
252	0xbe1c6cde	-0.15275905
253	0xbdc8338c	-0.09775457
254	0xbe89fa16	-0.26948613
255	0xbd2f018c	-0.042726085

bias f4 [20]
0	0x3e804e22	0.2505961
1	0x3c4e831a	0.012604499
2	0x3dcd89d2	0.10036053
3	0xbe414b22	-0.18876317
4	0x3dbd04ac	0.09229407
5	0xbcdb8874	-0.026798464
6	0x3e26109a	0.1621727
7	0x3df45de9	0.119319744
8	0xbcd8eb78	-0.026479468
9	0xbe5abf32	-0.21361998
10	0xbc53f1eb	-0.012936096
11	0xbde3fdf3	-0.11132421
12	0xbd957bee	-0.07299028
13	0xbe8db702	-0.27678686
14	0x3e7722fb	0.24134438
15	0x3de4ee38	0.11178249
16	0x3dfe498f	0.12416374
17	0x3db34cc4	0.08754876
18	0x3d8352b6	0.0641226
19	0xbb8ab4b3	-0.004232967

weight f4 [1, 20]
0	0x3e3e39ad	0.18576689
1	0x3e54ab75	0.2076853
2	0xbdae6a7a	-0.085164025
3	0x3d3ff988	0.04686883
4	0x3df02b50	0.11727011
5	0xbe239f24	-0.15978676
6	0x3e0789d3	0.1323617
7	0x3bfca315	0.0077098706
8	0xbdc4a7b4	-0.09602299
9	0xbd6c3051	-0.057663266
10	0x3d990ebb	0.07473513
11	0xbc477acc	-0.012175273
12	0x3d962874	0.073319346
13	0xbdbf12e5	-0.09329776
14	0x3e90f2f4	0.2831036
15	0x3e193e1e	0.14965102
16	0x3e9697a9	0.29412583
17	0xbedc0111	-0.42969564
18	0xbddbb497	-0.10727804
19	0xbe1c7376	-0.1527842

weight f4 [20, 4]
0	0xbe105f14	-0.1409877
1	0xbec64458	-0.38724017
2	0x3c420500	0.011842012
3	0xbea29410	-0.31753588
4	0x3e4f9262	0.20270684
5	0xbc1b516e	-0.009479864
6	0xbe14ad8a	-0.14519325
7	0xbf188c0f	-0.5958871
8	0x3e7bef16	0.24602923
9	0x3eb2b3d3	0.3490282
10	0xbc8e678f	-0.017383365
11	0xbf0d21c7	-0.55129665
12	0xbd7fb710	-0.06243044
13	0xbed46d14	-0.4148947
14	0xbe58074c	-0.21096534
15	0xbecc5ec4	-0.3991605
16	0x3f28ba31	0.65909106
17	0xbf07ddea	-0.5307299
18	0x3ec1a8d4	0.37824118
19	0xbea046b9	-0.31303957
20	0x3ece080f	0.40240523
21	0x3e160254	0.14649326
22	0x3ee1f5e8	0.44132924
23	0x3e95f0f8	0.29285407
24	0xbea7824e	-0.32716602
25	0xbec3ce94	-0.38243544
26	0xbeeac44e	-0.45852894
27	0x3eda8c96	0.42685384
28	0xbe6b5cab	-0.22984569
29	0x3e755500	0.23958206
30	0x3ec50000	0.38476562
31	0xbef92a19	-0.4866493
32	0xbe86dffa	-0.26342756
33	0xbe994130	-0.29932547
34	0xbefda6fe	-0.49541467
35	0x3ebccd0e	0.36875194
36	0x3ec78522	0.3896876
37	0xbf0b850d	-0.54499894
38	0x3ecbc922	0.3980189
39	0x3cc5b0f9	0.024132239
40	0x3ec9b445	0.39395347
41	0xbea5e8b0	-0.3240409
42	0xbca0ffcd	-0.019653225
43	0x3eb265a9	0.34843186
44	0xbeafc1d6	-0.34327573
45	0x3ec04518	0.37552714
46	0xbe92d38b	-0.2867702
47	0x3ec8918c	0.39173543
48	0xbeb55c9c	-0.35422218
49	0xbf493fc5	-0.7861293
50	0x3e0dbe04	0.13842016
51	0xbe39867f	-0.18117712
52	0xbe76067c	-0.24025911
53	0xbebd5ff4	-0.3698727
54	0xbeac92d0	-0.3370576
55	0xbe67885c	-0.2261061
56	0xbebd6e34	-0.3699814
57	0x3e26c71c	0.16286892
58	0xbdebb3e2	-0.11508919
59	0xbd4427fd	-0.0478897
60	0xbe61ef43	-0.22063927
61	0xbf383ed9	-0.719709
62	0x3da9d8b1	0.08293284
63	0x3db4715b	0.08810683
64	0x3ecb152b	0.39664587
65	0x3dfa1df2	0.12212743
66	0xbf1644e5	-0.58698875
67	0xbd36abbb	-0.04459737
68	0xbe491308	-0.19636166
69	0xbd605090	-0.05476433
70	0xbda5b030	-0.08090246
71	0x3e3d40b0	0.18481708
72	0x3e741267	0.23835145
73	0x3ec7e71b	0.39043507
74	0xbea1c6bd	-0.31596938
75	0x3eb71929	0.35761383
76	0x3ea035b0	0.3129096
77	0xbefe9682	-0.49724203
78	0xbea54330	-0.32277822
79	0x3e87da26	0.26533622

bias f4 [20]
0	0x3e4b10f0	0.1983068
1	0xbefa6730	-0.4890685
2	0x3e022833	0.12710647
3	0x3dec48a8	0.115372956
4	0xbe09dc84	-0.13463026
5	0xbe2b7e93	-0.16747503
6	0xbead018a	-0.33790237
7	0xbf0ca46b	-0.5493838
8	0x3eb1bbe2	0.34713656
9	0x3d9c4a5f	0.07631373
10	0xbec7b9d5	-0.39008966
11	0xbc8e5457	-0.0173742
12	0xbcf9c6dd	-0.030490333
13	0xbdcad3e8	-0.09903699
14	0xbe60ef63	-0.21966319
15	0x3edef263	0.435443
16	0xbe9a9a09	-0.30195644
17	0x3e433d1c	0.1906628
18	0xbdb76cd3	-0.089563034
19	0x3ec96474	0.39334452

weight f4 [20, 20]
0	0x3e20de74	0.15709859
1	0xbd057de7	-0.032590773
2	0xbe8d4272	-0.27589756
3	0xbe3e5ead	-0.18590803
4	0xbe360b3c	-0.17777723
5	0x3e01c2f1	0.1267202
6	0x3d619488	0.05507329
7	0xbd877418	-0.0661394
8	0xbc8f1e30	-0.01747045
9	0xbd5dea4b	-0.054178517
10	0x3d822662	0.06354977
11	0x3dd15a7c	0.10222337
12	0x3db377b5	0.08763067
13	0x3e5d0bbc	0.21586508
14	0x3c433abd	0.01191586
15	0xbe39c2ce	-0.18140718
16	0x3d41cccb	0.047314446
17	0x3e17fbf4	0.14842206
18	0xbe081488	-0.13289082
19	0x3e56b63c	0.20967954
20	0xbdfa3545	-0.122171916
21	0xbe53f6c4	-0.20699602
22	0x3da258e0	0.07927108
23	0xbd13cb38	-0.036082476
24	0xbd319b98	-0.043361276
25	0xbe456a9e	-0.19278952
26	0xbe2002dc	-0.15626091
27	0x3c1ea7f0	0.009683594
28	0x3dbb9fa8	0.091613114
29	0xbd85122c	-0.06497607
30	0xbd619750	-0.055075943
31	0x3e3d9766	0.18514785
32	0xbd99a23e	-0.07501648
33	0x3dbaeda8	0.091273606
34	0xbe33989c	-0.17538685
35	0xbd866948	-0.065630496
36	0xbd71a5f0	-0.05899614
37	0x3e5364a4	0.2064386
38	0xbe594034	-0.21215898
39	0x3e48fb02	0.19627002
40	0x3d491000	0.049087524
41	0xbe000d58	-0.1250509
42	0xbd521da8	-0.051297814
43	0xbdea014f	-0.11426031
44	0xbdc4b7d0	-0.09605372
45	0xba638a00	-0.00086799264
46	0x3b864ae0	0.0040982813
47	0xbe31120f	-0.17292045
48	0x3e5f117c	0.21784014
49	0x3db1666c	0.086621135
50	0x3e010b2e	0.12601921
51	0xbd8d4faa	-0.0689996
52	0x3db1c984	0.08681014
53	0xbd263a9c	-0.040583238
54	0x3d3438f8	0.043999642
55	0xbe0ab65a	-0.13546124
56	0xbdfe45fa	-0.12415691
57	0x3adeb900	0.001699239
58	0x3e3d2004	0.18469244
59	0xbe10433c	-0.14088148
60	0xbe497d6d	-0.19676752
61	0x3d778d30	0.06043738
62	0xbd98e14b	-0.07464846
63	0x3d895da4	0.06707314
64	0x3d9e203e	0.077209935
65	0xbe794c7a	-0.2434558
66	0x3ddd3344	0.10800794
67	0x3d71a847	0.058998372
68	0xbe629478	-0.22126949
69	0xbcb2d4bf	-0.02182996
70	0x3d25e0c0	0.04049754
71	0xbdae66ba	-0.08515687
72	0xbbabbc27	-0.0052409354
73	0xbe47f396	-0.19526514
74	0xbcdd82aa	-0.027039845
75	0x3df87d09	0.121332236
76	0xbe275f16	-0.16344866
77	0x3e05899a	0.13040772
78	0xbe72d957	-0.23715721
79	0xbe4daba5	-0.20085008
80	0x3d96bc70	0.0736016
81	0x3e37083e	0.17874238
82	0xbcec6d11	-0.0288606
83	0xbd025e8c	-0.03182845
84	0xbe177218	-0.14789617
85	0xbde2076c	-0.11036572
86	0x3e457db2	0.1928623
87	0x3d55f1e0	0.052232623
88	0xbc712e30	-0.014720485
89	0xbe5769c8	-0.21036446
90	0x3bd6c060	0.0065536946
91	0xbe1dfb0e	-0.15427801
92	0x3e49e630	0.19716716
93	0xbdb9b7de	-0.09068273
94	0xbe2a20b7	-0.16614042
95	0xbe2a0eea	-0.16607252
96	0x3cba1e30	0.022719473
97	0xbd99c544	-0.075083286
98	0xbe676728	-0.22597945
99	0xbdbf59da	-0.0934331
100	0x3dc5c82c	0.096573204
101	0xbc3ab186	-0.011394864
102	0xbe8ec3ca	-0.2788375
103	0xbc574340	-0.013138592
104	0xbdaf08d8	-0.08546609
105	0xbe8de14d	-0.27710953
106	0xbd3393e8	-0.043842226
107	0x3d361fe2	0.044464
108	0xbe2b504d	-0.16729851
109	0xbdcfd622	-0.101482645
110	0x3d99b51c	0.07505247
111	0x3cf65085	0.030067692
112	0x3daf5e94	0.08562961
113	0xbb961ca0	-0.004581049
114	0x3b222fe9	0.0024747795
115	0xbd711ff8	-0.05886838
116	0xbe47c6f1	-0.19509484
117	0x3dae2624	0.085033685
118	0x3dd605d2	0.10450329
119	0x3df16a48	0.1178785
120	0x3e1ce70e	0.15322515
121	0x3e472b73	0.19450168
122	0x3d916c5c	0.07100746
123	0xbe164cba	-0.14677706
124	0xbdd03d76	-0.10167973
125	0xbe024383	-0.12721066
126	0x3d9b216c	0.07574734
127	0xbd1ff5fd	-0.039052952
128	0x3e5a384e	0.21310541
129	0xbe114ac5	-0.14188679
130	0x3e478675	0.19484885
131	0xbe7c0bee	-0.24613926
132	0x3e0619ad	0.13095732
133	0xbe418c6c	-0.18901223
134	0xbd937b37	-0.07201236
135	0x3dc20ac5	0.094747104
136	0xbe46fdd6	-0.19432768
137	0x3d378360	0.044803023
138	0x3df5066c	0.119641155
139	0xbe2485b2	-0.16066626
140	0x3e38d024	0.1804815
141	0x3d48d68f	0.049032744
142	0x3e0dc7b6	0.13845715
143	0x3d928504	0.07154277
144	0x3d9b28eb	0.07576164
145	0xbe08ee1b	-0.1337208
146	0x3d2b2cf0	0.041790903
147	0xbd84271a	-0.064527705
148	0x3c759ff0	0.014991745
149	0xbd598c4a	-0.053112306
150	0x3d98ab95	0.07454602
151	0xbe842f1b	-0.2581719
152	0xbe218a12	-0.15775326
153	0xbd15dd2c	-0.03658788
154	0xbe6d4ecc	-0.2317459
155	0xbe7ecdf4	-0.24883252
156	0x3d0cd981	0.034387115
157	0x3d493a08	0.04912761
158	0xbe09aef8	-0.13445652
159	0xbe4e1fe8	-0.20129359
160	0xbdaeb302	-0.08530237
161	0x3c7bc5cc	0.015366983
162	0x3ca82409	0.020524995
163	0xbe377358	-0.17915094
164	0x3e5a3d82	0.21312526
165	0xbcb49b0e	-0.022046592
166	0x3d904c80	0.07045841
167	0xbe249d2b	-0.1607558
168	0xbe031b75	-0.12803443
169	0x3d913652	0.07090439
170	0x3e579430	0.21052623
171	0xbdebfd77	-0.11522954
172	0x3e59e539	0.21278848
173	0x3c421520	0.011845857
174	0x3dd2669c	0.102734774
175	0x3db81f85	0.08990387
176	0x3e0340e7	0.12817727
177	0xbe507687	-0.20357715
178	0xbd324695	-0.043524344
179	0xbe06c408	-0.13160717
180	0x3e24c48e	0.16090605
181	0xbe276eda	-0.1635088
182	0xbe175bb4	-0.14781076
183	0xbe3ed4e1	-0.18635894
184	0x3d52c080	0.051453114
185	0xbdc8f77a	-0.098128274
186	0xbe5341a0	-0.20630503
187	0xbcd46bc8	-0.0259303
188	0xbd864138	-0.06555408
189	0xbe31ed65	-0.17375715
190	0x3b1ff940	0.002441004
191	0x3dce18d0	0.10063326
192	0xbe3c2957	-0.18375145
193	0xbdaa315e	-0.08310197
194	0xbe070b5f	-0.13187931
195	0xbe01c20a	-0.12671676
196	0x3e14330c	0.14472598
197	0xbbe95280	-0.0071204305
198	0x3c82e5e0	0.015978754
199	0x3e415c98	0.18882978
200	0xbe1e5df0	-0.15465522
201	0x3cbf3a90	0.023343354
202	0xbe8ec44e	-0.27884144
203	0x3dda790c	0.10667619
204	0xbd6a4be3	-0.057201277
205	0x3cccf391	0.025018485
206	0xbd79052c	-0.060795948
207	0xbe74eb64	-0.2391792
208	0x3e519746	0.20467862
209	0xbbbabedb	-0.0056990213
210	0x3c4d2dba	0.012523109
211	0x3d06f860	0.032951713
212	0xbe3f55f2	-0.1868513
213	0x3dd3e0b0	0.1034559
214	0x3cc95708	0.024577633
215	0x3dd7f0e5	0.10543994
216	0x3dc1e97c	0.09468362
217	0xbe17c25e	-0.14820239
218	0xbb595c80	-0.0033166707
219	0x3d444430	0.04791659
220	0xbe070f3a	-0.13189402
221	0x3db94469	0.09046251
222	0xbe090e76	-0.13384423
223	0xbd9b6dac	-0.075892776
224	0xbdea4f8f	-0.11440956
225	0x3d000f36	0.031264506
226	0xbdb723e0	-0.089423895
227	0x3c8d4c38	0.017248258
228	0x3e4b2daa	0.19841638
229	0xbe474d4b	-0.19463079
230	0xbe51d3cf	-0.20490955
231	0x3df2c126	0.118532464
232	0xbe436d38	-0.19084632
233	0xbe054905	-0.13016136
234	0xbe8e1c3a	-0.2775591
235	0x3e2550d8	0.1614412
236	0xbe009f59	-0.12560786
237	0x3e646e22	0.22307637
238	0xbe87a101	-0.26490024
239	0xbd890186	-0.06689744
240	0xbc67fd10	-0.014159456
241	0x3dc09ae6	0.094045445
242	0x3e3e990c	0.1861307
243	0xbe183d1b	-0.1486706
244	0xbe1a9a0c	-0.15097827
245	0xbe5cfe40	-0.21581364
246	0xbdf2fc39	-0.11864514
247	0xbcef37ef	-0.029201476
248	0x3e43968e	0.19100401
249	0x3e1dfb8e	0.15427992
250	0x3db1f190	0.086886525
251	0xbe44dd52	-0.19225052
252	0x3c8a2b35	0.016866306
253	0xbde736ea	-0.11289771
254	0x3dbdabc6	0.09261279
255	0xbcc40f2e	-0.02393302

bias f4 [20]
0	0xbc227f60	-0.009918064
1	0x3de2241c	0.110420436
2	0x3d6e95b8	0.05824825
3	0xbd958b66	-0.07301979
4	0xbe0c9cf1	-0.13731743
5	0xbe315a2d	-0.17319556
6	0xbe2c7fc3	-0.16845612
7	0xbd0516b0	-0.03249234
8	0x3d8e2e90	0.06942475
9	0x3e513616	0.20430788
10	0x3d80bfb3	0.06286564
11	0xbcc83103	-0.024437433
12	0x3da10e5d	0.07864068
13	0x3ded2b94	0.115805775
14	0xbe467855	-0.1938184
15	0xbf09264f	-0.5357408
16	0xbe40fdee	-0.18846866
17	0x3d8d9d99	0.06914825
18	0x3dceb12b	0.10092386
19	0xbe399874	-0.18124563

weight f4 [1, 20]
0	0xbe0efeb0	-0.13964343
1	0x3c283570	0.010266647
2	0xbd736948	-0.059426576
3	0xbd20efec	-0.039291307
4	0x3e0e608c	0.13904017
5	0xbd542a5a	-0.051798202
6	0x3d971d0d	0.07378588
7	0xbddaf140	-0.10690546
8	0x3df9fa2f	0.12205922
9	0x3d8fc204	0.070194274
10	0xbd4b423e	-0.04962372
11	0xbdae21b9	-0.08502526
12	0xbdb41027	-0.08792143
13	0x3e300058	0.17187631
14	0x3b4b98ed	0.0031066493
15	0x3f00daa7	0.50333637
16	0xbd800450	-0.062508225
17	0x3d435d0f	0.04769617
18	0x3d4ae8ce	0.049538426
19	0x3df7159d	0.12064669
