result_model/ex3_nsde.pth (torch, 22036 bytes, 20 tensors)

weight f4 [20, 4]
0.16741031 -0.1716237 0.023300588 -0.2219317 0.23471442 0.19765618 -0.3965548 -0.3077195
0.43169972 0.39550066 0.3426712 -0.39002332 -0.23933831 0.12017303 -0.29377076 -0.15819386
-0.060895205 -0.41443956 -0.17900252 -0.08855522 -0.08983703 0.0054406696 0.1005601 -0.5333307
0.38587788 0.38640597 0.35389113 -0.20295987 -0.2428717 -0.030869603 0.39749354 0.19908378
0.42005202 0.093047224 0.26934034 -0.18823557 -0.3186555 0.35115403 -0.117215164 0.18834162
0.055874787 0.32163805 -0.39536545 -0.23812316 -0.06960142 -0.33616728 0.49034846 0.45699275
0.12040956 0.35175833 -0.058551878 -0.45462617 -0.25268584 -0.07747918 -0.16030067 -0.086105466
-0.31471586 -0.37313336 -0.1469981 0.2758577 0.48388785 -0.26652437 -0.15449488 0.37923008
-0.49008417 -0.19029212 0.2944315 0.29774338 -0.3943992 0.29607022 0.3516915 -0.1089375
-0.17129391 -0.11948973 -0.1354081 -0.49259108 0.19078773 -0.32291174 0.21587014 -0.103043854
00000000: 9c6d 2b3e 20be 2fbe e0e0 be3c 1042 63be
00000010: fa58 703e 6266 4a3e 3b09 cbbe 698d 9dbe
00000020: bf07 dd3e 107f ca3e 9972 af3e 23b1 c7be
00000030: 1a15 75be 471d f63d 1f69 96be 92fd 21be
00000040: 406d 79bd 6c31 d4be 704c 37be 705c b5bd
00000050: 7afc b7bd a547 b23b 74f2 cd3d 5c88 08bf
00000060: c991 c53e 01d7 c53e 3831 b53e b6d4 4fbe
00000070: 5cb3 78be 40e2 fcbc 4684 cb3e 9edc 4b3e
00000080: 0f11 d73e 8b8f be3d fae6 893e d3c0 40be
00000090: d026 a3be 76ca b33e 810e f0bd a0dc 403e
000000a0: f6dc 643d bead a43e 576d cabe 8fd6 73be
000000b0: 308b 8ebd 1e1e acbe f40e fb3e f4fa e93e
000000c0: 4a99 f63d ab19 b43e 18d4 6fbd c3c4 e8be
000000d0: 0a60 81be 68ad 9ebd dc25 24be 1058 b0bd
000000e0: 7022 a1be 560b bfbe ac86 16be 383d 8d3e
000000f0: 26c0 f73e e275 88be e833 1ebe 722a c23e
00000100: 50ec fabe f0db 42be babf 963e d271 983e
00000110: b1ee c9be 8496 973e e910 b43e a01a dfbd
00000120: ac67 2fbe 08b7 f4bd 6ca8 0abe e634 fcbe
00000130: dc5d 433e b054 a5be 100d 5d3e a808 d3bd

bias f4 [20]
-0.37283832 -0.14683214 -0.1808226 0.1545942 -0.1856578 -0.3664819 -0.3607729 0.46306986
-0.51372313 -0.30758324 -0.11603683 0.24896115 -0.36850923 -0.3527742 -0.49479187 -0.011910796
0.28964436 0.16080673 0.4557562 -0.17485863
00000000: aae4 bebe 2a5b 16be 8f29 39be f14d 1e3e
00000010: 141d 3ebe 84a3 bbbe 3ab7 b8be 7e17 ed3e
00000020: 5c83 03bf 8d7b 9dbe b8a4 edbd acef 7e3e
00000030: 3ead bcbe d29e b4be 5c55 fdbe 8025 43bc
00000040: 444c 943e 85aa 243e e058 e93e 240e 33be

weight f4 [20, 20]
-0.078817174 -0.09253539 -0.12997206 0.06282544 0.020979613 -0.012721477 0.063248836 -0.07174102
-0.11157282 0.23956963 -0.1419939 -0.010940775 0.20837702 -0.027333021 -0.15001033 0.12653527
0.14037594 0.19490221 -0.1190972 0.109868765 -0.07046899 -0.18610916 0.1619258 -0.22357486
0.13237223 -0.13777828 0.08541845 0.20974082 -0.0005146067 -0.11501933 0.18371339 -0.117468916
0.07540604 -0.10744586 -0.1030663 -0.090091035 -0.17359275 0.16423686 0.08150053 -0.1141293
0.17743647 0.096823014 0.20464368 0.21743058 0.009818688 0.2201435 0.10288698 0.08730185
0.20401137 0.0714127 -0.071051866 -0.052522734 0.088514075 0.1854868 0.18981355 0.1258694
-0.034069255 -0.171363 -0.18021567 0.02063319 -0.17348012 0.22226083 0.04576901 0.14581385
0.17685029 -0.081361644 -0.12616917 -0.064054675 0.11750596 0.03993202 0.19401509 0.2194319
0.03465236 0.13452515 -0.08612633 0.00830999 0.11115435 0.08893088 -0.19030651 0.029502243
0.028282702 -0.2540387 0.14727995 -0.1247964 0.115106344 0.12867272 -0.03518319 0.07837635
-0.11968556 -0.13674319 -0.11684462 -0.034595475 0.09507717 0.047551185 0.16367835 -0.21447122
-0.14207676 0.15508789 0.1451208 -0.1452457 0.006431848 -0.111950815 0.14750408 0.03166285
0.038146704 0.011361181 -0.2259012 -0.12905876 0.07183383 -0.15944453 -0.14665224 9.7453594e-05
0.08613739 -0.18763323 0.037931412 0.009438008 0.16967124 -0.0016407352 0.19981575 0.108320475
-0.11839505 0.14511457 -0.14981645 -0.18389302 0.13245949 0.17149216 -0.029625162 0.026297987
0.0015908778 -0.14094651 0.0028514266 0.0056409985 0.069181025 -0.222329 0.04891035 0.19604897
-0.02050583 -0.22264089 0.10318726 -0.019954398 -0.16658191 0.19782096 -0.13930613 -0.114749044
0.17351794 0.20479268 -0.08621827 0.014925733 0.18217763 0.037710905 0.21205771 -0.017112538
-0.1365431 0.0770725 -0.20625995 -0.08004746 0.014879093 -0.20011494 -0.043320194 -0.15489367
0.012557298 -0.1731241 -0.12560327 -0.112260096 -0.12282891 0.17642426 0.15447848 0.01718925
0.14798209 0.12964296 -0.117071964 0.10295075 -0.22842415 0.12446314 -0.00061425567 0.14508757
0.044738382 0.18962818 0.14658341 0.19363475 0.17439166 -0.14196014 -0.0004891604 0.022849977
-0.042901695 0.10984522 -0.17639431 -0.18950027 0.16956186 0.008535951 -0.11905367 0.00032310188
-0.207706 -0.038871363 -0.1953405 -0.015976354 0.109595716 -0.15921122 -0.06714611 -0.1792792
-0.12177997 0.18469337 -0.07371706 0.09014183 0.13583514 0.09349525 0.17557183 -0.17759101
-0.017872766 -0.19220181 -0.11838983 0.202869 -0.19011694 0.18786076 0.070754975 0.009727091
-0.04480405 -0.12207081 -0.055053875 -0.162836 0.15088925 -0.13896742 0.079540424 0.170416
0.059696794 0.2223392 0.19746384 -0.081167474 -0.102759756 0.08256109 -0.036802035 0.16806924
0.040863488 0.083765864 0.09498799 -0.061638072 0.2086361 0.03114679 0.0353266 0.1576756
-0.16684595 0.035152324 0.10977853 -0.26928288 -0.13183054 -0.056623366 -0.23895475 -0.099852845
-0.031311803 -0.13921851 0.17266124 -0.0147226155 0.06199842 -0.15030947 -0.20374241 0.03220871
00000000: e66a a1bd 3283 bdbd 6517 05be a0aa 803d
00000010: 70dd ab3c be6d 50bc 9b88 813d f5ec 92bd
00000020: 4a80 e4bd be51 753e d966 11be f040 33bc
00000030: c960 553e 80e9 dfbc 4f9c 19be 7692 013e
00000040: b6be 0f3e 7294 473e 3ce9 f3bd e002 e13d
00000050: 0c52 90bd 6693 3ebe e0cf 253e cff0 64be
00000060: 968c 073e c015 0dbe deef ae3d 4cc6 563e
00000070: ace6 06ba 418f ebbd 5d1f 3c3e 8b93 f0bd
00000080: 7b6e 9a3d 930c dcbd 6d14 d3bd a681 b8bd
00000090: 4cc2 31be b52d 283e c0e9 a63d 9fbc e9bd
000000a0: e8b1 353e 254b c63d 1d8e 513e 1fa6 5e3e
000000b0: 90de 203c 4c6d 613e 69b6 d23d 50cb b23d
000000c0: 5be8 503e d240 923d a483 91bd 1422 57bd
000000d0: de46 b53d 40f0 3d3e 7c5e 423e e8e3 003e
000000e0: 348c 0bbd c879 2fbe 758a 38be f006 a93c
000000f0: c6a4 31be 5898 633e 4978 3b3d 3a50 153e
00000100: 3e18 353e efa0 a6bd 7e32 01be 192f 83bd
00000110: f7a6 f03d c28f 233d e4ab 463e c2b2 603e
00000120: a2ef 0d3d f6c0 093e 0063 b0bd a026 083c
00000130: e4a4 e33d 6521 b63d b6df 42be b0ae f13c
00000140: 20b1 e73c 5c11 82be 8ed0 163e 4195 ffbd
00000150: e0bc eb3d c8c2 033e 401c 10bd c883 a03d
00000160: b41d f5bd 6806 0cbe 3b4c efbd fcb3 0dbd
00000170: d2b7 c23d 08c5 423d 4c9b 273e 589e 5bbe
00000180: 927c 11be 5ccf 1e3e 8c9a 143e 4abb 14be
00000190: 40c2 d23b 7846 e5bd 4f0b 173e e8b0 013d
000001a0: b83f 1c3d 3f24 3a3c a552 67be fb27 04be
000001b0: 9d1d 933d 6d45 23be 012c 16be 0060 cc38
000001c0: cd68 b03d ed22 40be f85d 1b3d e0a1 1a3c
000001d0: 4cbe 2d3e f00d d7ba 809c 4c3e 20d7 dd3d
000001e0: 1b79 f2bd ea98 143e 7c69 19be 744e 3cbe
000001f0: 76a3 073e a49b 2f3e 78b0 f2bc e06e d73c
00000200: 0085 d03a 4854 10be 00df 3a3b 20d8 b83b
00000210: c8ae 8d3d 37aa 63be 3856 483d 10c1 483e
00000220: d8fb a7bc f9fb 63be d853 d33d 6877 a3bc
00000230: 7394 2abe 9491 4a3e 44a6 0ebe 8c01 ebbd
00000240: b0ae 313e 2cb5 513e 3493 b0bd 108b 743c
00000250: c68c 3a3e c076 1a3d a825 593e 982f 8cbc
00000260: f4d1 0bbe 30d8 9d3d cf35 53be ecef a3bd
00000270: 70c7 733c eeea 4cbe 8470 31bd 729c 1ebe
00000280: 20bd 4d3c 7247 31be 259e 00be 9fe8 e5bd
00000290: b98d fbbd 90a8 343e 9b2f 1e3e 78d0 8c3c
000002a0: 9e88 173e 20c1 043e 6dc3 efbd d8d7 d23d
000002b0: 05e8 69be 88e6 fe3d 0006 21ba d691 143e
000002c0: 983f 373d e42d 423e f619 163e 3048 463e
000002d0: ba93 323e 005e 11be 003b 00ba e02f bb3c
000002e0: b0b9 2fbd 88f6 e03d b6a0 34be 5c0c 42be
000002f0: a0a1 2d3e 60da 0b3c 69d2 f3bd 0066 a939
00000300: e2b0 54be 9437 1fbd 5707 48be d8e0 82bc
00000310: b873 e03d 4408 23be e683 89bd f794 37be
00000320: c767 f9bd 4220 3d3e f8f8 96bd 489c b83d
00000330: 5e18 0b3e 707a bf3d 1ac9 333e 6bda 35be
00000340: e869 92bc 8dd0 44be 5e76 f2bd e4bc 4f3e
00000350: 04ae 42be 925e 403e fce7 903d 605e 1f3c
00000360: 7484 37bd 4300 fabd 2c80 61bd 7bbe 26be
00000370: b682 1a3e 7a4d 0ebe 17e6 a23d 8881 2e3e
00000380: a084 743d e3ac 633e f633 4a3e 223b a6bd
00000390: b573 d2bd ca15 a93d bbbd 16bd 581a 2c3e
000003a0: 7960 273d 708d ab3d 1089 c23d 3478 7cbd
000003b0: b4a4 553e 8e27 ff3c a0b2 103d b675 213e
000003c0: aad9 2abe e2fb 0f3d 91d3 e03d 72df 89be
000003d0: 96fe 06be e7ed 67bd 8eb0 74be a67f ccbd
000003e0: ce40 00bd 4c8f 0ebe 1cce 303e 2037 71bc
000003f0: 0ef2 7d3d baea 19be daa1 50be 48ed 033d

bias f4 [20]
-0.07446394 0.16704963 -0.058345992 0.07660545 -0.13506854 0.14529915 0.17670977 -0.21964063
0.16424288 -0.17122719 -0.11004386 -0.15978926 -0.13343915 0.1930323 -0.15951262 0.119829565
0.16978773 0.17204618 -0.053557456 0.21858895
00000000: 8d80 98bd 0f0f 2b3e 35fc 6ebd 51e3 9c3d
00000010: 684f 0abe 4dc9 143e 68f3 343e 79e9 60be
00000020: 492f 283e 2e56 2fbe ad5e e1bd cc9f 23be
00000030: 46a4 08be 42aa 453e 4757 23be 3469 f53d
00000040: d6dc 2d3e e02c 303e 105f 5bbd c8d5 5f3e

weight f4 [1, 20]
-0.14320752 0.017948313 -0.14228311 -0.048210345 0.066368215 -0.016881948 0.13002464 0.2037938
0.16848652 -0.05440691 0.107488334 -0.03802307 -0.009460617 -0.14933051 0.14531901 -0.12108382
0.21755898 -0.050268196 -0.1191564 -0.19231541
00000000: fea4 12be 5708 933c aab2 11be 3678 45bd
00000010: 0fec 873d 034c 8abc 2e25 053e 52af 503e
00000020: bb87 2c3e c8d9 5ebd d822 dc3d 14be 1bbd
00000030: b400 1bbc 19ea 18be 82ce 143e cbfa f7bd
00000040: c8c7 5e3e 06e6 4dbd 4508 f4bd 55ee 44be

weight f4 [20, 4]
-0.4551543 -0.03478511 -0.29983371 -0.40004376 -0.4061222 -0.097945094 -0.39413118 -0.17218101
-0.31999752 0.06532547 0.24536648 0.34439957 0.06685882 0.35572457 0.16098079 0.27634582
0.3325042 -0.09277707 0.26369458 0.41688013 0.46144795 -0.3174128 -0.040833414 -0.25843114
-0.42509684 0.1716435 0.4226492 0.30788374 -0.20529944 -0.18990797 -0.08734012 0.22670555
-0.10332799 -0.21746188 0.21880841 0.45315623 0.4514804 -0.4846241 -0.3470953 0.06817263
0.25291976 0.4095442 0.0463423 -0.3742063 -0.24158542 0.46834317 -0.0891872 -0.17486203
0.2858628 -0.17710608 0.0022838116 0.1641956 -0.52378345 0.019285958 -0.0989581 -0.5154119
0.238487 -0.20059812 0.116162896 0.010087848 -0.087732196 -0.34401697 0.023495495 0.4446178
0.52964723 0.36486596 0.31826276 0.058103785 0.17917852 -0.03993634 -0.5311016 0.17472209
0.34721053 -0.13456792 -0.08972502 -0.45917195 -0.12533283 -0.39834327 0.3023575 -0.09797698
00000000: fc09 e9be d57a 0ebd ce83 99be 89d2 ccbe
00000010: 40ef cfbe 7097 c8bd 90cb c9be 3850 30be
00000020: b7d6 a3be 5cc9 853d 5a41 7b3e 2455 b03e
00000030: 47ed 883d 8821 b63e 26d8 243e 337d 8d3e
00000040: fe3d aa3e e801 bebd fa02 873e 5071 d53e
00000050: e842 ec3e ee83 a2be f040 27bd 1651 84be
00000060: 4ba6 d9be 50c3 2f3e 7a65 d83e f0a2 9d3e
00000070: 043a 52be 3c77 42be 60df b2bd 8025 683e
00000080: a09d d3bd 54ae 5ebe 500f 603e 1804 e83e
00000090: 7028 e73e a620 f8be 7ab6 b1be 189e 8b3d
000000a0: b37e 813e c7af d13e 6cd1 3d3d f897 bfbe
000000b0: 2b62 77be adca ef3e c7a7 b6bd 080f 33be
000000c0: 9c5c 923e 4c5b 35be 00ac 153b e422 283e
000000d0: ac16 06bf 96fd 9d3c 8baa cabd 09f2 03bf
000000e0: f035 743e 9869 4dbe d0e6 ed3d 8047 253c
000000f0: f0ac b3bd fe22 b0be a079 c03c f2a4 e33e
00000100: f696 073f b6cf ba3e 56f3 a23e 3cfe 6d3d
00000110: 937a 373e 4a94 23bd 46f6 07bf 59ea 323e
00000120: 94c5 b13e 2ccc 09be c0c1 b7bd 9618 ebbe
00000130: 4057 00be a6f3 cbbe 9ace 9a3e 28a8 c8bd

bias f4 [20]
-0.49150097 -0.06329638 0.41975638 -0.1975856 -0.33626205 0.18749452 0.36226386 0.35112202
0.10920763 0.38076633 0.34338745 -0.07297776 -0.12850088 0.20710129 -0.052235484 -0.20493829
0.024977056 0.31496093 -0.26799285 -0.3109141
00000000: 04a6 fbbe 88a1 81bd 4fea d63e e153 4abe
00000010: 8a2a acbe 90fe 3f3e a67a b93e 44c6 b33e
00000020: 40a8 df3d cef3 c23e 7bd0 af3e 5d75 95bd
00000030: bc95 03be 5c12 543e e0f4 55bd 58db 51be
00000040: af9c cc3c 8f42 a13e 5c36 89be 2230 9fbe

weight f4 [20, 20]
-0.0989805 -0.13225001 -0.1490403 -0.118366025 -0.21841846 0.069681615 -0.051963165 0.0071047395
0.08574349 -0.21381713 -0.20973673 -0.047692895 0.08819094 0.16711551 -0.14016291 0.14923158
0.0039536655 0.08738071 0.22119331 0.03281656 0.058038916 0.1959658 -0.13925697 -0.14114362
0.17458901 0.16161501 0.040935297 -0.047081605 0.026763797 -0.19256625 0.00706801 0.13483137
0.10464907 0.10243476 0.103248924 -0.025871873 -0.23572728 0.16470647 0.10037729 0.17034742
0.10110281 0.062527835 -0.065552324 0.16791111 0.15608639 -0.00045581162 -0.14258869 0.1979247
0.14423782 -0.111140385 0.054511044 0.13679093 -0.052848756 -0.227374 0.21339595 -0.15159407
-0.20226954 -0.0026022056 -0.12511814 -0.21740493 -0.098512426 -0.22112072 -0.1114129 -0.11413997
-0.107450016 -0.018112123 -0.060913824 -0.1872034 0.11310527 -0.07219942 0.23186944 -0.06364002
-0.08358756 -0.054980546 -0.18032794 0.16827706 0.10162473 -0.15693821 0.15586954 -0.16854931
0.1155713 0.11139667 0.13107055 0.07348158 0.037367642 -0.062174305 -0.01009805 -0.1826801
0.17766753 0.10443139 -0.061004233 0.025195112 -0.085690886 0.10826801 -0.07964498 0.18011019
0.11436674 0.16438265 -0.071654305 -0.13595806 0.076617375 -0.1919055 0.13468851 -0.13965473
-0.06912355 -0.13226713 0.018528359 0.06239304 0.08236259 0.03576073 0.04610863 0.07721756
-0.17811464 0.08577853 -0.18106937 -0.09441155 -0.010097422 -0.07156457 0.21239835 0.115294784
-0.056146666 0.1310521 0.06363317 -0.1332719 0.16520277 0.089654624 -0.12896661 0.006258756
0.14568478 0.18421373 -0.016924515 -0.13688137 0.098644435 -0.059720114 -0.17358117 -0.14539836
0.15496945 0.046322733 0.08699605 0.11378452 -0.034901343 -0.10285673 0.216018 -0.056630574
0.11867756 -0.052810535 0.22232173 0.1697593 -0.09375341 -0.1181423 0.23685582 -0.20488067
-0.025403708 0.09411754 -0.07874371 0.10649863 0.010913517 0.07264429 -0.016060427 0.20741832
0.20261768 -0.03313707 0.14492121 0.14842814 -0.06602512 -0.13885427 -0.117461644 -0.15475841
-0.043215647 -0.06471117 -0.06996176 -0.09658602 -0.1314413 0.13142574 0.010557756 0.04269153
-0.053958207 0.05570811 0.10399771 -0.19201282 0.07760703 0.045229107 0.10246841 0.22162421
-0.15099114 -0.06829317 0.12620196 0.07208803 0.008941725 0.050046086 -0.0038683452 -0.078638665
0.04306364 -0.107364416 0.09484449 -0.18937322 -0.026002198 0.05609164 0.18088818 0.012639403
0.17582938 -0.15121244 0.01276727 -0.16398543 -0.027823538 -0.15044406 0.12709498 0.2169792
0.023190513 0.13832206 -0.10718396 -0.08727382 -0.16243462 0.18564102 -0.09887934 -0.20619605
-0.06640273 0.03343934 -0.0114277005 -0.017198965 0.21105427 -0.19268207 -0.052143395 -0.200353
0.03572297 -0.18095319 0.16305146 -0.15075849 0.09599981 0.17965257 -0.13610193 0.12587741
-0.17125246 -0.18269745 -0.08659017 -0.021288946 -0.19927801 -0.17023899 0.122951776 0.158889
0.090440035 0.018756852 0.12958571 -0.21772203 -0.09993814 -0.16186346 0.014891639 -0.07997021
0.21620697 0.011779338 -0.0604167 -0.1807146 0.049476713 -0.14885345 0.05227694 0.058147162
00000000: 4ab6 cabd 8c6c 07be 059e 18be e369 f2bd
00000010: 17a9 5fbe 3cb5 8e3d 54d7 54bd e0ce e83b
00000020: 489a af3d e1f2 5abe 3ac5 56be a059 43bd
00000030: 749d b43d 5420 2b3e de86 0fbe 2ad0 183e
00000040: c08d 813b a8f4 b23d 8080 623e a86a 063d
00000050: 37ba 6d3d 42ab 483e 6199 0ebe f487 10be
00000060: 76c7 323e 687e 253e c5ab 273d a4d8 40bd
00000070: c03f db3c 1630 45be c49a e73b 3c11 0a3e
00000080: 4052 d63d 51c9 d13d 2c74 d33d 40f1 d3bc
00000090: 7e62 71be d0a8 283e 9c92 cd3d 8e6f 2e3e
000000a0: fd0e cf3d 980e 803d 4c40 86bd e4f0 2b3e
000000b0: 1cd5 1f3e 00fa eeb9 c502 12be c6ac 4a3e
000000c0: 14b3 133e 929d e3bd f946 5f3d ec12 0c3e
000000d0: f077 58bd bbd4 68be 7884 5a3e 7a3b 1bbe
000000e0: bf1f 4fbe c489 2abb f81e 00be 669f 5ebe
000000f0: e2c0 c9bd 786d 62be 722c e4bd 37c2 e9bd
00000100: c10e dcbd e05f 94bc c680 79bd 40b2 3fbe
00000110: bca3 e73d 4add 93bd 2f6f 6d3e b355 82bd
00000120: f42f abbd 4833 61bd e3a7 38be d250 2c3e
00000130: a020 d03d 69b4 20be 449c 1f3e 3198 2cbe
00000140: a5b0 ec3d f023 e43d 5c37 063e 837d 963d
00000150: d00e 193d 7caa 7ebd 4b72 25bc 7e10 3bbe
00000160: 7aee 353e 20e0 d53d 93df 79bd fb65 ce3c
00000170: b47e afbd 9ebb dd3d e81c a3bd ce6e 383e
00000180: 1c39 ea3d ed53 283e 7ebf 92bd 9738 0bbe
00000190: 92e9 9c3d e082 44be c9eb 093e a601 0fbe
000001a0: a690 8dbd 0971 07be c9c8 973c d88f 7f3d
000001b0: b8ad a83d d879 123d 67dc 3c3d 3d24 9e3d
000001c0: af63 36be a7ac af3d 406a 39be d85a c1bd
000001d0: a86f 25bc 7290 92bd f47e 593e ac1f ec3d
000001e0: 0cfa 65bd 8632 063e 1c52 823d 6e78 08be
000001f0: ea2a 293e d89c b73d d30f 04be 4016 cd3b
00000200: 642e 153e 86a2 3c3e 48a5 8abc a12a 0cbe
00000210: 1806 ca3d 149d 74bd 43bf 31be 4fe3 14be
00000220: 50b0 1e3e e8bc 3d3d fc2a b23d dc07 e93d
00000230: b6f4 0ebd 8da6 d2bd d333 5d3e 76f5 67bd
00000240: 380d f33d dc4f 58bd 4fa8 633e 62d5 2d3e
00000250: ca01 c0bd 97f4 f1bd 558a 723e 3dcc 51be
00000260: 701b d0bc b2c0 c03d 6244 a1bd f41b da3d
00000270: 9cce 323c 88c6 943d 2891 83bc 7865 543e
00000280: 027b 4f3e bcba 07bd 3a66 143e 8cfd 173e
00000290: 2e38 87bd d02f 0ebe bb8f f0bd fd78 1ebe
000002a0: e402 31bd 4a87 84bd 1c48 8fbd e4ce c5bd
000002b0: 8c98 06be 7894 063e 70fa 2c3c 50dd 2e3d
000002c0: 4803 5dbd 302e 643d c0fc d43d 029f 44be
000002d0: 6ff0 9e3d 2842 393d f5da d13d 75f1 623e
000002e0: 6c9d 1abe 4add 8bbd 163b 013e e4a2 933d
000002f0: 5080 123c 20fd 4c3d 1084 7dbb 4f0d a1bd
00000300: 8063 303d e0e1 dbbd d43d c23d 0eeb 41be
00000310: 9002 d5bc 59c0 653d c03a 393e 8015 4f3c
00000320: 9e0c 343e 6fd7 1abe d02d 513c cceb 27be
00000330: 30ee e3bc 020e 1abe 3025 023e cc2f 5e3e
00000340: 08fa bd3c 4ca4 0d3e 4483 dbbd 9ebc b2bd
00000350: 4355 26be ae18 3e3e 4081 cabd 0f25 53be
00000360: 28fe 87bd b0f7 083d 403b 3bbc d8e4 8cbc
00000370: 9c1e 583e 734e 45be 5094 55bd 5629 4dbe
00000380: 4052 123d cb4b 39be f6f6 263e 6f60 1abe
00000390: 8c9b c43d d8f6 373e 4e5e 0bbe 02e6 003e
000003a0: ce5c 2fbe 0a15 3bbe 3056 b1bd 2866 aebc
000003b0: 890f 4cbe 2153 2ebe 24ce fb3d ccb3 223e
000003c0: a038 b93d f8a7 993c 1eb2 043e 86f2 5ebe
000003d0: 5eac ccbd 89bf 25be 10fc 733c 6cc7 a3bd
000003e0: 5c65 5d3e 20fe 403c 8077 77bd 400d 39be
000003f0: 18a8 4a3d 0a6d 18be 5820 563d b82b 6e3d

bias f4 [20]
-0.19915617 -0.2515007 0.15469691 -0.056031305 -0.049155653 -0.13875389 0.01992464 -0.1537046
0.19787943 -0.10351491 0.036605954 0.19300428 -0.20280711 -0.18113598 0.12498167 -0.11967569
0.1462197 -0.12232543 -0.18456294 0.16394448
00000000: 98ef 4bbe b3c4 80be de68 1e3e 1581 65bd
00000010: 7057 49bd 8015 0ebe 0039 a33c bd64 1dbe
00000020: e8a0 4a3e a0ff d3bd 20f0 153d eaa2 453e
00000030: abac 4fbe b67b 39be 64f6 ff3d 8718 f5bd
00000040: 9eba 153e c185 fabd 11fe 3cbe 10e1 273e

weight f4 [1, 20]
0.10989356 0.15823264 -0.005939764 -0.05025783 0.11334013 0.10034161 0.10222179 -0.12009244
-0.22063784 -0.17907058 -0.05279331 -0.13206771 -0.15829995 0.17506728 -0.011284092 -0.084019706
0.02632308 0.003448382 -0.13340746 0.17507985
00000000: e00f e13d bd07 223e 5aa2 c2bb 28db 4dbd
00000010: df1e e83d e77f cd3d a859 d13d 06f3 f5bd
00000020: e3ee 61be 475e 37be cc3d 58bd c23c 07be
00000030: 6219 22be d644 333e eae0 38bc 8612 acbd
00000040: 80a3 d73c 40fe 613b f79b 08be 2248 333e

weight f4 [20, 4]
0.25134638 0.010757448 0.32794154 0.36482513 -0.31002074 -0.35928887 -0.47263283 0.3665772
-0.12457734 -0.2920692 -0.21022165 -0.13908547 0.16556269 0.045617867 -0.027750151 0.35988694
0.13496034 0.009553198 0.1953852 -0.26270264 0.22901237 0.25633702 0.52476585 0.097133905
-0.34018627 0.09691258 0.09290595 -0.0025136964 0.03320223 -0.09712505 -0.3551408 0.34747404
0.5180314 0.14778821 -0.3866242 -0.37837148 0.4422334 0.3725843 -0.2905244 -0.30172566
0.13986993 -0.2562822 0.2662508 0.45663476 -0.30401483 -0.011678514 -0.14132977 0.35595524
-0.39079246 0.13493511 -0.23253745 0.042374954 -0.31546175 0.0006571496 0.34131205 0.22203554
0.22661287 -0.13251019 0.35963225 -0.0357942 -0.20482612 -0.19730419 0.046749234 0.010131121
0.011225255 0.052161828 -0.2869592 0.2702361 -0.16301334 0.30311248 -0.25533992 0.09593206
-0.4033664 -0.08065951 -0.17732704 0.06587279 -0.019810054 0.059270512 -0.3289647 -0.24052824
00000000: 79b0 803e 0240 303c f4e7 a73e 5cca ba3e
00000010: 0abb 9ebe b6f4 b7be eefc f1be 02b0 bb3e
00000020: 6822 ffbd 188a 95be 5844 57be 6c6c 0ebe
00000030: 4489 293e cdd9 3a3d 4954 e3bc 1a43 b83e
00000040: 0b33 0a3e 0485 1c3c 0f13 483e f680 86be
00000050: 3882 6a3e 9b3e 833e 0e57 063f 24ee c63d
00000060: e52c aebe 1a7a c63d 7a45 be3d d4bc 24bb
00000070: 10ff 073d 80e9 c6bd 04d5 b5be 1ee8 b13e
00000080: b59d 043f cb55 173e 9bf3 c5be e8b9 c1be
00000090: 6b6c e23e 5fc3 be3e 9dbf 94be c97b 9abe
000000a0: 103a 0f3e 6c37 83be 0652 883e 08cc e93e
000000b0: d5a7 9bbe 3d57 3fbc c0b8 10be c43f b63e
000000c0: f315 c8be 6e2c 0a3e 4c1e 6ebe 5c91 2d3d
000000d0: 3484 a1be 9044 2c3a 74c0 ae3e 495d 633e
000000e0: 340d 683e c0b0 07be b821 b83e f09c 12bd
000000f0: f0bd 51be 1c0a 4abe 207c 3f3d 00fd 253c
00000100: 22ea 373c a4a7 553d 51ec 92be 635c 8a3e
00000110: f8ec 26be 8f31 9b3e eabb 82be 0778 c43d
00000120: 0a86 cebe d030 a5bd 3895 35be 50e8 863d
00000130: b248 a2bc a3c5 723d 106e a8be 094d 76be

bias f4 [20]
0.044141077 -0.43175083 0.07214934 -0.2127723 -0.4114673 0.21708097 0.22275926 -0.08227259
0.4092016 -0.4095297 -0.042090297 -0.23120007 -0.33118674 0.46342915 0.1031301 0.20880383
0.07865136 0.519034 0.0071508884 -0.16787496
00000000: 46cd 343d 720e ddbe 08c3 933d fbe0 59be
00000010: d8ab d2be 794a 5e3e 011b 643e 887e a8bd
00000020: df82 d13e e0ad d1be e066 2cbd b6bf 6cbe
00000030: 4f91 a9be 9646 ed3e e035 d33d acd0 553e
00000040: f713 a13d 6adf 043f 0052 ea3b 6ae7 2bbe

weight f4 [20, 20]
0.10276437 -0.09392734 0.14197904 -0.050767064 -0.15407543 -0.04669474 -0.13886729 0.12771344
-0.17843148 -0.09945226 0.20279372 0.06369001 0.030545533 -0.09469959 0.12637243 0.10832617
-0.116179064 0.06114793 -0.12894976 -0.19648598 0.04701352 0.11684772 0.012020424 0.025446951
0.22216809 -0.03430292 0.030747503 -0.07247248 0.18236145 -0.10128062 0.08398059 -0.117534146
0.20749187 -0.034455553 -0.22179429 -0.14302294 -0.16777885 -0.08069658 0.103161335 -0.0032529682
-0.0443233 -0.12383155 0.17445406 -0.13455097 -0.15041693 0.14421792 0.13969569 -0.20401447
0.03901705 0.041109446 0.10354632 -0.12046045 -0.03798091 -0.18661217 0.12518117 0.092769295
-0.043188445 0.25398615 -0.018134534 -0.029550085 -0.17138726 0.023998186 0.1266534 0.018333763
0.03117469 0.07983175 0.06755969 0.059481382 0.08327687 -0.053120464 0.12840918 -0.07301593
0.1379607 0.043844283 -0.17345272 -0.010374144 -0.145847 -0.16809559 -0.09586766 -0.008117691
-0.076823786 0.17848456 -0.17443424 0.09111689 -0.13569643 -0.049770426 -0.112828806 -0.0055778474
0.102749504 0.24813399 -0.01185067 0.19640748 0.20867871 -0.118188426 0.12011254 -0.11088046
0.18204279 0.23171154 0.056787282 0.054084215 -0.17527601 -0.036068007 0.20433918 0.21773249
0.057317883 0.20051435 -0.20419984 -0.16312663 0.13325891 -0.12312372 0.16134542 0.07581726
-0.12682942 -0.18806885 -0.15387616 -0.21376388 -0.20636474 -0.128999 0.15735751 0.1263642
0.010237828 0.20289123 0.10115257 0.16968894 -0.10032034 0.026039183 -0.13053435 -0.13367745
0.12629804 -0.13061284 -0.15280727 0.08953726 -0.054756105 0.197682 -0.2153361 0.10366455
-0.19887123 -0.13335651 -0.03329605 -0.10756174 -0.10055613 -0.13889635 -0.0032831728 0.105262555
-0.092299044 0.080783725 -0.08519199 -0.16293636 0.10923567 0.25809437 -0.04480672 -0.05684572
-0.076212324 0.20027076 0.02989003 -0.099058494 0.14230323 0.1936067 0.20314255 -0.0038552037
-0.18710369 -0.03512636 -0.042828098 -0.1549916 -0.08533099 -0.18761687 -0.21790257 -0.1912535
-0.025672406 -0.01375863 -0.15118794 -0.074968204 -0.11664901 -0.08545841 0.187518 0.026872396
-0.052995205 -0.13396776 0.19186598 0.21392652 -0.071048304 -0.22253312 -0.024742559 0.1423819
0.19404209 -0.1553804 -0.06726913 0.017368764 0.2144455 0.013105288 0.09321222 -0.1893453
0.068909496 0.07116687 -0.17357025 0.058406353 0.15796533 -0.1741405 -0.0015834421 -0.06810194
-0.14599949 -0.059339464 -0.16033778 -0.057469115 0.060940057 -0.14905825 -0.022316936 0.19969976
0.2111363 0.19160946 -0.21347146 -0.109020114 0.063790634 0.20582324 0.0022508353 -0.21212576
-0.1660977 0.060588643 0.031549603 0.04423873 -0.15426637 -0.18326946 -0.053294852 0.19248882
0.22097538 -0.16164972 0.14359538 0.044486076 0.026825331 0.11078218 -0.11552586 0.20678231
-0.13148329 0.096667446 -0.023924455 0.14087862 0.09814112 0.25682595 0.21504751 0.039886586
0.20361796 -0.046008915 -0.06168461 0.07940114 -0.09073962 0.25980023 -0.018860506 0.15038458
0.17926273 0.24477778 -0.18133941 -0.122766115 -0.019835547 -0.008307974 -0.014995024 -0.057226658
00000000: 2076 d23d fa5c c0bd f462 113e 20f1 4fbd
00000010: f3c5 1dbe fc42 3fbd 3a33 0ebe 50c7 023e
00000020: beb6 36be a0ad cbbd 28a9 4f3e e86f 823d
00000030: a03a fa3c dcf1 c1bd c667 013e 1cda dd3d
00000040: 4aef edbd 4076 7a3d 680b 04be 9f33 49be
00000050: 4091 403d dc4d ef3d 50f1 443c 2076 d03c
00000060: 0880 633e 3881 0cbd 30e2 fb3c 746c 94bd
00000070: f6bc 3a3e 376c cfbd 04fe ab3d beb5 f0bd
00000080: c078 543e 4421 0dbd 0b1e 63be 9b74 12be
00000090: 38ce 2bbe 4044 a5bd 4046 d33d c02f 55bb
000000a0: 598c 35bd 659b fdbd 16a4 323e bbc7 09be
000000b0: e506 1abe ddad 133e 630c 0f3e 2be9 50be
000000c0: 58d0 1f3d 6162 283d 1810 d43d f8b3 f6bd
000000d0: df91 1bbd 4317 3fbe 7e2f 003e d4fd bd3d
000000e0: 5ee6 30bd 790a 823e e08e 94bc 0513 f2bc
000000f0: 2480 2fbe d897 c43c 6eb1 013e b030 963c
00000100: 1062 ff3c d47e a33d bc5c 8a3d c0a2 733d
00000110: 108d aa3d d894 59bd b27d 033e 6089 95bd
00000120: 9245 0d3e 1096 333d 979d 31be 50f8 29bc
00000130: ea58 15be 4021 2cbe 4456 c4bd 1000 05bc
00000140: ca55 9dbd a8c4 363e e49e 32be 7e9b ba3d
00000150: 01f4 0abe 13dc 4bbd ca12 e7bd 60c6 b6bb
00000160: 556e d23d d616 7e3e 5029 42bc 0b1f 493e
00000170: dfaf 553e c60c f2bd 90fd f53d 4b15 e3bd
00000180: 6d69 3a3e ca45 6d3e c899 683d 6987 5d3d
00000190: 8e7b 33be 0cbc 13bd 4a3e 513e 44f5 5e3e
000001a0: 28c6 6a3d a253 4d3e c319 51be ab0a 27be
000001b0: 0675 083e 4a28 fcbd bc37 253e 1446 9b3d
000001c0: 92df 01be 1f95 40be b691 1dbe ebe4 5abe
000001d0: 4751 53be 5018 04be 5422 213e 9e65 013e
000001e0: 90bc 273c b8c2 4f3e 1429 cf3d f0c2 2d3e
000001f0: c074 cdbd 2050 d53c ccaa 05be bee2 08be
00000200: 4654 013e 5fbf 05be 8279 1cbe 505f b73d
00000210: f047 60bd 266d 4a3e 1181 5cbe 144e d43d
00000220: e6a4 4bbe 9c8e 08be 7061 08bd 5449 dcbd
00000230: 5ff0 cdbd d83a 0ebe 802a 57bb e593 d73d
00000240: 4807 bdbd f071 a53d 2379 aebd cad8 26be
00000250: f3b6 df3d f224 843e 4087 37bd 0fd7 68bd
00000260: 3515 9cbd c713 4d3e f0db f43c 2edf cabd
00000270: f0b7 113e d640 463e 9a04 503e 96a7 7cbb
00000280: 1c98 3fbe a8e0 0fbd 846c 2fbd 1eb6 1ebe
00000290: 04c2 aebd a31e 40be da21 5fbe f5d7 43be
000002a0: f04e d2bc e06b 61bc 03d1 1abe ee88 99bd
000002b0: ade5 eebd d204 afbd b804 403e 8023 dc3c
000002c0: 8011 59bd d82e 09be 8478 443e 8e0f 5b3e
000002d0: c681 91bd b9df 63be e8b0 cabc 90cc 113e
000002e0: f8b2 463e 0a1c 1fbe 66c4 89bd f048 8e3c
000002f0: 9a97 5b3e 90b7 563c 0ce6 be3d bce3 41be
00000300: 6c20 8d3d f0bf 913d 66bc 31be 803b 6f3d
00000310: aac1 213e e351 32be 808b cfba 0879 8bbd
00000320: e480 15be f00d 73bd 962f 24be bc64 6bbd
00000330: 489c 793d baa2 18be 02d2 b6bc 187e 4c3e
00000340: 1d34 583e 4535 443e 4398 5abe f045 dfbd
00000350: aaa4 823d 54c3 523e c082 133b 7f37 59be
00000360: 8415 2abe cc2b 783d 283a 013d ac33 353d
00000370: 01f8 1dbe fdaa 3bbe b44b 5abd ca1b 453e
00000380: 5f47 623e 8187 25be ab0a 133e 0837 363d
00000390: ccc0 db3c c5e1 e23d d298 ecbd bebe 533e
000003a0: 8ea3 06be 95f9 c53d 38fd c3bc 7c42 103e
000003b0: 36fe c83d b17e 833e 6a35 5c3e 1e60 233d
000003c0: 3a81 503e d873 3cbd 00a9 7cbd 119d a23d
000003d0: b2d5 b9bd 8904 853e 5981 9abc 6afe 193e
000003e0: a690 373e 07a7 7a3e 0ab1 39be cd6c fbbd
000003f0: 287e a2bc 2b1e 08bc b0ad 75bc 8066 6abd

bias f4 [20]
0.16300973 0.08437902 -0.014302608 -0.06617685 -0.07639918 0.07714626 -0.067077875 -0.10947073
0.004189864 -0.08209367 0.10032171 0.062155016 0.035679355 0.10170861 -0.21820436 -0.062417876
-0.035930075 -0.08098322 -0.029881466 -0.18614364
00000000: 06ec 263e e8ce ac3d 7c55 6abc ba87 87bd
00000010: 2c77 9cbd dcfe 9d3d 2060 89bd 3132 e0bd
00000020: 204b 893b ba20 a8bd 7875 cd3d 4296 7e3d
00000030: 8424 123d 9b4c d03d f770 5fbe e3a9 7fbd
00000040: 6a2b 13bd 88da a5bd fac9 f4bc 709c 3ebe

weight f4 [1, 20]
0.103565216 0.122517526 0.061509524 0.08545345 0.15822408 0.09602338 -0.21786615 0.19109538
0.21378812 0.110483885 0.039381444 0.0722772 0.18037893 0.022506662 -0.1401097 -0.030807324
-0.17604469 -0.1171615 0.21089087 -0.13790813
00000000: 001a d43d 78ea fa3d 69f1 7b3d 3802 af3d
00000010: 7e05 223e e8a7 c43d 4e18 5fbe 82ae 433e
00000020: 46eb 5a3e 6045 e23d 704e 213d 1206 943d
00000030: 41b5 383e e45f b83c eb78 0fbe a45f fcbc
00000040: 0f45 34be 5ef2 efbd c7f3 573e ca37 0dbe

weight f4 [20, 4]
0.21741067 0.3325825 -0.5464513 0.1752606 0.3904602 -0.14004672 -0.14613694 0.18295228
-0.34247953 -0.14630508 0.058323324 0.2580166 0.108862504 0.39060047 0.051313777 0.47351125
-0.26001993 0.03261318 0.2698614 -0.37241852 0.12548625 -0.16621721 -0.37856883 0.10228068
0.12378984 0.37927228 -0.058558773 -0.47167844 0.31463495 0.080592304 0.013317568 -0.41130006
0.40912354 -0.45977718 0.017908871 0.47831774 -0.15011388 -0.15937275 0.049416184 0.24992031
-0.402604 0.13140644 0.40102676 0.34927142 0.2170051 0.35609835 0.07208657 0.22018814
0.09157908 -0.06521398 -0.098513305 0.22718376 0.36133423 0.071820356 0.41075265 0.41116443
0.2838344 -0.48073936 -0.29901212 0.35527664 0.098294795 -0.2216953 0.0010072589 0.024078667
-0.26340255 0.075773105 0.049556714 0.20659608 -0.3318547 -0.24365628 0.18813443 0.25195724
-0.11152054 -0.033158507 -0.39478064 -0.023146678 0.30694625 0.11107835 -0.27524292 0.34899592
00000000: e7a0 5e3e 4148 aa3e 3be4 0bbf 8477 333e
00000010: 66ea c73e 6868 0fbe eca4 15be d857 3b3e
00000020: 7a59 afbe 00d1 15be 70e4 6e3d c01a 843e
00000030: 4ef3 de3d c9fc c73e 652e 523d 1170 f23e
00000040: 5521 85be 6695 053d 462b 8a3e a4ad bebe
00000050: 787f 003e d834 2abe c6d3 c1be 8878 d13d
00000060: 8785 fd3d fa2f c23e 53db 6fbd d67f f1be
00000070: d517 a13e 940d a53d ee31 5a3c ec95 d2be
00000080: a478 d13e ea67 ebbe a0b5 923c 10e6 f43e
00000090: 74b7 19be 9c32 23be a068 4a3d 1ceb 7f3e
000000a0: 1d22 cebe 698f 063e 6153 cd3e b4d3 b23e
000000b0: 9636 5e3e 8652 b63e 20a2 933d 0079 613e
000000c0: d08d bb3d e88e 85bd 58c1 c9bd dca2 683e
000000d0: cd00 b93e 8d16 933d 2c4e d23e 2584 d23e
000000e0: be52 913e 7823 f6be 1e18 99be d2e6 b53e
000000f0: c84e c93d 1804 63be 0006 843a a040 c53c
00000100: b3dc 86be ee2e 9b3d fbfb 4a3d ec8d 533e
00000110: dce8 a9be 0881 79be 50a6 403e 8a00 813e
00000120: e264 e4bd 37d1 07bd b020 cabe 1a9e bdbc
00000130: 0f28 9d3e 0c7d e33d a4ec 8cbe 98af b23e

bias f4 [20]
-0.4698955 0.27412075 0.12460458 -0.20688169 0.24837829 -0.117218256 -0.2405315 0.24088858
0.2575422 0.12544167 -0.21207313 0.33484548 0.31026572 -0.1166341 0.05990398 0.35021323
0.14999709 0.34782577 -0.5304618 -0.18760921
00000000: 2596 f0be 8e59 8c3e b030 ff3d cbd8 53be
00000010: e156 7e3e 2010 f0bd e44d 76be 7fab 763e
00000020: 92dc 833e c873 003e b329 59be de70 ab3e
00000030: 26db 9e3e dcdd eebd e05d 753d 264f b33e
00000040: d698 193e 3816 b23e 58cc 07bf a11c 40be

weight f4 [20, 20]
0.07602188 -0.17066553 -0.053356588 -0.18950945 0.11152989 -0.047650144 -0.2176072 -0.15869308
-0.0964959 0.14457998 -0.2084407 0.18599302 0.20608965 0.2156462 -0.1301074 0.054534346
0.16560239 0.038713276 0.039821863 0.21580583 -0.16420044 0.09983331 0.14088535 -0.07733667
-0.13266176 0.033750147 -0.018522412 -0.21327576 -0.17292647 -0.094076246 -0.11898997 0.124387175
0.048124522 -0.039702743 0.09739697 0.14289626 0.008533701 0.10764223 0.21333665 -0.04310663
0.1038689 -0.069196776 -0.20097345 0.046328545 0.05438911 -0.11525231 -0.03373238 0.09361011
0.1402699 0.08067691 0.15615332 -0.112118326 0.0034675002 0.10029401 0.0385859 -0.028674185
0.07423965 -0.091601536 0.2508141 -0.16084868 -0.15561761 -0.029579908 -0.10012402 -0.19151539
0.025148317 -0.106050715 0.1331222 -0.0693512 -0.15145202 -0.18088052 0.15046453 -0.14383811
-0.1490494 -0.07811588 0.06930879 0.19818455 0.0981656 -0.14298972 -0.009572193 0.033050835
-0.14488025 -0.00011076033 0.06952548 -0.16090123 0.19479772 -0.04995863 -0.062309116 -0.049339518
0.111328125 0.17252171 -0.06744562 -0.19555327 0.16121721 0.0877637 -0.1816797 -0.13601986
-0.18598227 0.098269135 -0.014019161 0.05490035 -0.09921883 0.047109723 -0.09529626 -0.059073493
-0.096876994 -0.10700129 -0.05935219 -0.0848418 -0.023652196 0.15912628 -0.04352355 -0.109094374
0.17021066 -0.10846767 -0.22356607 -0.08242656 -0.118810035 0.08138749 0.026197225 0.1997492
0.08476238 -0.11950165 0.11647886 -0.030934976 -0.0347845 -0.19072323 0.07472491 -0.16597423
-0.154849 -0.13473399 0.19028641 0.1276842 0.19502738 0.14768405 -0.12239351 0.15578005
0.15420963 0.1313205 0.024945993 0.04482655 -0.25534913 -0.023419961 0.08220753 0.029803393
0.09476705 -0.09493315 -0.036274746 -0.031865127 0.051006317 0.18981695 -0.096610285 -0.050774492
0.07894859 0.109220505 -4.7922134e-05 0.095448405 -0.2438283 0.2170437 -0.11670051 0.12620023
-0.071386725 0.20290238 -0.2127875 0.15643167 -0.12543064 0.047425926 0.14014912 -0.081359155
-0.048007235 0.20903817 -0.17321981 0.12373713 0.115841866 0.1296675 -0.10693044 -0.039721236
-0.13499875 -0.018581152 0.08586282 0.030088915 -0.14049059 -0.12930077 -0.114081286 -0.18888012
0.09526166 -0.21362598 0.0012892783 -0.22311136 0.10822421 -0.13477123 -0.088875905 0.03159052
-0.14915809 -0.21184534 -0.069313854 0.20075694 -0.0522469 -0.19661455 -0.16986232 -0.18714593
-0.10177618 0.08525768 0.15250921 0.026375214 0.116674215 -0.17526817 -0.22573604 -0.20698166
0.20446506 -0.102804996 -0.21250819 0.15083627 -0.18775079 0.09607012 0.03717071 0.1905495
-0.06761817 0.009186938 0.15016906 0.026303126 0.14577098 0.14422059 -0.04560168 -0.1581337
-0.1441124 -0.059241623 0.14837334 0.12620007 0.07982656 -0.1506483 -0.13949491 0.018335814
0.1441806 -0.12656924 -0.06404284 -0.16977331 0.03285898 -0.1990337 -0.15620062 0.15763873
0.05580729 -0.050957307 0.18682888 -0.035860788 0.09415761 0.20764732 0.0114609245 0.17698225
0.12411541 0.052919894 0.16459332 0.10521259 -0.0077777505 0.17734016 -0.09832625 0.1952771
00000000: 5cb1 9b3d f2c2 2ebe 708c 5abd c40e 42be
00000010: c869 e43d cc2c 43bd 6cd4 5ebe 7080 22be
00000020: a49f c5bd c60c 143e 7b71 55be f474 3e3e
00000030: 2a09 533e 5cd2 5c3e e03a 05be 685f 5f3d
00000040: ac93 293e d091 1e3d 401c 233d 34fc 5c3e
00000050: 2924 28be 6875 cc3d 4044 103e b062 9ebd
00000060: 7cd8 07be 983d 0a3d 50bc 97bc f664 5abe
00000070: a313 31be 0cab c0bd 03b1 f3bd b4be fe3d
00000080: 381e 453d 589f 22bd 1078 c73d 6653 123e
00000090: f0d0 0b3c 8873 dc3d ec74 5a3e 9490 30bd
000000a0: 38b9 d43d 0ab7 8dbd fccb 4dbe 00c3 3d3d
000000b0: 1ec7 5e3d 6709 ecbd f72a 0abd a8b6 bf3d
000000c0: eaa2 0f3e f039 a53d a8e6 1f3e 4b9e e5bd
000000d0: 003f 633b f266 cd3d 400c 1e3d 20e6 eabc
000000e0: f50a 983d 9699 bbbd b56a 803e 84b5 24be
000000f0: 395a 1fbe 9051 f2bc d20d cdbd 9c1c 44be
00000100: d803 ce3c 1e31 d9bd 3051 083e 0008 8ebd
00000110: 3d16 1bbe be38 39be 6013 1a3e 4c4a 13be
00000120: 68a0 18be 38fb 9fbd c4f1 8d3d e4f0 4a3e
00000130: 0c0b c93d e66b 12be b0d4 1cbc 5060 073d
00000140: 7d5b 14be 0048 e8b8 6063 8e3d 4bc3 24be
00000150: 0e79 473e 6ca1 4cbd d837 7fbd 3c18 4abd
00000160: 0000 e43d 88a9 303e ee20 8abd 1e3f 48be
00000170: 2016 253e 74bd b33d 3e0a 3abe ca48 0bbe
00000180: 2372 3ebe 5441 c93d a0b0 65bc 30df 603d
00000190: 3e33 cbbd 20f6 403d b02a c3bd 0cf7 71bd
000001a0: 7267 c6bd 7e23 dbbd 481b 73bd 8ac1 adbd
000001b0: 40c2 c1bc 00f2 223e c045 32bd df6c dfbd
000001c0: b44b 2e3e 4c24 debd 81ee 64be 42cf a8bd
000001d0: ad52 f3bd 7cae a63d 909b d63c 0e8b 4c3e
000001e0: e697 ad3d 48bd f4bd 788c ee3d 596b fdbc
000001f0: 317a 0ebd f34c 43be 6009 993d 26f5 29be
00000200: bc90 1ebe b5f7 09be 71da 423e a6bf 023e
00000210: 42b5 473e 7d3a 173e 73a9 fabd ce84 1f3e
00000220: 21e9 1d3e e278 063e 8a5b cc3c 0b9c 373d
00000230: 1fbd 82be 38db bfbc 6c5c a83d 3f26 f43c
00000240: 3a15 c23d 506c c2bd d494 14bd 0285 02bd
00000250: 00ec 503d 605f 423e 9ddb c5bd eaf8 4fbd
00000260: ccaf a13d 00af df3d 0000 49b8 747a c33d
00000270: 20ae 79be b440 5e3e ad00 efbd a23a 013e
00000280: 3433 92bd a4c5 4f3e f7e4 59be a02f 203e
00000290: e470 00be b041 423d 4083 0f3e a19f a6bd
000002a0: 3ca3 44bd 1a0e 563e 8960 31be e469 fd3d
000002b0: 803e ed3d 8fc7 043e 59fe dabd bcb2 22bd
000002c0: 1d3d 0abe 8037 98bc d9d8 af3d 077d f63c
000002d0: c4dc 0fbe 6c67 04be 73a3 e9bd ca69 41be
000002e0: 8c18 c33d c5c0 5abe 00fd a83a 4e77 64be
000002f0: a8a4 dd3d 7801 0abe 9204 b6bd 1065 013d
00000300: e6bc 18be fced 58be 6cf4 8dbd 3a93 4d3e
00000310: d800 56bd 5355 49be 63f0 2dbe 2fa3 3fbe
00000320: 0870 d0bd 949b ae3d 602b 1c3e d510 d83c
00000330: e4f2 ee3d 8079 33be 5927 67be 00f3 53be
00000340: 4a5f 513e 6d8b d2bd bf9b 59be d374 1a3e
00000350: be41 40be 69c0 c43d 5040 183d 681f 433e
00000360: 657b 8abd d084 163c ebc5 193e a779 d73c
00000370: fd44 153e 90ae 133e d4c8 3abd cded 21be
00000380: 3392 13be 58a7 72bd 2eef 173e 973a 013e
00000390: 1c7c a33d 8c43 1abe c1d7 0ebe fd34 963c
000003a0: 14a4 133e 5e9b 01be e428 83bd 0ed9 2dbe
000003b0: 2397 063d 7ecf 4bbe 0ef3 1fbe 0c6c 213e
000003c0: 2f96 643d 9cb8 50bd 1250 3f3e c3e2 12bd
000003d0: b4d5 c03d 80a1 543e 9ac6 3b3c d63a 353e
000003e0: 3830 fe3d 88c2 583d 278b 283e b379 d73d
000003f0: 80dc febb a998 353e 465f c9bd b8f6 473e

bias f4 [20]
0.00832665 0.12099996 -0.20648658 -0.06227766 0.07241559 -0.08351213 0.20742859 -0.055700745
0.028975643 0.021134317 0.02711696 0.20624386 -0.025900789 -0.23798451 0.042551838 0.17968547
0.15876415 -0.13739938 -0.1889129 -0.10166441
00000000: 806c 083c d4ce f73d 3871 53be dc16 7fbd
00000010: a04e 943d 6808 abbd 2968 543e 7726 64bd
00000020: 545e ed3c e021 ad3c 6324 de3c 9731 533e
00000030: e42d d4bc 36b2 73be d64a 2e3d 78ff 373e
00000040: 1293 223e 6cb2 0cbe 6272 41be 6e35 d0bd

weight f4 [1, 20]
-0.16268307 -0.13416266 -0.019491121 -0.03537129 0.102838695 0.11921716 -0.12431077 -0.090056844
-0.0953248 -0.01867783 0.053114075 -0.08555821 0.044144455 0.23779297 -0.15849492 -0.107218035
0.109784424 -0.011204347 0.005585394 0.040069424
00000000: 6496 26be f061 09be d8ab 9fbc 7ce1 10bd
00000010: 189d d23d 2028 f43d a596 febd b96f b8bd
00000020: a639 c3bd 4002 99bc 258e 593d 2539 afbd
00000030: d1d0 343d 0080 733e 7e4c 22be 2195 dbbd
00000040: a8d6 e03d 7092 37bc ae05 b73b d61f 243d
