result_model/ex3_nsde_pro.pth (torch, 22036 bytes, 20 tensors)

weight f4 [20, 4]
-0.62841594 -0.030170724 0.4542484 -0.6080068 0.21711466 0.14159754 0.21134898 -0.69577396
-0.061561525 -0.0024321675 -0.2245633 -0.19377822 -0.8333901 0.73293567 -0.78237665 0.6909392
-0.38932627 -0.14027256 0.033698916 -0.1743626 0.29251343 -0.47952306 -0.23577368 0.13283569
-0.16502032 0.22045343 -0.5330423 0.37737668 -0.010119918 0.01768922 -0.015827434 -0.612346
0.12523323 0.44998398 0.110526584 -0.45057985 0.27272367 -0.18251443 -0.07261944 -0.1374554
-0.44128978 0.3779044 -0.4177783 -0.09447586 0.15820569 -0.13760632 -0.2177257 -0.3177125
-0.25806078 0.5361496 -0.5763458 0.0026939414 -0.21582787 -0.08011028 0.9648188 -0.4220032
-0.35799003 -0.19688848 0.0177129 -0.11481005 -0.5528311 0.13595746 -0.17112252 -0.45596915
-0.37447622 0.5963754 -0.63637596 0.09112512 0.182121 0.40298796 0.31550208 0.025657022
-0.06474374 0.17133988 0.050303243 -0.36822465 0.3971563 -0.22540021 -0.24195033 0.32444507
00000000: dedf 20bf 9828 f7bc 3f93 e83e 55a6 1bbf
00000010: 4e53 5e3e f2fe 103e de6b 583e 3e1e 32bf
00000020: f027 7cbd 0065 1fbb ecf3 65be cc6d 46be
00000030: 0e59 55bf aca1 3b3f d649 48bf 64e1 303f
00000040: c655 c7be 9ca3 0fbe e007 0a3d 1c8c 32be
00000050: 52c4 953e 0c84 f5be a86e 71be 1406 083e
00000060: 16fb 28be 8bbe 613e 7675 08bf 8437 c13e
00000070: 03ce 25bc fce8 903c 89a8 81bc b5c2 1cbf
00000080: 243d 003e 4d64 e63e c35b e23d 67b2 e6be
00000090: 70a2 8b3e 10e5 3abe 80b9 94bd 1cc1 0cbe
000000a0: bcf0 e1be af7c c13e 0ae7 d5be 8f7c c1bd
000000b0: ac00 223e ace8 0cbe 7cf3 5ebe 36ab a2be
000000c0: 8b20 84be 1a41 093f 668b 13bf d68c 303b
000000d0: fb01 5dbe dc10 a4bd 5dfe 763f ce10 d8be
000000e0: 784a b7be 229d 49be a51a 913c 8821 ebbd
000000f0: 5786 0dbf 6f38 0b3e be3a 2fbe ca74 e9be
00000100: 59bb bfbe 0fac 183f 89e9 22bf cf9f ba3d
00000110: ed7d 3a3e 7054 ce3e 7d89 a13e ad2e d23c
00000120: 5e98 84bd b973 2f3e c60a 4e3d f187 bcbe
00000130: 1258 cb3e 50cf 66be d4c1 77be aa1d a63e

bias f4 [20]
-0.54444927 0.03126033 0.36382526 -0.16648921 0.23983198 -0.3314377 -0.44246626 -0.6996603
-0.1261079 0.23874056 0.42001852 -0.18548936 -0.22453736 0.17060801 -0.15820013 -0.47072658
0.4606448 -0.07035614 -0.67098635 -0.14553761
00000000: 0761 0bbf d50a 003d 4e47 ba3e 267c 2abe
00000010: 8496 753e 34b2 a9be f08a e2be f01c 33bf
00000020: 6e22 01be 6878 743e ab0c d73e ecf0 3dbe
00000030: 1fed 65be deb3 2e3e 37ff 21be 1303 f1be
00000040: a3d9 eb3e e116 90bd c3c5 2bbf d007 15be

weight f4 [20, 20]
0.08806748 0.05110794 0.02525355 -0.26235673 -0.13447398 -0.10208238 -0.12510979 -0.08824117
-0.19531298 -0.06041877 0.15388048 -0.07727584 0.06841469 0.047745753 0.1268897 -0.17669907
0.11434795 -0.10540878 0.14062968 0.152385 -0.21539056 -0.046898365 0.028739125 0.03957379
-0.12427569 0.03076157 -0.16184309 -0.08188443 -0.05298966 0.14621055 -0.1489631 0.13719234
0.22331998 -0.09053616 0.021299183 -0.13739847 0.03220737 -0.2091877 -0.023938134 0.027812302
0.0067358464 -0.20004481 0.20476729 -0.091354296 0.13827443 -0.13481745 0.152596 -0.18281724
-0.08045399 -0.080101416 -0.039885998 0.07717961 0.07149717 -0.15426746 -0.19193557 -0.00887768
-0.036619857 0.13133243 -0.14364696 -0.13025796 -0.06405066 0.10610691 -0.024334505 -0.07170199
0.014382988 0.16235432 -0.21344705 -0.22081415 0.0076045096 0.2073411 0.05115497 -0.07962346
-0.10499439 -0.084193856 0.034814358 0.11562127 -0.013317108 -0.11171978 0.09482676 -0.05215466
0.094331905 0.088724166 -0.16278619 0.020517204 0.09992111 0.06629911 -0.1858517 0.07589785
-0.079572 -0.14001985 0.16072465 -0.06651892 -0.13466239 -0.124711424 0.19075951 -0.03477524
-0.026466494 -0.09776792 -0.086911276 -0.012317583 0.07753975 0.21019207 0.20026448 -0.002707908
-0.19485171 0.19319859 0.23854198 0.18625404 -0.105073676 0.1047751 0.23591706 -0.0698107
-0.09752726 -0.2464167 0.027632248 0.13068724 0.02480814 -0.16055867 0.045036472 0.030074388
-0.03102776 0.08568716 0.049419314 -0.19984277 -0.14036077 0.13501146 -0.095754854 -0.22996473
-0.21967615 0.16790697 0.11968501 0.18923905 -0.16876227 0.036247578 -0.122853674 0.16945763
0.03539005 -0.16334997 0.008970035 -0.073822245 -0.14516199 0.15311047 -0.06312163 -0.173361
0.18154475 -0.03857833 -0.059540763 -0.010379613 0.09879898 -0.031536862 -0.17793375 0.055514336
-0.16910376 -0.1296662 0.16283289 -0.26077545 -0.12841684 0.06852445 -0.22503094 0.048166245
-0.4824639 -0.11423614 -0.13119146 0.58888876 0.12616983 -0.0677712 0.24197365 -0.011197747
0.080235675 0.06413859 0.4741014 0.046469092 0.4010705 -1.3943758 -0.21136798 0.063364774
0.50979257 -0.1307308 -0.044183664 0.09242764 -0.15486449 -0.12913606 0.19638044 0.14077097
-0.074464485 0.2048054 0.20023197 -0.19545288 0.05536017 0.09738946 -0.01080142 0.12272644
-0.1422784 0.013871923 0.1486628 -0.0143904835 0.0050822943 -0.17019042 -0.029170662 -0.071363166
-0.08125087 0.13438806 0.07735658 0.3318536 0.06827557 -0.19259271 -0.24383323 0.021507164
0.15634027 -0.025160387 0.46028537 0.18586439 0.4732249 0.0047387644 0.020916598 0.0058130655
0.33247343 0.15201907 0.005835256 0.00025840104 -0.21585 -0.048190385 0.14606291 -0.06027221
0.021843031 0.18448341 -0.07704668 -0.10693181 -0.26927164 -0.051785216 -0.110164426 0.097641736
-0.11319716 0.038148034 -0.0768032 -0.06748071 0.17733479 0.028563702 0.1212247 0.10130489
-0.11987862 -0.17805983 -0.20306477 -0.06623733 0.017139658 -0.024059772 -0.04418406 -0.06898543
-0.19490094 -0.12902068 -0.20065813 0.11127463 0.1516076 -0.08033422 0.10507664 0.1515331
00000000: b95c b43d 8f56 513d 88e0 ce3c 9f53 86be
00000010: 8cb3 09be 9110 d1bd c81c 00be c9b7 b4bd
00000020: 2000 48be ac79 77bd d892 1d3e cc42 9ebd
00000030: 001d 8c3d 0d91 433d 60ef 013e 9af0 34be
00000040: 422f ea3d 8fe0 d7bd 3a01 103e d00a 1c3e
00000050: 588f 5cbe 8018 40bd 506e eb3c 2018 223d
00000060: 4184 febd b0ff fb3c 32ba 25be 06b3 a7bd
00000070: b00b 59bd 38b8 153e c889 18be 267c 0c3e
00000080: fead 643e 066b b9bd a07b ae3c 2fb2 0cbe
00000090: e0eb 033d 4d35 56be e819 c4bc a0d6 e33c
000000a0: 60b8 dc3b 8cd8 4cbe 84ae 513e f617 bbbd
000000b0: d097 0d3e 960d 0abe 2042 1c3e 7134 3bbe
000000c0: 10c5 a4bd 360c a4bd 805f 23bd 5810 9e3d
000000d0: 1c6d 923d 4af8 1dbe c28a 44be b073 11bc
000000e0: b4fe 15bd 027c 063e 3018 13be 5862 05be
000000f0: fe2c 83bd 944e d93d 2859 c7bc 7ed8 92bd
00000100: a0a6 6b3c 3640 263e dd91 5abe 1b1d 62be
00000110: 402f f93b 3a51 543e e087 513d a011 a3bd
00000120: 4c07 d7bd d46d acbd 8099 0e3d d8ca ec3d
00000130: 0030 5abc 57cd e4bd 8834 c23d 20a0 55bd
00000140: 1631 c13d 04b5 b53d 6cb1 26be b213 a83c
00000150: 70a3 cc3d d4c7 873d e84f 3ebe 5570 9b3d
00000160: a5f6 a2bd 5d61 0fbe 0195 243e 123b 88bd
00000170: f0e4 09be b468 ffbd 7656 433e 7b70 0ebd
00000180: 43d0 d8bc 8c3a c8bd 8afe b1bd b0cf 49bc
00000190: 29cd 9e3d 973c 573e 2212 4d3e 2877 31bb
000001a0: 3587 47be dad5 453e 5944 743e 61b9 3e3e
000001b0: de30 d7bd 5494 d63d 3e94 713e eaf8 8ebd
000001c0: 5fbc c7bd a954 7cbe 065d e23c e0d2 053e
000001d0: 713a cb3c 7e69 24be 2a78 383d 905e f63c
000001e0: ee2d febc c07c af3d e86b 4a3d 95a3 4cbe
000001f0: bcba 0fbe 7240 0a3e 1f1b c4bd e07b 6bbe
00000200: c9f2 60be ceef 2b3e 6a1d f53d e2c7 413e
00000210: 04d0 2cbe 5778 143d b59a fbbd 4d86 2d3e
00000220: 28f5 103d 3745 27be 0ef7 123c 1e30 97bd
00000230: 58a5 14be fec8 1c3e ea45 81bd 8c85 31be
00000240: dee6 393e 5004 1ebd 04e1 73bd 410f 2abc
00000250: 1f57 ca3d cc2c 01bd 4434 36be 0063 633d
00000260: 8929 2dbe 37c7 04be aabd 263e 5c84 85be
00000270: b47f 03be 8c56 8c3d 836e 66be f849 453d
00000280: 8205 f7be a3f4 e9bd 0e57 06be 6ac1 163f
00000290: aa32 013e a0cb 8abd f1c7 773e c176 37bc
000002a0: 9a52 a43d 185b 833d 6bbd f23e 6056 3e3d
000002b0: 1d59 cd3e e87a b2bf d970 58be 64c5 813d
000002c0: c481 023f 4bde 05be eef9 34bd b44a bd3d
000002d0: cc94 1ebe 3e3c 04be f417 493e 4426 103e
000002e0: d680 98bd 82b8 513e 9c09 4d3e cd24 48be
000002f0: 58c1 623d 2074 c73d 70f8 30bc 0058 fb3d
00000300: 6eb1 11be 1047 633c 103b 183e 10c6 6bbc
00000310: 6089 a63b 6646 2ebe 50f7 eebc da26 92bd
00000320: db66 a6bd 069d 093e 206d 9e3d b7e8 a93e
00000330: 10d4 8b3d 0637 45be 6baf 79be cb2f b03c
00000340: aa17 203e 281d cebc 86aa eb3e 3c53 3e3e
00000350: 894a f23e a347 9b3b 4959 ab3c 877b be3b
00000360: f539 aa3e e3aa 1b3e ad35 bf3b 007a 8739
00000370: c807 5dbe 4863 45bd 8491 153e fedf 76bd
00000380: 28f0 b23c 38e9 3c3e a6ca 9dbd 11ff dabd
00000390: f9dd 89be bc1c 54bd e39d e1bd 64f8 c73d
000003a0: ead3 e7bd 1d41 1c3d ff4a 9dbd 5433 8abd
000003b0: 4097 353e 6dfe e93c a844 f83d f078 cf3d
000003c0: ec82 f5bd 5155 36be 36f0 4fbe 70a7 87bd
000003d0: 7868 8c3c 0019 c5bc 58fa 34bd 3c48 8dbd
000003e0: 1d94 47be ff1d 04be 5379 4dbe f4e3 e33d
000003f0: 063f 1b3e 4486 a4bd 6c32 d73d 7e2b 1b3e

bias f4 [20]
-0.014472531 0.19118407 -0.06685351 -0.1832371 -0.004855464 -0.14026561 -0.10103407 -0.1839073
-0.11153472 -0.21832459 -0.026274342 -0.024048664 0.022902682 0.02849284 -0.012588322 -0.05193062
0.029714108 -0.05588103 0.20475005 -0.07791376
00000000: 321e 6dbc c2c5 433e 7eea 88bd 82a2 3bbe
00000010: 961a 9fbb caa1 0fbe f3ea cebd 3252 3cbe
00000020: 516c e4bd 7b90 5fbe 4a3d d7bc b401 c5bc
00000030: 689e bb3c d169 e93c 403f 4ebc 34b5 54bd
00000040: 006b f33c 82e3 64bd ffa9 513e 4091 9fbd

weight f4 [1, 20]
0.08704672 -0.10475219 -0.09511277 -0.1443421 -0.043692823 0.0066942866 0.03671876 0.04613545
0.91953486 0.19224426 -0.25624803 -0.007204939 0.05441603 -0.209856 -0.3086761 0.13298407
0.0644434 -0.038012344 0.042270686 -0.11650585
00000000: 8d45 b23d 5188 d6bd 7cca c2bd 6ace 13be
00000010: 3ff7 32bd bf5b db3b 6966 163d 87f8 3c3d
00000020: a366 6b3f aedb 443e f132 83be 6917 ecbb
00000030: 58e3 5e3d 7ee4 56be cb0a 9ebe fa2c 083e
00000040: e7fa 833d d5b2 1bbd 0724 2d3d 9e9a eebd

weight f4 [20, 4]
0.032229625 -0.28874028 0.5370658 -0.29423577 0.0987929 0.12021121 -0.2088424 0.052442733
0.20303047 -0.48145592 -0.22444099 0.27996182 -0.6276448 0.035124864 0.12194819 -0.33059266
0.20448089 -0.023920536 -0.4418857 0.25785035 -0.03817588 -0.16978198 -0.105258405 0.06309521
0.44495404 -0.4982726 0.01829195 0.15149432 0.1237908 -0.23066008 -0.24266523 -0.17972678
-0.18844932 0.32489893 -0.22914743 0.13684626 -0.10998058 0.42971915 -0.044004183 0.14639579
0.1550042 0.03690669 -0.6898633 -0.33894795 0.43060207 -0.3818184 -0.36069816 0.4376675
-0.35417667 -0.34190363 0.06036828 -0.026163008 -0.06511692 0.09524582 0.09356458 0.35923162
-0.3906822 -0.03811841 -0.42393175 -0.55682284 -0.015594729 -0.29348168 0.13820085 -0.46272668
-0.8685248 0.08791116 -0.8569225 -0.5295773 -0.25186253 0.3540233 -0.24701414 -0.53676903
0.07493693 -0.3689586 0.013966978 -0.305785 0.3459227 -0.33684433 0.3036637 -0.37197927
00000000: 3603 043d c4d5 93be 257d 093f 12a6 96be
00000010: ef53 ca3d 4b31 f63d c8da 55be 31ce 563d
00000020: 38e7 4f3e 6481 f6be dcd3 65be 2857 8f3e
00000030: 54ad 20bf 17df 0f3d f9bf f93d 7143 a9be
00000040: 7063 513e 00f5 c3bc d83e e2be f604 843e
00000050: 505e 1cbd 54db 2dbe b891 d7bd 1038 813d
00000060: 04d1 e33e 961d ffbe 00d9 953c 5421 1b3e
00000070: 0886 fd3d 2832 6cbe 3c7d 78be 4c0a 38be
00000080: dcf8 40be 2759 a63e a0a5 6abe 6d21 0c3e
00000090: 803d e1bd 2604 dc3e bb3d 34bd c7e8 153e
000000a0: 6cb9 1e3e 782b 173d e29a 30bf 968a adbe
000000b0: e077 dc3e b47d c3be 6ead b8be f415 e03e
000000c0: a556 b5be fe0d afbe bb44 773d ce53 d6bc
000000d0: 055c 85bd 3e10 c33d c99e bf3d 35ed b73e
000000e0: 7f07 c8be 0d22 1cbd 950d d9be f18b 0ebf
000000f0: 0981 7fbc 3b43 96be 8684 0d3e 83ea ecbe
00000100: a457 5ebf c40a b43d 465f 5bbf 6192 07bf
00000110: 20f4 80be 8b42 b53e 46f1 7cbe b269 09bf
00000120: 8878 993d 24e8 bcbe c0d5 643c da8f 9cbe
00000130: c81c b13e dc76 acbe cf79 9b3e 1174 bebe

bias f4 [20]
-0.41801634 -0.63371867 0.3861984 -0.25292382 -0.19088644 0.29489684 -0.36408335 -0.29648602
0.15468262 0.5673196 -0.14928609 -0.31357205 0.3767335 0.17309828 -0.18064423 0.09144503
-0.21835528 -0.26725033 -0.16140062 -0.7172935
00000000: 3d06 d6be 633b 22bf ccbb c53e 3b7f 81be
00000010: bc77 43be b8fc 963e 2269 babe 04cd 97be
00000020: 1f65 1e3e db3b 113f 74de 18be 848c a0be
00000030: 37e3 c03e ad40 313e cdfa 38be 8847 bb3d
00000040: 8798 5fbe 09d5 88be 3446 25be 8ca0 37bf

weight f4 [20, 20]
-0.022849709 0.050119825 0.09304237 0.042316902 0.056786627 -0.20051715 0.09572467 -0.07135931
-0.11600619 -0.21552195 0.10833903 0.13178563 0.08793679 0.07054748 -0.10047711 -0.2158077
0.0107121 -0.10239722 0.06229201 -0.023177132 0.09309805 -0.17014503 0.09976974 -0.30351928
-0.21599522 0.08255252 0.015043989 -0.039592624 -0.20607245 -0.1523346 -0.15501428 -0.21504547
-0.021404058 -0.0601228 0.02887699 -0.124729425 0.13099411 0.030016309 -0.14444453 -0.24893695
0.0069037527 -0.012480393 -0.1975916 -0.05766934 -0.13116059 0.025028795 0.0018808991 -0.15617085
-0.086335376 -0.12944832 0.15849128 -0.11275733 0.031895936 -0.043755203 -0.16466138 -0.024139792
-0.20658162 -0.11687774 -0.07865375 -0.020155087 0.24963526 -0.029908864 -0.13681193 0.13038146
0.09028673 0.14324656 -0.1533114 -0.0074881464 0.013696128 0.17401022 0.1363129 -0.18335102
0.050767433 0.2143903 0.14619192 0.13014947 0.18086879 -0.10177591 0.10401836 -0.14639136
-0.3784916 -0.096408084 -0.20171174 0.08656149 -0.14412653 -0.19478238 -0.22320133 0.11338258
0.08628802 0.06450364 0.02819435 -0.17467555 0.16934243 0.14415367 0.08706343 0.07544386
-0.09411941 0.22239225 0.04337591 -0.29060274 -0.46555287 -0.06498515 0.024473414 0.04058485
-0.16363755 0.019870088 -0.04157652 -0.14545085 0.13580328 0.19628812 -0.17749573 -0.15832767
0.093617365 0.11170507 0.13960016 0.02028624 0.16230662 0.054306544 -0.1861291 0.019975526
0.12542827 0.02677662 -0.08599292 -0.090651296 -0.080642655 -0.031284615 -0.19253144 0.07009047
-0.06010787 0.16819048 0.010422912 0.20532927 -0.17441222 0.077109516 0.1612549 -0.12467985
-0.06452601 -0.04148155 -0.047476932 -0.06392011 -0.110970825 -0.14238206 -0.027819484 -0.15511614
-0.21612965 -0.1812858 0.041460842 0.07146579 -0.12833649 0.05080852 0.09849098 0.0036352724
-0.047241807 0.15427396 0.057553023 -0.10308643 0.10712549 -0.026690334 0.039877772 0.12101874
-0.13894692 0.14243871 -0.10256024 0.16691577 -0.063193455 -0.14543787 -0.19178987 0.17084184
-0.131881 -0.20393214 0.12981084 0.10023433 -0.12338799 0.00087463856 0.118542194 0.09840658
-0.014326826 -0.18892096 0.055264235 0.056283623 -0.25052178 -0.20471956 -0.22112854 -0.09311735
0.17095128 0.073212 0.18394 0.05165115 -0.15433022 0.11048162 -0.20582867 0.14510205
0.20147079 -0.19053459 0.21107641 -0.0836796 -0.083272494 0.0856166 -0.12968472 0.19267337
0.04159373 -0.052498788 -0.037724093 -0.13987622 -0.026169002 -0.028599575 -0.10605455 0.15915695
0.06776297 -0.03170401 -0.02246648 0.017348126 -0.0453614 -0.066833675 -0.00359267 -0.18144888
0.104319334 -0.036918804 -0.085685626 0.088161975 0.03934354 -0.035465125 0.11133179 -0.09792887
-0.12159578 -0.010612205 -0.20481193 0.1827665 -0.085339285 0.12497877 -0.10316463 -0.20478982
-0.008790863 -0.17503352 -0.041210026 0.15770096 -0.31867594 -0.07793287 -0.10667337 0.016931707
-0.13766475 -0.1605804 0.07371244 -0.27281088 -0.029561058 -0.14301819 -0.011164308 -0.12530352
0.04091496 -0.07729681 -0.27209473 -0.21427509 0.16298944 -0.30198365 -0.124334894 0.104365975
00000000: 502f bbbc 724a 4d3d 008d be3d 7d54 2d3d
00000010: 1899 683d 5e54 4dbe 4c0b c43d d424 92bd
00000020: a794 edbd c9b1 5cbe dae0 dd3d d0f2 063e
00000030: 3418 b43d 327b 903d f1c6 cdbd b2fc 5cbe
00000040: ce81 2f3c a2b5 d1bd e825 7f3d f8dd bdbc
00000050: 31aa be3d 803a 2ebe 1454 cc3d e166 9bbe
00000060: da2d 5dbe 4c11 a93d 107b 763c e02b 22bd
00000070: a804 53be 9afd 1bbe 10bc 1ebe e134 5cbe
00000080: 9057 afbc 5343 76bd 708f ec3c 2472 ffbd
00000090: 5223 063e c3e4 f53c 44e9 13be 54e9 7ebe
000000a0: e038 e23b 907a 4cbc 7455 4abe b036 6cbd
000000b0: f64e 06be 3009 cd3c 8088 f63a 40eb 1fbe
000000c0: 9ad0 b0bd 1a8e 04be 8a4b 223e 51ed e6bd
000000d0: 50a5 023d a838 33bd fe9c 28be d0c0 c5bc
000000e0: 228a 53be 995d efbd 3815 a1bd 481c a5bc
000000f0: 63a0 7f3e 6f03 f5bc 6d18 0cbe b882 053e
00000100: 40e8 b83d 3aaf 123e aafd 1cbe 205f f5bb
00000110: b965 603c bc2f 323e 9c95 0b3e 5fc0 3bbe
00000120: 83f1 4f3d 2189 5b3e 56b3 153e e745 053e
00000130: ab35 393e e36f d0bd 9407 d53d 9ee7 15be
00000140: a7c9 c1be 9a71 c5bd 868d 4ebe 2747 b13d
00000150: e895 13be 0875 47be e48e 64be 2035 e83d
00000160: c6b7 b03d 7c1a 843d d6f7 e63c 26de 32be
00000170: 1a68 2d3e 059d 133e 504e b23d 4f82 9a3d
00000180: adc1 c0bd cbba 633e f0aa 313d e2c9 94be
00000190: f25c eebe ef16 85bd 787c c83c 4d3c 263d
000001a0: 9a90 27be 98c6 a23c 244c 2abd 11f1 14be
000001b0: 0410 0b3e c1ff 483e 71c1 35be a620 22be
000001c0: 76ba bf3d a1c5 e43d 58f3 0e3e 542f a63c
000001d0: b533 263e 8a70 5e3d a098 3ebe b7a3 a33c
000001e0: 4570 003e a45a db3c 0e1d b0bd 63a7 b9bd
000001f0: fa27 a5bd 4c24 00bd f626 45be 988b 8f3d
00000200: ab33 76bd 203a 2c3e ddc4 2a3c d641 523e
00000210: 1e99 32be 98eb 9d3d 0120 253e 2658 ffbd
00000220: 3626 84bd 8fe8 29bd 2c77 42bd 8ce8 82bd
00000230: ac44 e3bd 9acc 11be b0e5 e3bc c4d6 1ebe
00000240: 1751 5dbe fca2 39be d8d2 293d a85c 923d
00000250: a46a 03be 981c 503d a4b5 c93d c03d 6e3b
00000260: a080 41bd fef9 1d3e b8bc 6b3d fa1e d3bd
00000270: 9c64 db3d b0a5 dabc e056 233d acd8 f73d
00000280: 1a48 0ebe 74db 113e 1a0b d2bd f8eb 2a3e
00000290: 926b 81bd aaed 14be 9064 44be 2af1 2e3e
000002a0: d00b 07be 96d3 50be 22ed 043e a847 cd3d
000002b0: d8b2 fcbd 0048 653a 40c6 f23d 6489 c93d
000002c0: 10bb 6abc 7f74 41be c05c 623d a889 663d
000002d0: 6444 80be 01a2 51be 856f 62be 4fb4 bebd
000002e0: da0d 2f3e 2cf0 953d c45a 3c3e 2890 533d
000002f0: be08 1ebe 3044 e23d c0c4 52be a295 143e
00000300: 5c4e 4e3e 801b 43be 6a24 583e 3660 abbd
00000310: c58a aabd c257 af3d 12cc 04be 2b4c 453e
00000320: 305e 2a3d f808 57bd 9484 1abd b63b 0fbe
00000330: 6060 d6bc a849 eabc 2133 d9bd 0afa 223e
00000340: 50c7 8a3d 10dc 01bd a00b b8bc a81d 8e3c
00000350: e0cc 39bd 18e0 88bd 0073 6bbb bccd 39be
00000360: 60a5 d53d 2c38 17bd f27b afbd 448e b43d
00000370: b126 213d e143 11bd ec01 e43d ee8e c8bd
00000380: 3507 f9bd d0de 2dbc 38ba 51be 2427 3b3e
00000390: 5dc6 aebd dff4 ff3d fa47 d3bd 6cb4 51be
000003a0: 8d07 10bc fd3b 33be d8cb 28bd 5c7c 213e
000003b0: 7e29 a3be 459b 9fbd 9177 dabd 5db4 8a3c
000003c0: fdf7 0cbe 306f 24be 8cf6 963d dead 8bbe
000003d0: 082a f2bc 5c73 12be 80ea 36bc 914f 00be
000003e0: 7296 273d ca4d 9ebd 0050 8bbe ee6a 5bbe
000003f0: b4e6 263e 9a9d 9abe 4ba3 febd d4bd d53d

bias f4 [20]
-0.19783129 -0.2758835 0.12521335 -0.049182944 0.1605719 -0.07654147 0.13250312 0.094578445
0.089375526 0.054742385 0.059707403 0.06986783 -0.06607878 -0.3482151 -0.081819616 -0.15605982
0.10169447 -0.1969441 -0.115761064 0.31377244
00000000: 4994 4abe 9a40 8dbe ee37 003e 0e74 49bd
00000010: f66c 243e c6c1 9cbd e6ae 073e 58b2 c13d
00000020: 840a b73d 8d39 603d c08f 743d dd16 8f3d
00000030: 5054 87bd 4049 b2be 0b91 a7bd 25ce 1fbe
00000040: 3145 d03d b7ab 49be 2314 edbd c8a6 a03e

weight f4 [1, 20]
0.08289521 0.00669353 0.06491122 -0.16000152 0.09984716 0.18037136 -0.08508224 0.20009935
0.15674376 -0.0027760044 -0.13496605 -0.0011796014 0.047557537 0.17971887 0.01282928 0.01796157
-0.16084522 0.047518097 -0.033641107 -0.0507076
00000000: f7c4 a93d 6655 db3b 2cf0 843d 70d7 23be
00000010: ab7c cc3d 45b3 383e 993f aebd d8e6 4c3e
00000020: 7081 203e a0ed 35bb 8a34 0abe db9c 9aba
00000030: b1cb 423d 3908 383e e731 523c 2424 933c
00000040: 9cb4 24be 56a2 423d 42cb 09bd c6b2 4fbd

weight f4 [20, 4]
0.6736875 -0.4704461 0.5753421 -0.24846078 -0.36085588 -0.21113902 -0.14027482 0.4677205
-0.48405504 -0.44498545 -0.23014891 0.4912427 -0.29925108 -0.18147105 -0.22495705 -0.025658011
0.096022666 -0.32569468 -0.1523425 0.047383487 -0.13190457 0.6256856 0.12502714 0.39958373
0.26334336 0.4765714 0.17767158 -0.23844624 0.6661393 -0.54895556 0.67540294 0.25013703
0.1283644 0.46190304 -0.08235008 0.62767434 0.20359863 0.12274312 0.109310694 0.22927609
0.05849384 0.5649348 -0.12042256 0.49895102 -0.19215119 -0.0047126412 -0.23717904 0.35167742
0.6177006 0.38868237 0.21634856 0.035437148 -0.48797864 -0.012255073 -0.18978965 -0.011123359
-0.45832914 -0.19201571 -0.39775002 -0.25603718 0.1194433 -0.025724953 -0.60046685 -0.5830227
-0.7311165 0.4192822 -0.0681318 0.06940818 -0.4938832 0.26815125 -0.08356732 0.05289545
0.83460355 -0.13143694 0.4332223 -0.020001313 0.22039011 0.5636881 -0.37041914 0.85017914
00000000: c976 2c3f 50de f0be 9f49 133f 816c 7ebe
00000010: 1ac2 b8be d434 58be 34a4 0fbe 1079 ef3e
00000020: 10d6 f7be 22d5 e3be 28ac 6bbe 2a84 fb3e
00000030: 7037 99be 8cd3 39be 245b 66be c030 d2bc
00000040: 88a7 c43d 74c1 a6be acff 1bbe 3015 423d
00000050: fe11 07be ee2c 203f 1d07 003e 3d96 cc3e
00000060: f1d4 863e 2b01 f43e 8aef 353e 402b 74be
00000070: 1b88 2a3f 5a88 0cbf 35e7 2c3f f611 803e
00000080: f571 033e 8e7e ec3e 29a7 a8bd 44af 203f
00000090: 297c 503e bf60 fb3d 49de df3d 5ac7 6a3e
000000a0: 3d97 6f3d 919f 103f 1aa0 f6bd 8276 ff3e
000000b0: 48c3 44be 806c 9abb 10df 72be 100f b43e
000000c0: a021 1e3f 6001 c73e 7a8a 5d3e 8b26 113d
000000d0: 56d8 f9be 80c9 48bc 3858 42be c03e 36bc
000000e0: 1eaa eabe c49f 44be e4a5 cbbe 4e17 83be
000000f0: b09e f43d 23bd d2bc 32b8 19bf fa40 15bf
00000100: 732a 3bbf 28ac d63e af88 8bbd e025 8e3d
00000110: 42de fcbe 1f4b 893e 5825 abbd e6a8 583d
00000120: 94a8 553f 6897 06be 50cf dd3e cbd9 a3bc
00000130: f2ad 613e dd4d 103f 94a7 bdbe 57a5 593f

bias f4 [20]
0.09062869 -0.4703774 0.48893744 -0.34277397 0.34605843 0.5173838 -0.052960306 -0.22181077
0.19290091 -0.39883792 0.009817598 0.41979378 0.14773256 0.46201122 -0.04896438 -0.1990628
0.038509294 0.66638494 -0.12239279 0.4601558
00000000: 899b b93d 4ed5 f0be 0256 fa3e 1280 afbe
00000010: 922e b13e 4473 043f e8ec 58bd 5d22 63be
00000020: d187 453e 7c34 ccbe fed9 203c 36ef d63e
00000030: 3447 173e bc8c ec3e e08e 48bd 1ed7 4bbe
00000040: ecbb 1d3d 3498 2a3f 12a9 fabd 8b99 eb3e

weight f4 [20, 20]
-0.08090685 0.21428525 0.039877683 0.084793836 -0.062415972 0.08849437 -0.21436606 0.2136889
-0.033267118 -0.11718139 -0.18591101 0.13299155 0.04568144 -0.16245636 -0.13401031 -0.22665784
-0.02629078 -0.043238174 -0.067996815 -0.28392896 -0.15011255 0.17815655 -0.14303112 -0.21930899
-0.14335442 -0.09089593 0.021475928 0.17389488 -0.15897644 -0.04491196 -0.03831653 0.1694515
-0.23509042 -0.019368201 -0.18782783 -0.20677486 -0.17221463 0.122045346 0.046408188 0.11100976
-0.2172134 -0.05704522 -0.19200292 0.12336415 0.13720769 0.27436787 0.2804396 -0.4936256
0.17607959 -0.009182817 0.27209336 -0.17319208 0.22854711 -0.12153364 0.05064395 0.0012692153
0.22730361 0.42766494 0.29167482 0.33219078 -0.082752615 -0.09480359 -0.023535728 0.13211557
-0.20683098 -0.10736703 -0.12412676 -0.029973194 -0.17814642 0.16997446 0.14431179 0.009723097
0.00042428877 -0.14292343 -0.09486228 -0.12573242 -0.21952026 0.16272324 0.06495089 -0.2604575
-0.38349724 -0.028113663 -0.16328833 0.20818067 -0.03795752 0.29125807 0.18422134 -0.7469592
0.32831085 0.08499299 -0.04586845 0.05837047 0.062115677 0.06552565 -0.010014206 -0.0702265
0.12410581 -0.033047643 0.053525772 0.20583902 -0.43544146 -0.19556358 0.1330125 0.12103501
-0.1949139 0.23115851 0.3765679 -0.5358086 0.3427519 -0.06879159 0.24274996 0.1536285
0.046162147 0.0781084 0.06846762 -0.022056807 0.37026045 0.17803732 -0.11343904 0.3961645
-0.3942329 -0.01212883 -0.1276042 -0.012212798 -0.111444846 0.006968734 0.15620624 -0.91106296
0.27421874 0.18648838 0.3194071 0.19565034 0.31963894 -0.12565775 -0.17136315 -0.061482564
0.24280734 0.10806878 0.038354043 0.2254412 -0.24638663 -0.20425498 0.07738346 0.034741372
0.07297003 0.36621863 0.22992244 -0.7350639 0.15809305 0.2723731 0.20603026 -0.073752105
0.33391294 -0.026569024 -0.10055757 -0.021366024 0.22593366 0.20945254 0.037472323 0.35166115
0.7643307 -0.007070482 -0.2203473 0.1801666 -0.0008943081 0.1792572 -0.1495852 0.99791443
-0.07527096 0.24811892 -0.2903379 0.12030205 0.035521213 -0.051009864 0.017649904 0.17052212
-0.00960245 -0.33000726 0.4215174 -0.9068455 -0.3237112 0.03871566 0.036854655 0.043913066
-0.0068380386 0.39399198 0.41285372 -0.75099975 0.16957293 0.11045357 0.08946227 -0.15185075
0.19306654 -0.13168904 0.062126875 0.3139981 -0.003418746 0.2688831 0.06212424 0.35943076
0.16827194 0.080515414 -0.209464 0.13493133 0.098171085 0.11852163 -0.21410127 -0.0520186
-0.2635356 -0.123562925 -0.09383669 -0.1575709 0.08747507 0.0446001 -0.19486402 0.09430513
-0.17947714 -0.18602122 -0.15137297 -0.12656826 -0.4042345 0.08233777 -0.15489846 -0.0933025
-0.04946828 0.37045157 -0.01788285 -0.6735038 0.15212478 0.00722568 0.2377704 -0.07737404
0.14843343 0.070043355 0.17732859 0.3747409 0.41237798 0.3326293 0.055438153 0.29578316
-0.54588467 0.18940783 -0.02197522 -0.09406154 -0.14343195 0.2481309 -0.027922362 -0.8494388
0.35847908 0.12627985 0.30520326 -0.20143937 0.39351618 0.18007734 0.044017076 -0.008630258
00000000: 7eb2 a5bd 986d 5b3e c856 233d 64a8 ad3d
00000010: e4a7 7fbd 893c b53d c782 5bbe 43d1 5a3e
00000020: 1a43 08bd ccfc efbd 755f 3ebe f02e 083e
00000030: 761c 3b3d f65a 26be 003a 09be fe18 68be
00000040: c35f d7bc 831a 31bd ea41 8bbd 235f 91be
00000050: 1bb7 19be ac6e 363e c076 12be 8992 60be
00000060: 80cb 12be a527 babd 49ee af3c 8011 323e
00000070: b8ca 22be 9af5 37bd cbf1 1cbd b284 2d3e
00000080: 8bbb 70be 10aa 9ebc f055 40be cabc 53be
00000090: 0859 30be e9f2 f93d 8316 3e3d 1659 e33d
000000a0: 316d 5ebe 40a8 69bd 6a9c 44be 58a6 fc3d
000000b0: 2c80 0c3e f279 8c3e c795 8f3e 7fbc fcbe
000000c0: 354e 343e 8773 16bc d24f 8b3e 4459 31be
000000d0: 4108 6a3e a1e6 f8bd 0870 4f3d cc5b a63a
000000e0: 47c2 683e e6f6 da3e 6756 953e e914 aa3e
000000f0: 347a a9bd 6228 c2bd 00ce c0bc 4e49 073e
00000100: 80cb 53be 3fe3 dbbd 2c36 febd 588a f5bc
00000110: 046c 36be c90d 2e3e 78c6 133e a04d 1f3c
00000120: 1373 de39 855a 12be 2847 c2bd 00c0 00be
00000130: ebc9 60be eca0 263e f904 853d af5a 85be
00000140: c059 c4be a04e e6bc 0e35 27be 502d 553e
00000150: 5879 1bbd c71f 953e 85a4 3c3e b838 3fbf
00000160: 5c18 a83e ce10 ae3d 8ee0 3bbd e015 6f3d
00000170: 026d 7e3d 5032 863d a012 24bc e9d2 8fbd
00000180: 302b fe3d f75c 07bd d73d 5b3d 77c7 523e
00000190: 2ff2 debe d241 48be 6e34 083e 34e1 f73d
000001a0: 8297 47be d1b4 6c3e 82cd c03e c12a 09bf
000001b0: 2d7d af3e 9be2 8cbd 7293 783e ca50 1d3e
000001c0: 8514 3d3d 4cf7 9f3d c038 8c3d 7ab0 b4bc
000001d0: c792 bd3e 6a4f 363e ba52 e8bd 13d6 ca3e
000001e0: e5d8 c9be 00b8 46bc adaa 02be 3018 48bc
000001f0: 323d e4bd fa59 e43b 87f4 1f3e 6c3b 69bf
00000200: 6666 8c3e cff6 3e3e 5489 a33e 9058 483e
00000210: b7a7 a33e 6dac 00be d279 2fbe 24d5 7bbd
00000220: 7da2 783e 2a53 dd3d 2119 1d3d 0fda 663e
00000230: c74c 7cbe 3828 51be 387b 9e3d f84c 0e3d
00000240: 5071 953d 0281 bb3e ca70 6b3e 262d 3cbf
00000250: 25e3 213e 7d74 8b3e 99f9 523e 580b 97bd
00000260: a3f6 aa3e 48a7 d9bc 21f1 cdbd cd07 afbc
00000270: 275b 673e ba7a 563e 947c 193d ee0c b43e
00000280: 2dab 433f 80af e7bb b9a2 61be 987d 383e
00000290: 0070 6aba 338f 373e dd2c 19be 5277 7f3f
000002a0: a927 9abd e312 7e3e 2ba7 94be ec60 f63d
000002b0: b17e 113d b8ef 50bd 8896 903c 5a9d 2e3e
000002c0: 9853 1dbc b6f6 a8be 21d1 d73e 0727 68bf
000002d0: 79bd a5be 5094 1e3d e8f4 163d 30de 333d
000002e0: a011 e0bb 51b9 c93e 9061 d33e 8541 40bf
000002f0: 87a4 2d3e 7b35 e23d ff37 b73d c37e 1bbe
00000300: 3cb3 453e 7ed9 06be c078 7e3d 5cc4 a03e
00000310: 0a0d 60bb 0cab 893e fd75 7e3d 4f07 b83e
00000320: 7b4f 2c3e 44e5 a43d bb7d 56be 702b 0a3e
00000330: ec0d c93d 78bb f23d 5d3d 5bbe 7511 55bd
00000340: 23ee 86be 8f0e fdbd 732d c0bd 445a 21be
00000350: 2126 b33d 98ae 363d 6f8a 47be 0c23 c13d
00000360: dbc8 37be 597c 3ebe 8401 1bbe 1c9b 01be
00000370: d3f7 cebe b4a0 a83d b49d 1ebe 6215 bfbd
00000380: 409f 4abd d4ab bd3e 0e7f 92bc bf6a 2cbf
00000390: 99c6 1b3e 66c5 ec3b 157a 733e 4876 9ebd
000003a0: effe 173e e472 8f3d a095 353e 0ade bf3e
000003b0: 3523 d33e 634e aa3e 1e13 633d e470 973e
000003c0: 19bf 0bbf 20f4 413e 6005 b4bc 56a3 c0bd
000003d0: d3df 12be 0716 7e3e 70bd e4bc d274 59bf
000003e0: 928a b73e 814f 013e 9a43 9c3e 1f46 4ebe
000003f0: f47a c93e 3266 383e 404b 343d ed65 0dbc

bias f4 [20]
-0.018076403 -0.25083166 0.33340973 -0.272415 0.07346871 0.37833682 0.24906835 0.13244765
0.014707826 0.37768123 -0.09840778 0.22008069 0.41900733 -0.17469542 -0.22456871 -0.104749456
-0.015146521 -0.12660421 -0.065881856 0.032839783
00000000: f714 94bc 026d 80be aeb4 aa3e fb79 8bbe
00000010: c376 963d 5db5 c13e c60b 7f3e 5ba0 073e
00000020: 18f9 703c 6f5f c13e 058a c9bd d55c 613e
00000030: 2188 d63e 5be3 32be 57f5 65be e286 d6bd
00000040: 1d29 78bc 89a4 01be 11ed 86bd 0283 063d

weight f4 [1, 20]
0.07253961 -0.18417794 0.29491067 -0.11748557 0.21756893 0.28886923 0.24754435 0.25878614
-0.9751517 0.38024038 0.11844113 0.2640622 0.28277105 -0.00013566804 -0.94870996 -0.95752233
-0.10406441 0.021034602 -0.037271526 0.19112426
00000000: a68f 943d 2499 3cbe 88fe 963e 469c f0bd
00000010: 64ca 5e3e abe6 933e 447c 7d3e 9e7f 843e
00000020: 8ba3 79bf deae c23e 4391 f23d 2933 873e
00000030: 5ec7 903e 1d42 0eb9 a8de 72bf 2f20 75bf
00000040: b91f d5bd c250 ac3c 07aa 18bd 14b6 433e

weight f4 [20, 4]
0.40698022 0.008864188 -0.17795336 0.34217054 0.41893527 -0.022733044 -0.5474686 -0.26540193
-0.583493 0.30025762 0.06322834 0.3512458 0.45555133 -0.43790773 0.47782874 0.30785158
0.069541 0.23888336 -0.5856301 0.07985849 -0.023951977 0.20386505 -0.55924237 -0.046481833
-0.26206058 0.14370032 0.38385296 -0.06501315 0.5944984 0.09145535 0.07788484 -0.22328632
-0.6261709 0.33925214 -0.11189303 -0.30570543 -0.16901809 -0.24669772 -0.39646488 -0.42322356
-0.49688226 -0.22070807 -0.42725664 0.4451741 -0.63408214 0.25177604 -0.14663766 0.11218247
-0.48801684 -0.19532944 0.091491066 -0.039486498 0.21529597 -0.18800837 -0.2358113 -0.27413058
0.47724193 -0.35567224 0.41200992 -0.32589233 -0.056218304 -0.114304475 0.34737864 0.07584296
-0.4899806 -0.025939927 -0.21609643 0.30883697 0.33389613 0.44784528 -0.33064798 0.089064546
-0.3984331 0.33345088 0.12053503 -0.37038013 -0.07843719 -0.1278216 0.09118367 -0.54380417
00000000: b65f d03e 193b 113c 6839 36be fa30 af3e
00000010: af7e d63e a63a babc e726 0cbf c3e2 87be
00000020: cc5f 15bf 5ebb 993e dc7d 813d 7dd6 b33e
00000030: 063e e93e 7135 e0be f8a5 f43e b99e 9d3e
00000040: 836b 8e3d d79d 743e dbeb 15bf d98c a33d
00000050: f036 c4bc 00c2 503e 822a 0fbf bc63 3ebd
00000060: ce2c 86be 2d26 133e 6088 c43e 9d25 85bd
00000070: 0c31 183f f14c bb3d 1682 9f3d 2ba5 64be
00000080: bc4c 20bf 75b2 ad3e 2c28 e5bd 6c85 9cbe
00000090: 1413 2dbe 549e 7cbe 72fd cabe c2b0 d8be
000000a0: 5a67 febe 4c01 62be 62c1 dabe dced e33e
000000b0: 3553 22bf cae8 803e 2f28 16be ecbf e53d
000000c0: 58dd f9be 7104 48be ab5f bb3d 98bc 21bd
000000d0: 8c76 5c3e 4485 40be 8478 71be d85a 8cbe
000000e0: 0e59 f43e ac1a b6be f7f2 d23e 5cdb a6be
000000f0: 2a45 66bd 7718 eabd 9ddb b13e 8e53 9b3d
00000100: bdde fabe f87f d4bc 6248 5dbe e11f 9e3e
00000110: 6ff4 aa3e fa4b e53e b14a a9be 7967 b63d
00000120: 6cff cbbe 13ba aa3e 12db f63d 77a2 bdbe
00000130: ada3 a0bd aae3 02be 81be ba3d c036 0bbf

bias f4 [20]
-0.59168565 -0.11378987 -0.57149696 0.34726638 -0.40646145 0.37230998 -0.116424926 -0.65527064
-0.43312564 0.2908818 0.47431058 -0.0900475 0.33427134 0.013094306 0.11482976 0.032692645
-0.097723775 0.09892119 0.3386002 0.14758164
00000000: b678 17bf aa0a e9bd a04d 12bf e6cc b13e
00000010: b71b d0be 6a9f be3e 3170 eebd d1bf 27bf
00000020: a5c2 ddbe 76ee 943e d6d8 f23e d36a b8bd
00000030: 9d25 ab3e 8089 563c dd2b eb3d b9e8 053d
00000040: 6723 c8bd 3197 ca3d 015d ad3e a41f 173e

weight f4 [20, 20]
-0.09127307 -0.10366359 -0.019760786 0.18719178 -0.047770835 0.119926 -0.13068564 -0.019000376
0.094901375 0.1393173 0.018540457 -0.08421848 -0.05095114 -0.19013186 -0.14717808 -0.19643807
-0.20123105 -0.15935227 -0.04477327 0.15741213 0.21950814 -0.21171136 -0.16727138 0.013214022
-0.064499706 -0.1763908 -0.048936218 -0.1871166 -0.18881789 0.11890951 0.18759304 -0.18222687
0.14486486 -0.024519682 -0.19895034 0.15363282 -0.02563849 0.0027602315 -0.12645906 0.0731847
0.025470138 0.2181966 -0.1920185 0.104880184 -0.16736841 0.21936053 -0.09959345 -0.17144725
-0.22353442 0.10483143 0.12737086 0.035330474 0.0818983 0.112805754 0.22133964 -0.11635321
-0.1318742 0.16534692 0.05756557 0.12131569 -0.04968965 -0.07005575 -0.096667364 -0.12734185
-0.20160268 0.073612675 -0.1866179 0.12433931 -0.124108456 0.090651006 0.054930806 0.005283076
0.00015982985 0.066413045 -0.04413739 -0.0015329272 -0.24907699 0.1610856 -0.2559293 0.077851236
0.051688105 -0.13207585 -0.17860997 -0.19730023 0.1355308 0.2039206 -0.035369024 0.1605969
-0.025319427 0.027545094 0.20829576 0.040601254 0.20896682 0.18225029 -0.0052203983 -0.06423943
-0.10809896 -0.094345585 -0.13441226 0.17482781 -0.14382027 0.0052859187 -0.05909896 0.19189554
0.07807422 0.014951944 -0.15341118 0.044973075 -0.115848444 -0.112432346 -0.19225714 0.041488856
-0.11175805 0.13392156 -0.04327193 0.0031558275 -0.020144984 -0.121164136 -0.07283439 -0.12717898
0.029047308 -0.14839578 -0.0809302 -0.2078976 -0.073410094 -0.09546227 0.10674546 0.10271471
-0.06558955 0.16461495 -0.05074358 0.046187174 0.07035795 -0.07374686 -0.06312477 -0.23428105
0.012459917 -0.24925557 -0.1408843 -0.31027076 0.12571196 -0.17856394 -0.08725065 -0.18900794
0.24164177 0.22869995 -0.13859715 -0.039811566 -0.1575982 0.13522103 0.09523669 -0.013417689
0.13545159 0.13327038 0.04694105 -0.34798822 -0.022227237 0.15163556 -0.21086562 0.07054599
-0.13805698 0.21736223 -0.09658626 0.044076294 -0.18756944 0.19291827 -0.1637543 -0.07289073
-0.1784832 0.0828509 0.15303203 -0.011328238 -0.045239855 0.025621459 0.15825449 -0.005863071
-0.21737345 0.0517145 -0.14983372 0.08450833 -0.109926574 0.013321102 -0.15679362 0.008471042
0.05096221 0.0069149733 -0.10374982 0.017415136 -0.009733364 0.051895916 0.09738633 -0.1121294
0.038867295 -0.18713687 -0.17490458 -0.078216344 -0.09243938 -0.10107822 0.03214717 0.14141092
0.18280008 0.1678715 0.063066125 -0.0070495605 -0.0067245364 -0.005542636 -0.04732214 -0.1835663
-0.0016814321 -0.19520868 -0.1684862 -0.09385079 0.044077218 -0.102140464 0.073797405 -0.18716374
-0.1922451 0.0013329089 0.019570947 0.054662436 0.04946345 -0.16653875 -0.24401718 -0.0779776
-0.266908 0.1474407 0.11878524 -0.07172987 0.066318125 -0.20682561 0.106443524 -0.25566643
0.13257687 -0.12726653 -0.10313898 0.010590356 -0.30833656 -0.28937596 -0.0032783956 -0.22506648
-0.011194993 0.036339194 -0.04811395 -0.05729473 0.09705736 0.0964017 -0.14457823 -0.087836295
-0.26158473 0.2135857 -0.19741397 -0.14220718 0.15154144 0.15386412 0.058711503 -0.018998876
00000000: 60ed babd 944d d4bd 5fe1 a1bc 34af 3f3e
00000010: 5aab 43bd c39b f53d 75d2 05be ada6 9bbc
00000020: a75b c23d 32a9 0e3e 28e2 973c bd7a acbd
00000030: 24b2 50bd edb1 42be dab5 16be 1027 49be
00000040: 830f 4ebe 3e2d 23be 2d64 37bd a530 213e
00000050: bec6 603e ddca 58be 3049 2bbe a07f 583c
00000060: 6c18 84bd ca9f 34be 5871 48bd 7e9b 3fbe
00000070: 7a59 41be d486 f33d 6418 403e ae99 3abe
00000080: 7457 143e 80dd c8bc a3b9 4bbe ec51 1d3e
00000090: d007 d2bc 00e5 343b 7c7e 01be dce1 953d
000000a0: c0a6 d03c ee6e 5f3e 7fa0 44be 6ccb d63d
000000b0: a062 2bbe 0ca0 603e a7f7 cbbd de8f 2fbe
000000c0: 35e6 64be dcb1 d63d 826d 023e b0b6 103d
000000d0: 4cba a73d b406 e73d dca6 623e 974a eebd
000000e0: 080a 07be b450 293e e0c9 6b3d 5c74 f83d
000000f0: 6087 4bbd 6479 8fbd 8af9 c5bd e765 02be
00000100: ef70 4ebe 3ec2 963d c318 3fbe 9ca5 fe3d
00000110: 932c febd 3ca7 b93d 20ff 603d a71d ad3b
00000120: 0098 2739 9003 883d 68c9 34bd 80ec c8ba
00000130: 0a0e 7fbe a0f3 243e 2a09 83be 7870 9f3d
00000140: e8b6 533d e43e 07be 88e5 36be 1209 4abe
00000150: 96c8 0a3e 90d0 503e 1cdf 10bd 8473 243e
00000160: b06a cfbc 40a6 e13c 7c4b 553e 804d 263d
00000170: 66fb 553e d29f 3a3e e00f abbb f68f 83bd
00000180: fd62 ddbd 4238 c1bd 5ea3 09be 1006 333e
00000190: 9f45 13be 8035 ad3b c011 72bd 4480 443e
000001a0: 60e5 9f3d 00f9 743c d217 1dbe b035 383d
000001b0: f341 edbd ee42 e6bd 0edf 44be 38f0 293d
000001c0: 68e1 e4bd bc22 093e e83d 31bd 00d2 4e3b
000001d0: 1807 a5bc e724 f8bd 322a 95bd 353b 02be
000001e0: 9ff4 ed3c 10f5 17be bcbe a5bd 1ce3 54be
000001f0: 0858 96bd b981 c3bd 5d9d da3d 175c d23d
00000200: d053 86bd d290 283e 80d8 4fbd c32e 3d3d
00000210: d417 903d 9808 97bd 8f47 81bd 5fe7 6fbe
00000220: ae24 4c3c da3c 7fbe f943 10be cfdb 9ebe
00000230: a3ba 003e 77d9 36be 78b0 b2bd 4c8b 41be
00000240: f170 773e 5230 6a3e 69ec 0dbe 7411 23bd
00000250: 6c61 21be 6277 0a3e 740b c33d ded5 5bbc
00000260: d2b3 0a3e 0878 083e 4245 403d 832b b2be
00000270: e515 b6bc 5a46 1b3e 28ed 57be 6a7a 903d
00000280: cf5e 0dbe 3494 5e3e 04cf c5bd 5889 343d
00000290: 3412 40be 5e8c 453e 35af 27be bc47 95bd
000002a0: 4dc4 36be bcad a93d 6eb4 1c3e 139a 39bc
000002b0: 6d4d 39bd 18e4 d13c 770d 223e 011f c0bb
000002c0: 2597 5ebe 95d2 533d 036e 19be b412 ad3d
000002d0: 2f21 e1bd c040 5a3c 828e 20be 20ca 0a3c
000002e0: c0bd 503d 0097 e23b c97a d4bd 30aa 8e3c
000002f0: b078 1fbc d090 543d 7c72 c73d 19a4 e5bd
00000300: 5033 1f3d cfa0 3fbe 301a 33be e42f a0bd
00000310: dc50 bdbd 1902 cfbd c0ac 033d 06ce 103e
00000320: f22f 3b3e 82e6 2b3e d028 813d 0000 e7bb
00000330: 8059 dcbb 009f b5bb dcd4 41bd cef8 3bbe
00000340: 8063 dcba c9e4 47be a587 2cbe d834 c0bd
00000350: 508a 343d 052f d1bd 1823 973d daa7 3fbe
00000360: e6db 44be 00b5 ae3a 4053 a03c b8e5 5f3d
00000370: 309a 4a3d 2289 2abe a4df 79be b8b2 9fbd
00000380: 2aa8 88be b2fa 163e ad45 f33d 1ce7 92bd
00000390: ccd1 873d 18ca 53be 10ff d93d b6e6 82be
000003a0: 3bc2 073e 2852 02be 883a d3bd 2c83 2d3c
000003b0: 4ade 9dbe 1629 94be 5ada 56bb d477 66be
000003c0: 346b 37bc 68d8 143d 2213 45bd e1ad 6abd
000003d0: 02c6 c63d 416e c53d 510c 14be 84e3 b3bd
000003e0: 6fee 85be 36b6 5a3e e326 4abe c29e 11be
000003f0: ae2d 1b3e 8e8e 1d3e 797b 703d 88a3 9bbc

bias f4 [20]
-0.16394627 0.024138749 0.20816258 0.013702477 -0.19852805 -0.16294926 0.0075121224 -0.19700718
0.05064829 0.20509997 0.2037634 -0.16311608 -0.06498492 0.061791945 0.109617025 -0.19741988
-0.27141145 0.0865588 0.04509716 -0.100585796
00000000: 88e1 27be a0be c53c 9228 553e 5b80 603c
00000010: f04a 4bbe 2cdc 26be 4028 f63b 40bc 49be
00000020: 9574 4f3d ba05 523e 5aa7 503e e707 27be
00000030: d016 85bd 8d19 7d3d e47e e03d 7028 4abe
00000040: 71f6 8abe bd45 b13d cdb7 383d edff cdbd

weight f4 [1, 20]
-0.03380546 -0.072712764 0.19390094 -0.087081306 -0.20325696 0.003104195 0.035387803 0.07721657
0.11273706 0.17076042 -0.12003443 -0.03498984 0.011263294 0.113841966 0.03791407 0.025474062
-0.2553293 0.035002656 0.03694196 -0.155971
00000000: 9877 0abd 6eea 94bd f88d 463e af57 b2bd
00000010: 9822 50be c06f 4b3b cdf2 103d b923 9e3d
00000020: b0e2 e63d d2db 2e3e 9cd4 f5bd 8251 0fbd
00000030: ae89 383c fa25 e93d c94b 1b3d fbae d03c
00000040: 86ba 82be f25e 0f3d 7450 173d ddb6 1fbe
