result_model/ex3_nsde.pth (torch, 22036 bytes, 20 tensors)

weight f4 [20, 4]
000000 a3 c7 2a bf 20 52 99 3d 86 cb c8 3e 6f 01 f4 be
       -0.6671087 0.07486367 0.39217776 -0.47657344
000010 11 e9 0e 3e 8c 07 93 3e 27 36 74 3e 55 ca fc be
       0.13956095 0.28716695 0.23848782 -0.49373117
000020 f0 27 7c bd 00 65 1f bb ec f3 65 be cc 6d 46 be
       -0.061561525 -0.0024321675 -0.2245633 -0.19377822
000030 71 03 12 bf 8f e9 ee 3e 25 e0 12 bf 8b 48 fa 3e
       -0.570365 0.46662566 -0.5737327 0.4888347
000040 c6 55 c7 be 9c a3 0f be e0 07 0a 3d 1c 8c 32 be
       -0.38932627 -0.14027256 0.033698916 -0.1743626
000050 52 c4 95 3e 0c 84 f5 be a8 6e 71 be 14 06 08 3e
       0.29251343 -0.47952306 -0.23577368 0.13283569
000060 f2 44 af 3d f0 40 21 3e e5 97 4a be 50 e0 9b 3e
       0.08558072 0.15747428 -0.19784506 0.30444574
000070 a0 b5 5e bd 7b c9 40 3e ac 85 4f 3d e1 ea ec be
       -0.05437243 0.18826859 0.05066459 -0.46272948
000080 1d 33 a1 3d 97 0e e9 3e 57 a5 1d 3e c3 79 c2 be
       0.07871077 0.45518944 0.15395103 -0.37983522
000090 70 a2 8b 3e 10 e5 3a be 80 b9 94 bd 1c c1 0c be
       0.27272367 -0.18251443 -0.07261944 -0.1374554
0000a0 b0 f1 35 be 38 c0 3f 3e 6a 0b 5e be f2 bb 6b be
       -0.17767978 0.1872567 -0.21684042 -0.23020914
0000b0 ac 00 22 3e ac e8 0c be 7c f3 5e be 36 ab a2 be
       0.15820569 -0.13760632 -0.2177257 -0.3177125
0000c0 7e 31 60 bd 33 67 c4 3e b5 d9 ea be c4 60 d4 bd
       -0.0547347 0.38359985 -0.45869222 -0.10370019
0000d0 80 e9 47 be 70 f0 0c bd 17 5f 01 3f 64 4c c6 be
       -0.19522667 -0.034408987 0.5053572 -0.38730156
0000e0 78 4a b7 be 22 9d 49 be a5 1a 91 3c 88 21 eb bd
       -0.35799003 -0.19688848 0.0177129 -0.11481005
0000f0 b2 d7 b4 be ce 9c 77 3e e1 87 c7 bc 15 3c ae be
       -0.35320812 0.2418091 -0.024356784 -0.34030214
000100 78 1c 04 be 16 52 ca 3e 6f 7c ee be d2 79 59 bd
       -0.12901485 0.39515752 -0.4657931 -0.053094693
000110 ab 33 0a 3e 08 a9 d9 3e 5c e8 aa 3e 8a 85 cc 3d
       0.13496272 0.42511773 0.333804 0.09986408
000120 5f 5c 04 bd 5d 3a ad 3e b1 c3 24 3e 1e b1 16 be
       -0.032314654 0.3383359 0.16090275 -0.14716002
000130 12 58 cb 3e 50 cf 66 be d4 c1 77 be aa 1d a6 3e
       0.3971563 -0.22540021 -0.24195033 0.32444507

bias f4 [20]
000000 97 75 d3 be c8 ed 6e 3e 4e 47 ba 3e 1b c0 bc be
       -0.4130065 0.23332894 0.36382526 -0.36865315
000010 84 96 75 3e 34 b2 a9 be 6c f2 03 bf 61 cd 0c bf
       0.23983198 -0.3314377 -0.5154178 -0.55000883
000020 c3 c1 62 bd 68 78 74 3e c3 8a 91 3e ec f0 3d be
       -0.055360567 0.23874056 0.2842618 -0.18548936
000030 67 71 a9 be 30 3d 52 3e 37 ff 21 be 9b c6 b5 be
       -0.33094332 0.20531154 -0.15820013 -0.35503086
000040 fd ff a1 3e fb 93 7c 3b 03 57 e6 be d0 07 15 be
       0.31640616 0.0038540352 -0.4498826 -0.14553761

weight f4 [20, 20]
000000 b9 5c b4 3d 8f 56 51 3d 88 e0 ce 3c 9f 53 86 be
       0.08806748 0.05110794 0.02525355 -0.26235673
000010 8c b3 09 be 91 10 d1 bd c8 1c 00 be c9 b7 b4 bd
       -0.13447398 -0.10208238 -0.12510979 -0.08824117
000020 20 00 48 be ac 79 77 bd d8 92 1d 3e cc 42 9e bd
       -0.19531298 -0.06041877 0.15388048 -0.07727584
000030 00 1d 8c 3d 0d 91 43 3d 60 ef 01 3e 9a f0 34 be
       0.06841469 0.047745753 0.1268897 -0.17669907
000040 42 2f ea 3d 8f e0 d7 bd 3a 01 10 3e d0 0a 1c 3e
       0.11434795 -0.10540878 0.14062968 0.152385
000050 58 8f 5c be 80 18 40 bd 50 6e eb 3c 20 18 22 3d
       -0.21539056 -0.046898365 0.028739125 0.03957379
000060 41 84 fe bd b0 ff fb 3c 32 ba 25 be 06 b3 a7 bd
       -0.12427569 0.03076157 -0.16184309 -0.08188443
000070 b0 0b 59 bd 38 b8 15 3e c8 89 18 be 26 7c 0c 3e
       -0.05298966 0.14621055 -0.1489631 0.13719234
000080 fe ad 64 3e 06 6b b9 bd a0 7b ae 3c 2f b2 0c be
       0.22331998 -0.09053616 0.021299183 -0.13739847
000090 e0 eb 03 3d 4d 35 56 be e8 19 c4 bc a0 d6 e3 3c
       0.03220737 -0.2091877 -0.023938134 0.027812302
0000a0 60 b8 dc 3b 8c d8 4c be 84 ae 51 3e f6 17 bb bd
       0.0067358464 -0.20004481 0.20476729 -0.091354296
0000b0 d0 97 0d 3e 96 0d 0a be 20 42 1c 3e 71 34 3b be
       0.13827443 -0.13481745 0.152596 -0.18281724
0000c0 10 c5 a4 bd 36 0c a4 bd 80 5f 23 bd 58 10 9e 3d
       -0.08045399 -0.080101416 -0.039885998 0.07717961
0000d0 1c 6d 92 3d 4a f8 1d be c2 8a 44 be b0 73 11 bc
       0.07149717 -0.15426746 -0.19193557 -0.00887768
0000e0 b4 fe 15 bd 02 7c 06 3e 30 18 13 be 58 62 05 be
       -0.036619857 0.13133243 -0.14364696 -0.13025796
0000f0 fe 2c 83 bd 94 4e d9 3d 28 59 c7 bc 7e d8 92 bd
       -0.06405066 0.10610691 -0.024334505 -0.07170199
000100 a0 a6 6b 3c 36 40 26 3e dd 91 5a be 1b 1d 62 be
       0.014382988 0.16235432 -0.21344705 -0.22081415
000110 40 2f f9 3b 3a 51 54 3e e0 87 51 3d a0 11 a3 bd
       0.0076045096 0.2073411 0.05115497 -0.07962346
000120 4c 07 d7 bd d4 6d ac bd 80 99 0e 3d d8 ca ec 3d
       -0.10499439 -0.084193856 0.034814358 0.11562127
000130 00 30 5a bc 57 cd e4 bd 88 34 c2 3d 20 a0 55 bd
       -0.013317108 -0.11171978 0.09482676 -0.05215466
000140 16 31 c1 3d 04 b5 b5 3d 6c b1 26 be b2 13 a8 3c
       0.094331905 0.088724166 -0.16278619 0.020517204
000150 70 a3 cc 3d d4 c7 87 3d e8 4f 3e be 55 70 9b 3d
       0.09992111 0.06629911 -0.1858517 0.07589785
000160 a5 f6 a2 bd 5d 61 0f be 01 95 24 3e 12 3b 88 bd
       -0.079572 -0.14001985 0.16072465 -0.06651892
000170 f0 e4 09 be b4 68 ff bd 76 56 43 3e 7b 70 0e bd
       -0.13466239 -0.124711424 0.19075951 -0.03477524
000180 43 d0 d8 bc 8c 3a c8 bd 8a fe b1 bd b0 cf 49 bc
       -0.026466494 -0.09776792 -0.086911276 -0.012317583
000190 f9 18 c1 3d 42 97 65 3e 22 12 4d 3e 46 8b 90 3c
       0.09428591 0.22420982 0.20026448 0.017644536
0001a0 35 87 47 be da d5 45 3e 01 b1 85 3e ca 87 3c 3e
       -0.19485171 0.19319859 0.26111606 0.18411174
0001b0 1e 4d b9 bd 54 94 d6 3d 58 7e 89 3e ea f8 8e bd
       -0.09047912 0.1047751 0.26854205 -0.0698107
0001c0 c9 4c 9b bd dd 3c 6c be 06 5d e2 3c 0d a2 17 3e
       -0.07583005 -0.23070092 0.027632248 0.14807911
0001d0 28 97 3c 3d b8 d2 15 be f8 e1 71 3d 90 5e f6 3c
       0.04604259 -0.14631164 0.05905339 0.030074388
0001e0 ee 2d fe bc c0 7c af 3d e8 6b 4a 3d 95 a3 4c be
       -0.03102776 0.08568716 0.049419314 -0.19984277
0001f0 bc ba 0f be 72 40 0a 3e 1f 1b c4 bd e0 7b 6b be
       -0.14036077 0.13501146 -0.095754854 -0.22996473
000200 c9 f2 60 be ce ef 2b 3e 6a 1d f5 3d e2 c7 41 3e
       -0.21967615 0.16790697 0.11968501 0.18923905
000210 04 d0 2c be 57 78 14 3d b5 9a fb bd 4d 86 2d 3e
       -0.16876227 0.036247578 -0.122853674 0.16945763
000220 28 f5 10 3d 37 45 27 be 0e f7 12 3c 1e 30 97 bd
       0.03539005 -0.16334997 0.008970035 -0.073822245
000230 58 a5 14 be fe c8 1c 3e ea 45 81 bd 8c 85 31 be
       -0.14516199 0.15311047 -0.06312163 -0.173361
000240 de e6 39 3e 50 04 1e bd 04 e1 73 bd 41 0f 2a bc
       0.18154475 -0.03857833 -0.059540763 -0.010379613
000250 1f 57 ca 3d cc 2c 01 bd 44 34 36 be 00 63 63 3d
       0.09879898 -0.031536862 -0.17793375 0.055514336
000260 89 29 2d be 37 c7 04 be aa bd 26 3e 5c 84 85 be
       -0.16910376 -0.1296662 0.16283289 -0.26077545
000270 b4 7f 03 be 8c 56 8c 3d 83 6e 66 be f8 49 45 3d
       -0.12841684 0.06852445 -0.22503094 0.048166245
000280 94 d4 9b be 10 2f c6 bd 0e 57 06 be 64 ec dc 3e
       -0.30435622 -0.09676945 -0.13119146 0.43149102
000290 aa 32 01 3e a0 cb 8a bd ad 28 9b 3d f6 b2 2c 3c
       0.12616983 -0.0677712 0.07576118 0.0105407145
0002a0 bf 63 81 3d 18 5b 83 3d 94 f6 94 3e 60 56 3e 3d
       0.06317853 0.06413859 0.29094374 0.046469092
0002b0 c6 5d 6d 3e 32 28 53 bf d9 70 58 be 11 38 c5 bc
       0.23180303 -0.8248321 -0.21136798 -0.024074586
0002c0 72 09 b1 3e ca 59 f5 bd 81 5f 6e bd b4 4a bd 3d
       0.3457752 -0.119800165 -0.05819655 0.09242764
0002d0 cc 94 1e be 3e 3c 04 be f4 17 49 3e 44 26 10 3e
       -0.15486449 -0.12913606 0.19638044 0.14077097
0002e0 d6 80 98 bd 82 b8 51 3e 9c 09 4d 3e cd 24 48 be
       -0.074464485 0.2048054 0.20023197 -0.19545288
0002f0 58 c1 62 3d 20 74 c7 3d 70 f8 30 bc 00 58 fb 3d
       0.05536017 0.09738946 -0.01080142 0.12272644
000300 6e b1 11 be 10 47 63 3c 10 3b 18 3e 10 c6 6b bc
       -0.1422784 0.013871923 0.1486628 -0.0143904835
000310 60 89 a6 3b 66 46 2e be 50 f7 ee bc da 26 92 bd
       0.0050822943 -0.17019042 -0.029170662 -0.071363166
000320 8a 37 a1 bd 4d f8 0a 3e 20 6d 9e 3d ea 70 2d 3e
       -0.07871921 0.13571282 0.07735658 0.16937605
000330 10 d4 8b 3d 06 37 45 be 7a b6 1b be 0a e2 9a bc
       0.06827557 -0.19259271 -0.15206328 -0.018906612
000340 2c f2 16 3e 28 1d ce bc 64 0b a4 3e 3c 53 3e 3e
       0.14740819 -0.025160387 0.3203994 0.18586439
000350 0f 08 ac 3e 04 99 b5 bc 49 59 ab 3c 1f 45 92 bc
       0.33599898 -0.02216769 0.020916598 -0.017855225
000360 ca d5 41 3e 83 d1 0f 3e 69 12 2d 3c 00 7a 87 39
       0.1892921 0.14044766 0.010563471 0.00025840104
000370 c8 07 5d be 48 63 45 bd 84 91 15 3e fe df 76 bd
       -0.21585 -0.048190385 0.14606291 -0.06027221
000380 28 f0 b2 3c 38 e9 3c 3e a6 ca 9d bd 11 ff da bd
       0.021843031 0.18448341 -0.07704668 -0.10693181
000390 f9 dd 89 be bc 1c 54 bd e3 9d e1 bd 64 f8 c7 3d
       -0.26927164 -0.051785216 -0.110164426 0.097641736
0003a0 ea d3 e7 bd 1d 41 1c 3d ff 4a 9d bd 54 33 8a bd
       -0.11319716 0.038148034 -0.0768032 -0.06748071
0003b0 40 97 35 3e 6d fe e9 3c a8 44 f8 3d f0 78 cf 3d
       0.17733479 0.028563702 0.1212247 0.10130489
0003c0 ec 82 f5 bd 51 55 36 be 36 f0 4f be 70 a7 87 bd
       -0.11987862 -0.17805983 -0.20306477 -0.06623733
0003d0 78 68 8c 3c 00 19 c5 bc 58 fa 34 bd 3c 48 8d bd
       0.017139658 -0.024059772 -0.04418406 -0.06898543
0003e0 1d 94 47 be ff 1d 04 be 53 79 4d be f4 e3 e3 3d
       -0.19490094 -0.12902068 -0.20065813 0.11127463
0003f0 06 3f 1b 3e 44 86 a4 bd 6c 32 d7 3d 7e 2b 1b 3e
       0.1516076 -0.08033422 0.10507664 0.1515331

bias f4 [20]
000000 32 1e 6d bc c2 c5 43 3e 7e ea 88 bd 82 a2 3b be
       -0.014472531 0.19118407 -0.06685351 -0.1832371
000010 96 1a 9f bb 6b af fe bd f3 ea ce bd 32 52 3c be
       -0.004855464 -0.12435802 -0.10103407 -0.1839073
000020 d2 a3 18 be 7b 90 5f be 9c 96 24 3c b4 01 c5 bc
       -0.14906242 -0.21832459 0.010045674 -0.024048664
000030 68 9e bb 3c 4d e0 8d 3d f9 41 7b bd 34 b5 54 bd
       0.022902682 0.069275476 -0.061342213 -0.05193062
000040 00 6b f3 3c 64 3b 4a 3a 58 c9 0e 3e 93 b9 0e 3d
       0.029714108 0.00077145384 0.13943994 0.034844946

weight f4 [1, 20]
000000 8d 45 b2 3d 51 88 d6 bd 7c ca c2 bd 6a ce 13 be
       0.08704672 -0.10475219 -0.09511277 -0.1443421
000010 3f f7 32 bd 8a 9a 7c bd 69 66 16 3d 87 f8 3c 3d
       -0.043692823 -0.061670817 0.03671876 0.04613545
000020 16 af 10 3f ae db 44 3e ad cd 74 be 69 17 ec bb
       0.5651716 0.19224426 -0.23906584 -0.007204939
000030 58 e3 5e 3d d0 ac 47 be c7 44 3b be fa 2c 08 3e
       0.05441603 -0.19499516 -0.18287955 0.13298407
000040 e7 fa 83 3d 0d 68 b0 3c c0 97 91 3d 17 b6 35 3c
       0.0644434 0.02153399 0.07109022 0.011090777

weight f4 [20, 4]
000000 c6 d2 45 3e d9 4d 62 be 8d 07 0e 3f ea af 91 be
       0.19318685 -0.22100009 0.5548027 -0.28454524
000010 76 9b 97 3d 76 83 8e 3e a4 0a 5b be 81 3b 47 3e
       0.07402699 0.27834672 -0.21390778 0.19456293
000020 38 e7 4f 3e 64 81 f6 be dc d3 65 be 28 57 8f 3e
       0.20303047 -0.48145592 -0.22444099 0.27996182
000030 f2 18 c9 be 1a 47 79 3d ab 49 0a 3e fe a8 bd be
       -0.39276844 0.060858823 0.13504665 -0.37042993
000040 70 63 51 3e 00 f5 c3 bc d8 3e e2 be f6 04 84 3e
       0.20448089 -0.023920536 -0.4418857 0.25785035
000050 50 5e 1c bd 54 db 2d be b8 91 d7 bd 10 38 81 3d
       -0.03817588 -0.16978198 -0.105258405 0.06309521
000060 04 d1 e3 3e 96 1d ff be 00 d9 95 3c 54 21 1b 3e
       0.44495404 -0.4982726 0.01829195 0.15149432
000070 08 86 fd 3d 28 32 6c be 3c 7d 78 be 4c 0a 38 be
       0.1237908 -0.23066008 -0.24266523 -0.17972678
000080 60 28 0c be 2a 39 af 3e 35 60 87 be 40 1d 05 3e
       -0.13687277 0.342233 -0.26440588 0.12999439
000090 43 d7 6a 3d 49 96 da 3e 8a f2 8e bd 1b 17 97 3d
       0.057334196 0.42692783 -0.069798544 0.07377454
0000a0 bf 8d 6b 3e c0 87 38 3e 54 ac 1e bf 7b 03 48 be
       0.2300329 0.18020535 -0.619817 -0.19532578
0000b0 e0 77 dc 3e b4 7d c3 be 6e ad b8 be f4 15 e0 3e
       0.43060207 -0.3818184 -0.36069816 0.4376675
0000c0 a5 56 b5 be fe 0d af be bb 44 77 3d ce 53 d6 bc
       -0.35417667 -0.34190363 0.06036828 -0.026163008
0000d0 f6 68 18 3e d3 d5 0b 3e 01 fd bb 3d 01 c8 a5 3e
       0.1488379 0.13655786 0.09179116 0.32379153
0000e0 7f 07 c8 be 0d 22 1c bd 95 0d d9 be f1 8b 0e bf
       -0.3906822 -0.03811841 -0.42393175 -0.55682284
0000f0 5d c6 64 3b 4d cb 8a be 06 27 22 3e 54 85 e1 be
       0.0034908273 -0.2710823 0.15835199 -0.44047034
000100 55 7d 46 bf 3c bc 5c 3e 9f 0e 43 bf c3 ea ce be
       -0.7753499 0.2155618 -0.76194185 -0.40413484
000110 ac 5e a1 be 9b 3a dd 3e 8b 72 3a be 91 7a d5 be
       -0.3151754 0.43208775 -0.18207757 -0.41695073
000120 88 78 99 3d 24 e8 bc be c0 d5 64 3c da 8f 9c be
       0.07493693 -0.3689586 0.013966978 -0.305785
000130 82 f7 81 3e 72 31 9e be fc b2 9d 3e 83 27 95 be
       0.25384146 -0.308971 0.30800617 -0.29131708

bias f4 [20]
000000 0d 10 d1 be 66 b0 fb be cc bb c5 3e fa e4 95 be
       -0.40832558 -0.4915802 0.3861984 -0.29276258
000010 bc 77 43 be b8 fc 96 3e 22 69 ba be 04 cd 97 be
       -0.19088644 0.29489684 -0.36408335 -0.29648602
000020 7e 5c 17 3e d6 48 fd 3e 3a 58 b9 bb 84 8c a0 be
       0.14781377 0.49469632 -0.0056562694 -0.31357205
000030 37 e3 c0 3e 10 f6 0c 3e cd fa 38 be e1 e2 e8 3d
       0.3767335 0.1376574 -0.18064423 0.11371399
000040 eb 44 be bd d2 f7 16 be 34 46 25 be 02 fa 22 bf
       -0.09290489 -0.14742973 -0.16140062 -0.6366273

weight f4 [20, 20]
000000 50 2f bb bc 72 4a 4d 3d 00 8d be 3d 7d 54 2d 3d
       -0.022849709 0.050119825 0.09304237 0.042316902
000010 18 99 68 3d 5e 54 4d be 4c 0b c4 3d d4 24 92 bd
       0.056786627 -0.20051715 0.09572467 -0.07135931
000020 a7 94 ed bd c9 b1 5c be da e0 dd 3d d0 f2 06 3e
       -0.11600619 -0.21552195 0.10833903 0.13178563
000030 34 18 b4 3d 32 7b 90 3d f1 c6 cd bd b2 fc 5c be
       0.08793679 0.07054748 -0.10047711 -0.2158077
000040 ce 81 2f 3c a2 b5 d1 bd e8 25 7f 3d f8 dd bd bc
       0.0107121 -0.10239722 0.06229201 -0.023177132
000050 31 aa be 3d 80 3a 2e be 14 54 cc 3d e1 66 9b be
       0.09309805 -0.17014503 0.09976974 -0.30351928
000060 da 2d 5d be 4c 11 a9 3d 10 7b 76 3c e0 2b 22 bd
       -0.21599522 0.08255252 0.015043989 -0.039592624
000070 a8 04 53 be 9a fd 1b be 10 bc 1e be e1 34 5c be
       -0.20607245 -0.1523346 -0.15501428 -0.21504547
000080 90 57 af bc 53 43 76 bd 70 8f ec 3c 24 72 ff bd
       -0.021404058 -0.0601228 0.02887699 -0.124729425
000090 52 23 06 3e c3 e4 f5 3c 44 e9 13 be 54 e9 7e be
       0.13099411 0.030016309 -0.14444453 -0.24893695
0000a0 e0 38 e2 3b 90 7a 4c bc 74 55 4a be b0 36 6c bd
       0.0069037527 -0.012480393 -0.1975916 -0.05766934
0000b0 f6 4e 06 be 30 09 cd 3c 80 88 f6 3a 40 eb 1f be
       -0.13116059 0.025028795 0.0018808991 -0.15617085
0000c0 9a d0 b0 bd 1a 8e 04 be 8a 4b 22 3e 51 ed e6 bd
       -0.086335376 -0.12944832 0.15849128 -0.11275733
0000d0 50 a5 02 3d a8 38 33 bd fe 9c 28 be d0 c0 c5 bc
       0.031895936 -0.043755203 -0.16466138 -0.024139792
0000e0 22 8a 53 be 99 5d ef bd 38 15 a1 bd 48 1c a5 bc
       -0.20658162 -0.11687774 -0.07865375 -0.020155087
0000f0 bd 0d 60 3e 71 e4 97 3c 6d 18 0c be db f4 0b 3e
       0.2188024 0.018541547 -0.13681193 0.13667624
000100 40 e8 b8 3d 3a af 12 3e aa fd 1c be 20 5f f5 bb
       0.09028673 0.14324656 -0.1533114 -0.0074881464
000110 52 52 de 3c cd 91 26 3e b1 82 80 3e 5f c0 3b be
       0.027138863 0.16266556 0.2509971 -0.18335102
000120 83 f1 4f 3d 25 f9 5b 3e 56 b3 15 3e 19 52 04 3e
       0.050767433 0.2148176 0.14619192 0.12921943
000130 d5 61 8f 3e cf 01 10 be 94 07 d5 3d b9 9d 0c be
       0.28004327 -0.1406319 0.10401836 -0.13732041
000140 2b a9 ba be 12 8b 02 be 86 8d 4e be 5a 6b b0 3c
       -0.3645719 -0.12748364 -0.20171174 0.021535564
000150 e8 95 13 be 08 75 47 be e4 8e 64 be 20 35 e8 3d
       -0.14412653 -0.19478238 -0.22320133 0.11338258
000160 f5 e6 9f 3d c8 6a ce 3c fe 60 57 bd 26 de 32 be
       0.078077234 0.025197402 -0.052582733 -0.17467555
000170 1a 68 2d 3e 3c 04 cf 3d 50 4e b2 3d 4f 82 9a 3d
       0.16934243 0.101082295 0.08706343 0.07544386
000180 ca b5 16 be 73 4a 5c 3e f0 aa 31 3d e2 c9 94 be
       -0.14717785 0.21512775 0.04337591 -0.29060274
000190 36 d3 ce be 47 f0 c8 bd 78 7c c8 3c 9b 8a 64 3c
       -0.40395516 -0.09811454 0.024473414 0.013949062
0001a0 9a 90 27 be 98 c6 a2 3c 24 4c 2a bd 11 f1 14 be
       -0.16363755 0.019870088 -0.04157652 -0.14545085
0001b0 24 d0 00 3e c2 3f 30 3e 4e 15 8b be a6 20 22 be
       0.125794 0.17211822 -0.27164692 -0.15832767
0001c0 76 ba bf 3d 65 6f be 3d 58 f3 0e 3e 54 2f a6 3c
       0.093617365 0.092985906 0.13960016 0.02028624
0001d0 24 4f c1 3d 2b 30 49 3d a0 98 3e be b7 a3 a3 3c
       0.09438923 0.049118202 -0.1861291 0.019975526
0001e0 b1 fe e8 3d a5 3d a8 3d 0e 1d b0 bd 3b 02 8d bd
       0.113767035 0.08214883 -0.08599292 -0.06885191
0001f0 fa 27 a5 bd 4c 24 00 bd f6 26 45 be 98 8b 8f 3d
       -0.080642655 -0.031284615 -0.19253144 0.07009047
000200 9d fe 07 bd 19 ce 35 3e ae 6a f6 3d d6 41 52 3e
       -0.033201803 0.17754401 0.12032066 0.20532927
000210 1e 99 32 be c8 db c1 3d 01 20 25 3e 3c 6e 00 be
       -0.17441222 0.09465748 0.1612549 -0.12542051
000220 ca 15 10 3d bb 30 7b bd 2c 77 42 bd 70 1f 3d bd
       0.03517703 -0.06132577 -0.047476932 -0.04617256
000230 ac 44 e3 bd 9a cc 11 be b0 e5 e3 bc c4 d6 1e be
       -0.110970825 -0.14238206 -0.027819484 -0.15511614
000240 17 51 5d be fc a2 39 be d8 d2 29 3d a8 5c 92 3d
       -0.21612965 -0.1812858 0.041460842 0.07146579
000250 a4 6a 03 be 98 1c 50 3d a4 b5 c9 3d c0 3d 6e 3b
       -0.12833649 0.05080852 0.09849098 0.0036352724
000260 a0 80 41 bd fe f9 1d 3e b8 bc 6b 3d fa 1e d3 bd
       -0.047241807 0.15427396 0.057553023 -0.10308643
000270 9c 64 db 3d b0 a5 da bc e0 56 23 3d ac d8 f7 3d
       0.10712549 -0.026690334 0.039877772 0.12101874
000280 1a 48 0e be 74 db 11 3e 1a 0b d2 bd f8 eb 2a 3e
       -0.13894692 0.14243871 -0.10256024 0.16691577
000290 92 6b 81 bd aa ed 14 be 90 64 44 be 2a f1 2e 3e
       -0.063193455 -0.14543787 -0.19178987 0.17084184
0002a0 d0 0b 07 be 96 d3 50 be 22 ed 04 3e a8 47 cd 3d
       -0.131881 -0.20393214 0.12981084 0.10023433
0002b0 d8 b2 fc bd 00 48 65 3a 40 c6 f2 3d 64 89 c9 3d
       -0.12338799 0.00087463856 0.118542194 0.09840658
0002c0 10 bb 6a bc 7f 74 41 be c0 5c 62 3d a8 89 66 3d
       -0.014326826 -0.18892096 0.055264235 0.056283623
0002d0 d7 64 66 be 15 a5 2f be 85 6f 62 be 26 f5 3e 3d
       -0.22499405 -0.17152818 -0.22112854 0.04662051
0002e0 da 0d 2f 3e 2c f0 95 3d c4 5a 3c 3e 28 90 53 3d
       0.17095128 0.073212 0.18394 0.05165115
0002f0 66 1f e9 bd 81 70 37 3e 46 2a 6d be a2 95 14 3e
       -0.11382942 0.1791401 -0.23160657 0.14510205
000300 5c 4e 4e 3e 22 dd af bd 6a 24 58 3e 36 60 ab bd
       0.20147079 -0.085870996 0.21107641 -0.0836796
000310 4c 49 c2 bd 50 7d 03 3e 12 cc 04 be 59 0b 80 3e
       -0.094866365 0.12840772 -0.12968472 0.25008658
000320 30 5e 2a 3d f8 08 57 bd 94 84 1a bd b6 3b 0f be
       0.04159373 -0.052498788 -0.037724093 -0.13987622
000330 60 60 d6 bc a8 49 ea bc 21 33 d9 bd 0a fa 22 3e
       -0.026169002 -0.028599575 -0.10605455 0.15915695
000340 50 c7 8a 3d 10 dc 01 bd a0 0b b8 bc a8 1d 8e 3c
       0.06776297 -0.03170401 -0.02246648 0.017348126
000350 e0 cc 39 bd 18 e0 88 bd 00 73 6b bb bc cd 39 be
       -0.0453614 -0.066833675 -0.00359267 -0.18144888
000360 60 a5 d5 3d 2c 38 17 bd f2 7b af bd 44 8e b4 3d
       0.104319334 -0.036918804 -0.085685626 0.088161975
000370 14 63 0b 3e 24 cb 2a bd ec 01 e4 3d 8f 5a 6e bc
       0.13612014 -0.041697636 0.11133179 -0.014547958
000380 35 07 f9 bd d0 de 2d bc 38 ba 51 be 24 27 3b 3e
       -0.12159578 -0.010612205 -0.20481193 0.1827665
000390 d5 68 d3 bd 64 8e 3e 3e ae b3 a4 3c 6c b4 51 be
       -0.103227295 0.18609005 0.02010521 -0.20478982
0003a0 8d 07 10 bc 27 45 cd bd d8 cb 28 bd 66 3e 21 3e
       -0.008790863 -0.100229554 -0.041210026 0.1574646
0003b0 f5 ba 3f be c0 68 98 bd 91 77 da bd f0 3e 94 3d
       -0.18723662 -0.074418545 -0.10667337 0.07238567
0003c0 fd f7 0c be d5 09 d7 bd 8c f6 96 3d b6 70 5e be
       -0.13766475 -0.10499922 0.07371244 -0.21722683
0003d0 08 2a f2 bc 5c 73 12 be 80 ea 36 bc 91 4f 00 be
       -0.029561058 -0.14301819 -0.011164308 -0.12530352
0003e0 20 a0 c5 3d fe e9 b1 bc db b3 5d be ee 6a 5b be
       0.09649682 -0.021718021 -0.2165064 -0.21427509
0003f0 b4 e6 26 3e 72 50 7c be 4b a3 fe bd d4 bd d5 3d
       0.16298944 -0.24640062 -0.124334894 0.104365975

bias f4 [20]
000000 49 94 4a be 9a 40 8d be ee 37 00 3e 1e cb 22 be
       -0.19783129 -0.2758835 0.12521335 -0.15897796
000010 a1 e8 09 3e 2f 30 98 bd b8 a3 53 3d 58 b2 c1 3d
       0.13467647 -0.07431065 0.051669806 0.094578445
000020 84 0a b7 3d 04 d6 11 3e c0 8f 74 3d 00 ec cb 3d
       0.089375526 0.14241797 0.059707403 0.09957123
000030 7d 20 2c bc 1d 3e 82 be 78 5d 9b bd fe 51 1b be
       -0.010505793 -0.25438014 -0.07586187 -0.15167996
000040 b0 e8 4d bd 07 4e 4c be 57 54 75 bd 31 dc 82 3e
       -0.050270736 -0.1995164 -0.059894886 0.25558618

weight f4 [1, 20]
000000 f7 c4 a9 3d 66 55 db 3b 2c f0 84 3d 7a ef 49 be
       0.08289521 0.00669353 0.06491122 -0.1972026
000010 70 92 de 3d b5 2d 32 3e 7a 20 1a be d8 e6 4c 3e
       0.108677745 0.17400248 -0.15051451 0.20009935
000020 70 81 20 3e 8a bf 0e 3d 8a 34 0a be a4 32 00 bd
       0.15674376 0.034850635 -0.13496605 -0.031298295
000030 f2 91 03 bc 60 ff 6f 3e c8 5a a7 3d b9 9e 93 3c
       -0.008030402 0.23437262 0.08171612 0.01802002
000040 71 76 26 be 4c 40 0c 3e ad e5 29 3d 0f 45 da bd
       -0.1625612 0.13696402 0.0414788 -0.10657703

weight f4 [20, 4]
000000 19 83 82 3e 15 8b d7 be 19 a7 01 3f e6 e5 04 be
       0.25490645 -0.420983 0.50645596 -0.12978324
000010 1a c2 b8 be d4 34 58 be 34 a4 0f be 10 79 ef 3e
       -0.36085588 -0.21113902 -0.14027482 0.4677205
000020 10 d6 f7 be 22 d5 e3 be 28 ac 6b be 2a 84 fb 3e
       -0.48405504 -0.44498545 -0.23014891 0.4912427
000030 70 37 99 be 8c d3 39 be 24 5b 66 be c0 30 d2 bc
       -0.29925108 -0.18147105 -0.22495705 -0.025658011
000040 88 a7 c4 3d 74 c1 a6 be ac ff 1b be 30 15 42 3d
       0.096022666 -0.32569468 -0.1523425 0.047383487
000050 4a 13 9a bd 10 ea 1c 3f 16 86 8f 3d cd fe b9 3e
       -0.0752321 0.6129465 0.07007997 0.3632721
000060 0e 35 bb 3e 10 9e f5 3e 95 05 17 3e b1 1e 85 be
       0.36563915 0.47972155 0.14748223 -0.25999978
000070 59 9f 86 3e 05 82 fc be f3 b6 1d 3f 75 b2 bf 3e
       0.26293448 -0.49317947 0.61607283 0.3744084
000080 96 0e b5 3e f3 36 e3 3e 72 54 bc bd 3f f8 12 3f
       0.3536269 0.4437786 -0.09195794 0.57410043
000090 4f 4b 4b 3e aa 70 38 3e ac 3c fd 3d 5b 4f 8a 3e
       0.19852947 0.18011728 0.12365088 0.27013668
0000a0 f4 31 aa 3e 6f b3 0b 3f 49 74 dd bd 90 67 e0 3e
       0.33241236 0.5457067 -0.10813195 0.43829012
0000b0 48 c3 44 be 80 6c 9a bb 10 df 72 be 10 0f b4 3e
       -0.19215119 -0.0047126412 -0.23717904 0.35167742
0000c0 3c f7 14 3f f3 75 cc 3e 0b 83 2f 3e 89 84 de 3c
       0.5818975 0.39933738 0.17139833 0.027162807
0000d0 56 d8 f9 be 80 c9 48 bc 38 58 42 be c0 3e 36 bc
       -0.48797864 -0.012255073 -0.18978965 -0.011123359
0000e0 1e aa ea be c4 9f 44 be e4 a5 cb be 4e 17 83 be
       -0.45832914 -0.19201571 -0.39775002 -0.25603718
0000f0 e3 73 3b 3e a1 29 23 3d ed a0 05 bf 88 8d 05 bf
       0.18305926 0.039834622 -0.5219868 -0.52169085
000100 ce 1e 02 bf 47 8a d2 3e 8a 13 97 bd 13 fd dc 3c
       -0.50828254 0.41121122 -0.07376774 0.026976144
000110 47 43 52 be e8 8a 77 3e 7d 77 81 bd f8 8c 7a bc
       -0.20533477 0.24174082 -0.06321619 -0.015292399
000120 6a 3d e7 3e f0 d6 e0 bd 07 56 a5 3e 43 0a 63 3d
       0.45164043 -0.10978496 0.32292196 0.05542971
000130 a1 a8 14 3f d3 e7 07 3f a0 6b 9f be b8 16 44 3f
       0.5806981 0.5308811 -0.311368 0.76597166

bias f4 [20]
000000 3d 58 56 3e 4e d5 f0 be 02 56 fa 3e 12 80 af be
       0.20932098 -0.4703774 0.48893744 -0.34277397
000010 92 2e b1 3e d4 4e f6 3e 44 9b 98 bd 86 bb c7 bd
       0.34605843 0.48107016 -0.074514896 -0.09752564
000020 ed aa 0e 3e d9 46 b7 be b0 44 50 bd 36 ef d6 3e
       0.1393239 -0.3579624 -0.050846756 0.41979378
000030 5d ce 0e 3e bc 8c ec 3e e0 8e 48 bd 5d 08 09 be
       0.13945909 0.46201122 -0.04896438 -0.13382097
000040 8d a8 80 bb 36 23 19 3f fc 76 40 bd 39 7c c0 3e
       -0.003926343 0.5981935 -0.046988472 0.37594774

weight f4 [20, 20]
000000 7e b2 a5 bd 98 6d 5b 3e c8 56 23 3d 64 a8 ad 3d
       -0.08090685 0.21428525 0.039877683 0.084793836
000010 e4 a7 7f bd 89 3c b5 3d c7 82 5b be 43 d1 5a 3e
       -0.062415972 0.08849437 -0.21436606 0.2136889
000020 1a 43 08 bd cc fc ef bd 75 5f 3e be f0 2e 08 3e
       -0.033267118 -0.11718139 -0.18591101 0.13299155
000030 76 1c 3b 3d f6 5a 26 be 00 3a 09 be fe 18 68 be
       0.04568144 -0.16245636 -0.13401031 -0.22665784
000040 c3 5f d7 bc 83 1a 31 bd ea 41 8b bd 23 5f 91 be
       -0.02629078 -0.043238174 -0.067996815 -0.28392896
000050 1b b7 19 be ac 6e 36 3e c0 76 12 be 89 92 60 be
       -0.15011255 0.17815655 -0.14303112 -0.21930899
000060 80 cb 12 be 88 76 07 bd b0 75 a2 3d 80 11 32 3e
       -0.14335442 -0.033072025 0.07932603 0.17389488
000070 b0 4a cf bd 90 85 54 3c 90 49 9f 3c b2 84 2d 3e
       -0.101216674 0.012971297 0.019444257 0.1694515
000080 d0 7a 35 be 10 aa 9e bc f0 55 40 be ca bc 53 be
       -0.1772263 -0.019368201 -0.18782783 -0.20677486
000090 c7 65 ea bd bc 14 38 3e 94 a2 e1 3d dc a8 2c 3e
       -0.11445194 0.1797666 0.110173374 0.1686129
0000a0 5c 53 f1 bc 40 a8 69 bd 6a 9c 44 be 58 a6 fc 3d
       -0.029458694 -0.05704522 -0.19200292 0.12336415
0000b0 2c 80 0c 3e 2f f4 6d 3e f6 09 78 3e d2 39 88 be
       0.13720769 0.2323768 0.2422255 -0.26606613
0000c0 ff 0b 16 3e d6 21 d7 bb f0 e6 72 3e 44 59 31 be
       0.14653014 -0.006565313 0.23720908 -0.17319208
0000d0 8e f9 45 3e a1 e6 f8 bd 08 70 4f 3d 90 79 c8 bd
       0.19333479 -0.12153364 0.05064395 -0.09788811
0000e0 1e 7f 4d 3e e0 83 d5 3e ee d3 78 3e 04 9c 9a 3e
       0.20068023 0.41702175 0.24299595 0.30197155
0000f0 34 7a a9 bd 62 28 c2 bd 00 ce c0 bc 4e 49 07 3e
       -0.082752615 -0.09480359 -0.023535728 0.13211557
000100 80 cb 53 be 3f e3 db bd 2c 36 fe bd 58 8a f5 bc
       -0.20683098 -0.10736703 -0.12412676 -0.029973194
000110 04 6c 36 be c9 0d 2e 3e 78 c6 13 3e a0 4d 1f 3c
       -0.17814642 0.16997446 0.14431179 0.009723097
000120 13 73 de 39 85 5a 12 be 28 47 c2 bd 00 c0 00 be
       0.00042428877 -0.14292343 -0.09486228 -0.12573242
000130 eb c9 60 be ec a0 26 3e f9 04 85 3d af 5a 85 be
       -0.21952026 0.16272324 0.06495089 -0.2604575
000140 b0 4b 47 be a0 4e e6 bc 0e 35 27 be 50 2d 55 3e
       -0.19462466 -0.028113663 -0.16328833 0.20818067
000150 58 79 1b bd 26 18 85 3e 08 46 20 3e 77 39 04 bf
       -0.03795752 0.25994986 0.15651715 -0.51650184
000160 bf 86 9e 3e 15 91 c6 3d 14 48 8f bd e0 15 6f 3d
       0.30962178 0.09695641 -0.0699617 0.05837047
000170 9f 01 19 3d 50 32 86 3d a0 12 24 bc 1a 66 2d be
       0.03735506 0.06552565 -0.010014206 -0.1693348
000180 a1 c7 dd 3d 53 fb 01 bd e5 cd 51 3c 05 34 40 3e
       0.10829092 -0.031733822 0.012805437 0.18769844
000190 c5 68 7a be d2 41 48 be 6e 34 08 3e 34 e1 f7 3d
       -0.24454029 -0.19556358 0.1330125 0.12103501
0001a0 82 97 47 be 0f 5d 42 3e 88 8f ad 3e 95 9e 9c be
       -0.1949139 0.18980812 0.33898568 -0.30589738
0001b0 77 ba a0 3e 8f 50 86 bd bf 8d 55 3e ca 50 1d 3e
       0.3139226 -0.06558334 0.20854853 0.1536285
0001c0 29 b7 3d 3c 4c f7 9f 3d c0 38 8c 3d ca fe f7 bd
       0.011579313 0.0781084 0.06846762 -0.12109144
0001d0 4b 50 b0 3e 68 d6 2c 3e 44 0b 25 be d9 19 bc 3e
       0.3443626 0.16878664 -0.16117579 0.3673847
0001e0 20 81 50 be 00 b8 46 bc ad aa 02 be 30 18 48 bc
       -0.20361757 -0.01212883 -0.1276042 -0.012212798
0001f0 32 3d e4 bd 9a 9d f0 bc 3a 0a fd 3d ad 1e 2e bf
       -0.111444846 -0.029372025 0.12355466 -0.6801556
000200 09 40 80 3e b2 d3 46 3e d1 9f 94 3e 90 58 48 3e
       0.25048855 0.19416693 0.2902818 0.19565034
000210 d3 75 94 3e 6d ac 00 be d2 79 2f be 98 6a 24 be
       0.28996143 -0.12565775 -0.17136315 -0.16056287
000220 64 50 63 3e 01 48 d5 3d 5e 1f c5 bb 75 da 4e 3e
       0.22198635 0.10414124 -0.006015702 0.20200522
000230 c1 b3 61 bd 38 28 51 be 38 7b 9e 3d f8 4c 0e 3d
       -0.055103067 -0.20425498 0.07738346 0.034741372
000240 50 71 95 3d fd f1 a7 3e db 24 48 3e a0 00 01 bf
       0.07297003 0.3280181 0.19545309 -0.5039158
000250 53 af 07 3e aa a6 8e 3e 94 41 33 3e 58 0b 97 bd
       0.13250475 0.2786153 0.17505485 -0.073752105
000260 bc d8 9a 3e 48 a7 d9 bc 21 f1 cd bd 26 d1 f6 bd
       0.3024348 -0.026569024 -0.10055757 -0.12051611
000270 9e 25 50 3e 79 2f 50 3e fe dc 0b bc 5c df a6 3e
       0.2032685 0.2033061 -0.008536575 0.32592285
000280 e7 7c fc 3e 80 af e7 bb b9 a2 61 be 98 7d 38 3e
       0.49314043 -0.007070482 -0.2203473 0.1801666
000290 00 70 6a ba f7 38 1c 3e 96 3e 43 be 62 cc 31 3f
       -0.0008943081 0.15256105 -0.19066843 0.6945249
0002a0 92 a5 97 bd 89 3f 46 3e 97 ba 92 be ec 60 f6 3d
       -0.07404627 0.19360174 -0.28657982 0.12030205
0002b0 af da 3c bc b8 ef 50 bd 88 96 90 3c 5a 9d 2e 3e
       -0.011526748 -0.051009864 0.017649904 0.17052212
0002c0 8d 9e 02 bc 1e 39 a7 be 1d bc a1 3e 0f ca 42 bf
       -0.007972372 -0.32660764 0.31588832 -0.76089567
0002d0 33 be 0e be 50 94 1e 3d e8 f4 16 3d 30 de 33 3d
       -0.13939743 0.03871566 0.036854655 0.043913066
0002e0 a0 11 e0 bb 16 33 b1 3e 8e d3 bc 3e f9 f9 06 bf
       -0.0068380386 0.34609288 0.36880153 -0.5272518
0002f0 92 26 09 3e 9b 36 dc 3d 40 df 46 3d c3 7e 1b be
       0.1339362 0.10752603 0.04855275 -0.15185075
000300 42 ae 1b 3e 7e d9 06 be c0 78 7e 3d 09 0b 5c 3e
       0.15203193 -0.13168904 0.062126875 0.21488585
000310 f5 ea 13 bd 13 d2 80 3e 2e 5b 18 3c d0 2d a5 3e
       -0.036112744 0.25160274 0.009299083 0.32261515
000320 7b 4f 2c 3e 44 e5 a4 3d bb 7d 56 be 70 2b 0a 3e
       0.16827194 0.080515414 -0.209464 0.13493133
000330 ec 0d c9 3d 78 bb f2 3d 5d 3d 5b be 75 11 55 bd
       0.098171085 0.11852163 -0.21410127 -0.0520186
000340 23 ee 86 be 8f 0e fd bd 73 2d c0 bd 44 5a 21 be
       -0.2635356 -0.123562925 -0.09383669 -0.1575709
000350 21 26 b3 3d 98 ae 36 3d 6f 8a 47 be 0c 23 c1 3d
       0.08747507 0.0446001 -0.19486402 0.09430513
000360 db c8 37 be 59 7c 3e be 84 01 1b be 1c 9b 01 be
       -0.17947714 -0.18602122 -0.15137297 -0.12656826
000370 3b bd 59 be b4 a0 a8 3d b4 9d 1e be 62 15 bf bd
       -0.21263592 0.08233777 -0.15489846 -0.0933025
000380 40 9f 4a bd 4d f1 a9 3e 90 cd 57 bd 1f 72 e2 be
       -0.04946828 0.3319191 -0.052686274 -0.44227692
000390 d8 33 01 3e 70 a5 54 3c 6e 5f 53 3e 48 76 9e bd
       0.12617433 0.0129788965 0.20641872 -0.07737404
0003a0 2b d7 ee 3d e4 72 8f 3d a0 95 35 3e ce 2a 8d 3e
       0.11662134 0.070043355 0.17732859 0.2757172
0003b0 0b 59 c7 3e 77 33 a7 3e e2 97 20 3c 23 56 8a 3e
       0.38935122 0.32656452 0.009801837 0.27018842
0003c0 78 11 b6 be 20 f4 41 3e 60 05 b4 bc 56 a3 c0 bd
       -0.35560203 0.18940783 -0.02197522 -0.09406154
0003d0 d3 df 12 be 95 78 54 3e ed b5 84 bd 7b 7a 1e bf
       -0.14343195 0.20749123 -0.06480012 -0.6190564
0003e0 2a 29 a9 3e b9 5c 05 3e 9a 21 8b 3e 1f 46 4e be
       0.33039218 0.13023652 0.27174073 -0.20143937
0003f0 e5 22 b8 3e 32 66 38 3e 40 4b 34 3d 2b 9d dc bd
       0.35964122 0.18007734 0.044017076 -0.10772165

bias f4 [20]
000000 f7 14 94 bc ac 68 45 be 22 a9 7c 3e fb 79 8b be
       -0.018076403 -0.1927821 0.24673894 -0.272415
000010 33 2c 1c bb 6f 99 95 3e d0 fa 2b 3e ff d0 49 3d
       -0.0023830056 0.29218623 0.16794896 0.04927158
000020 8c b6 83 3d 27 1f 92 3e 05 8a c9 bd 98 fd 0b 3e
       0.064313024 0.28539392 -0.09840778 0.13670957
000030 04 bf aa 3e 5b e3 32 be 0b 1f 11 be 14 58 12 bd
       0.33348858 -0.17469542 -0.14171998 -0.03572853
000040 1d 29 78 bc 89 a4 01 be 11 ed 86 bd b2 b1 1e bd
       -0.015146521 -0.12660421 -0.065881856 -0.038743682

weight f4 [1, 20]
000000 a6 8f 94 3d 6b 5e ec bd a5 94 85 3e 46 9c f0 bd
       0.07253961 -0.11541446 0.2608997 -0.11748557
000010 b1 a8 48 3e 0d bd 81 3e 42 0c 5f 3e dd 6e 64 3e
       0.195956 0.25339547 0.2178202 0.22307916
000020 35 c4 2e bf 10 c4 af 3e 43 91 f2 3d 3e 4e 6d 3e
       -0.6826814 0.3432927 0.11844113 0.23174378
000030 d5 e4 7b 3e 1d 42 0e b9 c7 7f 25 bf a5 1b 28 bf
       0.24599011 -0.00013566804 -0.646481 -0.6566718
000040 b9 1f d5 bd c2 50 ac 3c 07 aa 18 bd f2 ee 29 3e
       -0.10406441 0.021034602 -0.037271526 0.16595057

weight f4 [20, 4]
000000 89 fa d6 3e 8b 9d d5 3d 45 8e 07 bd 49 f0 e3 3e
       0.41988018 0.104304396 -0.033094663 0.4451926
000010 89 7e df 3e 44 85 5f 3c f4 46 07 bf bd 9c 6c be
       0.43651226 0.013642613 -0.5284264 -0.23106666
000020 ca bb ee be 18 97 d4 3e 0e 98 ba 3d ad 02 e8 3e
       -0.46627647 0.41521525 0.091110334 0.4531454
000030 53 cc 45 3e 56 13 ca be 8e f6 e9 3e 66 73 c7 3e
       0.19316225 -0.39467877 0.4569592 0.3895523
000040 3f b5 47 3e 73 be a5 3e 0e c1 e9 be 26 0d 29 3e
       0.19502734 0.32371864 -0.45655102 0.16508922
000050 98 ea a2 3d af 3c 8b 3e 05 19 ea be d9 8f bb 3c
       0.079549015 0.27194735 -0.45722213 0.02289574
000060 d5 c4 d6 be aa 50 84 3e 74 f8 d8 3e 19 3d 86 3d
       -0.41947046 0.25842792 0.42377055 0.06554622
000070 a6 20 e2 3e d6 6d 6f 3e e4 23 20 3e 83 81 84 bd
       0.44165534 0.23381743 0.15638691 -0.06470015
000080 bd f3 b6 be 77 c3 ac 3e 6b b2 96 bd a1 2e af be
       -0.35732833 0.33742878 -0.07358249 -0.34215263
000090 14 13 2d be 54 9e 7c be 72 fd ca be c2 b0 d8 be
       -0.16901809 -0.24669772 -0.39646488 -0.42322356
0000a0 5a 67 fe be 4c 01 62 be 62 c1 da be dc ed e3 3e
       -0.49688226 -0.22070807 -0.42725664 0.4451741
0000b0 37 7a e1 be 27 e6 58 3e a5 dc 31 be b5 55 4c 3d
       -0.44038555 0.21181546 -0.17369325 0.049886424
0000c0 58 dd f9 be 71 04 48 be ab 5f bb 3d 98 bc 21 bd
       -0.48801684 -0.19532944 0.091491066 -0.039486498
0000d0 8c 76 5c 3e 44 85 40 be 84 78 71 be d8 5a 8c be
       0.21529597 -0.18800837 -0.2358113 -0.27413058
0000e0 48 8b 74 3e e3 23 9e be 08 0e cf 3e 82 49 79 be
       0.23881257 -0.30886754 0.40440392 -0.24344447
0000f0 0a 81 5a be 11 c9 44 bd 1a a5 b9 3e 28 12 24 3e
       -0.21338287 -0.048043314 0.36258775 0.16022551
000100 a2 55 cb be 4d cc 49 3d a6 60 f5 bd f1 28 c4 3e
       -0.3971377 0.049267102 -0.11981325 0.38312486
000110 a8 8b fd 3e 74 3b c9 3e 1f 09 be be 35 7e 49 3b
       0.49520612 0.39303172 -0.37116334 0.0030745391
000120 b7 29 0f be 80 96 ad 3e bf 1b 03 3e f4 24 cd be
       -0.13980757 0.33903885 0.12803553 -0.40067255
000130 f9 73 05 bc 30 52 38 bd 19 b5 3a 3e 3c bc ec be
       -0.008145326 -0.045000255 0.18233146 -0.4623736

bias f4 [20]
000000 5f 0b fa be 66 2f 9f bd b4 cd f0 be 92 c4 db 3e
       -0.488368 -0.077727124 -0.4703194 0.4292341
000010 7b 4d a4 be 75 51 e2 3e fe 91 75 3c c1 75 fd be
       -0.32090363 0.44202772 0.0149884205 -0.49503902
000020 21 5f f0 be 76 ee 94 3e d6 d8 f2 3e a6 f4 1c be
       -0.46947578 0.2908818 0.47431058 -0.15327701
000030 9d 25 ab 3e 80 89 56 3c 80 52 4a 3e ab 39 f0 3d
       0.33427134 0.013094306 0.19758034 0.11729749
000040 e9 53 bb bc a3 df 6b 3c 69 d9 9d 3e 36 4e 6b 3e
       -0.02286716 0.014396581 0.30829933 0.22979054

weight f4 [20, 20]
000000 60 ed ba bd 94 4d d4 bd 5f e1 a1 bc 34 af 3f 3e
       -0.09127307 -0.10366359 -0.019760786 0.18719178
000010 5a ab 43 bd c3 9b f5 3d 75 d2 05 be ad a6 9b bc
       -0.047770835 0.119926 -0.13068564 -0.019000376
000020 a7 5b c2 3d 32 a9 0e 3e 28 e2 97 3c bd 7a ac bd
       0.094901375 0.1393173 0.018540457 -0.08421848
000030 24 b2 50 bd ed b1 42 be da b5 16 be 10 27 49 be
       -0.05095114 -0.19013186 -0.14717808 -0.19643807
000040 83 0f 4e be 3e 2d 23 be 2d 64 37 bd a5 30 21 3e
       -0.20123105 -0.15935227 -0.04477327 0.15741213
000050 be c6 60 3e dd ca 58 be 30 49 2b be a0 7f 58 3c
       0.21950814 -0.21171136 -0.16727138 0.013214022
000060 6c 18 84 bd ca 9f 34 be 58 71 48 bd 7e 9b 3f be
       -0.064499706 -0.1763908 -0.048936218 -0.1871166
000070 7a 59 41 be d4 86 f3 3d 64 18 40 3e ae 99 3a be
       -0.18881789 0.11890951 0.18759304 -0.18222687
000080 74 57 14 3e 80 dd c8 bc a3 b9 4b be ec 51 1d 3e
       0.14486486 -0.024519682 -0.19895034 0.15363282
000090 d0 07 d2 bc 00 e5 34 3b 7c 7e 01 be dc e1 95 3d
       -0.02563849 0.0027602315 -0.12645906 0.0731847
0000a0 c0 a6 d0 3c ee 6e 5f 3e 7f a0 44 be 6c cb d6 3d
       0.025470138 0.2181966 -0.1920185 0.104880184
0000b0 a0 62 2b be 0c a0 60 3e a7 f7 cb bd de 8f 2f be
       -0.16736841 0.21936053 -0.09959345 -0.17144725
0000c0 35 e6 64 be dc b1 d6 3d 82 6d 02 3e b0 b6 10 3d
       -0.22353442 0.10483143 0.12737086 0.035330474
0000d0 4c ba a7 3d b4 06 e7 3d dc a6 62 3e 97 4a ee bd
       0.0818983 0.112805754 0.22133964 -0.11635321
0000e0 08 0a 07 be b4 50 29 3e e0 c9 6b 3d 5c 74 f8 3d
       -0.1318742 0.16534692 0.05756557 0.12131569
0000f0 60 87 4b bd 64 79 8f bd 8a f9 c5 bd e7 65 02 be
       -0.04968965 -0.07005575 -0.096667364 -0.12734185
000100 ef 70 4e be 3e c2 96 3d c3 18 3f be 9c a5 fe 3d
       -0.20160268 0.073612675 -0.1866179 0.12433931
000110 93 2c fe bd 3c a7 b9 3d 20 ff 60 3d a7 1d ad 3b
       -0.124108456 0.090651006 0.054930806 0.005283076
000120 00 98 27 39 90 03 88 3d 68 c9 34 bd 80 ec c8 ba
       0.00015982985 0.066413045 -0.04413739 -0.0015329272
000130 0a 0e 7f be a0 f3 24 3e 2a 09 83 be 78 70 9f 3d
       -0.24907699 0.1610856 -0.2559293 0.077851236
000140 e8 b6 53 3d e4 3e 07 be 88 e5 36 be 12 09 4a be
       0.051688105 -0.13207585 -0.17860997 -0.19730023
000150 96 c8 0a 3e 90 d0 50 3e 1c df 10 bd 84 73 24 3e
       0.1355308 0.2039206 -0.035369024 0.1605969
000160 b0 6a cf bc 40 a6 e1 3c 7c 4b 55 3e 80 4d 26 3d
       -0.025319427 0.027545094 0.20829576 0.040601254
000170 66 fb 55 3e d2 9f 3a 3e e0 0f ab bb f6 8f 83 bd
       0.20896682 0.18225029 -0.0052203983 -0.06423943
000180 fd 62 dd bd 42 38 c1 bd 5e a3 09 be 10 06 33 3e
       -0.10809896 -0.094345585 -0.13441226 0.17482781
000190 9f 45 13 be 80 35 ad 3b c0 11 72 bd 44 80 44 3e
       -0.14382027 0.0052859187 -0.05909896 0.19189554
0001a0 60 e5 9f 3d 00 f9 74 3c d2 17 1d be b0 35 38 3d
       0.07807422 0.014951944 -0.15341118 0.044973075
0001b0 f3 41 ed bd ee 42 e6 bd 0e df 44 be 38 f0 29 3d
       -0.115848444 -0.112432346 -0.19225714 0.041488856
0001c0 68 e1 e4 bd bc 22 09 3e e8 3d 31 bd 00 d2 4e 3b
       -0.11175805 0.13392156 -0.04327193 0.0031558275
0001d0 18 07 a5 bc e7 24 f8 bd 32 2a 95 bd 35 3b 02 be
       -0.020144984 -0.121164136 -0.07283439 -0.12717898
0001e0 9f f4 ed 3c 10 f5 17 be bc be a5 bd 1c e3 54 be
       0.029047308 -0.14839578 -0.0809302 -0.2078976
0001f0 08 58 96 bd b9 81 c3 bd 5d 9d da 3d 17 5c d2 3d
       -0.073410094 -0.09546227 0.10674546 0.10271471
000200 d0 53 86 bd d2 90 28 3e 80 d8 4f bd c3 2e 3d 3d
       -0.06558955 0.16461495 -0.05074358 0.046187174
000210 d4 17 90 3d 98 08 97 bd 8f 47 81 bd 5f e7 6f be
       0.07035795 -0.07374686 -0.06312477 -0.23428105
000220 ae 24 4c 3c da 3c 7f be f9 43 10 be cf db 9e be
       0.012459917 -0.24925557 -0.1408843 -0.31027076
000230 fa 24 07 3e 53 d8 2c be 40 4b e0 bb b5 1c 6b be
       0.13197699 -0.16879396 -0.006844908 -0.2296017
000240 eb ae 6c 3e 9a 1e 41 3e 0f ec d3 bb 73 1e 46 3d
       0.23113601 0.1885933 -0.0064673494 0.048368882
000250 df a7 00 be 62 77 0a 3e 74 0b c3 3d b6 2f 0d 3a
       -0.12564038 0.13522103 0.09523669 0.00053858326
000260 d2 b3 0a 3e 08 78 08 3e 15 fb 46 3d c1 c8 58 be
       0.13545159 0.13327038 0.048579294 -0.21170332
000270 49 a9 a4 bd 29 73 39 3e 2d 0f 07 be 9e 00 21 3d
       -0.08040101 0.18110336 -0.13189383 0.03930723
000280 cf 5e 0d be 34 94 5e 3e 04 cf c5 bd 58 89 34 3d
       -0.13805698 0.21736223 -0.09658626 0.044076294
000290 34 12 40 be 5e 8c 45 3e 35 af 27 be bc 47 95 bd
       -0.18756944 0.19291827 -0.1637543 -0.07289073
0002a0 4d c4 36 be bc ad a9 3d 6e b4 1c 3e 13 9a 39 bc
       -0.1784832 0.0828509 0.15303203 -0.011328238
0002b0 6d 4d 39 bd 18 e4 d1 3c 77 0d 22 3e 01 1f c0 bb
       -0.045239855 0.025621459 0.15825449 -0.005863071
0002c0 25 97 5e be 95 d2 53 3d 03 6e 19 be b4 12 ad 3d
       -0.21737345 0.0517145 -0.14983372 0.08450833
0002d0 2f 21 e1 bd c0 40 5a 3c 82 8e 20 be 20 ca 0a 3c
       -0.109926574 0.013321102 -0.15679362 0.008471042
0002e0 c0 bd 50 3d 00 97 e2 3b c9 7a d4 bd 30 aa 8e 3c
       0.05096221 0.0069149733 -0.10374982 0.017415136
0002f0 b0 78 1f bc d0 90 54 3d 7c 72 c7 3d 19 a4 e5 bd
       -0.009733364 0.051895916 0.09738633 -0.1121294
000300 50 33 1f 3d cf a0 3f be 30 1a 33 be e4 2f a0 bd
       0.038867295 -0.18713687 -0.17490458 -0.078216344
000310 dc 50 bd bd 19 02 cf bd c0 ac 03 3d 06 ce 10 3e
       -0.09243938 -0.10107822 0.03214717 0.14141092
000320 f2 2f 3b 3e 82 e6 2b 3e d0 28 81 3d 00 00 e7 bb
       0.18280008 0.1678715 0.063066125 -0.0070495605
000330 80 59 dc bb 00 9f b5 bb dc d4 41 bd ce f8 3b be
       -0.0067245364 -0.005542636 -0.04732214 -0.1835663
000340 80 63 dc ba c9 e4 47 be a5 87 2c be d8 34 c0 bd
       -0.0016814321 -0.19520868 -0.1684862 -0.09385079
000350 50 8a 34 3d 05 2f d1 bd 18 23 97 3d da a7 3f be
       0.044077218 -0.102140464 0.073797405 -0.18716374
000360 e6 db 44 be 00 b5 ae 3a 40 53 a0 3c b8 e5 5f 3d
       -0.1922451 0.0013329089 0.019570947 0.054662436
000370 30 9a 4a 3d 22 89 2a be a4 df 79 be b8 b2 9f bd
       0.04946345 -0.16653875 -0.24401718 -0.0779776
000380 2a a8 88 be b2 fa 16 3e ad 45 f3 3d 1c e7 92 bd
       -0.266908 0.1474407 0.11878524 -0.07172987
000390 cc d1 87 3d 18 ca 53 be 10 ff d9 3d b6 e6 82 be
       0.066318125 -0.20682561 0.106443524 -0.25566643
0003a0 3b c2 07 3e 28 52 02 be 88 3a d3 bd 2c 83 2d 3c
       0.13257687 -0.12726653 -0.10313898 0.010590356
0003b0 4a de 9d be 16 29 94 be 5a da 56 bb d4 77 66 be
       -0.30833656 -0.28937596 -0.0032783956 -0.22506648
0003c0 55 d2 34 3d 5e ba bb 3d e6 e3 ec 3b e1 ad 6a bd
       0.0441459 0.09166406 0.007229316 -0.05729473
0003d0 d2 0e 1c 3e e4 62 1b 3e 1e c1 b6 bd ac 18 05 bd
       0.15240029 0.15174443 -0.08923553 -0.032494232
0003e0 29 31 53 be 36 b6 5a 3e e3 26 4a be 50 e6 b1 bd
       -0.20624222 0.2135857 -0.19741397 -0.08686507
0003f0 ae 2d 1b 3e 8e 8e 1d 3e 79 7b 70 3d 88 a3 9b bc
       0.15154144 0.15386412 0.058711503 -0.018998876

bias f4 [20]
000000 88 e1 27 be a0 be c5 3c 92 28 55 3e 5b 80 60 3c
       -0.16394627 0.024138749 0.20816258 0.013702477
000010 f0 4a 4b be 2c dc 26 be 40 28 f6 3b 5f 17 01 be
       -0.19852805 -0.16294926 0.0075121224 -0.12606572
000020 95 74 4f 3d ba 05 52 3e 5a a7 50 3e e7 07 27 be
       0.05064829 0.20509997 0.2037634 -0.16311608
000030 f5 c7 1f bc 3e 38 7d 3d e8 84 4d 3e 70 28 4a be
       -0.009752263 0.061821215 0.20070231 -0.19741988
000040 de 9a 30 be bd 45 b1 3d bc b9 1c 3e ed ff cd bd
       -0.17246577 0.0865588 0.15305227 -0.100585796

weight f4 [1, 20]
000000 98 77 0a bd 6e ea 94 bd f8 8d 46 3e af 57 b2 bd
       -0.03380546 -0.072712764 0.19390094 -0.087081306
000010 98 22 50 be c0 6f 4b 3b cd f2 10 3d 7b 9c 50 bd
       -0.20325696 0.003104195 0.035387803 -0.05093048
000020 b0 e2 e6 3d d2 db 2e 3e 9c d4 f5 bd 82 51 0f bd
       0.11273706 0.17076042 -0.12003443 -0.03498984
000030 1b 05 88 3d e3 26 e9 3d db 1a a4 bc fb ae d0 3c
       0.06641599 0.1138437 -0.020032337 0.025474062
000040 27 9d 51 be f2 5e 0f 3d 3f 5c 36 3b dd b6 1f be
       -0.20470105 0.035002656 0.002782598 -0.155971
