result_model/ex3_gated.pth (torch, 3359 bytes, 4 tensors)

weight f4 [40, 1]
000000 c4 99 6a bf 87 ea 97 be 6a 40 8a be fa 5f 83 be
       -0.9164088 -0.29671118 -0.2700227 -0.25659162
000010 9b 59 93 be 1c 6b 35 bf 8c 9e c9 3e 06 99 83 3e
       -0.287793 -0.7086656 0.39378774 0.25702685
000020 ba 5f 7f be 53 0f 11 3f 72 bf f8 bd 54 71 c7 be
       -0.2493886 0.5666401 -0.1214589 -0.3895365
000030 e0 00 9c be 49 38 77 be cd e9 01 bb 02 02 85 be
       -0.30469418 -0.24142565 -0.0019823194 -0.25978094
000040 bf dc ff 3e 26 48 81 3d da 9d 84 be 32 e9 55 3e
       0.49973103 0.06312589 -0.2590168 0.20889738
000050 1f bb 5c b9 b2 67 ba 3b bc 8a 3f bf 8c e1 8f be
       -0.00021050543 0.005688631 -0.74821067 -0.28101766
000060 8b 9a d4 bd 9e 41 54 b9 5c fa 86 be fa c3 2e bb
       -0.10381039 -0.0002024234 -0.26362884 -0.0026667104
000070 32 c5 54 bf a2 e4 d6 3e a8 a9 6c 3e 18 05 93 be
       -0.83113396 0.41971308 0.23111594 -0.28714824
000080 90 e3 e4 3e 48 ff eb 3e f0 14 e5 3d 00 18 37 3f
       0.44704866 0.46093202 0.11185634 0.71520996
000090 3c 8a 9e ba 5c bb 46 3f 50 c0 be be 30 e4 89 3e
       -0.001209564 0.7762964 -0.37256098 0.26931906

bias f4 [40]
000000 f0 86 98 3e 18 8f 43 c1 e1 93 3c c1 8a eb 37 c1
       0.2979045 -12.222435 -11.786103 -11.495005
000010 b6 f5 3c c1 be 4d 5c 3f 00 e3 de bc bd d9 85 3e
       -11.809988 0.86056125 -0.027207851 0.26142684
000020 aa 0c 3d c1 51 1c 4b 3f 1e 60 bd c0 fa 8c 64 3f
       -11.815592 0.7934008 -5.917983 0.89277613
000030 e0 9c 99 3e e1 87 3d c1 33 6f 75 40 49 cf 17 c1
       0.300025 -11.845674 3.834912 -9.488107
000040 ca 11 93 bf 51 2f 54 40 2a 7f 1e c1 14 ff 71 be
       -1.1489804 3.315388 -9.906046 -0.23632461
000050 10 44 44 bf 48 d8 b8 40 30 40 05 3f e0 fb 1d 3f
       -0.76666355 5.7764015 0.5205107 0.61712456
000060 e4 9b 21 3f bd a9 72 bf 21 2a 3c c1 57 25 92 40
       0.63128495 -0.9479025 -11.760285 4.567058
000070 12 c7 45 bf 9e de 8f 3e 14 34 4a bf 27 21 3e c1
       -0.7725688 0.2809953 -0.78985715 -11.883094
000080 2a fa 0f bf fe 48 20 bf a0 58 9c 3e 6c ea 90 3e
       -0.56241095 -0.6261138 0.30536366 0.2830385
000090 d1 32 30 40 f8 ed d7 be d6 4c 34 bf 48 fe 28 be
       2.7531016 -0.42173743 -0.7042974 -0.1650325

weight f4 [40, 1]
000000 a6 45 69 bf d0 33 92 3e de 21 0c 3f 30 c6 e8 3e
       -0.911219 0.28555155 0.5473918 0.45463705
000010 0a 45 40 3f 30 c8 1e bf f2 ef 47 bf cb 7d 71 be
       0.75105345 -0.6202421 -0.781005 -0.23583142
000020 86 7c 57 3f ce b8 21 be 7b c9 4c 3e 50 bb 86 be
       0.8417438 -0.15793154 0.19998734 -0.26314783
000030 c8 9d 7f be 90 1c 67 3f 9a 1c 44 3f aa 38 32 3f
       -0.24962533 0.9027796 0.7660614 0.6961771
000040 d1 87 22 be e1 61 41 bd 1c 0c 1d 3f c7 ac 89 be
       -0.15872122 -0.047212485 0.613466 -0.2688963
000050 10 19 ac 3e 18 f0 a8 3e c4 8c 6b bf 32 d3 2e bf
       0.3361287 0.32995677 -0.92011666 -0.6829101
000060 d3 2c b8 bd e8 05 54 3f b0 b7 9d 3e ba 1b 12 3f
       -0.089929245 0.8282151 0.30804205 0.5707356
000070 22 8a 33 bf e2 4c 82 be 94 5d 09 bf b0 40 b4 3e
       -0.7013265 -0.25449282 -0.53658414 0.35205603
000080 fe f9 13 bf 8c 17 fe be 5c 1a c2 be 34 a5 fe be
       -0.5780333 -0.4962734 -0.37910736 -0.49735415
000090 ce c1 0d 3f f8 8f b9 be 5c 6e 97 be 99 30 84 be
       0.5537385 -0.36242652 -0.29576385 -0.25818327

bias f4 [40]
000000 d8 e9 28 3e 54 ca 0f 3f 80 ce bf 3e 92 8c 18 bf
       0.16495454 0.56168103 0.37462234 -0.59589493
000010 40 d1 32 3d 80 57 23 3d bc f3 42 3f a3 95 cb be
       0.043656588 0.03987837 0.7615316 -0.397626
000020 ec 12 90 3e 98 51 a4 3e d8 d2 71 bf b8 d9 6b be
       0.28139436 0.320935 -0.9446235 -0.23032272
000030 0e 62 03 bf 3e 0b 15 bf 28 13 d7 3e 18 49 66 be
       -0.51321495 -0.5822028 0.42006803 -0.2248882
000040 90 b0 dc 3e 85 7c 91 bf 14 58 92 be a8 ed 25 3e
       0.43103456 -1.1366125 -0.28582823 0.1620394
000050 4a 94 32 bf d0 b3 7b be e8 2b 28 3f e0 d2 4b bf
       -0.6975752 -0.24580312 0.65691996 -0.79618645
000060 3e 1d ce 3c 50 5e 7c bf d6 8e 42 bf 40 53 62 3d
       0.025160428 -0.9858141 -0.759992 0.055255175
000070 d0 95 0f 3e 40 c8 2f bf c0 91 df be 02 83 34 bf
       0.14021993 -0.6866493 -0.43665886 -0.705124
000080 c4 67 76 bf c4 14 9f 3e 7a e6 45 3f a2 83 30 3f
       -0.96252084 0.3107053 0.77304804 0.68950856
000090 36 24 64 bf 1e 69 60 bf 38 1f fa be 8e f4 1c bf
       -0.89117754 -0.87660396 -0.48851943 -0.6131066
