result_model/ex3_gated.pth (torch, 3103 bytes, 4 tensors)

weight f4 [30, 1]
000000 90 0e 27 3e cf 0c 5c 3f 46 7e 25 3f 71 0f d0 38
       0.16314149 0.85957044 0.646458 9.921089e-05
000010 00 96 35 3c 66 b3 91 c0 06 da af c0 8c 70 1d bf
       0.011083126 -4.553149 -5.495364 -0.6149986
000020 a0 31 5e bf ca fe cf 38 9b ae cf 38 b7 cd 85 c0
       -0.8679447 9.917987e-05 9.903052e-05 -4.1813617
000030 7e e3 d0 38 27 c4 95 c0 54 ec 3e bf b4 c8 ce 3d
       9.9605866e-05 -4.6801944 -0.7457936 0.10096875
000040 40 7d e0 bc c0 62 d2 bc 30 03 1a 3f bd 71 cf 38
       -0.027403474 -0.025681853 0.60161114 9.8917146e-05
000050 54 7c 05 3f ad f1 94 c0 cc 5c 13 3f b2 4c c5 3b
       0.52142835 -4.6545014 0.5756347 0.0060211057
000060 94 b4 cf 38 e8 4c 89 c0 98 73 7e 3f da 44 12 bf
       9.9041645e-05 -4.290638 0.9939513 -0.5713631
000070 4e 40 52 3f f0 3d 37 be
       0.8212937 -0.17894721

bias f4 [30]
000000 1c 89 ce 3e 99 f5 1d bf 9c 7d a1 3e 6b 32 89 c0
       0.4033898 -0.6170288 0.31541145 -4.2874045
000010 10 a4 fd 3e cb 25 a1 c0 47 74 7a c0 26 d9 55 bf
       0.49539232 -5.0358634 -3.913347 -0.8353447
000020 10 39 76 be 19 2a 8a c0 53 1b 8e c0 9d 4e aa c0
       -0.24045205 -4.317639 -4.4408355 -5.3220963
000030 22 56 81 c0 48 38 af c0 f0 49 1a 3f 17 9b a1 41
       -4.0417643 -5.4756203 0.6026907 20.200727
000040 6a 0d 26 3f 7a f3 2a 3f 70 4b cd bd 0e f6 90 c0
       0.6486422 0.66777766 -0.10024154 -4.530036
000050 14 67 44 3f 45 9f 8f c0 80 9d 2a bd 85 df f8 3f
       0.76719785 -4.488192 -0.04165411 1.9443213
000060 4d 54 8d c0 09 e4 ac c0 1c 71 92 3e c4 57 e8 be
       -4.4165406 -5.4028363 0.2860192 -0.4537946
000070 82 63 96 41 c0 69 18 3e
       18.798588 0.1488409

weight f4 [30, 1]
000000 0a 48 44 bf 6f 6d b6 bd 90 0d 02 bf 7b ab f2 3d
       -0.7667242 -0.089075916 -0.50801945 0.118491136
000010 98 b3 c3 be 7a fe 78 3f 4c da 1f 3f 1c 63 47 bf
       -0.38222957 0.972633 0.6244247 -0.77885604
000020 48 c5 d1 be 66 9a 2e 3f b0 89 70 3e e0 06 58 3e
       -0.40970826 0.68204343 0.23490024 0.21096373
000030 da 1b 1b 3f 0c d0 24 3f 8e fa 5a bf 6c 3a 3b bd
       0.60589373 0.64379954 -0.85538566 -0.045710012
000040 b0 19 6f bf a8 fe 64 bf f4 3e 66 bf 50 84 37 3e
       -0.9339857 -0.89451075 -0.8993981 0.17921567
000050 b0 cd 79 bf 18 b9 b9 3e 84 18 1a bf ee de 88 3e
       -0.9757948 0.36274028 -0.6019366 0.26732582
000060 18 89 f5 3e f4 7e 97 3e b0 f3 26 bf 90 e7 cb bd
       0.47956157 0.29589045 -0.6521559 -0.099562764
000070 68 c2 b6 bd 8c 13 3f bf
       -0.08923799 -0.746392

bias f4 [30]
000000 60 68 51 be e8 5e ac bf ea 6a 20 3f df 07 41 bf
       -0.20449972 -1.3466463 0.6266314 -0.75402635
000010 38 cd 8d be e8 03 8a be 28 71 80 3e 8a 5c 63 bf
       -0.27695632 -0.26956105 0.2508633 -0.8881308
000020 4a 4a 43 3f 9e 0e 78 3f 30 a7 dd bd 60 d6 04 3d
       0.7628523 0.96897304 -0.10822904 0.032431006
000030 90 81 0e 3f 40 fd 52 3f 4c e5 30 bf 1c 59 5b 41
       0.55666447 0.8241768 -0.6909988 13.709255
000040 50 c9 cd 3e b0 af f7 be 80 71 57 bd 9e 2e 7d 3f
       0.40192652 -0.48376226 -0.052598476 0.9889926
000050 a0 fb 66 bd cc 1d 36 3f d0 fa 32 3f aa 22 65 c1
       -0.056392312 0.71139216 0.6991396 -14.320963
000060 60 2e dd 3d 6c b0 29 bf d4 44 ac be f6 c2 25 bf
       0.10799861 -0.66284823 -0.33646262 -0.6475061
000070 4b e3 70 41 8c c1 c8 be
       15.055491 -0.39210165
