result_model/ex3_nsde_pro.pth (torch, 22036 bytes, 20 tensors)

weight f4 [20, 4]
00000000: 9c6d 2b3e 20be 2fbe e0e0 be3c 1042 63be
00000010: 2217 043e cb69 373e 949d 01bf 7e3c a9be
00000020: f3fd b03e 7d2b b03e 767d 853e 1e6a e4be
00000030: 0520 a5be 2417 df3d b628 c7be 100b 32be
00000040: 406d 79bd 6c31 d4be 704c 37be 705c b5bd
00000050: 2075 06be 17a2 44bd 3b6f 713d 8171 16bf
00000060: efad aa3e 44e6 b53e b5f9 a23e f2cc 76be
00000070: cee9 29be 37f8 183d d02e f13e 2710 8a3e
00000080: bdfb a23e 5486 de3c 9577 163e 5039 82be
00000090: eac8 c6be c843 ab3e 6cb4 42be 6dcc 2a3e
000000a0: 2013 c63b c647 803e 0f20 edbe 5c19 9fbe
000000b0: b621 09be 99fc ccbe 0238 da3e 472c c93e
000000c0: 1507 0c3d 2b01 ab3e bcf4 14be 3b5d f4be
000000d0: 0a60 81be 68ad 9ebd dc25 24be 1058 b0bd
000000e0: 7022 a1be 560b bfbe ac86 16be 383d 8d3e
000000f0: 26c0 f73e e275 88be e833 1ebe 722a c23e
00000100: fe3a e9be cefd 1bbe ce77 af3e 5abc a73e
00000110: 2076 c0be 7741 853e 780a b63e f7d2 0fbe
00000120: ac67 2fbe 08b7 f4bd 6ca8 0abe e634 fcbe
00000130: dc5d 433e b054 a5be 100d 5d3e a808 d3bd
0.16741031 -0.1716237 0.023300588 -0.2219317 0.1289945 0.1791145 -0.5063107 -0.33053964
0.34568748 0.3440818 0.26072282 -0.4461221 -0.3225099 0.108930856 -0.38898247 -0.17387033
-0.060895205 -0.41443956 -0.17900252 -0.08855522 -0.13130617 -0.048006143 0.05894397 -0.58766943
0.33335826 0.3552724 0.31831136 -0.24101618 -0.16593096 0.03734609 0.47106028 0.26965448
0.31832686 0.027163662 0.14694054 -0.2543435 -0.3882516 0.3345015 -0.19014138 0.16679545
0.0060447603 0.2505476 -0.4631352 -0.31074035 -0.13391766 -0.40036467 0.42620856 0.39291593
0.03418644 0.3339933 -0.14546484 -0.4772738 -0.25268584 -0.07747918 -0.16030067 -0.086105466
-0.31471586 -0.37313336 -0.1469981 0.2758577 0.48388785 -0.26652437 -0.15449488 0.37923008
-0.4555282 -0.15233538 0.3427109 0.32760888 -0.37590122 0.26026508 0.35554862 -0.1404532
-0.17129391 -0.11948973 -0.1354081 -0.49259108 0.19078773 -0.32291174 0.21587014 -0.103043854

bias f4 [20]
00000000: aae4 bebe ddb8 2dbe 859c 72be f840 0e3e
00000010: 141d 3ebe 9c6d d7be ac33 ccbe a79e 083f
00000020: 3071 14bf 7f83 a8be fb32 41be 5d23 3d3e
00000030: 9145 c8be d29e b4be 5c55 fdbe 8025 43bc
00000040: 8eae a33e d063 043e e058 e93e 240e 33be
-0.37283832 -0.16965051 -0.2369252 0.13891971 -0.1856578 -0.42075813 -0.39883173 0.53367084
-0.5798521 -0.32912824 -0.18867104 0.18470521 -0.39115575 -0.3527742 -0.49479187 -0.011910796
0.31969112 0.129287 0.4557562 -0.17485863

weight f4 [20, 20]
00000000: e66a a1bd 246e b4bd 1cec 0bbe e5eb 913d
00000010: 70dd ab3c 984a e8bb bd08 643d a4be 12be
00000020: c77d fabd 8ed9 6f3e adac 0fbe 677e 543d
00000030: 0bc3 4f3e 80e9 dfbc 4f9c 19be 7692 013e
00000040: fe8e 543e 9129 443e 3ce9 f3bd e002 e13d
00000050: 0c52 90bd 8c2e 69be ff6e f73d c418 89be
00000060: 968c 073e fc39 3dbe edcc 373d c506 773e
00000070: 59b0 26bd 35f5 1dbe 444f 133e 1a90 38be
00000080: 527c 123d 930c dcbd 6d14 d3bd a681 b8bd
00000090: 88f9 83be 7726 f63d c0e9 a63d 9fbc e9bd
000000a0: e8b1 353e a345 d03d 7ed1 4a3e acc7 673e
000000b0: 90de 203c 5f09 673e 0362 c33d 841d 813c
000000c0: 58c5 453e 8cc0 873d ea54 8dbd 50b3 283c
000000d0: 9875 aa3d 40f0 3d3e 7c5e 423e e8e3 003e
000000e0: 5ef7 073d 61d5 32be 758a 38be f006 a93c
000000f0: c6a4 31be 874d 5e3e ee7c bf3c 56ca 113e
00000100: 3e18 353e b2fc 23be 6556 19be ff61 2dbe
00000110: 07c8 9c3d 8bb8 c43c 0786 403e c2b2 603e
00000120: 8e7b 923c f6c0 093e 0063 b0bd a026 083c
00000130: e4a4 e33d bdda 893d b6df 42be b0ae f13c
00000140: 20b1 e73c e3d2 8abe 702d 0a3e 5995 20be
00000150: e0bc eb3d abe7 c33d 5ece 3ebd 0432 063e
00000160: c0ac 10be f81c 15be 0ac3 01be 8773 c7bd
00000170: 414d b03d 08c5 423d 4c9b 273e 589e 5bbe
00000180: 2c58 5dbe d6cb 0d3e 8c9a 143e 4abb 14be
00000190: 40c2 d23b 6efc ffbd 51b0 093e 128a 983c
000001a0: b83f 1c3d 2358 dcba a3ad 74be 7582 11be
000001b0: 4ccf 703d 6ba0 30be ff86 23be 0060 cc38
000001c0: d1b2 953d ed22 40be f85d 1b3d e0a1 1a3c
000001d0: 4cbe 2d3e a691 70bc 809c 4c3e 20d7 dd3d
000001e0: 1b79 f2bd ea98 143e 7c69 19be 744e 3cbe
000001f0: 76a3 073e a49b 2f3e 78b0 f2bc e06e d73c
00000200: 0085 d03a 4854 10be 00df 3a3b 20d8 b83b
00000210: c8ae 8d3d 37aa 63be 3856 483d 10c1 483e
00000220: d8fb a7bc f9fb 63be d853 d33d 6877 a3bc
00000230: 7394 2abe 9491 4a3e 44a6 0ebe 8c01 ebbd
00000240: b0ae 313e 2cb5 513e 3493 b0bd 108b 743c
00000250: c68c 3a3e c076 1a3d a825 593e 982f 8cbc
00000260: f4d1 0bbe 30d8 9d3d cf35 53be ecef a3bd
00000270: 70c7 733c eeea 4cbe 8470 31bd 729c 1ebe
00000280: 20bd 4d3c b2bf 3fbe 8252 01be 326d 0cbe
00000290: b98d fbbd 0e80 1c3e 8bd8 1e3e 019c a23d
000002a0: 991d 0f3e ce5a 043e eafa 00be 126d 243d
000002b0: 23ad 69be 88e6 fe3d 0006 21ba d691 143e
000002c0: 8393 d7bc 2ad2 3d3e f619 163e 3048 463e
000002d0: ba93 323e 005e 11be 003b 00ba e02f bb3c
000002e0: b0b9 2fbd 88f6 e03d b6a0 34be 5c0c 42be
000002f0: a0a1 2d3e 60da 0b3c 69d2 f3bd 0066 a939
00000300: e2b0 54be 9437 1fbd 5707 48be d8e0 82bc
00000310: b873 e03d 4408 23be e683 89bd f794 37be
00000320: c767 f9bd 4220 3d3e f8f8 96bd 489c b83d
00000330: 5e18 0b3e 707a bf3d 1ac9 333e 6bda 35be
00000340: e869 92bc 8dd0 44be 5e76 f2bd e4bc 4f3e
00000350: 04ae 42be 925e 403e fce7 903d 605e 1f3c
00000360: 7484 37bd 4300 fabd 2c80 61bd 7bbe 26be
00000370: b682 1a3e e130 1fbe 0b8a 5c3d 0834 213e
00000380: a084 743d f8e8 563e 3f2f 2f3e 0018 29be
00000390: b7b4 05be f581 6c3d c0a2 64bd 5c6e 6c3e
000003a0: c584 823c 708d ab3d 1089 c23d 3478 7cbd
000003b0: fcaf 883e 99d6 133c a0b2 103d b675 213e
000003c0: aad9 2abe d972 0f3c 7fdc aa3d ef91 97be
000003d0: 96fe 06be 480e 9ebd b43d 88be 1e60 01be
000003e0: d3af 6bbd 7bdb 29be 886c 173e 2037 71bc
000003f0: 5801 103d baea 19be daa1 50be 48ed 033d
-0.078817174 -0.0881007 -0.13664287 0.071250714 0.020979613 -0.0070889704 0.055672396 -0.14330536
-0.122310214 0.23422834 -0.14030714 0.05187836 0.20289247 -0.027333021 -0.15001033 0.12653527
0.20757672 0.19156481 -0.1190972 0.109868765 -0.07046899 -0.22771662 0.12081718 -0.26776707
0.13237223 -0.1847915 0.044873167 0.24123676 -0.040695522 -0.1542557 0.14385706 -0.1802372
0.035763092 -0.10744586 -0.1030663 -0.090091035 -0.25776315 0.12019055 0.08150053 -0.1141293
0.17743647 0.10169532 0.19806477 0.22634763 0.009818688 0.22562169 0.095401786 0.015761144
0.19313562 0.06628522 -0.06900962 0.010296658 0.083232105 0.1854868 0.18981355 0.1258694
0.033194892 -0.1746421 -0.18021567 0.02063319 -0.17348012 0.21709262 0.023375 0.14237341
0.17685029 -0.16014364 -0.14974363 -0.16931914 0.0765534 0.024013778 0.18801127 0.2194319
0.017881181 0.13452515 -0.08612633 0.00830999 0.11115435 0.06731174 -0.19030651 0.029502243
0.028282702 -0.2711402 0.13493896 -0.15681972 0.115106344 0.095656715 -0.046583526 0.13105017
-0.14128399 -0.14561832 -0.12672058 -0.09738832 0.08608485 0.047551185 0.16367835 -0.21447122
-0.21615666 0.13847288 0.1451208 -0.1452457 0.006431848 -0.12499319 0.13446166 0.018620525
0.038146704 -0.0016810935 -0.23894362 -0.14209922 0.058791444 -0.17248695 -0.15969466 9.7453594e-05
0.07309497 -0.18763323 0.037931412 0.009438008 0.16967124 -0.014683163 0.19981575 0.108320475
-0.11839505 0.14511457 -0.14981645 -0.18389302 0.13245949 0.17149216 -0.029625162 0.026297987
0.0015908778 -0.14094651 0.0028514266 0.0056409985 0.069181025 -0.222329 0.04891035 0.19604897
-0.02050583 -0.22264089 0.10318726 -0.019954398 -0.16658191 0.19782096 -0.13930613 -0.114749044
0.17351794 0.20479268 -0.08621827 0.014925733 0.18217763 0.037710905 0.21205771 -0.017112538
-0.1365431 0.0770725 -0.20625995 -0.08004746 0.014879093 -0.20011494 -0.043320194 -0.15489367
0.012557298 -0.1872547 -0.1262913 -0.1371353 -0.12282891 0.15283224 0.15512292 0.07939912
0.13976134 0.12925264 -0.12595716 0.04014308 -0.22819953 0.12446314 -0.00061425567 0.14508757
-0.026315456 0.18537202 0.14658341 0.19363475 0.17439166 -0.14196014 -0.0004891604 0.022849977
-0.042901695 0.10984522 -0.17639431 -0.18950027 0.16956186 0.008535951 -0.11905367 0.00032310188
-0.207706 -0.038871363 -0.1953405 -0.015976354 0.109595716 -0.15921122 -0.06714611 -0.1792792
-0.12177997 0.18469337 -0.07371706 0.09014183 0.13583514 0.09349525 0.17557183 -0.17759101
-0.017872766 -0.19220181 -0.11838983 0.202869 -0.19011694 0.18786076 0.070754975 0.009727091
-0.04480405 -0.12207081 -0.055053875 -0.162836 0.15088925 -0.1554599 0.053842586 0.15742505
0.059696794 0.20987308 0.17107867 -0.16513062 -0.13057218 0.057741124 -0.055819273 0.23088974
0.01593245 0.083765864 0.09498799 -0.061638072 0.26696765 0.009023332 0.0353266 0.1576756
-0.16684595 0.008755409 0.083428375 -0.29603526 -0.13183054 -0.07717568 -0.26609576 -0.12634322
-0.057540726 -0.16587631 0.14787495 -0.0147226155 0.03515753 -0.15030947 -0.20374241 0.03220871

bias f4 [20]
00000000: 6188 aabd 47fb 033e 0833 89bd 2a3c 673d
00000010: cd3e 10be 2f6f 073e 68f3 343e 79e9 60be
00000020: 0064 2c3e 2e56 2fbe ad5e e1bd f752 40be
00000030: e062 24be a5ec 343e c867 2ebe 3469 f53d
00000040: d6dc 2d3e b072 1a3e 66d6 81bd 1401 473e
-0.083267935 0.12888823 -0.066991866 0.05645386 -0.14086457 0.13226007 0.17670977 -0.21964063
0.16835022 -0.17122719 -0.11004386 -0.18781649 -0.16053343 0.17668398 -0.17031777 0.119829565
0.16978773 0.15082812 -0.063397214 0.19434005

weight f4 [1, 20]
00000000: 7fda fdbd 5117 fc3b 6d08 03be 6e75 26bd
00000010: fff3 0b3d ee23 f5bc 2e25 053e 52af 503e
00000020: 0e0c 093e c8d9 5ebd d822 dc3d 7991 a1bc
00000030: cbdb 7abc ee1e 0bbe 0667 033e cbfa f7bd
00000040: c8c7 5e3e cf60 12bd 27e4 d4bd 6ee9 60be
-0.123951904 0.007693209 -0.12796183 -0.040639333 0.03416824 -0.02992436 0.13002464 0.2037938
0.13383505 -0.05440691 0.107488334 -0.019722687 -0.015311192 -0.13586017 0.12832269 -0.12108382
0.21755898 -0.035736855 -0.10395079 -0.21964046

weight f4 [20, 4]
00000000: 4626 f2be 411c 59bd 1697 a1be b12e d6be
00000010: 40ef cfbe 7097 c8bd 90cb c9be 3850 30be
00000020: 8e20 b1be b1a6 e8bc f166 513e 6d34 823e
00000030: c368 bb3d 7242 af3e 4f59 2e3e f756 883e
00000040: ec86 a53e 5196 ccbd 3e7d 8a3e a7cc cd3e
00000050: e842 ec3e ee83 a2be f040 27bd 1651 84be
00000060: becb cdbe 7a93 183e 0d12 dc3e 43c3 933e
00000070: 043a 52be 3c77 42be 60df b2bd 8025 683e
00000080: a09d d3bd 54ae 5ebe 500f 603e 1804 e83e
00000090: 7028 e73e a620 f8be 7ab6 b1be 189e 8b3d
000000a0: b383 8a3e 450c c23e 0a25 463d ee91 cdbe
000000b0: 48b6 8fbe 355a ed3e 78cc eabd 9140 3bbe
000000c0: 9c5c 923e 4c5b 35be 00ac 153b e422 283e
000000d0: a55f 09bf a78f 563b e138 e9bd 039f 08bf
000000e0: f035 743e 9869 4dbe d0e6 ed3d 8047 253c
000000f0: f0ac b3bd fe22 b0be a079 c03c f2a4 e33e
00000100: a5b3 ee3e 8028 903e e397 803e 76ca dcbb
00000110: 9fd2 443e 4900 59bd f24c 0bbf 4e90 253e
00000120: 94c5 b13e 2ccc 09be c0c1 b7bd 9618 ebbe
00000130: 4057 00be a6f3 cbbe 9ace 9a3e 28a8 c8bd
-0.47294825 -0.05300546 -0.31560582 -0.41832498 -0.4061222 -0.097945094 -0.39413118 -0.17218101
-0.3459515 -0.028399797 0.20449425 0.25430623 0.09150841 0.3423038 0.17026256 0.2662885
0.323295 -0.09989608 0.27048677 0.401952 0.46144795 -0.3174128 -0.040833414 -0.25843114
-0.40194505 0.14900008 0.42982522 0.2885991 -0.20529944 -0.18990797 -0.08734012 0.22670555
-0.10332799 -0.21746188 0.21880841 0.45315623 0.4514804 -0.4846241 -0.3470953 0.06817263
0.27053604 0.37899986 0.048375167 -0.40150398 -0.28068757 0.46357885 -0.114647806 -0.18286349
0.2858628 -0.17710608 0.0022838116 0.1641956 -0.53661567 0.0032739432 -0.11387802 -0.5336763
0.238487 -0.20059812 0.116162896 0.010087848 -0.087732196 -0.34401697 0.023495495 0.4446178
0.46621433 0.281559 0.2511588 -0.0067380024 0.1922097 -0.052978788 -0.54414284 0.16168329
0.34721053 -0.13456792 -0.08972502 -0.45917195 -0.12533283 -0.39834327 0.3023575 -0.09797698

bias f4 [20]
00000000: 1a81 02bf 88a1 81bd d6c7 a83e 77a1 54be
00000010: 08b8 b2be 90fe 3f3e 699a af3e 44c6 b33e
00000020: 40a8 df3d cef3 c23e 89d5 a13e 8bd6 a5bd
00000030: bc95 03be 3b61 413e e0f4 55bd 58db 51be
00000040: 40b6 1bbd 1795 9a3e 5c36 89be 2230 9fbe
-0.50978243 -0.06329638 0.32964963 -0.20764719 -0.3490603 0.18749452 0.34297493 0.35112202
0.10920763 0.38076633 0.31608227 -0.080975614 -0.12850088 0.18884747 -0.052235484 -0.20493829
-0.038015604 0.30191872 -0.26799285 -0.3109141

weight f4 [20, 20]
00000000: 4ab6 cabd 8c6c 07be 059e 18be e369 f2bd
00000010: 17a9 5fbe 3cb5 8e3d 54d7 54bd e0ce e83b
00000020: 489a af3d e1f2 5abe 3ac5 56be a059 43bd
00000030: 749d b43d 5420 2b3e de86 0fbe 2ad0 183e
00000040: c08d 813b a8f4 b23d 8080 623e a86a 063d
00000050: c303 2e3d 42ab 483e 3a8b 21be 19ce 23be
00000060: 76c7 323e 687e 253e 1378 b43c a4d8 40bd
00000070: c03f db3c 1630 45be bd5e 40bc 7ad7 ed3d
00000080: 4052 d63d acbd ac3d 2c74 d33d 40f1 d3bc
00000090: 2055 82be e04d 1b3e 9c92 cd3d 8e6f 2e3e
000000a0: 1c92 b23d 980e 803d e8dc c5bd fc61 103e
000000b0: 1cd5 1f3e 00fa eeb9 e6bc 2cbe c6ac 4a3e
000000c0: 14b3 133e 929d e3bd b41f e43c c636 e33d
000000d0: f077 58bd 599c 79be 7884 5a3e 7a3b 1bbe
000000e0: 6738 6bbe 0c22 80bc f81e 00be 669f 5ebe
000000f0: f4c0 a8bd 786d 62be 45cf 05be 40f5 09be
00000100: 892b 19be e05f 94bc bf95 a8bd 40b2 3fbe
00000110: bca3 e73d 4add 93bd 1353 6d3e dc92 76bd
00000120: f42f abbd 068e 7e3b e3a7 38be d250 2c3e
00000130: f2fa a83d aa59 13be 449c 1f3e 3198 2cbe
00000140: b2f0 cc3d f023 e43d dc86 073e edc3 963d
00000150: 336e 7e3d 7caa 7ebd 3aee 08bc 7e10 3bbe
00000160: 7aee 353e 20e0 d53d 39cc 7bbd 49a9 a63c
00000170: b47e afbd 34d4 f03c e81c a3bd ce6e 383e
00000180: 7b0c e73d 04f9 1a3e 7ebf 92bd 9738 0bbe
00000190: 6d58 7a3d e082 44be bbf9 0b3e bf9d 1cbe
000001a0: fdf8 35bd 0971 07be 26aa 253c d88f 7f3d
000001b0: b8ad a83d d879 123d 904f 023d e56a 6d3d
000001c0: af63 36be a36c fc3b 406a 39be d85a c1bd
000001d0: 466a bbbc 4446 adbd f47e 593e ac1f ec3d
000001e0: 0cfa 65bd 8632 063e 1c52 823d 6e78 08be
000001f0: ea2a 293e d89c b73d d30f 04be 4016 cd3b
00000200: 642e 153e 86a2 3c3e 48a5 8abc a12a 0cbe
00000210: 1806 ca3d 149d 74bd 43bf 31be 4fe3 14be
00000220: 50b0 1e3e e8bc 3d3d fc2a b23d dc07 e93d
00000230: 4e06 9cbc 8da6 d2bd cd02 4a3e 8331 9fbd
00000240: 20fe ab3d dc4f 58bd c93a 4e3e 62d5 2d3e
00000250: ca01 c0bd 97f4 f1bd 2529 5d3e 5c9e 63be
00000260: 701b d0bc da83 123e 6244 a1bd f41b da3d
00000270: dd98 05bc 507c af3d 2891 83bc 7865 543e
00000280: 027b 4f3e bcba 07bd 3a66 143e 8cfd 173e
00000290: 2e38 87bd d02f 0ebe bb8f f0bd fd78 1ebe
000002a0: e402 31bd 4a87 84bd 1c48 8fbd e4ce c5bd
000002b0: 8c98 06be 7894 063e 70fa 2c3c 50dd 2e3d
000002c0: 4803 5dbd 302e 643d c0fc d43d 029f 44be
000002d0: e749 bf3d 2842 393d 124f ba3d 9400 573e
000002e0: 6b6d 3abe 4add 8bbd 5eb9 e73d e4a2 933d
000002f0: 5080 123c 20fd 4c3d 7e5a 74bc 0b0e afbd
00000300: 8063 303d 86a1 18bd d43d c23d 0eeb 41be
00000310: 2759 13bd 0896 8d3d c03a 393e 8015 4f3c
00000320: 9e0c 343e 6fd7 1abe d02d 513c cceb 27be
00000330: 30ee e3bc 020e 1abe 3025 023e cc2f 5e3e
00000340: 08fa bd3c 4ca4 0d3e 4483 dbbd 9ebc b2bd
00000350: 4355 26be ae18 3e3e 4081 cabd 0f25 53be
00000360: 28fe 87bd b0f7 083d 403b 3bbc d8e4 8cbc
00000370: 9c1e 583e 734e 45be 5094 55bd 5629 4dbe
00000380: 4052 123d cb4b 39be f6f6 263e 6f60 1abe
00000390: 8c9b c43d d8f6 373e 4e5e 0bbe 02e6 003e
000003a0: ce5c 2fbe 0a15 3bbe 3056 b1bd 2866 aebc
000003b0: 890f 4cbe 2153 2ebe 24ce fb3d ccb3 223e
000003c0: a038 b93d f8a7 993c 1eb2 043e 86f2 5ebe
000003d0: 5eac ccbd 89bf 25be 10fc 733c 6cc7 a3bd
000003e0: 5c65 5d3e 20fe 403c 8077 77bd 400d 39be
000003f0: 18a8 4a3d 0a6d 18be 5820 563d b82b 6e3d
-0.0989805 -0.13225001 -0.1490403 -0.118366025 -0.21841846 0.069681615 -0.051963165 0.0071047395
0.08574349 -0.21381713 -0.20973673 -0.047692895 0.08819094 0.16711551 -0.14016291 0.14923158
0.0039536655 0.08738071 0.22119331 0.03281656 0.042484056 0.1959658 -0.15775767 -0.15996589
0.17458901 0.16161501 0.022029912 -0.047081605 0.026763797 -0.19256625 -0.011741337 0.116133645
0.10464907 0.084346145 0.103248924 -0.025871873 -0.2545557 0.15166426 0.10037729 0.17034742
0.087192744 0.062527835 -0.09661275 0.14099878 0.15608639 -0.00045581162 -0.16868934 0.1979247
0.14423782 -0.111140385 0.027847148 0.110944316 -0.052848756 -0.24376048 0.21339595 -0.15159407
-0.22970735 -0.015641235 -0.12511814 -0.21740493 -0.08239928 -0.22112072 -0.13067348 -0.13472462
-0.14958014 -0.018112123 -0.08231687 -0.1872034 0.11310527 -0.07219942 0.23176222 -0.06019865
-0.08358756 0.0038841977 -0.18032794 0.16827706 0.08250989 -0.14389673 0.15586954 -0.16854931
0.100068465 0.11139667 0.13235039 0.073615886 0.062116813 -0.062174305 -0.008357579 -0.1826801
0.17766753 0.10443139 -0.06147406 0.020344393 -0.085690886 0.029398061 -0.07964498 0.18011019
0.11281677 0.15134054 -0.071654305 -0.13595806 0.061119486 -0.1919055 0.13669483 -0.1529455
-0.044426907 -0.13226713 0.010111367 0.06239304 0.08236259 0.03576073 0.031814158 0.05796327
-0.17811464 0.00770338 -0.18106937 -0.09441155 -0.022877824 -0.08460668 0.21239835 0.115294784
-0.056146666 0.1310521 0.06363317 -0.1332719 0.16520277 0.089654624 -0.12896661 0.006258756
0.14568478 0.18421373 -0.016924515 -0.13688137 0.098644435 -0.059720114 -0.17358117 -0.14539836
0.15496945 0.046322733 0.08699605 0.11378452 -0.019045975 -0.10285673 0.19727631 -0.077731155
0.0839808 -0.052810535 0.20139612 0.1697593 -0.09375341 -0.1181423 0.21597727 -0.22228378
-0.025403708 0.1430811 -0.07874371 0.10649863 -0.008154121 0.085686326 -0.016060427 0.20741832
0.20261768 -0.03313707 0.14492121 0.14842814 -0.06602512 -0.13885427 -0.117461644 -0.15475841
-0.043215647 -0.06471117 -0.06996176 -0.09658602 -0.1314413 0.13142574 0.010557756 0.04269153
-0.053958207 0.05570811 0.10399771 -0.19201282 0.09340268 0.045229107 0.09097113 0.20996314
-0.18205802 -0.06829317 0.11314653 0.07208803 0.008941725 0.050046086 -0.014914153 -0.085476
0.04306364 -0.037263416 0.09484449 -0.18937322 -0.035973694 0.06913382 0.18088818 0.012639403
0.17582938 -0.15121244 0.01276727 -0.16398543 -0.027823538 -0.15044406 0.12709498 0.2169792
0.023190513 0.13832206 -0.10718396 -0.08727382 -0.16243462 0.18564102 -0.09887934 -0.20619605
-0.06640273 0.03343934 -0.0114277005 -0.017198965 0.21105427 -0.19268207 -0.052143395 -0.200353
0.03572297 -0.18095319 0.16305146 -0.15075849 0.09599981 0.17965257 -0.13610193 0.12587741
-0.17125246 -0.18269745 -0.08659017 -0.021288946 -0.19927801 -0.17023899 0.122951776 0.158889
0.090440035 0.018756852 0.12958571 -0.21772203 -0.09993814 -0.16186346 0.014891639 -0.07997021
0.21620697 0.011779338 -0.0604167 -0.1807146 0.049476713 -0.14885345 0.05227694 0.058147162

bias f4 [20]
00000000: 98ef 4bbe a366 8abe eecc 033e f812 53bd
00000010: 419e 62bd 67b4 22be 0039 a33c 4476 2dbe
00000020: e8a0 4a3e 3d42 dfbd 20f0 153d eaa2 453e
00000030: abac 4fbe b7d6 46be e04d de3d 4e37 19be
00000040: 9eba 153e c185 fabd 30ca 44be 10e1 273e
-0.19915617 -0.2703143 0.12871143 -0.051531762 -0.055326704 -0.1588913 0.01992464 -0.16939646
0.19787943 -0.10901306 0.036605954 0.19300428 -0.20280711 -0.19417845 0.10854697 -0.14962503
0.1462197 -0.12232543 -0.19217753 0.16394448

weight f4 [1, 20]
00000000: e00f e13d 290e 113e 8639 68bc fa5c dcbc
00000010: a3ac c43d 3e0d 153d a859 d13d 906b 8abd
00000020: e3ee 61be 7052 0cbe cc3d 58bd c23c 07be
00000030: 6219 22be d5e9 253e 548f 8aba 3d65 5dbd
00000040: 80a3 d73c 40fe 613b f177 e5bd 2248 333e
0.10989356 0.14165558 -0.014173871 -0.026899803 0.0960324 0.03638958 0.10222179 -0.06758797
-0.22063784 -0.13703322 -0.05279331 -0.13206771 -0.15829995 0.16202481 -0.001057128 -0.054051626
0.02632308 0.003448382 -0.11204518 0.17507985

weight f4 [20, 4]
00000000: 17c1 913e 55b4 023d a21b b63e 9f0a c73e
00000010: 0abb 9ebe b6f4 b7be eefc f1be 02b0 bb3e
00000020: 6822 ffbd 188a 95be 5844 57be 6c6c 0ebe
00000030: 2c56 523e 0517 823d d4ae 8b3b f653 c33e
00000040: fc4e fc3c d624 bcbd 1d33 a93d 6d4f b9be
00000050: 8b54 8c3e b2c5 953e 57eb 103f 4dbd 0a3e
00000060: b82f d2be 001b 3c3d d4bd 0d3d 6d16 5bbd
00000070: 10ff 073d 80e9 c6bd 04d5 b5be 1ee8 b13e
00000080: 9f42 123f e722 3b3e 6943 aebe 0067 aebe
00000090: 17b7 f93e 0f50 cf3e fe47 81be d165 88be
000000a0: 103a 0f3e 6c37 83be 0652 883e 08cc e93e
000000b0: b487 9fbe 24ad cebc 40b9 1fbe bc66 af3e
000000c0: 07fb b3be 45f7 223e c115 49be 4f7e 8e3d
000000d0: 6cf3 88be e07b 333d c54a c43e 5e19 893e
000000e0: ce33 903e 7f21 b9bd 0e2d d93e 36f1 c8bb
000000f0: f0bd 51be 1c0a 4abe 207c 3f3d 00fd 253c
00000100: 7155 a73d a096 a23d f283 63be 7b67 993e
00000110: 3655 f0bd 0ef5 ad3e 02e2 5abe 65f7 093e
00000120: 0a86 cebe d030 a5bd 3895 35be 50e8 863d
00000130: 49c9 77bd ffeb a83c 1100 b0be 1716 8fbe
0.28467628 0.03191026 0.35567957 0.3887529 -0.31002074 -0.35928887 -0.47263283 0.3665772
-0.12457734 -0.2920692 -0.21022165 -0.13908547 0.20540684 0.06352047 0.0042627845 0.38149995
0.030799381 -0.091867134 0.08261702 -0.3619341 0.2740825 0.29252392 0.566091 0.13548775
-0.41052032 0.045924187 0.034604862 -0.053488184 0.03320223 -0.09712505 -0.3551408 0.34747404
0.57132906 0.18275033 -0.34035805 -0.34062958 0.487725 0.40490767 -0.25250238 -0.2664018
0.13986993 -0.2562822 0.2662508 0.45663476 -0.3115822 -0.025229044 -0.15598011 0.34258068
-0.35152456 0.15914638 -0.19637205 0.06957685 -0.26748216 0.04381931 0.38338295 0.26777166
0.28164524 -0.09039592 0.42417186 -0.00613227 -0.20482612 -0.19730419 0.046749234 0.010131121
0.081705935 0.07938886 -0.22218302 0.29961762 -0.11735003 0.33976024 -0.21375278 0.1347328
-0.4033664 -0.08065951 -0.17732704 0.06587279 -0.060494695 0.020620344 -0.3437505 -0.2794654

bias f4 [20]
00000000: 9f9f 8b3d 720e ddbe 08c3 933d caa8 43be
00000010: d2cb 02bf cbcc 823e ccda 2f3e 887e a8bd
00000020: 04d8 e43e c896 bfbe e066 2cbd b179 7abe
00000030: 3399 9bbe 3c5c 023f 97e6 0e3e acd0 553e
00000040: 7d4d dd3d 9acf 0e3f 0052 ea3b 14d8 53be
0.06817555 -0.43175083 0.07214934 -0.19107357 -0.51092255 0.2554687 0.17173308 -0.08227259
0.44696057 -0.37419724 -0.042090297 -0.24460484 -0.3039032 0.5092199 0.1395515 0.20880383
0.10805795 0.55785525 0.0071508884 -0.20687896

weight f4 [20, 20]
00000000: 2076 d23d fa5c c0bd f462 113e 20f1 4fbd
00000010: f3c5 1dbe fc42 3fbd 3a33 0ebe 50c7 023e
00000020: beb6 36be a0ad cbbd 28a9 4f3e e86f 823d
00000030: a03a fa3c dcf1 c1bd c667 013e 1cda dd3d
00000040: 4aef edbd 4076 7a3d 680b 04be 9f33 49be
00000050: 4091 403d dc4d ef3d 50f1 443c 2076 d03c
00000060: 0880 633e 3881 0cbd 30e2 fb3c 746c 94bd
00000070: f6bc 3a3e 376c cfbd 04fe ab3d beb5 f0bd
00000080: c078 543e 4421 0dbd 0b1e 63be 9b74 12be
00000090: 38ce 2bbe 4044 a5bd 4046 d33d c02f 55bb
000000a0: b3e9 0fbb 659b fdbd 16a4 323e 01d1 e2bd
000000b0: 71ac 18be fbe4 383e 5880 263e 2be9 50be
000000c0: bda6 8d3d 00f0 9a3d 1810 d43d 9ff4 f7bd
000000d0: 145f 0abc d50a 12be 001c 183d d4fd bd3d
000000e0: 61bd 44bd eda7 933e e08e 94bc 3d11 3dbd
000000f0: 2480 2fbe d897 c43c 6eb1 013e b030 963c
00000100: 1062 ff3c d47e a33d bc5c 8a3d c0a2 733d
00000110: 108d aa3d d894 59bd b27d 033e 6089 95bd
00000120: 9245 0d3e 1096 333d 979d 31be 50f8 29bc
00000130: ea58 15be 4021 2cbe 4456 c4bd 1000 05bc
00000140: e5e2 0fbd a8c4 363e e49e 32be 559d e63d
00000150: 6b1d 0cbe 5d18 7abc 75b9 bbbd 60c6 b6bb
00000160: cbbd 073e 76f2 8f3e 5029 42bc 89db 4d3e
00000170: d783 723e 5bb5 90bd 821c 073d 4b15 e3bd
00000180: 3abd 383e 4a84 873e c899 683d 5d04 2e3d
00000190: 8e7b 33be 0cbc 13bd 4a3e 513e 44f5 5e3e
000001a0: 28c6 6a3d a253 4d3e c319 51be ab0a 27be
000001b0: 0675 083e 4a28 fcbd bc37 253e 1446 9b3d
000001c0: 92df 01be 1f95 40be b691 1dbe ebe4 5abe
000001d0: 4751 53be 5018 04be 5422 213e 9e65 013e
000001e0: 90bc 273c b8c2 4f3e 1429 cf3d f0c2 2d3e
000001f0: c074 cdbd 2050 d53c ccaa 05be bee2 08be
00000200: 4654 013e 5fbf 05be 8279 1cbe 505f b73d
00000210: f047 60bd 266d 4a3e 1181 5cbe 144e d43d
00000220: e6a4 4bbe 9c8e 08be 7061 08bd 5449 dcbd
00000230: 70ba 70bd d83a 0ebe 802a 57bb 70c4 013e
00000240: e393 bfbd fd4b ec3d 19ef 82bd cad8 26be
00000250: 1092 0e3e 091c 953e 4087 37bd 9ed5 54bd
00000260: 2178 44bd 132f 7e3e ce9f 69bd 2edf cabd
00000270: fb80 103e 6624 683e 9a04 503e 43df 76bc
00000280: 1c98 3fbe a8e0 0fbd 846c 2fbd 1eb6 1ebe
00000290: 04c2 aebd a31e 40be da21 5fbe f5d7 43be
000002a0: f04e d2bc e06b 61bc 03d1 1abe ee88 99bd
000002b0: ade5 eebd d204 afbd b804 403e 8023 dc3c
000002c0: 8011 59bd d82e 09be 8478 443e 8e0f 5b3e
000002d0: c681 91bd b9df 63be e8b0 cabc 90cc 113e
000002e0: f8b2 463e 0a1c 1fbe 66c4 89bd f048 8e3c
000002f0: 9a97 5b3e 90b7 563c 0ce6 be3d bce3 41be
00000300: 6c20 8d3d f0bf 913d 66bc 31be 803b 6f3d
00000310: aac1 213e e351 32be 808b cfba 0879 8bbd
00000320: f70b dcbd f00d 73bd 962f 24be 5754 22bd
00000330: e055 793d fa05 efbd 207e 86bb 187e 4c3e
00000340: 8af1 713e f801 633e 4398 5abe 2721 ecbd
00000350: c846 b43d fd39 7d3e a6aa b0bd 7f37 59be
00000360: 618e 34be c450 b93d 283a 013d 97b9 aa3c
00000370: 8eb5 e6bd fdaa 3bbe b44b 5abd 468e 5b3e
00000380: 4634 623e 09c9 01be a0b7 283e 0837 363d
00000390: 1db2 653d 4952 133e d298 ecbd 169c 553e
000003a0: c7b9 d3bd 4912 113e a7c8 e3bd 7c42 103e
000003b0: 201f c03d 5965 943e 6a35 5c3e 38ea ca3c
000003c0: 396b 7b3e d873 3cbd 00a9 7cbd b926 cf3d
000003d0: 4a12 bcbd 9bd4 963e 980e 293b 6afe 193e
000003e0: 7d7a 563e 2c65 8e3e 0ab1 39be b79c f1bd
000003f0: 449b 0d3c 63cf 213d 8bdb d0bd 8066 6abd
0.10276437 -0.09392734 0.14197904 -0.050767064 -0.15407543 -0.04669474 -0.13886729 0.12771344
-0.17843148 -0.09945226 0.20279372 0.06369001 0.030545533 -0.09469959 0.12637243 0.10832617
-0.116179064 0.06114793 -0.12894976 -0.19648598 0.04701352 0.11684772 0.012020424 0.025446951
0.22216809 -0.03430292 0.030747503 -0.07247248 0.18236145 -0.10128062 0.08398059 -0.117534146
0.20749187 -0.034455553 -0.22179429 -0.14302294 -0.16777885 -0.08069658 0.103161335 -0.0032529682
-0.0021959364 -0.12383155 0.17445406 -0.110750206 -0.14909531 0.18056099 0.16259897 -0.20401447
0.069165684 0.075653076 0.10354632 -0.12107205 -0.00844552 -0.14261945 0.037136078 0.092769295
-0.04803217 0.28839055 -0.018134534 -0.046159018 -0.17138726 0.023998186 0.1266534 0.018333763
0.03117469 0.07983175 0.06755969 0.059481382 0.08327687 -0.053120464 0.12840918 -0.07301593
0.1379607 0.043844283 -0.17345272 -0.010374144 -0.145847 -0.16809559 -0.09586766 -0.008117691
-0.035128493 0.17848456 -0.17443424 0.112604775 -0.13683097 -0.015264598 -0.091662325 -0.0055778474
0.13255994 0.2811467 -0.01185067 0.20103277 0.23683105 -0.07065841 0.03298617 -0.11088046
0.18040934 0.26468116 0.056787282 0.04248463 -0.17527601 -0.036068007 0.20433918 0.21773249
0.057317883 0.20051435 -0.20419984 -0.16312663 0.13325891 -0.12312372 0.16134542 0.07581726
-0.12682942 -0.18806885 -0.15387616 -0.21376388 -0.20636474 -0.128999 0.15735751 0.1263642
0.010237828 0.20289123 0.10115257 0.16968894 -0.10032034 0.026039183 -0.13053435 -0.13367745
0.12629804 -0.13061284 -0.15280727 0.08953726 -0.054756105 0.197682 -0.2153361 0.10366455
-0.19887123 -0.13335651 -0.03329605 -0.10756174 -0.05877155 -0.13889635 -0.0032831728 0.12672591
-0.09354379 0.11537931 -0.063932605 -0.16293636 0.13922906 0.29122952 -0.04480672 -0.051961534
-0.047966126 0.24822645 -0.057037167 -0.099058494 0.14111702 0.22670135 0.20314255 -0.015067878
-0.18710369 -0.03512636 -0.042828098 -0.1549916 -0.08533099 -0.18761687 -0.21790257 -0.1912535
-0.025672406 -0.01375863 -0.15118794 -0.074968204 -0.11664901 -0.08545841 0.187518 0.026872396
-0.052995205 -0.13396776 0.19186598 0.21392652 -0.071048304 -0.22253312 -0.024742559 0.1423819
0.19404209 -0.1553804 -0.06726913 0.017368764 0.2144455 0.013105288 0.09321222 -0.1893453
0.068909496 0.07116687 -0.17357025 0.058406353 0.15796533 -0.1741405 -0.0015834421 -0.06810194
-0.107444696 -0.059339464 -0.16033778 -0.039631214 0.060872912 -0.11671062 -0.0041043907 0.19969976
0.23627296 0.2216872 -0.21347146 -0.11529761 0.08802563 0.24729152 -0.086262986 -0.21212576
-0.17632438 0.09048608 0.031549603 0.02084045 -0.112650976 -0.18326946 -0.053294852 0.21440992
0.22090253 -0.12674345 0.16476297 0.044486076 0.056078065 0.14386858 -0.11552586 0.20860323
-0.103381686 0.14167131 -0.11122256 0.14087862 0.093809366 0.28983572 0.21504751 0.024769887
0.24552621 -0.046008915 -0.06168461 0.10114808 -0.09183176 0.2945908 0.0025796052 0.15038458
0.20945163 0.27811563 -0.18133941 -0.11797469 0.008642975 0.03950442 -0.101981245 -0.057226658

bias f4 [20]
00000000: 06ec 263e e8ce ac3d ca69 c43c ba87 87bd
00000010: bb82 23bd dcfe 9d3d 2060 89bd 8139 95bd
00000020: 204b 893b ba20 a8bd 2cf2 093e af88 ca3d
00000030: 206c 943d 4452 073e f770 5fbe 9e9c 7bbd
00000040: bf4c 78bd 88da a5bd 36e1 e23b c8d8 51be
0.16300973 0.08437902 0.023976225 -0.06617685 -0.039919596 0.07714626 -0.067077875 -0.072863586
0.004189864 -0.08209367 0.13471287 0.098893516 0.07247186 0.13214976 -0.21820436 -0.06142866
-0.060620066 -0.08098322 0.00692382 -0.20492852

weight f4 [1, 20]
00000000: 001a d43d 78ea fa3d f147 be3d 3802 af3d
00000010: ea5c 3f3e e8a7 c43d 4e18 5fbe 8f72 653e
00000020: 46eb 5a3e 6045 e23d e4b0 843d 030c cb3d
00000030: da68 5a3e bd41 2e3d eb78 0fbe 9301 63bc
00000040: 21a6 40be 5ef2 efbd 817b 7b3e c310 f9bd
0.103565216 0.122517526 0.092910655 0.08545345 0.18687788 0.09602338 -0.21786615 0.22406982
0.21378812 0.110483885 0.06479052 0.099144004 0.2132906 0.04254316 -0.1401097 -0.013855356
-0.18813373 -0.1171615 0.24558832 -0.121614

weight f4 [20, 4]
00000000: 6fbe 193e 052f ca3e fe6c 22bf 78be 6f3e
00000010: 66ea c73e 6868 0fbe eca4 15be d857 3b3e
00000020: 7a59 afbe 00d1 15be 70e4 6e3d c01a 843e
00000030: 74fc 8a3d 7428 ec3e 4ae2 be3b 3e8b 0a3f
00000040: 6796 5ebe a454 b8bc f41d 9c3e 3fe6 d9be
00000050: 787f 003e d834 2abe c6d3 c1be 8878 d13d
00000060: 0395 863d f25c d33e 0474 ecbd 5c99 e1be
00000070: 5df0 b73e d205 14bb 41cb 723d bd83 fabe
00000080: a478 d13e ea67 ebbe a0b5 923c 10e6 f43e
00000090: 74b7 19be 9c32 23be a068 4a3d 1ceb 7f3e
000000a0: 4705 a9be 78c1 e43d d629 f13e 54a1 a83e
000000b0: 0a7b 343e cfa9 d83e d0d3 c53c cb8f 913e
000000c0: d08d bb3d e88e 85bd 58c1 c9bd dca2 683e
000000d0: a458 953e 5ded cdbc a6a3 bf3e 3c1c a03e
000000e0: be52 913e 7823 f6be 1e18 99be d2e6 b53e
000000f0: c84e c93d 1804 63be 0006 843a a040 c53c
00000100: 5272 59be 64b1 8e3d f4a7 c83d 2293 4e3e
00000110: dce8 a9be 0881 79be 50a6 403e 8a00 813e
00000120: 6024 05be ac2e 47bd 2287 c3be 720c 1ebd
00000130: 225c 603e 9308 273e 2b67 b8be 2d32 c23e
0.15014051 0.39488998 -0.6344756 0.23412502 0.3904602 -0.14004672 -0.14613694 0.18295228
-0.34247953 -0.14630508 0.058323324 0.2580166 0.06786433 0.46124613 0.0058253156 0.54118717
-0.21737061 -0.022501297 0.30491602 -0.42558476 0.12548625 -0.16621721 -0.37856883 0.10228068
0.065713905 0.4128185 -0.11545566 -0.44062316 0.3592557 -0.0022586477 0.05927587 -0.48928633
0.40912354 -0.45977718 0.017908871 0.47831774 -0.15011388 -0.15937275 0.049416184 0.24992031
-0.3301184 0.11169714 0.4710223 0.32935584 0.1762506 0.42317054 0.024148852 0.28430018
0.09157908 -0.06521398 -0.098513305 0.22718376 0.2916919 -0.025137598 0.3742954 0.3127154
0.2838344 -0.48073936 -0.29901212 0.35527664 0.098294795 -0.2216953 0.0010072589 0.024078667
-0.21235016 0.06967428 0.097976595 0.20173314 -0.3318547 -0.24365628 0.18813443 0.25195724
-0.13002157 -0.048628494 -0.38189036 -0.038586088 0.21910146 0.16311865 -0.3601621 0.37928906

bias f4 [20]
00000000: 833e d2be 8e59 8c3e b030 ff3d 554d 0ebe
00000010: 8113 483e 2010 f0bd caab 56be c782 263e
00000020: 92dc 833e c873 003e b91a 6dbe f56f cc3e
00000030: 26db 9e3e f095 5abe e05d 753d 264f b33e
00000040: 48b0 133e 3816 b23e 2ec3 0bbf 15b8 22be
-0.41063318 0.27412075 0.12460458 -0.13896687 0.1953869 -0.117218256 -0.2096397 0.16260825
0.2575422 0.12544167 -0.23154725 0.39929166 0.31026572 -0.21346259 0.05990398 0.35021323
0.14422715 0.34782577 -0.54594696 -0.15890534

weight f4 [20, 20]
00000000: 5cb1 9b3d f2c2 2ebe 708c 5abd c40e 42be
00000010: c869 e43d cc2c 43bd 6cd4 5ebe 7080 22be
00000020: a49f c5bd c60c 143e 7b71 55be f474 3e3e
00000030: 2a09 533e 5cd2 5c3e e03a 05be 685f 5f3d
00000040: ac93 293e d091 1e3d 401c 233d 34fc 5c3e
00000050: 2924 28be 6875 cc3d 4044 103e b062 9ebd
00000060: 7cd8 07be 983d 0a3d 50bc 97bc f664 5abe
00000070: a313 31be 0cab c0bd 03b1 f3bd b4be fe3d
00000080: 381e 453d 589f 22bd 1078 c73d 6653 123e
00000090: f0d0 0b3c 8873 dc3d ec74 5a3e 9490 30bd
000000a0: d67a 253e 0ab7 8dbd fccb 4dbe 9fea d43d
000000b0: 60a1 8b3d 6709 ecbd 96f2 c13c 7934 1e3e
000000c0: eaa2 0f3e f039 a53d 88fa 563e 1fe9 5fbd
000000d0: 003f 633b 7337 db3d 400c 1e3d 20e6 eabc
000000e0: f963 063e 9699 bbbd a253 873e 3e7b d2bd
000000f0: 395a 1fbe 9051 f2bc d20d cdbd 9c1c 44be
00000100: d803 ce3c 1e31 d9bd 3051 083e 0008 8ebd
00000110: 3d16 1bbe be38 39be 6013 1a3e 4c4a 13be
00000120: 68a0 18be 38fb 9fbd c4f1 8d3d e4f0 4a3e
00000130: 0c0b c93d e66b 12be b0d4 1cbc 5060 073d
00000140: 7d5b 14be 0048 e8b8 6063 8e3d 4bc3 24be
00000150: 0e79 473e 6ca1 4cbd d837 7fbd 3c18 4abd
00000160: 0000 e43d 88a9 303e ee20 8abd 1e3f 48be
00000170: 2016 253e 74bd b33d 3e0a 3abe ca48 0bbe
00000180: 2372 3ebe 5441 c93d a0b0 65bc 30df 603d
00000190: 3e33 cbbd 20f6 403d b02a c3bd 0cf7 71bd
000001a0: 7267 c6bd 7e23 dbbd 481b 73bd 8ac1 adbd
000001b0: 40c2 c1bc 00f2 223e c045 32bd df6c dfbd
000001c0: b44b 2e3e 4c24 debd 81ee 64be 42cf a8bd
000001d0: ad52 f3bd 7cae a63d 909b d63c 0e8b 4c3e
000001e0: 8fda 223e 48bd f4bd 788c ee3d 04bd 243d
000001f0: bcc7 a2bc f34c 43be 337e 153e 7fee b4bd
00000200: bc90 1ebe b5f7 09be 44cf 813e 5336 4b3e
00000210: 42b5 473e 001c 1d3e 73a9 fabd ce84 1f3e
00000220: 2c6c 653e e278 063e 0701 1d3d 63ab f23d
00000230: 8d6a 89be 38db bfbc 6c5c a83d ff4e 893c
00000240: 1360 a73d 506c c2bd 7200 4abd 3bef 37bd
00000250: 00ec 503d 605f 423e 2d91 e0bd 41b2 82bd
00000260: ccaf a13d 60f9 c43d 0000 49b8 747a c33d
00000270: 5584 83be b440 5e3e ad00 efbd e5bf e73d
00000280: 04f8 f73a a4c5 4f3e f7e4 59be d834 683e
00000290: 7a8a e2bd b041 423d 609f 573e d599 97bb
000002a0: 3ca3 44bd 1a0e 563e 2d3c e2bd 1457 463e
000002b0: 803e ed3d fd98 0a3e 59fe dabd bcb2 22bd
000002c0: d8fa 86bd 8037 98bc b546 cb3d 8781 d23d
000002d0: c4dc 0fbe 6c67 04be 73a3 e9bd ca69 41be
000002e0: 8c18 c33d c5c0 5abe 00fd a83a 4e77 64be
000002f0: a8a4 dd3d 7801 0abe 9204 b6bd 1065 013d
00000300: e6bc 18be fced 58be 6cf4 8dbd 3a93 4d3e
00000310: d800 56bd 5355 49be 63f0 2dbe 2fa3 3fbe
00000320: 0826 ebbd 949b ae3d 602b 1c3e b471 5a3c
00000330: ee3c d43d 8079 33be 5982 74be fd4d 61be
00000340: 4a5f 513e 6d8b d2bd bdf6 66be d319 0d3e
00000350: be41 40be 6d0a aa3d 5040 183d 681f 433e
00000360: 5f31 a5bd d084 163c 026b 0c3e 6a43 593c
00000370: bc17 513e 90ae 133e d4c8 3abd 6c2e dfbd
00000380: aa78 0dbe 58a7 72bd 6800 4b3e aa45 363e
00000390: 1c7c a33d 8c43 1abe 4cd9 dabd f6d9 883d
000003a0: 14a4 133e 04c2 07be e428 83bd 0ed9 2dbe
000003b0: 3745 913d 7ecf 4bbe d53a 12be 0a36 5c3e
000003c0: 7226 14bd 9cb8 50bd 1250 3f3e 9ed1 fcbd
000003d0: c3d2 853d 80a1 543e 7ce3 9cbd e035 a03d
000003e0: 3830 fe3d 88c2 583d 8802 b73d 6a65 943c
000003f0: 80dc febb 85c0 1f3e 465f c9bd b8f6 473e
0.07602188 -0.17066553 -0.053356588 -0.18950945 0.11152989 -0.047650144 -0.2176072 -0.15869308
-0.0964959 0.14457998 -0.2084407 0.18599302 0.20608965 0.2156462 -0.1301074 0.054534346
0.16560239 0.038713276 0.039821863 0.21580583 -0.16420044 0.09983331 0.14088535 -0.07733667
-0.13266176 0.033750147 -0.018522412 -0.21327576 -0.17292647 -0.094076246 -0.11898997 0.124387175
0.048124522 -0.039702743 0.09739697 0.14289626 0.008533701 0.10764223 0.21333665 -0.04310663
0.1616014 -0.069196776 -0.20097345 0.10396313 0.06817889 -0.11525231 0.023675244 0.15449704
0.1402699 0.08067691 0.20994008 -0.05466568 0.0034675002 0.107039355 0.0385859 -0.028674185
0.13124074 -0.091601536 0.26430994 -0.10277413 -0.15561761 -0.029579908 -0.10012402 -0.19151539
0.025148317 -0.106050715 0.1331222 -0.0693512 -0.15145202 -0.18088052 0.15046453 -0.14383811
-0.1490494 -0.07811588 0.06930879 0.19818455 0.0981656 -0.14298972 -0.009572193 0.033050835
-0.14488025 -0.00011076033 0.06952548 -0.16090123 0.19479772 -0.04995863 -0.062309116 -0.049339518
0.111328125 0.17252171 -0.06744562 -0.19555327 0.16121721 0.0877637 -0.1816797 -0.13601986
-0.18598227 0.098269135 -0.014019161 0.05490035 -0.09921883 0.047109723 -0.09529626 -0.059073493
-0.096876994 -0.10700129 -0.05935219 -0.0848418 -0.023652196 0.15912628 -0.04352355 -0.109094374
0.17021066 -0.10846767 -0.22356607 -0.08242656 -0.118810035 0.08138749 0.026197225 0.1997492
0.15903686 -0.11950165 0.11647886 0.04021932 -0.019870631 -0.19072323 0.14598922 -0.08834552
-0.154849 -0.13473399 0.25353444 0.19844942 0.19502738 0.15342712 -0.12239351 0.15578005
0.22404546 0.1313205 0.038331058 0.11849096 -0.26839104 -0.023419961 0.08220753 0.016761301
0.081726216 -0.09493315 -0.04931683 -0.044905882 0.051006317 0.18981695 -0.1096519 -0.063816555
0.07894859 0.09617877 -4.7922134e-05 0.095448405 -0.256869 0.2170437 -0.11670051 0.11315898
0.0018918519 0.20290238 -0.2127875 0.22676408 -0.110615686 0.047425926 0.2105689 -0.0046264925
-0.048007235 0.20903817 -0.11046634 0.19369155 0.115841866 0.13534923 -0.10693044 -0.039721236
-0.065908134 -0.018581152 0.09925596 0.10278612 -0.14049059 -0.12930077 -0.114081286 -0.18888012
0.09526166 -0.21362598 0.0012892783 -0.22311136 0.10822421 -0.13477123 -0.088875905 0.03159052
-0.14915809 -0.21184534 -0.069313854 0.20075694 -0.0522469 -0.19661455 -0.16986232 -0.18714593
-0.11481863 0.08525768 0.15250921 0.013332773 0.10363184 -0.17526817 -0.23877849 -0.22002406
0.20446506 -0.102804996 -0.2255506 0.13779382 -0.18775079 0.0830277 0.03717071 0.1905495
-0.080660574 0.009186938 0.13712695 0.013260702 0.2041921 0.14422059 -0.04560168 -0.10897526
-0.13815561 -0.059241623 0.19824374 0.17800012 0.07982656 -0.1506483 -0.10685977 0.06682198
0.1441806 -0.13257605 -0.06404284 -0.16977331 0.0709328 -0.1990337 -0.14280255 0.2150499
-0.036169477 -0.050957307 0.18682888 -0.12344669 0.0653434 0.20764732 -0.07660577 0.07822776
0.12411541 0.052919894 0.0893603 0.018114764 -0.0077777505 0.15600784 -0.09832625 0.1952771

bias f4 [20]
00000000: 806c 083c d4ce f73d 5fe2 19be dc16 7fbd
00000010: a04e 943d 6808 abbd 47eb 8d3e 63af 8cbd
00000020: b48d c83d e021 ad3c d19e 663c 9d8a 823e
00000030: 5895 e5bd c27a 80be 3623 e73d 78ff 373e
00000040: 1293 223e 6cb2 0cbe c0d6 53be 477a 22be
0.00832665 0.12099996 -0.1502776 -0.06227766 0.07241559 -0.08351213 0.27718565 -0.0686939
0.09792653 0.021134317 0.014075951 0.2549638 -0.11210126 -0.25093657 0.11286013 0.17968547
0.15876415 -0.13739938 -0.2068739 -0.15866958

weight f4 [1, 20]
00000000: 6496 26be f061 09be fc89 8fbd 7ce1 10bd
00000010: 189d d23d 2028 f43d 5f7c 43be 18bd 9dbd
00000020: 49ed 25be 4002 99bc 3f22 243d f7c4 14be
00000030: a852 e0ba a86c 803e a4a1 67be 2195 dbbd
00000040: a8d6 e03d 7092 37bc a18c 563c d53a a2bc
-0.16268307 -0.13416266 -0.0700874 -0.03537129 0.102838695 0.11921716 -0.19090413 -0.077020824
-0.16203798 -0.01867783 0.040071722 -0.14528261 -0.0017114477 0.25082898 -0.22620255 -0.107218035
0.109784424 -0.011204347 0.013095052 -0.019803444
