result_model/ex3_gated.pth (torch, 3103 bytes, 4 tensors)

weight f4 [30, 1]
0	0x38fa316b	0.00011930134
1	0xbf126d3c	-0.5719793
2	0x3eda9704	0.4269334
3	0x38fa2f6c	0.00011929762
4	0xc0e59851	-7.1748433
5	0x3cefd5de	0.029276785
6	0x3e5cffc0	0.21581936
7	0x3e33575a	0.1751379
8	0xc0f54caa	-7.6656084
9	0xc0ffa865	-7.989306
10	0x3f0741a8	0.5283456
11	0x3ec54c2c	0.38534677
12	0xbcf93840	-0.03042233
13	0x38fa2fb5	0.00011929815
14	0x38fa3144	0.000119301054
15	0xc0d97855	-6.795939
16	0x3f4f92f8	0.8108363
17	0x38fa3155	0.00011930118
18	0xbe342618	-0.17592657
19	0xbdec9be5	-0.11553172
20	0xbf07c664	-0.53037095
21	0xc0f4cf44	-7.650301
22	0xc0edf3c4	-7.4360065
23	0xbef64d1c	-0.48105705
24	0x38fa2f64	0.00011929756
25	0x3bc20452	0.005920925
26	0xc0e5794b	-7.1710563
27	0xc0e94b54	-7.2904453
28	0xbf4c4ccc	-0.7980468
29	0xbebf6b94	-0.37386763

bias f4 [30]
0	0xc19fa286	-19.954357
1	0xbf189b20	-0.596117
2	0x3eae6880	0.34064102
3	0xc19fe96b	-19.988974
4	0xc0e69eb1	-7.2068715
5	0xbebb5096	-0.3658492
6	0x3e7c97f8	0.24667346
7	0x42a48dab	82.276695
8	0xc0c782df	-6.2347255
9	0xc0b26240	-5.5744934
10	0xbdeae7d0	-0.11469996
11	0x3f0bbc78	0.54584455
12	0x3ecbaf7c	0.3978232
13	0xc19fdb69	-19.982134
14	0xc19faca7	-19.959303
15	0xc0fd8250	-7.9221573
16	0x3ea52b60	0.32259655
17	0xc19f986a	-19.94942
18	0xbf39d55a	-0.72591174
19	0x429e8649	79.262276
20	0xbec0a2c0	-0.37624168
21	0xc0c7a206	-6.2385283
22	0xc0d6629b	-6.699537
23	0x3e492c70	0.19645858
24	0xc19fe538	-19.986923
25	0x424274dc	48.61412
26	0xc0e6aec1	-7.2088323
27	0xc0de1829	-6.940449
28	0x3eb80f3c	0.35949123
29	0xbe9a119c	-0.3009156

weight f4 [30, 1]
0	0x3edf0ef0	0.43566084
1	0xbf1c70a4	-0.61109376
2	0xbf1c7d1e	-0.61128414
3	0x3eef37e8	0.4672234
4	0x3f6fed9a	0.93721926
5	0x3ea207b1	0.31646493
6	0xbef56398	-0.47927547
7	0xbd2a04ff	-0.04150867
8	0x3f1f0cfa	0.62129176
9	0x3f5310de	0.8244761
10	0xbf62176c	-0.8831699
11	0xbf0dccfe	-0.5539092
12	0xbf19302a	-0.5983912
13	0x3f01b630	0.5066862
14	0x3ed3a074	0.41333354
15	0x3dbe0f60	0.09280276
16	0xbf2b897c	-0.6700666
17	0x3f336c56	0.7008718
18	0xbebfc42c	-0.37454355
19	0xbe68d360	-0.22736883
20	0xbf456076	-0.7710031
21	0x3e9f739c	0.3114289
22	0x3e844238	0.2583177
23	0xbf5faab6	-0.8736986
24	0x3ed12da8	0.40855145
25	0xbdb500d4	-0.088380486
26	0x3e64f1f8	0.22357929
27	0x3e5a4c98	0.2131828
28	0xbf653b2a	-0.895434
29	0xbef6cdc8	-0.48203874

bias f4 [30]
0	0x3eaa5698	0.3326919
1	0x3e5f6e50	0.21819425
2	0x3f02060c	0.50790477
3	0x3dc249f0	0.09486759
4	0xbf371078	-0.71509504
5	0xc156b084	-13.418095
6	0x3f252f04	0.64524865
7	0x40bb9a37	5.862575
8	0x3f7fb89e	0.9989108
9	0x3eab0a38	0.33406234
10	0x3ed9ee6c	0.42564714
11	0xbf05cae4	-0.5226271
12	0x3f444d2e	0.76680267
13	0xbef2333c	-0.47304714
14	0x3f1b8836	0.60754716
15	0xbe761e50	-0.24035001
16	0xbf1cbd5e	-0.6122645
17	0x3f5fec82	0.8747026
18	0xbf227b24	-0.6346915
19	0x4223e08f	40.969296
20	0xbeca7d30	-0.39548635
21	0x3f56a1d2	0.8384067
22	0x3e7ae1e0	0.24500227
23	0x3e445ee8	0.19176829
24	0x3d4952e0	0.0491513
25	0x41d24141	26.281862
26	0x3f18b3a4	0.5964911
27	0x3df4e100	0.11956978
28	0xbf0f9f7e	-0.5610274
29	0xbf60fe0e	-0.87887657
