result_model/ex4_amzn_nsde.pth (torch, 22036 bytes, 20 tensors)

weight f4 [20, 4]
0	0x3ec73ead	0.38915005
1	0x3e91425e	0.28370947
2	0x3d45655c	0.048192367
3	0x3e09774e	0.13424417
4	0xbe98fe5c	-0.2988156
5	0xbebb2750	-0.3655343
6	0x3e807678	0.25090384
7	0xbe208bcc	-0.15678328
8	0xbe2aadba	-0.16667834
9	0xbd89b970	-0.067248225
10	0x3ef5c32a	0.4800046
11	0x3e3d2a74	0.18473226
12	0xbef48527	-0.47757837
13	0x3e16fd3f	0.14745043
14	0xbdc5bf07	-0.09655576
15	0xbd6a62eb	-0.05722324
16	0x3f087ea0	0.53318214
17	0xbb9ca052	-0.004779854
18	0x3f01b745	0.5067027
19	0x3d779588	0.06044534
20	0x3e1cd7c4	0.15316683
21	0xbe037d3c	-0.12840742
22	0x3df02aa8	0.11726886
23	0x3abc2000	0.0014352798
24	0x3ebd65bc	0.3699168
25	0xbe5c44a8	-0.21510565
26	0xbe091260	-0.13385916
27	0x3ec2eaca	0.38069755
28	0x3eef4e6a	0.46739513
29	0xbe2988ac	-0.16556042
30	0xbe93099c	-0.2871827
31	0x3eebb11a	0.46033555
32	0x3ea6fc0e	0.32614177
33	0x3d4081ca	0.046998776
34	0xbdc6411c	-0.096803874
35	0x3ed5aec7	0.41734907
36	0x3e09d1ac	0.1345889
37	0xbe785a04	-0.24253088
38	0x3e8a766c	0.27043474
39	0xbe317254	-0.17328769
40	0xbe220bb9	-0.15824784
41	0x3e7916f4	0.24325162
42	0xbd624456	-0.05524095
43	0x3ec9f28a	0.39442855
44	0xbd29f8e0	-0.04149711
45	0xbecb84a8	-0.39749646
46	0xbe168b80	-0.14701653
47	0x3ebed00e	0.37268108
48	0x3ee55a4e	0.4479546
49	0xbdd2ca10	-0.102924466
50	0xbef84556	-0.484904
51	0x3ef9f630	0.4882064
52	0x3eed5c33	0.46359405
53	0x3ed13fb9	0.4086893
54	0x3e4cb3a5	0.19990404
55	0xbbeb8d2b	-0.0071884594
56	0x3c27648c	0.010216843
57	0x3d345591	0.044026915
58	0x3eb5dd4d	0.35520402
59	0xbdf0cbf7	-0.11757653
60	0x3ee18980	0.44050217
61	0xbeded74e	-0.4352364
62	0xbe889518	-0.2667625
63	0xbef20ae0	-0.47273922
64	0x3e8b3ccc	0.27194822
65	0xbd3f3a10	-0.046686232
66	0xbd56a910	-0.052407324
67	0xbe517b10	-0.20457101
68	0xbe084e70	-0.13311172
69	0xbe42b12c	-0.19012898
70	0x3e5e6c84	0.21721083
71	0xbdf765a8	-0.12079936
72	0x3eb2f1b8	0.34950042
73	0xbeb7a08e	-0.3586468
74	0xbd2542c0	-0.04034686
75	0x3d12a230	0.035799205
76	0xbe4a3cc0	-0.19749737
77	0x3ef76e77	0.48326465
78	0x3e1d5be7	0.15367089
79	0xbd61a461	-0.055088405

bias f4 [20]
0	0xbecacb48	-0.39608216
1	0x3ed01cb8	0.4064691
2	0xbe7e329c	-0.24823993
3	0xbe6cb42d	-0.23115607
4	0x3f139adb	0.57658166
5	0x3debb708	0.1150952
6	0x3ccf7e20	0.025328696
7	0x3ecf330c	0.40468633
8	0xbdb01c33	-0.085991286
9	0xbedb538c	-0.4283718
10	0x3e8d1fed	0.2756342
11	0x3d80ce50	0.06289351
12	0xbede4986	-0.4341547
13	0xbed59335	-0.41713873
14	0xbe081027	-0.13287412
15	0xbeb2cfb8	-0.34924102
16	0x3e9dc500	0.30814362
17	0xbee2c6ee	-0.44292396
18	0xbdfbdb60	-0.12297702
19	0xbed5720b	-0.4168857

weight f4 [20, 20]
0	0xbbeae60a	-0.007168536
1	0x3d5f6f88	0.054549724
2	0xbde1b82f	-0.11021458
3	0x3df45c1b	0.1193163
4	0xbd1c4d60	-0.038159728
5	0x3d8313c0	0.064002514
6	0x3dfbe76c	0.122999996
7	0x3e3cc848	0.18435776
8	0xbe50e4c1	-0.20399763
9	0x3dcdf924	0.100572854
10	0xbdfc44cc	-0.123178095
11	0x3c708460	0.014679998
12	0x3e24cff8	0.16094959
13	0x3e240595	0.16017754
14	0xbe84073e	-0.25786775
15	0xbdc08e5c	-0.09402153
16	0xbe54dc13	-0.20787077
17	0xbd865eea	-0.06561072
18	0x3d8744f8	0.066049516
19	0xbdd94a7a	-0.106099084
20	0x3c282bf3	0.010264385
21	0x3e43fc14	0.19139129
22	0x3c93cca7	0.018041922
23	0x3e06a9bb	0.13150685
24	0xbecb7fa9	-0.39745834
25	0x3dcc3114	0.099702984
26	0x3d070270	0.03296131
27	0xbe1e64ce	-0.15468141
28	0x3e7dcbe6	0.24784812
29	0x3d8ee1d8	0.0697667
30	0x3d9f055d	0.07764695
31	0x3dc15d10	0.094415784
32	0xbd829e6a	-0.06377871
33	0x3daf8bab	0.085715614
34	0xbd9d0de9	-0.07668669
35	0xbb15ebc0	-0.0022876114
36	0xbe130e6a	-0.14360967
37	0xbd3bef70	-0.045882642
38	0xbe0096ca	-0.12557521
39	0x3e6b29a3	0.22965102
40	0x3e1ece7a	0.15508452
41	0xbd90e168	-0.07074243
42	0x3d8da4d5	0.06916205
43	0x3e31e879	0.17373838
44	0xbe6039bd	-0.21897025
45	0x3e3f8c66	0.18705902
46	0xbb82ba20	-0.003989473
47	0x3d25ef68	0.04051152
48	0x3e149833	0.14511184
49	0x3dfbf728	0.12303001
50	0x3db9ef3f	0.09078836
51	0x3e5caa3e	0.21549317
52	0xbdde73f4	-0.1086196
53	0xbe12185f	-0.1426711
54	0x3e38310e	0.17987463
55	0xbd3b4d18	-0.04572782
56	0x3de071f4	0.10959235
57	0x3e56ca66	0.20975646
58	0x3d874db4	0.066066176
59	0x3d2d726a	0.042345442
60	0x3e63b20e	0.22235891
61	0xbe3b4614	-0.18288451
62	0xbe911c7e	-0.2834205
63	0x3e03039e	0.12794349
64	0xbe5c5611	-0.21517207
65	0x3de9b200	0.11410904
66	0x3d837c38	0.06420177
67	0xbd02a890	-0.031899035
68	0xbe20651f	-0.15663575
69	0xbe24890e	-0.16067907
70	0x3d932134	0.07184067
71	0xbe58ee5d	-0.21184678
72	0xbd39e524	-0.04538454
73	0x3deb607d	0.11493013
74	0xbd645285	-0.05574276
75	0xbbdb2e20	-0.006688848
76	0xbe51ca86	-0.20487413
77	0xbe0756d0	-0.1321671
78	0x3d175578	0.036946744
79	0xbded8777	-0.115981035
80	0x3c703ec1	0.014663399
81	0xbe18b58a	-0.14913002
82	0x3e8ae672	0.2712894
83	0xbe76e897	-0.24112163
84	0x37a2f660	1.9426632e-05
85	0x3e360d32	0.17778471
86	0x3e597988	0.21237767
87	0x3d57fce0	0.052731395
88	0xbdb47ff6	-0.08813469
89	0x3d4575e8	0.048208147
90	0xbe7d86dc	-0.24758476
91	0x3e31b79c	0.17355198
92	0x3d957c10	0.07299054
93	0x3e3ecd33	0.18632965
94	0x3d9b8342	0.07593395
95	0xbe5fbbbe	-0.21848962
96	0x3da772f8	0.081762254
97	0x3e11ce00	0.14238739
98	0xbe20b468	-0.1569382
99	0xbc2e27c0	-0.010629594
100	0xbc4330be	-0.0119134765
101	0x3bf6c120	0.0075303465
102	0x3e864414	0.26223814
103	0xbdfdab02	-0.12386133
104	0x3d931e42	0.071835056
105	0xbd6d1370	-0.057879865
106	0x3db67468	0.089089215
107	0xbe645de1	-0.22301437
108	0x3dbffb02	0.09374048
109	0x3d1ac168	0.037782103
110	0xbb51c793	-0.0032009825
111	0xbe3c3eae	-0.18383285
112	0x3c315740	0.010824025
113	0xbd4633c6	-0.04838922
114	0xbddcf64f	-0.10789167
115	0xbdfaa4e8	-0.122384846
116	0xbc8dfd40	-0.017332673
117	0xbdffad2d	-0.124842025
118	0xbe341edc	-0.17589897
119	0x3e2fd052	0.17169312
120	0x3cbdd0d8	0.023170874
121	0xbd20d760	-0.039267898
122	0x3e1a1180	0.15045738
123	0x3d71f580	0.059072018
124	0xbe5ca4e5	-0.21547277
125	0xbe02bc59	-0.12767161
126	0xbe028eba	-0.12749758
127	0x3e2aceaa	0.16680399
128	0xbddaded5	-0.10687033
129	0xbdde9085	-0.10867409
130	0x3cdfca30	0.02731809
131	0x3d4c3950	0.049859345
132	0x3e2fa600	0.17153168
133	0xbe3ff02b	-0.1874396
134	0xbe06b8ac	-0.13156384
135	0x3e378624	0.17922264
136	0xbe3b8be1	-0.18315078
137	0x3e0e4512	0.13893536
138	0x3e317d1c	0.17332882
139	0xbe5833fc	-0.2111358
140	0x3e21679c	0.1576218
141	0x3d95c6c4	0.07313302
142	0xbe0596e2	-0.13045838
143	0x3ddef760	0.10887027
144	0xbd93cc86	-0.07216744
145	0xbe3b1bb1	-0.18272282
146	0xbde97e0d	-0.114009954
147	0xbe285bb3	-0.1644123
148	0x3dfd2d24	0.123621255
149	0xbd4bccb0	-0.049755752
150	0x3e2f6d66	0.17131576
151	0x3e1d83de	0.15382335
152	0xbdb5d236	-0.08877985
153	0xbdf865b1	-0.12128771
154	0xbca043e3	-0.01956362
155	0xbe5d5596	-0.2161468
156	0xbde3645b	-0.11103126
157	0x3e1f9eba	0.15587893
158	0xbd9be8c0	-0.07612753
159	0x3e7d20e9	0.24719585
160	0x3dfea9ad	0.12434707
161	0xbe28fd5a	-0.16502896
162	0x3e184913	0.14871626
163	0xbe2f23fe	-0.17103574
164	0xbba317ba	-0.0049771937
165	0x3dd1f44c	0.10251674
166	0x3e09565a	0.13411847
167	0xbd863e62	-0.06554867
168	0x3d54c6c7	0.05194738
169	0x3e2edfd4	0.17077571
170	0xbd0e2dac	-0.034711525
171	0x3d83e920	0.064409494
172	0x3dfa442c	0.12220034
173	0x3e062f38	0.1310395
174	0xbe5f3f98	-0.21801603
175	0x3dc2a260	0.09503627
176	0x3e513802	0.20431522
177	0x3df7f300	0.121068954
178	0xbe514588	-0.2043668
179	0x3c4c1ecc	0.012458514
180	0x3e2ef782	0.17086604
181	0xbe08e058	-0.1336683
182	0xbcea0b7e	-0.028569933
183	0x3da53aa5	0.08067826
184	0x3d911f73	0.070860766
185	0xbe098ab8	-0.13431823
186	0x3c7b73f0	0.015347466
187	0xbe1e80a0	-0.15478754
188	0xbda565a9	-0.08076031
189	0x3e0379b4	0.12839395
190	0xbe0980a0	-0.13427973
191	0x3e56ab5c	0.20963806
192	0xbbd315e0	-0.0064418167
193	0xbbe16ffe	-0.0068798056
194	0x3db8cb6e	0.09023176
195	0xbe3e2a42	-0.18570808
196	0xbde380dd	-0.11108563
197	0x3dc55a5c	0.09636375
198	0x3e368626	0.17824611
199	0xbe2dd7b6	-0.16976818
200	0xbccc2f38	-0.02492486
201	0xbdc523c6	-0.09625964
202	0x3c8dc630	0.017306417
203	0x3e52d1fe	0.20587918
204	0xbd0f7fd4	-0.035034016
205	0x3d449518	0.04799375
206	0xbe60f96e	-0.2197015
207	0xbd307a28	-0.043085247
208	0x3dd21580	0.10258007
209	0x3e295764	0.16537243
210	0x3d2fd7c0	0.042930365
211	0x3e62756c	0.22115105
212	0x3d8662ac	0.06561789
213	0xbd74ff54	-0.059813812
214	0xbe43252b	-0.19057147
215	0x3e44c934	0.19217378
216	0xbdc1e964	-0.09468344
217	0xbe38564d	-0.18001671
218	0x3dc20e04	0.094753295
219	0xbe5525b4	-0.20815164
220	0xbdc94466	-0.09827499
221	0x3e00caec	0.12577409
222	0xbdd217d6	-0.102584526
223	0xbd906376	-0.07050221
224	0x3df1c3c8	0.118049204
225	0x3e20e6d8	0.1571306
226	0xbe1e6a86	-0.15470323
227	0xbe46414b	-0.19360845
228	0x3da984e8	0.08277303
229	0x3c7ec2f0	0.015549406
230	0xbe45b428	-0.19307005
231	0x3dd4057c	0.103526086
232	0xbda1b39a	-0.078955844
233	0xbe4b61bf	-0.19861506
234	0x3e0dd746	0.13851652
235	0xbde6ded0	-0.11272967
236	0x3bd975a0	0.0066363364
237	0xbe4057af	-0.18783449
238	0x3de6b144	0.112642795
239	0xbd02fb58	-0.03197798
240	0xbe5c86d9	-0.21535815
241	0x3e5a1162	0.21295694
242	0x3e0014c4	0.12507921
243	0xbd19baa0	-0.037531495
244	0x3d7558b8	0.059899062
245	0xbdce5bf9	-0.10076136
246	0x3da0d45c	0.07853004
247	0xbe58be78	-0.21166408
248	0x3d645eb0	0.055754364
249	0xbe2c2ab4	-0.16813165
250	0xbdf4f4f6	-0.11960785
251	0x3da0eed4	0.07858053
252	0xbd5902c0	-0.05298114
253	0xbd88b5dc	-0.06675312
254	0xbd66ef44	-0.056380525
255	0x3d67efc0	0.056625128

bias f4 [20]
0	0xbe6e242f	-0.2325599
1	0x3dd1e2c2	0.10248329
2	0x3ba3b1b0	0.0049955472
3	0x3dcf72f8	0.101293504
4	0x3e20ab16	0.15690264
5	0xbe5e65b9	-0.21718492
6	0x3c699630	0.014256999
7	0x3e04ec48	0.12980759
8	0xbd6e3f4e	-0.05816584
9	0xbd549a1a	-0.051904775
10	0xbd35c3f0	-0.044376314
11	0x3bda1e40	0.006656438
12	0xbdbfdbf2	-0.09368123
13	0x3d8cd0ec	0.06875786
14	0x3d19c488	0.037540942
15	0xbbd5ac00	-0.006520748
16	0xbe3ec751	-0.1863072
17	0x3de354cf	0.1110016
18	0x3d843b56	0.0645663
19	0xbd906c94	-0.0705196

weight f4 [1, 20]
0	0xbdd2af32	-0.10287322
1	0x3d8dde94	0.06927219
2	0x3e349154	0.17633563
3	0x3dfd6f5c	0.12374756
4	0xbdb11f73	-0.086485766
5	0xbdeb7829	-0.11497528
6	0x3cad0718	0.021121547
7	0x3dd1351c	0.10215208
8	0xbae84047	-0.0017719351
9	0x3d7204bb	0.059086543
10	0x3e44ba74	0.19211751
11	0xbcc28e20	-0.023749411
12	0x3e5397c6	0.20663366
13	0xbe03d51b	-0.12874262
14	0xbd9706b0	-0.073743224
15	0x3c82bd40	0.015959382
16	0x3d488d69	0.048962984
17	0xbe50b4ae	-0.20381424
18	0xbe4cbe5d	-0.19994493
19	0x3e116393	0.14198141

weight f4 [20, 4]
0	0xbe6cf644	-0.23140818
1	0xbec6d68e	-0.38835567
2	0xbe31fe34	-0.17382127
3	0xbe2b90d4	-0.16754466
4	0xbe9931d6	-0.29920834
5	0xbec856d0	-0.39128733
6	0xbe89229c	-0.26784217
7	0xbed155e2	-0.40885836
8	0xbdb1cca8	-0.08681613
9	0xbdfb74e0	-0.122781515
10	0xbef8529e	-0.48500532
11	0x3d974e00	0.07387924
12	0x3dda2588	0.1065169
13	0xbe9660d6	-0.29370755
14	0xbdf922f0	-0.12164867
15	0xbebb996e	-0.36640495
16	0xbe387aef	-0.18015645
17	0x3e93bdfb	0.2885588
18	0x3e43b682	0.1911259
19	0x3e2f60cb	0.17126767
20	0x3ee2c92e	0.44294113
21	0x3e7ae4a2	0.24501279
22	0xbedcb009	-0.43103054
23	0x3e03b862	0.12863305
24	0x3ef5205e	0.47876257
25	0x3dfd011a	0.12353726
26	0x3e9926f8	0.29912543
27	0x3eb6eee4	0.35729134
28	0x3d9e5589	0.07731158
29	0x3e500e3e	0.20317933
30	0x3eebff3a	0.4609316
31	0xbde28f42	-0.110624805
32	0xbe91a1a4	-0.28443635
33	0x3e43dd4c	0.19127387
34	0xbee9adce	-0.45640415
35	0xbe618c74	-0.22026235
36	0xbeba4ca6	-0.36386603
37	0xbefa5272	-0.48891026
38	0x3edc186c	0.42987382
39	0xbe760088	-0.2402364
40	0x3d492e50	0.049116433
41	0xbda41470	-0.08011711
42	0x3d855470	0.06510246
43	0xbe3a8838	-0.18216026
44	0x3d62fef0	0.05541891
45	0xbec989b0	-0.3936286
46	0x3eee69c4	0.46565068
47	0xbe64ac80	-0.22331429
48	0xbd8574a8	-0.06516391
49	0xbebfde9c	-0.37474525
50	0x3db380a8	0.087647736
51	0x3ef5154e	0.47867817
52	0x3f0fc023	0.5615255
53	0x3ea9c9c7	0.33161756
54	0x3eba4fa3	0.36388883
55	0x3eae758d	0.3407406
56	0x3e1481b8	0.14502609
57	0x3d8b6402	0.06806184
58	0xbe3a2011	-0.18176295
59	0x3e89b4f7	0.26895878
60	0xbeac159a	-0.3361023
61	0xbecfebac	-0.4060949
62	0x3ede631c	0.4343499
63	0xbe4b4258	-0.19849527
64	0x3e0f19d8	0.13974702
65	0xbee2d5e8	-0.44303823
66	0x3ec3a472	0.382114
67	0x3eabde94	0.3356825
68	0xbeda535e	-0.4264173
69	0xbe3c921c	-0.18415111
70	0x3e722568	0.23647082
71	0x3d2d65a0	0.042333245
72	0xbe9d9604	-0.30778515
73	0x3edc982e	0.43084854
74	0x3e7f503f	0.24932955
75	0xbeeb31a6	-0.45936316
76	0x3ead4688	0.33842874
77	0xbe68a380	-0.2271862
78	0x3e581a28	0.21103728
79	0x3e33d460	0.17561483

bias f4 [20]
0	0x3c024300	0.007950544
1	0x3ed894ac	0.42300928
2	0xbdb35c70	-0.087578654
3	0xbe8790ca	-0.26477653
4	0xbd8cd63a	-0.06876798
5	0xbea1bb48	-0.31588197
6	0xbdf3a2bc	-0.118962735
7	0x3d15fbb6	0.036617003
8	0xbebdb65b	-0.3705319
9	0x3d15c330	0.0365631
10	0xbe1f7954	-0.15573627
11	0x3efa7944	0.48920643
12	0x3e419440	0.18904209
13	0x3f0681af	0.5254163
14	0xbe716769	-0.23574604
15	0x3ee815e2	0.45329195
16	0x3e960176	0.2929799
17	0x3d98ad20	0.07454896
18	0xbe5357b9	-0.20638932
19	0xbe093db4	-0.13402444

weight f4 [20, 20]
0	0x3d11b4c8	0.035572797
1	0x3e0b3514	0.13594466
2	0xbc2874b0	-0.010281727
3	0x3e3e4c7c	0.18583864
4	0x3de007e8	0.10939008
5	0x3d6d4e50	0.057936013
6	0xbd3a3a58	-0.045465797
7	0xbe42f4ed	-0.19038744
8	0x3e23b174	0.15985662
9	0x3e555d68	0.20836413
10	0x3e005e6e	0.12536022
11	0x3e3db7b0	0.18527102
12	0x3d339f48	0.043853074
13	0x3ca667a0	0.020313084
14	0x3db975c8	0.09055668
15	0xbe41ecc5	-0.18937977
16	0x3dfbdca0	0.1229794
17	0xbdc891e8	-0.097934544
18	0xbe589034	-0.21148759
19	0x3d8ca030	0.06866491
20	0xbda1f7de	-0.07908605
21	0x3daca1fc	0.084293336
22	0xbe4bf76c	-0.19918603
23	0xbe0c7b0c	-0.13718814
24	0x3e6836ef	0.22677206
25	0xbca4ed7f	-0.020132778
26	0x3e575cdd	0.21031518
27	0xbddd6d6d	-0.10811887
28	0x3d2d2617	0.042272653
29	0x3e25bb56	0.16184744
30	0x3d384058	0.044983238
31	0xbd7eb5d0	-0.06218511
32	0x3e0e32e4	0.138866
33	0x3e41182d	0.18856879
34	0x3e3f6a5d	0.18692918
35	0x3c85b868	0.016323283
36	0xbe590b0c	-0.2119562
37	0xbae09500	-0.0017134249
38	0x3e6b3c7c	0.22972292
39	0xbcd8ec88	-0.026479974
40	0x3e1b469e	0.15163657
41	0xbe2f804b	-0.17138784
42	0xbd438f0c	-0.047743842
43	0x3cdd8990	0.027043134
44	0x3dc6f889	0.09715373
45	0x3e8244a6	0.25443
46	0x3e4f8c58	0.2026838
47	0x3e18c37c	0.14918321
48	0xbd842608	-0.064525664
49	0xbe03032c	-0.12794179
50	0x3cf89920	0.030346453
51	0xbe0947f7	-0.13406359
52	0xbd209578	-0.039205045
53	0x3e442058	0.19152963
54	0x3e31d6af	0.17367052
55	0x3e0f03f6	0.13966355
56	0x3d6f3228	0.058397442
57	0xbe570a2d	-0.20999976
58	0x3d0e9112	0.03480632
59	0x3e5b6eda	0.21429005
60	0xbe3afc4e	-0.18260309
61	0xbe586d52	-0.21135452
62	0xbd086118	-0.03329572
63	0xbd7f13ec	-0.06227486
64	0xbe47ff5f	-0.1953101
65	0x3e209045	0.15680034
66	0xbc9815dc	-0.01856511
67	0x3b8d067f	0.004303753
68	0x3cfd9f9e	0.0309599
69	0xbd900642	-0.070324436
70	0xbdf2a8b5	-0.118485846
71	0x3e1cb08e	0.15301725
72	0xbdce3172	-0.10068025
73	0x3da76814	0.08174148
74	0xbc6d0c5c	-0.014468279
75	0x3cf16a60	0.029469669
76	0xbdff82ad	-0.12476096
77	0xbd939e60	-0.07207942
78	0x3e04ad20	0.12956667
79	0xbe6118d4	-0.21982127
80	0xbbf3b540	-0.007437378
81	0x3d7e4cc0	0.062084913
82	0x3e0b2c94	0.13591224
83	0x3e20d7fe	0.15707394
84	0x3d57a2e0	0.052645564
85	0x3dc093e0	0.09403205
86	0xbe2d8f0a	-0.16949096
87	0xbe407b1b	-0.18796961
88	0xbdf1217e	-0.11773966
89	0x3c82c6a0	0.015963852
90	0xbe14bf8f	-0.14526199
91	0x3e3167b0	0.1732471
92	0x3e104aac	0.14090985
93	0xbe642a20	-0.22281694
94	0xbe19123f	-0.14948367
95	0xbdbcda58	-0.09221333
96	0xbe4f74c4	-0.20259386
97	0xbe089d84	-0.13341337
98	0xbe543926	-0.20724925
99	0x3de3bdf4	0.11120215
100	0xbe30b8be	-0.17257974
101	0xbd4a2714	-0.049353674
102	0xbd730ed0	-0.0593403
103	0x3c572120	0.013130456
104	0xbe26a77f	-0.16274832
105	0x3dabc172	0.08386506
106	0xbdf961db	-0.121768676
107	0xbe50562a	-0.20345369
108	0x3e143cf5	0.14476378
109	0x3dfd5f10	0.12371647
110	0x3df54e50	0.119778275
111	0xbe48b510	-0.1960032
112	0x3d95ddb4	0.07317677
113	0x3e0e8aae	0.1392009
114	0xbd1e109f	-0.03859007
115	0x3dd645c8	0.104625285
116	0x3e13d1dc	0.14435524
117	0x3d5d6f68	0.054061323
118	0x3c813b2c	0.015775286
119	0x3dd34820	0.10316491
120	0x3e64e3dc	0.22352546
121	0xbdcfd0ec	-0.101472706
122	0xbe55d726	-0.20882854
123	0x3e26f20e	0.16303274
124	0x3e40c4be	0.18825051
125	0xbe1fbad7	-0.15598617
126	0xbbd8459b	-0.0066000945
127	0x3d527433	0.051380347
128	0xbe894302	-0.26808935
129	0x3e571bd8	0.21006715
130	0xbcc6cde8	-0.024268106
131	0x3a80ae80	0.000981763
132	0x3d8c87c4	0.06861833
133	0x3e41ad91	0.18913867
134	0xbd584e3c	-0.052808985
135	0x3e30eb5e	0.17277285
136	0xbde09a96	-0.10966985
137	0xbe2acd95	-0.16679986
138	0xbe3dd9c0	-0.18540096
139	0xbe01e4e8	-0.12684977
140	0x3e617d26	0.22020397
141	0xbe33bac6	-0.17551717
142	0xbd21d22c	-0.039507076
143	0xbe6327a3	-0.22183089
144	0x3e3ee131	0.18640591
145	0xbe11155c	-0.14168304
146	0x3d48c1ee	0.04901307
147	0x3e10724b	0.141061
148	0x3dec959b	0.115519725
149	0x3e301b20	0.17197847
150	0xbd070b90	-0.03297001
151	0x3e09cd70	0.13457274
152	0x3e5dc25a	0.2165617
153	0x3e07c911	0.13260294
154	0x3d9854d9	0.074380584
155	0xbdf1e9ee	-0.11812197
156	0xbe3463ac	-0.17616147
157	0x3c4205b0	0.011842176
158	0x3db49a83	0.08818533
159	0x3db22244	0.08697942
160	0x3e4f3828	0.20236266
161	0xbd90e67e	-0.07075213
162	0x3e1e3184	0.15448576
163	0xbd4388a4	-0.047737733
164	0xbdf059cb	-0.11735877
165	0x3e2a1dd3	0.1661294
166	0x3e07fc41	0.13279821
167	0x3de0fad7	0.10985344
168	0xbe85d79b	-0.26141056
169	0x3e54ab74	0.20768529
170	0x3e4c859a	0.1997284
171	0x3d0b5cc0	0.034024
172	0xbe048b72	-0.12943819
173	0x3da6d82c	0.081467
174	0xbd1d9d9e	-0.038480394
175	0xbe52b0d1	-0.20575263
176	0xbde4cd21	-0.11171938
177	0xbda22750	-0.079176545
178	0xbc1e788b	-0.009672294
179	0xbc86a7b8	-0.016437396
180	0xbd8a1d1a	-0.06743832
181	0xbda3032e	-0.07959591
182	0xbe072399	-0.13197173
183	0xbdcfc65e	-0.101452574
184	0x3c7329d1	0.014841513
185	0x3e2950bf	0.16534708
186	0xbdbc7dc7	-0.092036776
187	0x3e42272e	0.18960258
188	0xbdf21606	-0.11820607
189	0xbdcc18ca	-0.09965666
190	0x3e410234	0.18848497
191	0xbe4529b3	-0.19254188
192	0xba012400	-0.0004926324
193	0x3cce58f5	0.025188902
194	0x3e390302	0.18067554
195	0xbc9086e0	-0.017642438
196	0xbdee5b47	-0.116385035
197	0x3e15c32e	0.14625236
198	0xbe64d9b0	-0.22348666
199	0xbd8c1a56	-0.06840961
200	0xbb9220c0	-0.0044594705
201	0x3def3a74	0.11681071
202	0xbdc5f1f0	-0.096652865
203	0x3ce136b0	0.027491897
204	0x3d752368	0.05984822
205	0xbe4079a1	-0.18796398
206	0x3ddeb4bc	0.10874316
207	0x3c6cb650	0.014447764
208	0xbdb699c8	-0.0891605
209	0x3db4dc3c	0.08831069
210	0xbde9357a	-0.11387153
211	0x3e2bbb22	0.16770604
212	0xbc171580	-0.009221435
213	0xbdca87b2	-0.09889163
214	0xbe2bd6a2	-0.16781095
215	0x3da97250	0.082737565
216	0xbdd1e863	-0.102494024
217	0x3d8b4fa0	0.06802297
218	0xbe27db00	-0.16392136
219	0xbdb0fce0	-0.08641982
220	0xbd48799c	-0.0489441
221	0x3dc9e870	0.09858787
222	0x3d243688	0.040091068
223	0xbb8ac260	-0.004234597
224	0x3dc5e612	0.09663023
225	0xbe03b683	-0.12862591
226	0xbdbbd112	-0.09170736
227	0x3e23fedc	0.1601519
228	0xbe4e3d80	-0.20140648
229	0xbdc4e0e6	-0.096132085
230	0x3dbad2a4	0.09122208
231	0x3dcfb63c	0.1014218
232	0x3db90e20	0.09035897
233	0x3d2cdd6b	0.042203348
234	0x3e09af8e	0.13445875
235	0x3d730668	0.05933228
236	0xbe2f36da	-0.17110768
237	0x3da14a58	0.07875508
238	0xbc2b4f77	-0.010455958
239	0xbd561bfc	-0.05227278
240	0xbe000fbf	-0.12506007
241	0x3e27265e	0.1632323
242	0xbe0523d8	-0.13001955
243	0xbdfddbb2	-0.12395419
244	0x3e03f4f3	0.1288641
245	0xbdcc61da	-0.09979601
246	0xbe224e39	-0.15850152
247	0xbce8d2cf	-0.028420834
248	0x3e1606f0	0.14651084
249	0xbe5c4f02	-0.21514514
250	0xbe56baaa	-0.20969644
251	0x3df747f4	0.12074271
252	0xbda8ca72	-0.082417384
253	0x3dd84955	0.10560862
254	0xbdba3b35	-0.09093324
255	0x3e0c58f2	0.13705805

bias f4 [20]
0	0xbde171c1	-0.11008025
1	0x3e28d726	0.16488323
2	0x3db33817	0.08750933
3	0xbe0f6742	-0.14004233
4	0xbd8b7874	-0.06810084
5	0xbd813bd4	-0.063102394
6	0xbe190ed7	-0.14947067
7	0xbcb415cf	-0.021983055
8	0xbdc6ebc4	-0.097129375
9	0xbd8063ac	-0.06269011
10	0x3e2357b6	0.15951428
11	0xbe3e45e4	-0.18581349
12	0xbe4b9828	-0.19882262
13	0xbc866398	-0.016404912
14	0xbe0b00c4	-0.13574511
15	0x3e2b255c	0.1671347
16	0x3e1eb925	0.15500315
17	0xbe0af406	-0.1356965
18	0xbc5037a9	-0.012708583
19	0x3dba1808	0.09086615

weight f4 [1, 20]
0	0x3dee8af4	0.11647597
1	0x3e60ed8f	0.21965621
2	0x3e6f75c4	0.23384768
3	0xbe31af0b	-0.1735193
4	0xbdf2cff0	-0.11856067
5	0x3c1d1a57	0.009588799
6	0xbe83ccf5	-0.25742307
7	0x3e631717	0.22176777
8	0xbd77c6fe	-0.060492508
9	0xbc833aa0	-0.016019166
10	0xbe4d89b8	-0.20072067
11	0x3c557edf	0.013030737
12	0xbd20e93e	-0.039284937
13	0x3e2dcece	0.16973421
14	0x3e61fd4c	0.22069281
15	0x3e19f91a	0.15036431
16	0xbccebacd	-0.025235558
17	0x3e5fc43c	0.21852201
18	0x3e540598	0.20705259
19	0x3d5d59b0	0.05404061

weight f4 [20, 4]
0	0xbd621451	-0.055195156
1	0x3e244a3c	0.16043943
2	0xbe95463c	-0.29155147
3	0x3e2f27ba	0.17104998
4	0x3e96010a	0.29297668
5	0xbe9ed48a	-0.3102153
6	0xbe03e58c	-0.12880534
7	0x3efa0208	0.48829675
8	0x3e2ceffb	0.1688842
9	0x3ebb5998	0.36591792
10	0x3bd60c47	0.0065322253
11	0xbd6001fb	-0.05468939
12	0x3ef28bc0	0.47372246
13	0xbee9e42e	-0.456819
14	0x3e97738e	0.2958035
15	0x3e8282e8	0.254905
16	0xbe9640d1	-0.29346326
17	0x3e45a2fd	0.19300456
18	0xbe1affa3	-0.1513658
19	0x3e8d799f	0.27631852
20	0x3ef9931c	0.48745048
21	0xbdecfeb8	-0.11572021
22	0xbe84dc12	-0.2594915
23	0x3e616bf8	0.22013843
24	0xbe180ffc	-0.14849848
25	0xbd266a10	-0.040628493
26	0xbd920860	-0.07130504
27	0xbd733f10	-0.059386313
28	0x3e16fab8	0.14744079
29	0xbeb740ea	-0.35791713
30	0x3e21fca4	0.15819031
31	0x3db9d148	0.0907312
32	0xbec6b4fa	-0.3880995
33	0xbed66324	-0.41872513
34	0xbe886bbe	-0.266447
35	0x3ce2fb40	0.027707696
36	0xbe8d29df	-0.27571008
37	0x3e3f9292	0.18708256
38	0xbe83cd32	-0.2574249
39	0x3ee09cf0	0.43869734
40	0xbcb45e47	-0.022017611
41	0x3e92b768	0.28655553
42	0x3c36a994	0.011148829
43	0x3e69a354	0.22816211
44	0xbe5ebab8	-0.21750915
45	0xbea44532	-0.32084042
46	0x3e36cda0	0.17851877
47	0x3e1b570c	0.15169924
48	0xbde053be	-0.109534726
49	0x3e67ef99	0.22649993
50	0xbe1f15ba	-0.15535632
51	0xbd145931	-0.036217872
52	0xbdf29f70	-0.118468165
53	0xbeb97662	-0.3622313
54	0x3e085d34	0.13316804
55	0xbd210250	-0.039308846
56	0x3f01fe6e	0.50778854
57	0x3ef68503	0.48148355
58	0x3f0b9226	0.5451988
59	0xbe8f494f	-0.27985618
60	0xbe9f92c2	-0.31166655
61	0x3e04b2f3	0.12958889
62	0xbe52f05a	-0.205995
63	0x3d953296	0.07285039
64	0xbedbc3ed	-0.42922917
65	0x3d9e80b0	0.07739389
66	0x3e3d5200	0.18488312
67	0xbe12729a	-0.1430153
68	0xbe7dde0c	-0.24791735
69	0x3e24dd19	0.16099967
70	0x3d6941c8	0.0569475
71	0xbeb0dbb8	-0.34542632
72	0x3ebb077a	0.36529142
73	0x3f059561	0.5218106
74	0xbe1af207	-0.15131389
75	0x3e6e4c3f	0.23271273
76	0xbe88fa42	-0.26753432
77	0xbd98d9f8	-0.07463449
78	0xbd888b20	-0.06667161
79	0xbd684200	-0.056703568

bias f4 [20]
0	0xbd1800f6	-0.03711029
1	0xbe449600	-0.19197845
2	0xbea803a2	-0.32815272
3	0x3d888070	0.066651225
4	0xbe917fc2	-0.28417784
5	0x3e5550d4	0.20831615
6	0xbe90d23a	-0.2828539
7	0x3c8d6c00	0.017263412
8	0xbe025afc	-0.1273002
9	0xbd7480f9	-0.05969331
10	0xbece6ebe	-0.40318865
11	0x3e33024c	0.17481345
12	0xbeaa7c09	-0.33297756
13	0xbe1f5354	-0.15559131
14	0xbe5fd8c8	-0.21860039
15	0x3ec90446	0.39261073
16	0x3ed07d52	0.40720612
17	0xbeb26e91	-0.3484998
18	0x3eaaab46	0.33333796
19	0xbd873260	-0.06601405

weight f4 [20, 20]
0	0x3d7433b6	0.059619628
1	0xbdfa324f	-0.12216627
2	0x3ccd27b8	0.025043353
3	0xbe59f0d1	-0.2128327
4	0x3e4d853d	0.20070358
5	0xbe3d3e3a	-0.18480769
6	0x3e073c8c	0.1320669
7	0xbd27ecd4	-0.04099734
8	0x3c1d8020	0.009613067
9	0x3e5c20c9	0.21496882
10	0xbcbe0c39	-0.023199188
11	0xbc8c2910	-0.017109424
12	0x3e62a0bb	0.22131626
13	0x3c66bf50	0.014083698
14	0x3e69e89f	0.22842644
15	0x3cb8d383	0.022561794
16	0xbd91599f	-0.07097172
17	0xbc26664f	-0.010156228
18	0x3d9bea9e	0.07613109
19	0xbe5ba40f	-0.21449302
20	0xbdd977f2	-0.10618581
21	0x3e495444	0.19661051
22	0x3d1f2f74	0.038863614
23	0xbd09c30c	-0.033633277
24	0x3e144025	0.14477594
25	0xbd6573cc	-0.056018636
26	0xbc5e88a0	-0.013582379
27	0x3de15464	0.11002424
28	0x3e215aca	0.1575729
29	0x3dc6f409	0.09714515
30	0xbe018c27	-0.1265112
31	0x3d9e4b54	0.077292114
32	0x3da02e0d	0.078212835
33	0xbca55e78	-0.020186648
34	0x3d8fd57c	0.07023141
35	0xbe21ff38	-0.15820014
36	0x3d929394	0.071570545
37	0xbe24aa29	-0.16080536
38	0xbe0c27da	-0.13687077
39	0xbd36741c	-0.044544324
40	0xbdc4e1cc	-0.0961338
41	0xbe0fb51e	-0.14033934
42	0xbd3e119e	-0.04640352
43	0x3d7f3c18	0.06231317
44	0x3e623536	0.22090611
45	0xbc7dde10	-0.015494838
46	0x3d87c430	0.06629217
47	0xbe5c577e	-0.2151775
48	0xbe2cbc72	-0.16868761
49	0xbe207744	-0.15670496
50	0xbe6ee71a	-0.23330346
51	0x3e551f2e	0.20812675
52	0xbdd4a453	-0.10382905
53	0xbd8a6ee6	-0.067594334
54	0x3e485ba5	0.1956621
55	0xbd520164	-0.051270857
56	0xbe1dd32b	-0.15412585
57	0xbe4c2f02	-0.19939807
58	0xbdbdb38e	-0.09262763
59	0xbdca074d	-0.09864674
60	0x3d3c5418	0.045978636
61	0xbdc01c60	-0.09380412
62	0xbdce88a0	-0.10084653
63	0x3dae06a0	0.08497357
64	0x3e4f90b2	0.2027004
65	0x3d0a6250	0.033785164
66	0xbdf6c52f	-0.120493285
67	0xbdc65086	-0.096833274
68	0xbdc0f6a8	-0.09422046
69	0x3da821d4	0.08209577
70	0x3d6da078	0.058014363
71	0x3d4dbf20	0.0502311
72	0xbcd07968	-0.025448516
73	0x3d9dd9ac	0.07707533
74	0xbda29fd6	-0.079406425
75	0xbb736100	-0.0037136674
76	0xbd1e6f50	-0.038680375
77	0x3e4ca840	0.19986057
78	0xbdb372a2	-0.08762099
79	0xbe4346d4	-0.19069988
80	0xbdc38117	-0.09546106
81	0xbd9c8222	-0.07642008
82	0xbe69b154	-0.22821552
83	0xbc12e550	-0.008965805
84	0xbc5423b5	-0.012947966
85	0xbe1b04ce	-0.15138552
86	0xbc96cbc0	-0.018407702
87	0x3d367a70	0.04455036
88	0x3e13ba8c	0.1442663
89	0x3e542c56	0.20720038
90	0x3e27bba8	0.16380179
91	0xbdb414b4	-0.08793011
92	0xbccbde12	-0.024886165
93	0xbdf32d84	-0.11873916
94	0xbca2d4e4	-0.019876905
95	0x3e27f2b5	0.16401179
96	0x3d93b0ad	0.072114326
97	0xbc864f07	-0.016395105
98	0xbd4a8518	-0.049443334
99	0xbe171531	-0.14754178
100	0x3d810b1c	0.06300947
101	0x3d82e23c	0.06390807
102	0x3d39e268	0.045381933
103	0xbdd2595e	-0.10270952
104	0xbdf5d2d9	-0.120031066
105	0x3dd90578	0.10596746
106	0x3e5b19b2	0.2139652
107	0x3e56ecb4	0.20988733
108	0x3e43f0d8	0.19134843
109	0x3dd2fd88	0.103022635
110	0xbd0cb918	-0.034356207
111	0x3d975e98	0.07391089
112	0x3e288764	0.16457897
113	0xbc4553b0	-0.012043878
114	0xbd4b9b64	-0.04970874
115	0xbd78c134	-0.060731128
116	0xbdcf94a1	-0.101357706
117	0xbde43f35	-0.11144868
118	0xbd7463ec	-0.059665605
119	0xbe46634a	-0.19373813
120	0x3da1665b	0.07880851
121	0x3e3e23c0	0.18568325
122	0x3d59eaa6	0.053202294
123	0x3e382af0	0.1798513
124	0x3d4c9342	0.049945123
125	0x3df87884	0.121323615
126	0xbdd3e8fe	-0.10347174
127	0xbcd122b0	-0.025529236
128	0xbd57bd2c	-0.052670643
129	0xbe2a6c8c	-0.1664297
130	0xbb4eed7b	-0.0031574655
131	0xbd7bb5cc	-0.061452672
132	0xbe754525	-0.23952158
133	0xbd8ab522	-0.067728296
134	0xbd673347	-0.056445386
135	0x3d3500bc	0.044190153
136	0xbd992bb5	-0.074790396
137	0x3ddc56b8	0.10758728
138	0x3ccfa279	0.025346028
139	0x3e40f08c	0.18841761
140	0x3e6309ae	0.22171661
141	0x3c5ebbf0	0.0135946125
142	0xbe10dd2a	-0.14146867
143	0xbe43ffb0	-0.19140506
144	0xbe2a448e	-0.16627714
145	0xbd8b6ede	-0.068082556
146	0xbd8e1b26	-0.06938772
147	0x3e2c6326	0.16834697
148	0xbe43c91d	-0.19119687
149	0xbd9ef066	-0.07760696
150	0x3c45fbf0	0.012083992
151	0xbe461e7e	-0.1934757
152	0xbe35b338	-0.17744148
153	0xbc7dfcc0	-0.015502155
154	0x3df60be8	0.1201399
155	0xbe5f1f88	-0.21789372
156	0xbe64a7fd	-0.22329707
157	0xbe63aafe	-0.22233197
158	0xbce4c520	-0.027926028
159	0xbe0397e0	-0.12850904
160	0xbe22880d	-0.15872212
161	0xba365c00	-0.0006956458
162	0x3d87a71f	0.06623673
163	0x3d30cdd0	0.043165028
164	0x3dd2c98c	0.10292348
165	0x3db10ee4	0.08645418
166	0xbe077e3c	-0.13231748
167	0x3dbe62a0	0.09296155
168	0x3d705de8	0.058683306
169	0xbd949cb3	-0.072564505
170	0x3b0f39fd	0.0021854632
171	0x3df8c4d0	0.12146914
172	0xbb0598bf	-0.0020385233
173	0xbca2a958	-0.01985614
174	0x3b850ffd	0.004060744
175	0xbe4e5212	-0.20148495
176	0x3e5550e8	0.20831645
177	0x3de4a43f	0.1116414
178	0xbe0d4e72	-0.13799456
179	0x3d0f7138	0.035020083
180	0x3e0d76d6	0.13814864
181	0xbe56f84f	-0.2099316
182	0x3cbe6bf6	0.02324484
183	0xbdc4f176	-0.096163675
184	0xbdf0b2e1	-0.117528684
185	0xbdeda746	-0.116041705
186	0x3e4ee2fe	0.20203778
187	0xbd94bf0a	-0.07263
188	0x3e5c58ac	0.215182
189	0xbe227f4c	-0.15868872
190	0xbdc5430c	-0.09631929
191	0x3ddaf8e8	0.10692006
192	0x3d9dc6ba	0.0770392
193	0xbda357e2	-0.07975747
194	0x3ce250d9	0.027626442
195	0xbe43d11f	-0.19122742
196	0x3e079b19	0.13242759
197	0x3e235362	0.15949777
198	0xbe57a979	-0.21060742
199	0x3dc221b4	0.094790846
200	0x3e12862e	0.14308998
201	0xbe62c340	-0.22144794
202	0xbe8675be	-0.26261705
203	0xbe413556	-0.18868002
204	0x3df2e689	0.11860377
205	0xbc2dbca0	-0.010604054
206	0xbe2ee1a8	-0.17078269
207	0xbdcc4432	-0.09973945
208	0xbd8f66d4	-0.07002035
209	0x3e0ce95e	0.13760898
210	0x3d93d760	0.07218814
211	0x3c9b2b58	0.018941566
212	0xbe1882a3	-0.14893584
213	0x3c7fbb10	0.015608564
214	0x3d75a83a	0.059974886
215	0xbde9ee7b	-0.1142244
216	0x3d9567fa	0.072952226
217	0x3dc92fdd	0.09823582
218	0x3a9cbc7f	0.0011958032
219	0xbe3f8359	-0.18702449
220	0x3e419bd3	0.18907098
221	0xbccb0e38	-0.024787053
222	0xbe58eedd	-0.21184869
223	0x3e40efec	0.18841523
224	0x3e332cae	0.17497513
225	0x3dda0e00	0.106472015
226	0x3e388280	0.18018532
227	0x3df38d18	0.11892146
228	0xbd9847bc	-0.07435557
229	0xbdca9b9d	-0.09892962
230	0xbdf04ca8	-0.11733371
231	0xbd9118d2	-0.07084812
232	0x3d6838fc	0.05669497
233	0x3e13ea2e	0.14444801
234	0x3e1f262d	0.15541907
235	0xbdf87b1c	-0.12132856
236	0x3dcd168c	0.10014066
237	0xbe0c66bc	-0.13711065
238	0xbd0edbc7	-0.034877565
239	0x3dec0ff4	0.1152648
240	0xbd0b187c	-0.033958897
241	0x3dd035e0	0.10166526
242	0xbcf86620	-0.030322134
243	0xbd55c5c8	-0.052190572
244	0xbd1bf068	-0.038071066
245	0xbe314053	-0.17309694
246	0xbce2f728	-0.027705744
247	0x3c5c2a00	0.013437748
248	0xbe395223	-0.18097739
249	0xbdec4da2	-0.11538245
250	0xbe26d353	-0.16291551
251	0x3d91f668	0.071270764
252	0xbcc9a608	-0.024615303
253	0xbd433888	-0.047661334
254	0xbd8dda8a	-0.06926449
255	0xbd7d7f14	-0.06188877

bias f4 [20]
0	0x3e8ff050	0.2811303
1	0xbe591708	-0.21200192
2	0x3e3de277	0.1854342
3	0xbe47d138	-0.19513404
4	0xbe357f16	-0.1772426
5	0x3e42d416	0.19026217
6	0xbd81da66	-0.06340484
7	0x3d17f578	0.03709933
8	0xbdc9e5c9	-0.09858281
9	0x3dcaeeec	0.09908852
10	0x3e0804a8	0.13283026
11	0x3e38f54f	0.18062328
12	0xbde9f2ca	-0.114232615
13	0xbe486c09	-0.19572462
14	0x3c18f35e	0.009335367
15	0x3c902592	0.01759604
16	0xbe3b15b6	-0.18270001
17	0xbda8a899	-0.082352825
18	0x3d59ff57	0.053222027
19	0x3e37dcb0	0.1795528

weight f4 [1, 20]
0	0x3e9852f4	0.29750788
1	0xbdc33fe8	-0.095336735
2	0x3e0e04c4	0.13869005
3	0x3d802dd4	0.06258741
4	0x3d144357	0.036197033
5	0x3ddf0e14	0.10891357
6	0xbdd641e6	-0.10461788
7	0xbc3cbd10	-0.011519685
8	0xbde334fe	-0.11094092
9	0x3e303161	0.17206337
10	0xbe0f6ab2	-0.14005545
11	0xbdd003d6	-0.10156982
12	0xbcdd7588	-0.027033582
13	0xbd00af8c	-0.031417415
14	0x3e037f93	0.12841634
15	0x3e9f9488	0.31168008
16	0xbdfdda6f	-0.123951785
17	0x3e207efb	0.15673439
18	0x3e5fa401	0.21839906
19	0x3dd8aa18	0.10579318

weight f4 [20, 4]
0	0x3ef090f2	0.46985584
1	0xbe73b398	-0.23798978
2	0x3ca540e0	0.020172536
3	0x3d76bb70	0.060237348
4	0xbdb7b751	-0.08970512
5	0x3e17f93a	0.14841166
6	0xbcc066fa	-0.023486603
7	0x3e273469	0.16328587
8	0x3c6f3180	0.014599204
9	0xbe7914d0	-0.24324346
10	0xbdfdb5f8	-0.123882234
11	0xbecf1bdc	-0.40450943
12	0xbe6b1f38	-0.22961128
13	0xbec59b4e	-0.3859505
14	0xbed54eb6	-0.41661614
15	0xbdd4ee08	-0.10396963
16	0xbea882c8	-0.32912278
17	0xbeeedb4a	-0.4665168
18	0x3ea6191c	0.32441032
19	0xbe8aad7e	-0.2708549
20	0xbdbd3f58	-0.092405975
21	0xbe124a38	-0.14286125
22	0x3d8d6c78	0.069054544
23	0xbed1921c	-0.40931785
24	0xbea6fc3e	-0.3261432
25	0x3e336f4d	0.17522927
26	0x3d9239ce	0.071399316
27	0x3e356b9c	0.17716831
28	0xbe446002	-0.19177249
29	0x3e96051d	0.29300776
30	0xbef687fa	-0.48150617
31	0x3e67bb7f	0.22630118
32	0x3f0a61a7	0.54055256
33	0xbc8c13ea	-0.01709934
34	0x3f176e8e	0.5915307
35	0x3e5a676b	0.21328513
36	0x3ea0ba12	0.3139196
37	0xbcb4b824	-0.022060461
38	0x3d070c3b	0.03297065
39	0x3e1cba5f	0.1530547
40	0xbe3994c8	-0.18123162
41	0xbe51bb50	-0.2048161
42	0xbdf62630	-0.120190024
43	0x3e1366dc	0.14394706
44	0x3f1cafb1	0.61205584
45	0xbc598afd	-0.013277766
46	0x3ee9b724	0.45647538
47	0x3ee178e9	0.4403756
48	0xbeed7c6c	-0.4638399
49	0x3ebbf898	0.367131
50	0xbeb76b0a	-0.35823852
51	0x3eff5a60	0.49873638
52	0xbe910254	-0.2832209
53	0xbe2060e8	-0.15661967
54	0x3db8f530	0.09031141
55	0xbe486344	-0.19569117
56	0xbd6a8c55	-0.057262737
57	0x3dd25993	0.10270991
58	0xbde50b72	-0.11183824
59	0x3e5cb6f9	0.21554174
60	0x3de260cd	0.110536195
61	0x3e097b8d	0.13426037
62	0x3e58d912	0.21176556
63	0xbead7580	-0.33878708
64	0x3b49cd00	0.0030792356
65	0xbe5bea40	-0.21476078
66	0x3e5330cc	0.20624083
67	0x3ea41ed0	0.32054758
68	0x3bb39780	0.0054807067
69	0xbe905808	-0.28192163
70	0xba598000	-0.00082969666
71	0xbe756c58	-0.23967111
72	0xbec3ec5c	-0.38266265
73	0x3f08a3fc	0.5337522
74	0x3ea42a81	0.32063678
75	0xbeb8d779	-0.36101893
76	0xbe98727e	-0.2977485
77	0xbd69e311	-0.057101313
78	0x3d9d12a9	0.07669575
79	0x3ed3e5b8	0.413862

bias f4 [20]
0	0x3edbce4c	0.4293083
1	0xbcefec80	-0.029287577
2	0xbecc972a	-0.3995908
3	0x3e348d58	0.17632043
4	0xbec5630c	-0.3855213
5	0xbeeb15e2	-0.45915133
6	0x3d626a31	0.055277053
7	0x3eb10eef	0.34581706
8	0xbcc0fe72	-0.023558829
9	0xbd7343e4	-0.059390917
10	0xbc9bcd80	-0.019018888
11	0xbe071468	-0.13191378
12	0xbe6af4a4	-0.22944885
13	0x3efa69fc	0.48908985
14	0x3ef7b955	0.48383585
15	0x3be82dae	0.0070855236
16	0x3d6e3fd0	0.058166325
17	0x3ed40acc	0.41414487
18	0xbea4048f	-0.32034728
19	0x3e871851	0.2638574

weight f4 [20, 20]
0	0xbb791e80	-0.0038012564
1	0xbe05c851	-0.13064696
2	0xbb84ba20	-0.004050508
3	0xbc970668	-0.018435672
4	0x3d33b9a8	0.043878227
5	0xbe4b8fe8	-0.19879115
6	0x3e2617f2	0.16220072
7	0xbca91050	-0.020637661
8	0x3e319630	0.17342448
9	0xbe0b1824	-0.13583428
10	0xbcb57e78	-0.022155032
11	0x3d174248	0.036928445
12	0x3e4d0698	0.20022047
13	0x3d8c3488	0.06845957
14	0xbd5afb64	-0.0534624
15	0x3dcbe908	0.099565566
16	0x3db6e264	0.08929899
17	0xbda5f57a	-0.081034616
18	0xbe47c934	-0.19510347
19	0xbe001c97	-0.12510906
20	0x3e3d8e52	0.18511322
21	0xbd8d235a	-0.068915084
22	0x3d9d0584	0.07667068
23	0xbd795158	-0.06086859
24	0x3e5ef054	0.21771365
25	0x3d1954f0	0.03743452
26	0x3d7077f0	0.05870813
27	0x3e306594	0.17226249
28	0xbd6bde1c	-0.057584867
29	0xbdf4effc	-0.11959836
30	0xbe069f14	-0.13146621
31	0xbe3a6a54	-0.18204623
32	0xbe2b4385	-0.16724975
33	0xbdc2fdca	-0.09521063
34	0x3df69f74	0.12042132
35	0xbe216ae8	-0.15763438
36	0xbe5069b5	-0.20352824
37	0xbda6c9d8	-0.081439674
38	0xbda3b6b2	-0.07993831
39	0x3e0d4ae2	0.13798097
40	0xbe0cacae	-0.13737747
41	0xbdc0b6ca	-0.09409864
42	0x3e559002	0.20855716
43	0x3dfba934	0.12288132
44	0x3e5dd810	0.21664453
45	0xbdcae6ba	-0.09907289
46	0xbd06b86c	-0.032890722
47	0xbba0c53a	-0.0049063237
48	0xbdcd45a7	-0.10023051
49	0xbc9f6af6	-0.019460183
50	0x3c0e8710	0.008699194
51	0x3e520db2	0.20513037
52	0x3e2162e5	0.15760382
53	0x3d8628a0	0.06550717
54	0x3a7501cc	0.0009346276
55	0xbd9036e2	-0.07041718
56	0x3e6048b4	0.21902734
57	0xbe434a22	-0.19071248
58	0xbd6e386a	-0.05815927
59	0xbe2df86a	-0.16989294
60	0xbca553b0	-0.020181507
61	0x3e2b78b0	0.16745257
62	0x3b30ea40	0.0026995093
63	0x3e267004	0.16253668
64	0x3dcd4fe8	0.100250065
65	0xbe21d696	-0.15804514
66	0xbe34b4df	-0.17647122
67	0x3e44e0b2	0.1922634
68	0xbcd90e80	-0.026496172
69	0x3dc3bab4	0.09557095
70	0x3e3fb8cc	0.18722838
71	0xbdbb6ee6	-0.091520116
72	0xbdaf60da	-0.08563395
73	0x3e16e8e8	0.14737284
74	0xbe5a7103	-0.21332173
75	0x3d2f0ee0	0.042738795
76	0xbd45d010	-0.048294127
77	0xbccd31d0	-0.025048167
78	0xbd152040	-0.03640771
79	0xbe0c9d86	-0.13731965
80	0xbd89dafa	-0.067312196
81	0x3e5f0467	0.21779023
82	0x3e0bef70	0.13665557
83	0x3e4e3d66	0.20140609
84	0xbe099f4a	-0.1343967
85	0xbd2ff28c	-0.04295592
86	0xbbf63a23	-0.0075142547
87	0x3e135d7c	0.1439113
88	0xbdcf5bbc	-0.10124919
89	0xbd3c4091	-0.045960013
90	0x3da97ad0	0.08275378
91	0xbe922bb6	-0.28548974
92	0x3e280d19	0.16411246
93	0xbe45594b	-0.19272344
94	0xbd3e462f	-0.04645365
95	0x3c8c3f43	0.01712001
96	0xbe2f1b6b	-0.17100303
97	0xbde21202	-0.11038591
98	0x3e683b1b	0.22678797
99	0x3e20cc0e	0.1570284
100	0xbd43df8c	-0.047820613
101	0x3dbdad78	0.09261602
102	0x3e425928	0.18979323
103	0xbe5c1688	-0.2149297
104	0xbe61a473	-0.22035389
105	0x3db0d714	0.08634773
106	0x3e416828	0.18887389
107	0x3e7c06dd	0.24611993
108	0xbece7992	-0.40327126
109	0x3e0a0440	0.13478184
110	0x3e21c37c	0.15797228
111	0xbe911e86	-0.283436
112	0x3e91c1a6	0.28468055
113	0xbd564abc	-0.052317366
114	0x3e7e00ef	0.24805044
115	0x3e2f8a2e	0.17142555
116	0xbcbf68e8	-0.023365453
117	0xbdfee2ac	-0.12445578
118	0x3e34f00f	0.176697
119	0x3e3b0ebc	0.1826734
120	0x3db99938	0.09062427
121	0xbccbbd90	-0.024870664
122	0x3e1a02b4	0.15040094
123	0xbdec826b	-0.11548313
124	0xbcd62410	-0.026140243
125	0x3d80a8dc	0.06282207
126	0xbe643a2a	-0.22287813
127	0x3d4b7108	0.049668342
128	0xbdc4d962	-0.09611775
129	0xbe01fe34	-0.12694627
130	0x3e309ab4	0.17246515
131	0xbe2f485a	-0.17117444
132	0x3d90667c	0.07050797
133	0xbe26f386	-0.16303834
134	0xbe181e43	-0.14855294
135	0x3d34b068	0.044113547
136	0xbc90e328	-0.017686442
137	0x3d55cc58	0.05219683
138	0xbe4a549b	-0.19758837
139	0x3d6db560	0.0580343
140	0x3de5eb2c	0.11226496
141	0x3e17d6a9	0.1482798
142	0xbd270158	-0.040772766
143	0xbe516ed1	-0.2045243
144	0x3e5f35ce	0.21797869
145	0xbd938b64	-0.07204321
146	0x3e88a59d	0.26688853
147	0x3e718db4	0.23589212
148	0xbe9b9bc4	-0.30392277
149	0x3e48d411	0.19612147
150	0x3e0c4530	0.13698268
151	0xbd98e740	-0.074659824
152	0x3e81c755	0.2534739
153	0xbe34e884	-0.17666823
154	0xbc859974	-0.016308524
155	0x3e76fb09	0.241192
156	0xbe4d4573	-0.20046024
157	0x3cc15768	0.023601249
158	0xbe0100ee	-0.12598011
159	0xbe0f7506	-0.14009485
160	0x3e142390	0.14466691
161	0xbe4ba3c5	-0.19886692
162	0x3e3e2332	0.18568113
163	0xbcd978b8	-0.026546821
164	0x3e4c8220	0.19971514
165	0x3e374d70	0.17900634
166	0x3da80517	0.08204096
167	0xbdf8b606	-0.12144093
168	0x3bf8a9dc	0.007588608
169	0xbe188898	-0.14895856
170	0xbe641f75	-0.22277625
171	0xbd8458c3	-0.064622425
172	0xbd9da9e2	-0.07698418
173	0xbe2e9cca	-0.17051998
174	0xbbd314e3	-0.006441699
175	0xbd3162f2	-0.043307252
176	0x3bd13840	0.0063848794
177	0xbe536dd2	-0.20647362
178	0x3d9e34b5	0.07724897
179	0xbe5e8be7	-0.21733056
180	0xbd916d42	-0.071009174
181	0x3dcada2c	0.09904894
182	0xbe539475	-0.206621
183	0xbcfca760	-0.03084153
184	0xbd48df24	-0.04904093
185	0x3b778c00	0.0037772655
186	0xbe49defa	-0.19713965
187	0x3d82ac24	0.063804895
188	0xbe370c4c	-0.17875785
189	0xbe4aca14	-0.19803649
190	0xbe32f82c	-0.17477483
191	0xbdb16536	-0.086618826
192	0xbd94a8be	-0.072587475
193	0x3e02eb12	0.12784985
194	0xbd8323d6	-0.064033195
195	0xbe125864	-0.14291531
196	0x3dd0cdf8	0.101955354
197	0x3d809730	0.06278837
198	0xbe31847c	-0.17335695
199	0x3e498482	0.19679454
200	0xbe13b69d	-0.1442513
201	0x3c0ed001	0.008716584
202	0x3c076710	0.008264318
203	0x3e3bf108	0.18353665
204	0x3caab598	0.020838544
205	0xbbd0fa20	-0.0063774735
206	0xbcec1bda	-0.028821874
207	0xbdff67de	-0.12470983
208	0xbe52070d	-0.20510502
209	0xbc9c7237	-0.01909743
210	0x3d6eece8	0.0583314
211	0xbdff3536	-0.12461321
212	0x3dfb9e48	0.12286049
213	0x3e5828a4	0.21109253
214	0xbe423b03	-0.18967824
215	0xbe46d744	-0.19418055
216	0x3e353c3e	0.17698762
217	0x3d2bfe50	0.04199058
218	0x3c776567	0.01509986
219	0xbdd89621	-0.1057551
220	0x3e59e1d2	0.2127755
221	0xbe190634	-0.14943773
222	0x3c1c8600	0.009553432
223	0xbe45b45f	-0.19307087
224	0x3e52bd6c	0.20580071
225	0xbdfa317f	-0.12216472
226	0x3d229a0e	0.0396977
227	0x3d0a0053	0.033691715
228	0xbea9f716	-0.33196324
229	0xbe028c55	-0.12748845
230	0x3dc3fc00	0.095695496
231	0xbec9f4c7	-0.39444563
232	0x3dd6d0e9	0.10489065
233	0x3de83458	0.11338109
234	0x3e085f4b	0.13317601
235	0xbbcd21b4	-0.0062601212
236	0xbd20f2a8	-0.039293915
237	0xbe0b2eb6	-0.13592038
238	0x3e5d7b9f	0.21629189
239	0x3aebd4ac	0.0017992458
240	0xbd66c1e4	-0.056337252
241	0x3e64bade	0.22336909
242	0xbdebcf56	-0.115141556
243	0xbe5b97c3	-0.21444611
244	0x3d269d18	0.04067716
245	0x3ddbbf94	0.107299
246	0x3d779423	0.06044401
247	0x3e17af57	0.1481298
248	0xbec4a03f	-0.38403508
249	0x3e542556	0.20717368
250	0xbe21d0ff	-0.15802382
251	0xbef38701	-0.47563937
252	0x3e755cb3	0.23961143
253	0x3d4e1170	0.0503096
254	0xbd31f979	-0.043450806
255	0x3d30d737	0.043173995

bias f4 [20]
0	0xbe2f869a	-0.1714119
1	0x3d132b10	0.03592974
2	0xbe890ce4	-0.26767647
3	0xbd4c630c	-0.049899146
4	0x3dd12025	0.10211209
5	0xbca6ac08	-0.020345703
6	0x3e216192	0.15759876
7	0x3e468338	0.19385993
8	0xbd6579e2	-0.05602444
9	0x3e277926	0.16354808
10	0x3e3b090e	0.18265173
11	0x3d05ab26	0.032633923
12	0x3d8c6bac	0.06856474
13	0x3e29596e	0.16538021
14	0x3e0d9f54	0.1383031
15	0x3dbc8b58	0.09206265
16	0xba3c6200	-0.0007186234
17	0xbdb44543	-0.08802273
18	0xbd4fd6c9	-0.050741944
19	0x3b31db40	0.002713874

weight f4 [1, 20]
0	0xbddf6330	-0.109075904
1	0xbd104c8c	-0.03522925
2	0xbd6525f1	-0.055944387
3	0xbe52bb01	-0.20579149
4	0x3e821bb9	0.25411776
5	0x3e12902a	0.14312807
6	0xbd26c820	-0.040718198
7	0x3e827b48	0.2548468
8	0x3c1798d8	0.009252749
9	0x3e4e1c4c	0.20127982
10	0xbe4acc76	-0.19804558
11	0x3d6f140c	0.058368728
12	0x3e3c654a	0.18398014
13	0xbe0751ff	-0.13214873
14	0xbe599a48	-0.2125026
15	0x3e2335d8	0.15938509
16	0x3dcf656c	0.101267666
17	0xbe3a9d75	-0.18224128
18	0x3df118ce	0.11772309
19	0x3d9f5688	0.077801764
