result_model/ex4_aapl_nsde.pth (torch, 22036 bytes, 20 tensors)

weight f4 [20, 4]
00000000: 9ec2 8b3e b722 f4be bd3d fd3e 2c0a 23be
00000010: f711 c93e a916 1d3e 73b1 f0be 509b 98be
00000020: 40c3 f13d 182d 2cbe accc 82be f0a7 67be
00000030: 4857 883d e0c7 bdbc c252 d3be 06de 9fbe
00000040: dab5 7dbe a03a 023e f6b9 acbe 75b2 683b
00000050: edd6 dabe 9aec a23d c1f5 dcbd 51c6 3abe
00000060: c9c5 aabe 4979 3f3e a7e2 b93e 29ce 11be
00000070: 5c72 df3d 5465 acbe 1f9c 973e f515 123e
00000080: 2cde 76be b44e b73d 593d 9b3e a1de 5a3e
00000090: a0fe d53e 8453 893d cea1 063d 1a9b b73e
000000a0: e08b eebe 5df4 ee3e bf01 2bbe fe60 3e3d
000000b0: d154 eabe d1d7 db3e 113d 303e 923f 463d
000000c0: b037 8a3e 044a 72be d068 09bd 6413 7b3e
000000d0: e834 c4be 64c6 0ebe 1c3c 20be a070 89be
000000e0: 346b 0ebf 15f3 ba3e c76b 903e 127b 62bd
000000f0: e860 6e3e 1ae6 9dbe 5048 02be 307f ba3e
00000100: 3cb2 d5be a0e3 72bd b8ec c9bd b616 cd3e
00000110: 1e0c 8abe 8e51 cabe b801 58be b8e6 273e
00000120: 723a a13e 3e31 69bc 7b3f ff3e 3ea1 ae3d
00000130: a042 ed3d 68f9 60be 9421 50be 807f 693c
0.2729692 -0.47682735 0.49461165 -0.15921849 0.3927152 0.15340675 -0.47010383 -0.29805994
0.11804819 -0.16814077 -0.25546777 -0.22622657 0.066572726 -0.023166597 -0.41274077 -0.31224078
-0.24776402 0.12717676 -0.33735627 0.003550676 -0.427421 0.079552844 -0.10789061 -0.18239714
-0.33354023 0.1869861 0.36305735 -0.142388 0.10910484 -0.33671057 0.29611298 0.14266188
-0.2410819 0.08950558 0.30320242 0.21373989 0.41795826 0.067053825 0.032869153 0.3586052
-0.4659109 0.4667081 -0.16699885 0.046479218 -0.45767835 0.42938092 0.17210795 0.04840047
0.2699561 -0.23661047 -0.033547223 0.24519116 -0.38321614 -0.13942868 -0.1564793 -0.2684374
-0.5563233 0.36513582 0.28207228 -0.05529315 0.23279154 -0.30839616 -0.12722898 0.3642516
-0.41737545 -0.05929911 -0.09859604 0.4005639 -0.2696237 -0.39515346 -0.21094406 0.16396606
0.31489903 -0.014232932 0.4985312 0.08526848 0.11584973 -0.21970141 -0.20325309 0.01425159

bias f4 [20]
00000000: ee52 493c 12f2 b53e 8026 9fbc e43f 3d3e
00000010: 7368 f33e 216a bebb 2424 a7bd 30c3 35bd
00000020: 0b32 d6be 022e cebe 79e8 ef3d b071 833c
00000030: 808b a4be d84a b53e 2da2 833e fede aabe
00000040: c0df 8c3c 18df 073e 2803 813e 24f5 fb3e
0.012287838 0.35536247 -0.019427538 0.18481404 0.47540626 -0.0058109914 -0.0816119 -0.0443756
-0.41835055 -0.40269476 0.117142625 0.016045421 -0.3213768 0.35408664 0.25709668 -0.33373255
0.017196536 0.13268697 0.2519772 0.49210465

weight f4 [20, 20]
00000000: 095e 173e 0fec 2b3e fe09 89bd 8085 e9bb
00000010: 4492 3f3e 39b3 97bc d120 2d3d 71c0 07be
00000020: 2fb2 2f3d 1f62 14be c09c 5fbd d7fa 1abd
00000030: 906b 0f3e 90cf ecbc 2936 ec3d e4fc 9a3d
00000040: 38f4 f73d 7826 b4bd 4f1b a2bd 6aae 90bd
00000050: 37e1 9e3d 481c 26be 3c09 ca3d 2ce7 1c3e
00000060: cccc 47be 6534 a33d 96ec f3bd 3f11 2bbe
00000070: 06bf 49bb fff1 c63d 498b 573e 3fe4 a83d
00000080: 42e6 303e 98ca c13d a3c5 873d fa23 b9bd
00000090: 30e9 bd3d b21f 30be 6ad3 2bbe 3c65 bfbd
000000a0: 000f 4e3b a5a3 47be 0a80 32be ea9b 433e
000000b0: 00a2 9539 0036 56bd fe96 4bbe 92b6 50be
000000c0: f0a8 5a3e 108a 743d de0c 34be e495 3ebe
000000d0: d0c2 803c 44ac 3abe f658 1c3e bc5b 36bd
000000e0: 4002 303e 30aa 623c 283e cc3c 7f05 eebd
000000f0: 93e8 ce3d 7106 063c e83c 5b3d 2070 d2bc
00000100: d704 193e c959 a1bd b5c4 fa3d e540 60be
00000110: 6672 513e b977 e0bd 967e 85bd 0d50 27be
00000120: 20a6 06bc 60ef 35be 37dc 433e 4099 613b
00000130: 5e0b 3bbe 0c71 a23d cd71 923a c467 253e
00000140: a517 adbc 7503 02be 162c f9bd 6293 9ebd
00000150: fe1f 65be 44fd 61be 1ee9 d7bc 667d 85bd
00000160: 3cfa c43d 7d7c 55be 9308 b43c 4d28 1f3e
00000170: 2c87 153e a4bd 373e 2b0a c9bd 40d7 433e
00000180: 2c28 79bd 7893 81bc ac9e a63b 8e05 e0bd
00000190: 2659 0ebe 4d75 023e 8e34 083e 1465 a6bd
000001a0: 0f00 453e 0a87 673e fc46 5abd c0c9 703b
000001b0: fdba 203e f796 0a3d fb6a 3e3e 77d1 19be
000001c0: 587b 113d 7ccc fc3d 0909 383c c601 193e
000001d0: f8b2 c4bc 283e b33d 7421 1ebe 1c8b fbbd
000001e0: f5e5 5fbe 64d4 473d 2804 33be 9cbf 93bd
000001f0: fefc 8f3d f07d 493e 5642 433d e0f1 fe3c
00000200: bbb4 0fbe 339d c3bc 4c13 04be d416 0a3e
00000210: bfe9 59be 2c94 d33d 9742 e3bd 005e 22be
00000220: 56f7 33be 8076 443e 555e ed3d 60d2 ff3d
00000230: b4e1 6e3e fb9d 6dbd b02d 4bbe 54c7 16be
00000240: 3d40 d13d 4605 08be 8e00 ff3b 85fb 32be
00000250: f875 253e 59d0 5cbe 477f 913d 8b69 253d
00000260: 34e4 59bd 14f9 d13d 6454 3bbc 146c bb3d
00000270: 2dcd 50be f0e0 28bc 8a09 4b3e 00a3 483d
00000280: 81bc 183e 0adc 283e 7424 d03d 9ca7 15be
00000290: 4880 f03d 6071 eb3d b757 4a3c 9bea 1c3e
000002a0: 0505 06be e7f4 84be d994 18be 4027 babd
000002b0: 5bc4 2dbe 40ae 37bd a985 bcbb dce6 cb3d
000002c0: ef21 debd 64a8 ae3d 8665 eb3c c21c 513e
000002d0: f816 c5bd c0d8 103b b814 1c3e 1ea2 113e
000002e0: 203a 2f3e a52f 5abe 6629 0fbe 6854 0d3d
000002f0: 9d3f e3bd 9c36 fa3d 9066 8d3d 642d 3bbe
00000300: cd4f fcbd b6a9 213e 7812 8e3c 3474 27be
00000310: d8de 013e f578 fcbd 98ae 0fbd 40ed d43d
00000320: 4b07 613d cf0a 043e ccc6 79bd a039 9cbb
00000330: 6d19 d0bd 60e9 623e 81ec 0b3e e776 57be
00000340: dab4 55be ffba 3e3e 7916 a03d 1fa1 1e3e
00000350: ac2c 5ebe 6e46 623e eed1 e13d c094 3abb
00000360: 9d52 d1bd d0c7 08be ba66 603c 3e7d 1f3e
00000370: d2de 503e 0023 17ba 381e d13c f5a6 02be
00000380: a0d7 9ebb c0ea dabc c066 613c 6c6a 03bd
00000390: 00f7 083b c2eb 493e 74c1 b13d 910f 5dbe
000003a0: 28f4 e1bc 7496 4a3e 5001 33be 747e 36bd
000003b0: 3c36 bf3d 2086 96bb 46df c6bd be8c 4cbe
000003c0: 5e42 8dbe 6858 5d3e 9a10 513e 483d 793d
000003d0: 3e5e 4a3d a73b f33d 3fad 2abe bcbb a7bd
000003e0: ba29 143e 4d1d 1b3e 1c1f b5bd a51a 3f3d
000003f0: 2fa6 53be 3081 943d a5fd db3d aa9a 5cbe
0.14781965 0.16789268 -0.06691359 -0.00712651 0.1870814 -0.018518077 0.042267624 -0.13257004
0.04289454 -0.14490555 -0.054592848 -0.037836876 0.14005876 -0.028907567 0.11533768 0.07567766
0.12107128 -0.087964 -0.07915365 -0.07064517 0.077578 -0.16221726 0.098650426 0.1532256
-0.19511718 0.07968978 -0.119103596 -0.16705798 -0.0030784025 0.09714126 0.21049227 0.082466595
0.17275336 0.0946247 0.06629493 -0.09040065 0.092729926 -0.17199591 -0.16779867 -0.09345481
0.0031442046 -0.19496019 -0.17431656 0.19102445 0.00028540194 -0.052297592 -0.19881818 -0.20382145
0.21353507 0.05970198 -0.17583033 -0.18611866 0.015717894 -0.18229777 0.15268311 -0.04452108
0.17188358 0.013834521 0.024931982 -0.11622142 0.10102954 0.008180247 0.05352488 -0.025688231
0.14943253 -0.07878453 0.1224455 -0.21899755 0.20453796 -0.10960335 -0.06518285 -0.1633913
-0.008218318 -0.17767096 0.19126974 0.003442362 -0.18266055 0.07931718 0.0011172831 0.16152865
-0.021129439 -0.12696631 -0.12166612 -0.07742955 -0.22375485 -0.2206927 -0.026356276 -0.065180585
0.09618041 -0.2084827 0.021976745 0.15542717 0.14602345 0.17943436 -0.098163925 0.1912508
-0.060829327 -0.015817389 0.005084833 -0.109385595 -0.13901195 0.12740059 0.13301298 -0.08124748
0.19238304 0.22610107 -0.053290352 0.0036741346 0.1569633 0.033835378 0.18595497 -0.15021311
0.03551802 0.1234369 0.011232623 0.14942083 -0.02401112 0.0875209 -0.15442449 -0.122823924
-0.21865065 0.048786536 -0.17482054 -0.07214281 0.07030676 0.19676948 0.047670685 0.031121194
-0.14033787 -0.02387867 -0.12897986 0.1348527 -0.21280573 0.10330996 -0.110966854 -0.1585617
-0.1757482 0.19185829 0.11590258 0.12491298 0.23328286 -0.05801199 -0.19841647 -0.14724475
0.102173306 -0.13283262 0.0077820485 -0.1747876 0.16158283 -0.21563853 0.07104354 0.040383857
-0.053196147 0.10252586 -0.0114336945 0.09151474 -0.20390768 -0.0103075355 0.19827858 0.048983574
0.14915659 0.16490188 0.10163203 -0.14614719 0.11743218 0.11496234 0.012350014 0.1532387
-0.13087852 -0.25968096 -0.14900531 -0.090895176 -0.16969435 -0.044843912 -0.005753238 0.09956142
-0.10846316 0.08528212 0.028734934 0.20421126 -0.096235216 0.002210185 0.15242279 0.14221999
0.17112017 -0.21307237 -0.13980636 0.034504324 -0.11096118 0.12217447 0.06904328 -0.18279034
-0.12319908 0.15787396 0.017342791 -0.16352922 0.12682664 -0.12327758 -0.035078615 0.10396814
0.054938596 0.12894748 -0.060980603 -0.0047676116 -0.101610996 0.22159338 0.13664438 -0.21041451
-0.2086977 0.18626021 0.07816786 0.1549115 -0.21696728 0.2209718 0.11026369 -0.002847001
-0.10220835 -0.13357472 0.013696367 0.1557512 0.20397499 -0.0005765408 0.025527105 -0.12759002
-0.004847482 -0.026723266 0.013757408 -0.032083914 0.0020899177 0.1971884 0.086794764 -0.2158797
-0.027582243 0.19783956 -0.1748097 -0.04455419 0.09336516 -0.0045936257 -0.09710555 -0.19975564
-0.27589697 0.21615756 0.20416489 0.060849458 0.049406283 0.11876612 -0.1666765 -0.08190104
0.14469042 0.15147896 -0.08843824 0.04665627 -0.20668863 0.07251203 0.10741738 -0.21543375

bias f4 [20]
00000000: e359 44be 9140 05be 8438 45bd af52 24be
00000010: b464 fa3c 3502 f6bd c040 21be e25a 0ebe
00000020: 9374 25be a65c 05be 5a70 04be 9462 463e
00000030: 9c31 783d 740d c3bd 2a28 d73c 90ee 2b3e
00000040: 94e7 e73d 8ee8 cfbd a69f 553e 3b1b 8fbc
-0.19174914 -0.13012911 -0.0481496 -0.16047166 0.030565597 -0.1201214 -0.15747356 -0.13901857
-0.16157751 -0.13023624 -0.12933484 0.19373542 0.060594186 -0.0952405 0.026264269 0.16790223
0.11323467 -0.10151778 0.20861682 -0.01746904

weight f4 [1, 20]
00000000: 08b0 843c 9a30 043e 10a6 ba3d c84b 99bd
00000010: ff48 88bc c77f 4b3e e699 24be e6ba c5bd
00000020: f637 dfbb 20b5 c53c c35e 343e 9a8d 433e
00000030: 55e4 233e 8ca4 99bd c0d0 8abd cf95 e63c
00000040: 5704 febd 6066 33bd 04e2 af3d f47a 193e
0.01619722 0.12909165 0.09113705 -0.07485157 -0.01663637 0.19872962 -0.16074333 -0.09654789
-0.006812091 0.024134219 0.17614274 0.19096985 0.1600507 -0.07502088 -0.06778097 0.028147606
-0.124031715 -0.043798804 0.08588031 0.14988309

weight f4 [20, 4]
00000000: 8a7a 3fbe abcb 693e e80a b3bc 7445 bf3e
00000010: efd4 4e3e f3ea ba3e b3f9 483e ed93 49bd
00000020: cd88 913d 9b1e f23e 048c b93d cd1b febd
00000030: b643 de3e fa22 69be eb15 a13e 812e b8be
00000040: a199 e73d 85d3 a43e 2ea2 f63e 9ff9 c93e
00000050: 7c62 67bd 05fe 4a3e 60ec d3be e90f 04bf
00000060: 7f58 9ebe c566 a0be d1ba c93e 1cdd 643e
00000070: 733d 913e 4604 15be e294 e33e 6f78 07bf
00000080: e2d5 573d 9c62 9e3e b1de 913e 86fc afbe
00000090: 8184 3c3e c945 aa3e e23b 973d 26c6 c73e
000000a0: 1816 853d 1075 c9be 90f6 8dbe 1e5c 97be
000000b0: 4792 b73e e8df f73d cab1 b33e 9dea 95be
000000c0: e2a2 ea3d 1d6b 7cbe c290 423d f69f 00bf
000000d0: ace9 0cbe ae1e c1be b09a 403d 10cf dfbd
000000e0: 104f 31be 227c b8be cef1 d9be ecd5 34be
000000f0: e084 f5be 40e4 a03e 4b17 8f3e 80f4 513e
00000100: 850b a7bd ade3 9f3d 32cf de3c da78 e1be
00000110: 0e03 de3e ac51 d8bd bc51 9f3e cd4f c4be
00000120: f72b c53e 6c0f e23e 1bd9 a83e 6b39 a23e
00000130: c5d7 c33d a175 fabe 990f 8c3e 6505 84be
-0.18699089 0.228316 -0.021855786 0.37357676 0.20198415 0.36507377 0.19626503 -0.04921334
0.07106171 0.47288975 0.09059909 -0.12407646 0.43411034 -0.22767249 0.31462035 -0.3597298
0.11308599 0.32192627 0.48170608 0.39448258 -0.056490406 0.19823463 -0.41391277 -0.51586777
-0.30926892 -0.31328407 0.39400342 0.22349972 0.28367195 -0.14552411 0.44449526 -0.5291814
0.05269421 0.30934608 0.28490213 -0.34372348 0.18409921 0.33256367 0.073844686 0.39018363
0.06498355 -0.39347124 -0.27727175 -0.29562467 0.35853788 0.121032536 0.3509658 -0.29280558
0.11456849 -0.24650235 0.047501333 -0.5024408 -0.13761014 -0.3771872 0.04702252 -0.10928166
-0.17315316 -0.36032206 -0.42567295 -0.1765973 -0.47952938 0.3142414 0.2794746 0.20503426
-0.08156494 0.078070976 0.027198408 -0.44037515 0.43361706 -0.10562453 0.31117046 -0.38342133
0.38510105 0.4415239 0.32978138 0.3168443 0.09562639 -0.4891787 0.2735565 -0.25785366

bias f4 [20]
00000000: 146f 983e 7514 a7be 95d4 4c3e e34e d23e
00000010: 6bf2 433e f963 9bbe db8e 9dbe c950 1d3d
00000020: 6abe c23d 6db7 57be dc58 78be 264f 4e3d
00000030: 60a9 893e 207e 85be eafa 9bbe 922a ecbe
00000040: 0795 b4be 6276 fb3b eaa2 43bd b315 7dbe
0.29772246 -0.32632795 0.20002969 0.4107581 0.19135444 -0.3034971 -0.30773053 0.03840712
0.09508975 -0.21066065 -0.24252647 0.05036845 0.26887035 -0.26072788 -0.3046487 -0.4612623
-0.3526995 0.0076740244 -0.04776279 -0.24715309

weight f4 [20, 20]
00000000: 30e8 97bc e74f 33be 50ee 123d 40be b13c
00000010: 819f 2abe 0428 abbd c8b8 80bd f869 b33c
00000020: 1c59 17bd cc8a 413e ccae c33d 3ba4 46be
00000030: e850 c63d 5e04 633e 4026 513d 5063 8cbc
00000040: 3471 013e 38b7 c2bc 4827 693d b804 90bd
00000050: 1f77 1ebe 4379 c63d f1f3 5c3e d5e6 86bc
00000060: 8a30 103b 2fee e5bd 5bbc ff3c d90a 3b3c
00000070: a0cf 4d3e 793e 1f3e 1459 2b3e 91a1 683e
00000080: 3e18 6dbb f8c5 bbbd 00e8 0c3c 6453 523e
00000090: 4d9e 2e3e 8fb2 a23d 7597 97bd 7ff9 6a3d
000000a0: 3e44 2ebe 956c 7f3e 3965 4bbb f8e0 44be
000000b0: 3fe0 3b3e 2ae0 393e 0af2 9fbe 1754 3a3e
000000c0: 4764 33bb 9bea 25be 906c 3a3e bfab 37be
000000d0: 8fa3 5dbe 7cd9 9a3d 889c 263e 4803 583e
000000e0: 7aef 1c3e d450 273e 7247 3d3e 40bb 3f3e
000000f0: 6ba0 23be e347 f53d 37c7 a5bc 71c3 80bd
00000100: a11e 883d d78b 0e3e 0530 5e3d 4acc 623e
00000110: 1af7 f1bd 50e9 06bc 74ff 3c3e 1f7b 823d
00000120: 842e 293d a090 b3bc e9ea d4bd 00c2 643d
00000130: e08c a7bc 4229 29be 0a9c 2e3d 1baf 5bbd
00000140: ac13 22bd 8a07 24be 8324 e2bd ebc1 dbbd
00000150: 4bdc 4dbe ca51 10be 32b7 3b3e 0910 4abe
00000160: ac9d 49bd c006 ec3b 5858 533e 5cda 03be
00000170: aadc 4dbe ec87 013e ec6f d9bd 6c2d 4c3e
00000180: f095 033d e88b 863d b842 263e ec5c 15bd
00000190: d365 3b3e a4a3 013d 5a01 66be c9f8 ff3d
000001a0: 0796 ab3d 405f 46bc afed 333e 8eae a83c
000001b0: bcde 213d ed9b 43be 2806 e2bc 1edc 4bbe
000001c0: 839a 1e3e 8069 c0bb 3c1a 70bd d985 f1bd
000001d0: eeff 64bc cc54 f33c 78c5 03be e118 243e
000001e0: ae92 4abe 934d 68be db53 cb3c f01f cd3d
000001f0: 42ac a93d fc0d 0bbd 5aba 03be cea3 f1bd
00000200: f7ca 003d 4954 43be 0aa6 42be 27da 053e
00000210: 0d3a ec3d 3ed0 87bd 04fa 533e a13d 8a3d
00000220: 4d20 dbbd 21fb 6fbe 997b 133c 7003 2d3e
00000230: 6362 dabd 2f1a a93b dbb3 f13d 8372 d13d
00000240: 196f a53d feaa 473d 3ba9 1abd 5c03 1b3e
00000250: 03a2 113e 44c3 3c3e 4df8 55be 1fda a33c
00000260: 9601 e73c f66b 3cbe b086 2d3d c779 5a3e
00000270: 177d 523e 3d55 1e3d e31c 8dbd 3eee 17be
00000280: 585a 493e e00a a3bb 9088 44bd 84a7 ec3d
00000290: d117 4bbe 04a1 243e c0bd 1c3e 6ec3 443e
000002a0: d75e 62be 285f dc3d d862 0f3d fa7b 593e
000002b0: c89c 743d 8ebf 9fbd 506d 98bd 1ae0 30be
000002c0: 2484 5fbd 6001 c83c 00a1 c5bc 504b 1fbe
000002d0: 7450 8fbd 782f 03be b6ae 5dbe b8c5 f33d
000002e0: 78ef 42be 9fed 4dbe 007a e6bc b8cf 5ebd
000002f0: 906b 5abd 1402 26be 7ce9 5a3e 3cd2 a83d
00000300: f85a 563d 8c6f 863d dc96 50be 8a20 a3bd
00000310: 0765 18be 8cce 3f3e eaa5 5c3e 2049 033e
00000320: 7e8b 50be 9170 62be b24e 223e f046 4a3d
00000330: 4432 12bd 175c 27be 58d7 2ebe 267b 553e
00000340: 949b 24be d86d d4bd 18ec 3ebe 1d5a 02be
00000350: 6617 123e 1431 5cbe 8c86 113e d257 4ebe
00000360: 4487 183e d16b f9bd 1ae8 39be 50bb 083d
00000370: e219 c63c b399 d03d a883 65be 7adb 0ebe
00000380: 5e76 403d 350c 383e bda3 53be 0a33 0fbe
00000390: 4d26 27bd 8081 ecbd 0674 2b3e 9e31 04be
000003a0: 8066 08bd c274 d3bd e497 123e 991d 413e
000003b0: 41da 383e 1c71 ffbd 9ae9 0abc 5e3d bebd
000003c0: 81a9 3f3d 6ca6 523e 5760 ae3d 7ddd 9bbe
000003d0: c29c 23bd 21ee 3b3e 6bcf 353c 79fa 2f3e
000003e0: b678 59be e230 ae3d e0ae 2cbd 4531 363e
000003f0: 374a 25be 8001 3a3d 40f0 65bc 5bf3 cebd
-0.018543333 -0.17510949 0.035871804 0.021697164 -0.16662408 -0.08357242 -0.06285244 0.021901116
-0.036950216 0.18900603 0.09554824 -0.19398586 0.096834004 0.22169635 0.05106187 -0.0171372
0.1264084 -0.023769006 0.056922227 -0.0703215 -0.15475129 0.096910976 0.21577431 -0.016467491
0.0022001588 -0.112270705 0.031217745 0.0114161605 0.20098734 0.15551175 0.167332 0.22717883
-0.003617778 -0.09168619 0.008600235 0.20539623 0.17052574 0.079442136 -0.07401935 0.057366844
-0.1701822 0.24943765 -0.0031035675 -0.19226444 0.18347262 0.18151918 -0.3123935 0.1819614
-0.0027373002 -0.16202776 0.18205476 -0.1793661 -0.21644424 0.07561013 0.1627065 0.21095002
0.15325728 0.16339427 0.18484285 0.18723774 -0.15979163 0.11976602 -0.020236595 -0.062872775
0.06646467 0.13920532 0.054245014 0.22148243 -0.11814709 -0.008234337 0.18456823 0.0637114
0.041304126 -0.021919549 -0.10396368 0.055849075 -0.020452917 -0.16519645 0.04262928 -0.05363379
-0.03956954 -0.16018501 -0.1104212 -0.10730346 -0.20103566 -0.140937 0.18331602 -0.1973268
-0.049222633 0.007202953 0.20639169 -0.12876266 -0.20103708 0.12649506 -0.106170505 0.19939202
0.032125413 0.06569654 0.16236389 -0.03646557 0.18300562 0.0316502 -0.22461453 0.12498624
0.08378225 -0.01210767 0.17571138 0.020591047 0.039519057 -0.1910245 -0.027590826 -0.19908187
0.15488629 -0.0058719516 -0.05861877 -0.117931075 -0.013977034 0.02970352 -0.12868297 0.16025116
-0.19782516 -0.22685842 0.024820259 0.10015857 0.08284809 -0.033948883 -0.12864056 -0.117988214
0.031443562 -0.19075121 -0.19008651 0.130715 0.1153451 -0.06631516 0.20700842 0.06750036
-0.1069952 -0.23435642 0.009001636 0.16895843 -0.10663297 0.005160592 0.11801883 0.102269195
0.08077831 0.048747055 -0.037759047 0.15138 0.14221959 0.18433863 -0.208955 0.02000147
0.028198998 -0.18400559 0.042364776 0.21335517 0.2055553 0.03865551 -0.06890275 -0.14836976
0.1966337 -0.0049756616 -0.0479818 0.115553886 -0.19833304 0.16077048 0.15306759 0.19215176
-0.22106491 0.10760337 0.035006374 0.212387 0.05971983 -0.07800208 -0.07442725 -0.17272988
-0.05456938 0.024414718 -0.024124622 -0.15556073 -0.06997767 -0.12811077 -0.21648678 0.11902946
-0.19036663 -0.20110177 -0.028134346 -0.054397315 -0.053325236 -0.1621173 0.2137813 0.08243224
0.05233285 0.06564245 -0.20370048 -0.07965191 -0.14882289 0.18731135 0.21547666 0.12820864
-0.20365712 -0.22113253 0.15850332 0.049384058 -0.03569247 -0.16343723 -0.17074335 0.20847759
-0.16074973 -0.103725135 -0.1864475 -0.12729688 0.14266738 -0.21503097 0.14211482 -0.20150688
0.1489535 -0.121787675 -0.18154946 0.03338176 0.024182264 0.10185566 -0.22413504 -0.13950911
0.046987884 0.17973407 -0.2066793 -0.13984314 -0.04080801 -0.11548138 0.16743478 -0.12909552
-0.033300877 -0.10325004 0.14315754 0.18858947 0.18052007 -0.12472746 -0.0084785465 -0.092890486
0.04679251 0.20571297 0.08514469 -0.3044242 -0.039944418 0.18352558 0.011096816 0.17185391
-0.21237454 0.085054174 -0.04215896 0.17792232 -0.16141592 0.045411587 -0.014034331 -0.1010501

bias f4 [20]
00000000: 6a50 133e 1fc5 50bd bddb 0d3e 4e35 c8bd
00000010: e0ce f23c fd37 4fbc 0e03 14be 84cf 1a3d
00000020: dadf 5a3e 3ad2 363e 7ebe 5c3e a239 403e
00000030: 315b 863d b25c 723d 062c b9bd fbaa 9e3d
00000040: 6931 01be a09d e03c 52c4 dc3d 2a85 df3d
0.14386144 -0.05096924 0.13853355 -0.09775792 0.029639661 -0.012647626 -0.1445429 0.03779556
0.21374455 0.17853633 0.21557042 0.18771985 0.06560362 0.059170432 -0.090416 0.07747456
-0.12616505 0.027418911 0.10779633 0.10914071

weight f4 [1, 20]
00000000: f6f0 4b3e 9557 52be 3f39 20be 8a6c 333e
00000010: 48df 21bd 1baf 803c 0c40 0d3d 6fe9 2abd
00000020: 8037 973d 320c b5bd d05e 063d c2fe a73d
00000030: fa0d e0bc 371d 7dbe 9ddc 10be 5922 6bbd
00000040: 5038 2d3b 8ced 01be 33f8 85be f5d8 da3d
0.19916138 -0.20541222 -0.15646838 0.17521873 -0.03951958 0.015708497 0.034484908 -0.041726526
0.07383633 -0.08840217 0.032805264 0.08202888 -0.027350415 -0.24718176 -0.14146657 -0.057405803
0.002643127 -0.12688273 -0.26165923 0.106859125

weight f4 [20, 4]
00000000: f8c5 3c3e 3390 a73e 0649 ebbe 699f b63e
00000010: 3ea1 993e 40bb 7fbd 4ceb 62be 4247 debe
00000020: edcc b43e b8d8 f9be 1ee6 e43d 011d ca3e
00000030: 902c d73d 6238 e1be 6237 b0be 3428 2fbe
00000040: dcc1 50bd 70e3 633d 0781 18be be5c de3e
00000050: 52df 133f efbd 91be 911a e23e 658a ccbe
00000060: 50c2 6f3e 873e e3be 5a4a a33d f6ff df3e
00000070: be08 d33e 79fb e4bc d7dd ad3e 27d4 cbbe
00000080: 00ce b0be d8c0 e7be 1cab 57be 72fa a03e
00000090: 5bec dcbe 872c 3e3e 6188 fb3d 4e4b edbe
000000a0: 36e4 98be b0f7 36bd 4091 4fbd 826f b9be
000000b0: 312d ae3e 9823 a33e aa93 3a3e 2897 cc3e
000000c0: 8627 32be e00d 6a3e 31c7 eb3e cc56 8f3e
000000d0: c06e 9abc c8de cbbe 188d 14be 7011 393d
000000e0: 3dff aebe aceb ef3e 6875 993e e6b0 a83d
000000f0: e659 f03e e4ec dabe 842d 19be 74f8 523e
00000100: 4d7f 6bbe 3866 35bc 58c4 c6be e6a3 8abc
00000110: ae46 7d3e 955f b23e 0699 d9bd bae0 74bd
00000120: bf40 cc3d 19a8 1bbd de59 143f 8a21 903e
00000130: 6db0 d8be 25ae 4f3e a51a e03d aa07 cfbd
0.18434894 0.32727203 -0.4595415 0.35668495 0.3000583 -0.062434435 -0.22160071 -0.4341374
0.35312596 -0.48798156 0.11176704 0.39475253 0.105065465 -0.4398833 -0.34417254 -0.1710518
-0.05096613 0.055636823 -0.1489297 0.43430132 0.57762635 -0.2846522 0.44160894 -0.39949337
0.23413968 -0.44383642 0.07973166 0.4374997 0.41217607 -0.027951943 0.33958313 -0.39810297
-0.34532166 -0.45264316 -0.21061367 0.31441075 -0.43149075 0.18571673 0.122818716 -0.46346515
-0.2986161 -0.044669807 -0.05067563 -0.36217886 0.34018853 0.31863093 0.18220392 0.39959073
-0.1739789 0.22856855 0.46050408 0.27995908 -0.018851638 -0.39818406 -0.14506948 0.045182645
-0.34179106 0.4685949 0.29972386 0.08236866 0.46943587 -0.42758858 -0.14958769 0.2060259
-0.2299778 -0.011071734 -0.38821673 -0.016923856 0.24733993 0.34838548 -0.1062489 -0.05978463
0.09973287 -0.038002107 0.57949626 0.28150588 -0.42322102 0.20281275 0.10942582 -0.10108884

bias f4 [20]
00000000: fd7a 9abe a4e7 6e3e ba16 ec3e 42d4 c43e
00000010: dcf8 9c3d 3903 10be e794 a73d 0d47 933e
00000020: 2e0c 88be 8510 0e3c 50b0 dc3e b1c0 e8be
00000030: f665 603d a8ff 1dbe 47b4 953e 00ae a2be
00000040: 0a6f b13d 4072 b93e ff53 7c3e 6c1f a1be
-0.30171958 0.23330551 0.4611109 0.3844319 0.07664654 -0.1406373 0.08182698 0.28765145
-0.26571792 0.008670931 0.43103266 -0.45459512 0.054784738 -0.15429556 0.29239103 -0.31773376
0.08663757 0.36219978 0.24641417 -0.31469285

weight f4 [20, 20]
00000000: 29c9 993d f5c2 4bbe a835 2ebe 4c14 d03d
00000010: 00fd bcbd 0027 1b3e 889d 42be 935d 24bb
00000020: 38ce 1d3e c45c fbbc 3840 14bd 5a97 3a3e
00000030: 69e7 c63c 422b 3abe c543 87bd fd01 51be
00000040: d4bc ab3d 033e c4bd a174 5c3e c174 5fbe
00000050: 0af5 043e f875 1d3e a62c 0c3e 5e29 56be
00000060: 027f 18be e04a 29bd 901a 863d 60d0 89bd
00000070: c4c2 ae3d 207f bcbc 745d 823d c4f9 89bd
00000080: d801 fa3d 742f a03d e2da a7bd 6499 0b3e
00000090: b6cf 113e 3b99 e7bd daec fabd a204 adbd
000000a0: 2465 17be a8e3 fe3d b429 7b3d 6c83 4cbe
000000b0: 511c 21bd 2c9a d9bb 4cb7 13be 1b0b 33bd
000000c0: b06b 51be e39d 59be f04d 31bd 8d8c 2b3e
000000d0: 1790 f03d 5aee 473e b9e0 0c3c ec8a fc3d
000000e0: 4c69 413e 4b86 393e fbf5 e63d dd49 003e
000000f0: e397 bd3d 6cd9 18be a518 213e a830 1d3d
00000100: ab68 fa3d 4a29 0fbc a68b f2bd 7480 293e
00000110: e8ee ac3d 7cd3 e23d 2c19 e33d fc6d db3d
00000120: f207 0dbe b046 283d da1c 263e a0a2 153e
00000130: 8b71 11be e169 a93d 7812 de3c 8671 113e
00000140: e5b8 b83c 00c7 a93d 9d01 493c 7871 08be
00000150: 010d 063e 9127 96bd 9c4e d73d 6c11 483e
00000160: 780b 3e3e 4683 6e3e 1a22 313e ea97 213e
00000170: 0789 363e d059 fa3c 82eb 663e 809d e6bb
00000180: 5d55 0abe 8ecb b83d 799f 79bc ee59 283e
00000190: 0c0b b63d 663e 50be 207b 29be a00c 4e3e
000001a0: 6eb2 0d3e 8e95 0e3e 5815 a9bd e019 d23b
000001b0: 4673 183e a814 043e 884b b83d 8a53 24be
000001c0: a911 ccbd 62cf 283e e49d 2dbe 389c f5bd
000001d0: 6cfc a43d c889 373e de79 20be 0b9a 56be
000001e0: 54a7 d73d bc92 223e c874 043d 4ee1 393e
000001f0: e49b 643e 68de 0c3d bc0e 5abd c020 433e
00000200: 00e8 a4b8 d01b 403d 400d 7d3c 14b2 0bbd
00000210: 9b09 55be 2fbb 63be d271 02be e0f1 8e3b
00000220: 68d9 f33d 58e7 2b3e ddbc f4bd 5c48 19be
00000230: 998a 303d 149b ea3d c0a9 9b3d 080b a83c
00000240: 73e7 7abe 1066 a0bd 3eb3 053e 596d a3bc
00000250: 8c6e 55bd e60c 0a3e 1a82 023e ce02 2f3d
00000260: 8dbe 1abe e413 3b3e 4a90 65bd a88b 2fbd
00000270: 5144 393e b1b0 973d b4ac 133e 8ea5 ecbd
00000280: f2e9 d83d b083 1a3c 6ca6 f13b 00ee 8a39
00000290: e108 2abe d01d 9c3e 1b6e 3b3e b54c 303e
000002a0: 7451 f93d fea5 663e 205b 743d f737 123e
000002b0: 9c45 dbbd b969 05be f323 fcbc 7cbc 54be
000002c0: 693f 3f3d 3077 32bd aa09 cd3d 4b9b 0abe
000002d0: d0c8 2abe 083b bfbd 34a1 b83d 501f b83d
000002e0: 86cf 1d3e a874 893d a807 3fbe db89 44be
000002f0: 98a3 493e 3f9c f1bb d8e2 f1bd 77f1 11bd
00000300: 4fba bfbd 56ff 123e 3d82 873c b828 cbbc
00000310: 8ae9 053d b2f3 123e e099 89bd 18da 113e
00000320: d962 40be 83d5 2abe 3078 273d 58d4 0ebe
00000330: d732 833c 2b7d e5bd b0c2 fc3d 2218 9dbc
00000340: a000 583e 25ae 65bc 1aaa 193e ef74 c03d
00000350: 2f90 923d 4049 2b3e df3b 693d 363f edbd
00000360: b41f 78bd 3c8d b73c c520 37be 317c 4abe
00000370: 7a30 603e a676 0d3e 69d6 3bbe 00ff a2bb
00000380: e0c4 5fbe 98ea d83d 36a4 a7bd 32df 123e
00000390: 24b0 123e b64e 2e3e 5814 10be 18a4 3cbe
000003a0: 0ea2 3abe 4803 d63d 6e34 b3bd 155f 62be
000003b0: 2afc f7bd a75c 50be 8a5c 37be baf6 abbd
000003c0: 00d8 a9b9 f838 5bbd f050 5d3e d08f 13be
000003d0: 9001 963c 400d 1b3c a0be e63d 908d 44bc
000003e0: 5084 353e 5862 4abd 78cc 603e 9c5e d73d
000003f0: b6c6 34be 726e 1cbe b0ed f0bd 7cd9 ac3d
0.075090714 -0.19898589 -0.17012656 0.10160121 -0.092279434 0.15151596 -0.19005406 -0.0025080189
0.15410697 -0.030683883 -0.036194056 0.18221799 0.024280267 -0.18180564 -0.06604723 -0.20410915
0.083856255 -0.0958214 0.21528865 -0.21821882 0.129841 0.15377033 0.13688907 -0.20914218
-0.148922 -0.041331172 0.06548035 -0.067291975 0.08533242 -0.023009837 0.06365481 -0.06737092
0.12207383 0.07821551 -0.081960455 0.13632733 0.14239392 -0.11308523 -0.12252207 -0.08448149
-0.14784676 0.12445766 0.061319068 -0.19972008 -0.039333645 -0.006640693 -0.14425391 -0.043711763
-0.20451236 -0.21251635 -0.043287218 0.16752835 0.11746233 0.19524518 0.0085985 0.12331185
0.18887824 0.18117635 0.11277386 0.12528177 0.09257486 -0.1492669 0.15732057 0.03837648
0.12226995 -0.008737871 -0.11843042 0.16552907 0.08444005 0.11075494 0.110887855 0.10714337
-0.13772562 0.041083038 0.16221943 0.14612818 -0.1420347 0.08272148 0.027108416 0.14203462
0.022549102 0.08289909 0.012268451 -0.13324535 0.13090898 -0.073317654 0.105130404 0.19537896
0.18559062 0.23292264 0.17298165 0.15780607 0.1782571 0.030560404 0.22550777 -0.0070378184
-0.13509126 0.090232 -0.015235775 0.16440555 0.08888826 -0.20336303 -0.16550875 0.20122004
0.13837597 0.13924238 -0.08256024 0.006411776 0.14887723 0.12898505 0.089987814 -0.16047493
-0.09964306 0.1648536 -0.16954762 -0.11992687 0.08055958 0.17923653 -0.15671489 -0.209572
0.10529962 0.15876287 0.032337934 0.18152353 0.22325093 0.03439179 -0.053236708 0.19055462
-7.863343e-05 0.046901524 0.015445054 -0.034105375 -0.20804445 -0.22239374 -0.12738732 0.00436233
0.11906701 0.1678747 -0.11950085 -0.14969009 0.043100927 0.1145536 0.076007366 0.020513073
-0.24502353 -0.07831967 0.13056657 -0.019949602 -0.05210738 0.13481483 0.12744942 0.042727284
-0.15111752 0.18269306 -0.056045808 -0.042857796 0.18092467 0.07406748 0.1442135 -0.115550146
0.105914965 0.009430811 0.0073745754 0.00026498735 -0.1660495 0.30491495 0.1830372 0.17216761
0.12173739 0.22524258 0.059657216 0.14279161 -0.10706636 -0.13028611 -0.03077886 -0.20775026
0.046691332 -0.043570697 0.10011609 -0.13535802 -0.16678166 -0.09337431 0.09015122 0.089903474
0.15411195 0.067117035 -0.18655264 -0.19193213 0.19691312 -0.0073733623 -0.11810845 -0.03563067
-0.093617074 0.14355215 0.016541595 -0.02479969 0.032693423 0.14350775 -0.067188025 0.14243352
-0.18787707 -0.16683011 0.040886104 -0.1394819 0.016015453 -0.112055145 0.12341821 -0.019176546
0.21093988 -0.01401857 0.15006295 0.09397303 0.07156407 0.16727161 0.056941863 -0.11584322
-0.06057711 0.022406213 -0.17883594 -0.19773938 0.21893492 0.13814792 -0.1834351 -0.004974246
-0.21852446 0.1059162 -0.081856176 0.14342955 0.14325005 0.17022213 -0.1407026 -0.18421972
-0.18225881 0.104498446 -0.087502345 -0.22106583 -0.12108643 -0.20347844 -0.17906395 -0.08396669
-0.00032395124 -0.053521127 0.21612906 -0.14410329 0.018311292 0.009463608 0.112668276 -0.011996642
0.17726254 -0.049410194 0.21952999 0.10516092 -0.17653927 -0.15276507 -0.11764085 0.08439919

bias f4 [20]
00000000: cfd2 1dbe ea3f 543e a0db 433e 7a53 a6bd
00000010: d937 cabd 50f2 f1bc a8b0 c3bd 683f a43d
00000020: bf21 a83e b8c6 e6bc 03b2 15be 1833 42be
00000030: 1845 cf3d a890 eabd 801b 963b b0d9 da3d
00000040: 81be 053e 1698 173c bacc 913d 6f26 993d
-0.15412448 0.20727506 0.19126749 -0.08121391 -0.09873933 -0.029534489 -0.09555179 0.08019906
0.32838246 -0.028170928 -0.14618687 -0.18964803 0.101206005 -0.11453372 0.004580915 0.10686052
0.13060953 0.009252569 0.071191266 0.07478034

weight f4 [1, 20]
00000000: 4bce 1bbe 89d5 d1bd 4000 a3bb bcb4 2cbe
00000010: 42d1 483d dc26 d63d f857 553e 144a 1abe
00000020: eefe 8fbd 0845 c13a bf31 2dbd bb9f f7bd
00000030: a4b0 473e 40d6 40be ee01 b9bd 580f bb3c
00000040: 7a1a 05bd dfc7 223e 4532 773e 034f 1b3e
-0.15215413 -0.10245807 -0.004974395 -0.1686582 0.04902769 0.104566306 0.20834339 -0.15067321
-0.07031046 0.0014745304 -0.04228377 -0.12091013 0.19500977 -0.1883173 -0.09033571 0.022834465
-0.032495953 0.15896557 0.2414027 0.1516686

weight f4 [20, 4]
00000000: 265f 583e dbc1 ef3d b04f 9a3e 3655 c93e
00000010: 6049 5e3d bd96 b83e 3e90 133f 32fc da3e
00000020: d806 3b3e cfa8 ac3e 6b26 f03e 08dc 603e
00000030: 5889 d23e e403 24be 5219 8abe 5e97 b23e
00000040: 49f0 e73d 5c57 da3e 37fc 853e 4776 f73e
00000050: 3e22 17be e91f 4cbe 6c8a 033d c99c b03e
00000060: b28e e0bb 9cd0 553e afb3 c53e bca4 b4be
00000070: 4e35 89be 77c1 643e 5381 843e 5594 80be
00000080: 05a5 2d3e 1096 6e3e 281b 103f acda 20bd
00000090: bd11 c03e bf0e dd3e cde8 653d 6178 ecbe
000000a0: de03 5abe d41a f7bd a58f 873d 2fd6 1b3d
000000b0: 19f9 4dbe 9f12 023d 9833 b73e 3b41 3e3e
000000c0: bad5 4a3e d404 223e 5769 80bd b37b c53e
000000d0: f767 73be 6f4b eebb 6555 96be 5bc9 00bf
000000e0: 4a35 a2bd 3880 843e d7a5 1e3f 0ff6 55be
000000f0: 6494 903e 3086 2ebe 68c6 04be 14d5 53be
00000100: 5ec0 8c3e 5e3d 133f 2a5b 19bd 2078 2c3e
00000110: 48f5 9dbe 1a2c 133e ee0f 86be aadc 69be
00000120: 051b 17bd e135 8d3e 52c9 083f 09c8 1a3e
00000130: 6fea 983e ce4f 803e b72a ab3e db70 6b3c
0.21130046 0.11706897 0.30138922 0.39322823 0.054269195 0.36052504 0.5764197 0.42770535
0.1826433 0.3372254 0.4690431 0.21958935 0.4112041 -0.16017109 -0.26972443 0.3488111
0.11325128 0.42644775 0.26168987 0.48332426 -0.14759156 -0.19934048 0.03211443 0.34494618
-0.006852948 0.2088036 0.3861365 -0.35281932 -0.2679848 0.22339426 0.25879917 -0.25113168
0.16957481 0.23299432 0.5629144 -0.03927104 0.37513533 0.43175313 0.05613022 -0.46185592
-0.21290538 -0.12065664 0.06619195 0.03804606 -0.20114554 0.03175604 0.3578155 0.18579571
0.19808093 0.15822154 -0.06270092 0.38570938 -0.23770128 -0.007272176 -0.29362026 -0.50307244
-0.0792032 0.25879073 0.619718 -0.20894645 0.28238213 -0.17043376 -0.12966311 -0.20686752
0.27490515 0.57515514 -0.037440456 0.16842699 -0.30851197 0.14372292 -0.26184028 -0.22838083
-0.036891002 0.2758017 0.5343219 0.1511537 0.2986636 0.25060886 0.33431026 0.014370169

bias f4 [20]
00000000: 5159 3a3d 1765 063e 0b00 5c3d 3e6c b9be
00000010: 9f28 ef3d e62c 0abe bf1e 83ba 63c7 c13d
00000020: a4d8 ec3e 4c2a fbbe 8c52 253d ac0b f2bd
00000030: b66e d43e a1c7 923e 43df d93e d024 26bd
00000040: 0dec 123e 94f3 c0be 3c90 ba3d a191 bcbe
0.045495335 0.131245 0.05371098 -0.36215395 0.1167767 -0.1349369 -0.001000367 0.09461858
0.46259034 -0.49055707 0.040361926 -0.118186325 0.41490716 0.2866793 0.42553148 -0.04056245
0.14347859 -0.37685835 0.09109542 -0.36829856

weight f4 [20, 20]
00000000: 9632 943e a966 6f3e 68e6 3d3e 201b a23b
00000010: d1e4 963e 5f43 d83d 6144 073d b4f3 cf3d
00000020: af1a 9c3d bc5a 1e3e fd00 19be 4a8a d63d
00000030: b311 3d3e eb23 d03d 6885 4d3e 5888 663d
00000040: d4e0 413e 592f 993b 8903 7f3e e918 8b3d
00000050: 080a 43bd 40ae 31be d0de 1f3d 3892 013d
00000060: a439 5f3e f0f8 ea3c f75f dbbd 7cae ac3d
00000070: b297 c8bd 3e08 373e b7c8 20be 3c86 933d
00000080: 98b8 a03d f2a9 dfbd cfa5 0cbe 405a 9b3b
00000090: 0c6b eabd da19 35be d070 22be 7098 203e
000000a0: 12f6 c2bd 4ece cabd 6e83 3dbe dc0d 2dbe
000000b0: 869a 2f3c 22ba e2bd e0a8 58be 608f 883d
000000c0: 74bc 6ebd e726 223e 0abf 98bd 3013 99bc
000000d0: 5dd6 0abe 05a2 c33d 7ef8 5e3c 0479 e6bd
000000e0: 89d8 2c3d 1feb 533c 1c67 3b3e 95c1 b5bd
000000f0: 6068 d1bd 0cd1 3dbe 983c 843d 10b8 2d3c
00000100: c615 373e 6cbe 01be 3856 52bd 176f 52be
00000110: 5b2c 08be 0803 37be 042e 323e bcd6 4d3e
00000120: aa71 4cbe 60fd 2bbd 4a86 4c3e 9070 013d
00000130: b0ad 06bd 767d 023e 2d59 58be 5278 09be
00000140: be3c 0c3e fefa ae3e 1f95 ac3d 8470 a43d
00000150: 6412 263e 2cf7 0cbe 349c a13e 40eb ba3d
00000160: 6508 923e 1411 75bd b1d8 b33d 22f2 8bbc
00000170: a40d 01be 7803 803d 0549 cf3d c846 503d
00000180: 22c0 8ebd ea92 123e dbe5 0b3e d3ac 3a3d
00000190: d72d 1b3e 02d3 1dbe ab7b ddbd 2e36 31be
000001a0: 23f5 4cbd 2241 183e 624e 913d a43f 46be
000001b0: ffa0 8b3d fe44 89be 6bd2 7c3d eee4 ee3d
000001c0: 54ed 6c3d a478 263e 964c 873d 5029 2e3c
000001d0: d229 52be 7854 26bd 6d10 1c3e d42a c13d
000001e0: 789d 103d 98c2 39bd d02f 71bd 9659 9cbd
000001f0: 461d 2b3e f467 f53d e092 843d 0cd3 04bd
00000200: 56c2 07be 169c 85bd 6c0e bf3d 29ab 5bbe
00000210: 70ba a3bc e064 02be fe88 263e f8f5 203e
00000220: 4b77 55be acb4 bfbd e43c 0d3e 262f 35be
00000230: dff6 21be 444b 083e 5d0c 91bc 708b c0bd
00000240: 0fe0 023e b0cc 093c f098 cd3d f42b be3d
00000250: 4bd3 0d3e f4a2 7cbe 7c89 bd3d 0e13 97bd
00000260: f673 f8bc d380 ab3d 02ff bd3d 10b7 123e
00000270: 31dc 9cbd 6281 66be b898 7cbe 0842 8abd
00000280: 96c0 3e3d bcf8 153e ab91 9ebc ea0f 1fbe
00000290: 16ea 2d3d 8cd2 babd 47ac d93d 51cb 1a3e
000002a0: 91bc 6dbe 2307 c8bd 260a 033e 59c9 b8be
000002b0: f31a 1c3e 6aae 563e 801b 57ba 6098 a0bb
000002c0: a285 e53d 76eb cdbd 2be4 5bbe 3acd a9bb
000002d0: 1a79 cb3d f327 0a3e c93b 5e3d d0ef 29be
000002e0: 5c7e 75be e7ae 3b3d 709a e83c d381 62bd
000002f0: 2868 afbd 4f46 e43d 8e71 04be 37f5 adbe
00000300: d033 61be 0e22 163e ee75 dc3d 405f 88bb
00000310: 4485 6dbe a1a6 bebd 56c5 b53d 3965 1f3e
00000320: a536 843e 8f4c 073e f507 03be c070 16bb
00000330: 5dc8 58be 027f 1cbd 20cc 28be b974 2c3e
00000340: 022d 123d 36fe 213c 73ed 29be 8316 f53d
00000350: 8d16 363e 7d11 debc 90a3 07bd 9998 d6bd
00000360: 00db 53bc 5c8e 123e 44db 513e 9eff 303e
00000370: ae36 013e 90ec 003c 8464 093e 044d 27be
00000380: 7c62 e13d 00ea dc3c 22f5 c1bd 5235 63be
00000390: 4493 e83d 80e2 2bbe 080c 2bbe eef4 f2bd
000003a0: ae22 273e d6d7 cdbd 2855 8c3d 18ba ecbd
000003b0: 8c07 05be dc6a 91bd 303c 77bd 46a4 5ebe
000003c0: 5053 ed3d 90d8 8b3c 8081 273b f4dc 913d
000003d0: 28c3 9abc 08b0 693d 8b35 13be 2970 46be
000003e0: c8a1 163d a083 b13b f92f 26be b888 f33d
000003f0: 081c 17bd 1b4e dbbd 9610 0fbe ca19 463e
0.28944844 0.23379005 0.18544924 0.004947081 0.29471448 0.10559725 0.033024196 0.101539046
0.07622277 0.154643 -0.14941783 0.10475595 0.18463783 0.10163101 0.20070422 0.05628237
0.18933421 0.0046748337 0.24903692 0.067918606 -0.04761699 -0.17351627 0.03903085 0.031633586
0.21799332 0.028683156 -0.10711663 0.08431718 -0.097945586 0.17874238 -0.15701567 0.072033376
0.078477085 -0.10921086 -0.13735126 0.0047409832 -0.11446199 -0.17685643 -0.15863347 0.1568315
-0.095195904 -0.09902631 -0.18507168 -0.16899818 0.010717994 -0.11070658 -0.2115817 0.066679716
-0.05828519 0.15835153 -0.07458313 -0.018685907 -0.13558336 0.09552387 0.01360905 -0.11253551
0.04219869 0.012934475 0.18301052 -0.088748135 -0.10224986 -0.18536776 0.0645687 0.010602966
0.178794 -0.12670296 -0.051351756 -0.2055019 -0.1329817 -0.1787225 0.17400366 0.20101446
-0.19965234 -0.041989684 0.19973102 0.03160149 -0.032880485 0.12743172 -0.21127768 -0.13424805
0.13695046 0.34175867 0.0842688 0.08029273 0.16217953 -0.13766164 0.31564486 0.091269016
0.2852203 -0.05983074 0.08781565 -0.017083231 -0.1260286 0.062506616 0.10121349 0.050848752
-0.0697024 0.14313856 0.13661902 0.045574974 0.15154205 -0.15412524 -0.108146034 -0.17305824
-0.050038468 0.14868596 0.070950285 -0.19360214 0.06817817 -0.2681045 0.061724108 0.116647586
0.05784352 0.16256958 0.066064045 0.010629967 -0.20523766 -0.0406079 0.15240641 0.09431997
0.035306424 -0.045351595 -0.05888349 -0.07634275 0.16710386 0.11982718 0.06473327 -0.032427832
-0.13257727 -0.06523912 0.09328923 -0.21452011 -0.019986361 -0.12733793 0.16263196 0.1571883
-0.20846288 -0.09360632 0.13792759 -0.17693767 -0.1581683 0.13309962 -0.01770609 -0.094015956
0.12780784 0.008410618 0.10038936 0.09285727 0.13850133 -0.24671537 0.09254739 -0.07376681
-0.030328732 0.08374181 0.092771545 0.14327645 -0.07659186 -0.22510293 -0.24667633 -0.06750876
0.046570383 0.14645666 -0.01935657 -0.15533414 0.04245957 -0.0912219 0.106285624 0.15116622
-0.23216464 -0.09766986 0.1279684 -0.36091116 0.15244655 0.20964971 -0.0008205697 -0.004900977
0.11207129 -0.10054676 -0.21473758 -0.0051819356 0.09935208 0.13491802 0.054256234 -0.16595387
-0.23973984 0.045821097 0.028393954 -0.05529959 -0.08564788 0.11146223 -0.12933943 -0.33976147
-0.21992421 0.14661428 0.10764681 -0.0041617453 -0.23195368 -0.09309126 0.088755295 0.15565957
0.2582294 0.13212799 -0.12796004 -0.0022955388 -0.21170183 -0.03820706 -0.16484118 0.16841401
0.035687454 0.009887269 -0.16594486 0.119671844 0.1778204 -0.027107948 -0.03311497 -0.104783244
-0.012930632 0.14312118 0.204938 0.1728501 0.12618515 0.007868901 0.1341725 -0.16337973
0.110051125 0.026967049 -0.094705835 -0.22188309 0.11356214 -0.16785622 -0.16703808 -0.11863123
0.16321823 -0.10050933 0.0685218 -0.11558932 -0.1299116 -0.0710046 -0.060360134 -0.21742353
0.11588156 0.017071038 0.0025559366 0.071222216 -0.018891886 0.057052642 -0.14375894 -0.19378723
0.03677538 0.0054173023 -0.16229238 0.118913114 -0.036891967 -0.10708257 -0.13971171 0.19345775

bias f4 [20]
00000000: bc65 39be 6e44 1f3e 3f9d 18be fc66 9abd
00000010: af1d 5dbc 7949 c0bd 8c16 ae3d 63f4 233e
00000020: 8587 c03d 1afa 23be 24cc 85be 4cd9 18be
00000030: 38eb 0b3e 2de4 59bd d097 893d 982b 313e
00000040: 780c 5f3d 80cf ec3c 3e96 32be 0cdf 9c3d
-0.18105215 0.15553448 -0.14903735 -0.07539174 -0.013495847 -0.09389014 0.08500394 0.16011195
0.09400848 -0.16013375 -0.2613231 -0.14926642 0.13663948 -0.05319612 0.06718409 0.17301786
0.05445525 0.028907537 -0.17440125 0.0765973

weight f4 [1, 20]
00000000: 7fa1 8f3e e001 6cbc 36ad 2fbe 10ef 95bc
00000010: 233e 173e 4e56 f6bd a0a7 7f3d 5247 2bbd
00000020: dede 00bd f7c2 38be 8f29 c23c b091 233e
00000030: 3d76 27be bc1a 86bc f464 97bd a03e e8bb
00000040: d272 423e f2b4 043e 2042 393e 5003 213c
0.280529 -0.014404744 -0.17155918 -0.01830247 0.14769797 -0.1202818 0.06241572 -0.041816063
-0.031462543 -0.18043123 0.023701457 0.15973544 -0.16353698 -0.01637017 -0.07392302 -0.0070875436
0.18989113 0.1295965 0.18091631 0.00982745
