result_model/ex4_spy_nsde.pth (torch, 22036 bytes, 20 tensors)

weight f4 [20, 4]
0	0x3de2a279	0.110661454
1	0x3e1900ab	0.14941661
2	0x3d750d2c	0.059827015
3	0xbdb88063	-0.09008863
4	0x3db987df	0.090591185
5	0xbdd43538	-0.10361713
6	0x3e8e8075	0.2783238
7	0x3efd115d	0.4942731
8	0xbed07a7c	-0.40718448
9	0xbee68d8c	-0.45029867
10	0xbdf0e8f8	-0.11763185
11	0xbe19e2f8	-0.15027988
12	0x3de27c92	0.11058916
13	0x3e62197f	0.22080038
14	0x3e49af1b	0.19695704
15	0xbbbe4969	-0.005807091
16	0x3d2c6390	0.042087138
17	0xbecf0b5e	-0.4043836
18	0xbc042940	-0.008066475
19	0x3eca3d58	0.39499927
20	0xbe6cbd18	-0.23119009
21	0xbee9c68e	-0.45659298
22	0x3efba718	0.4915092
23	0x3ec254d4	0.37955344
24	0xbe9bc83c	-0.30426204
25	0xbeb212d4	-0.3477999
26	0xbde90408	-0.11377722
27	0x3e74e280	0.23914528
28	0x3ee14c20	0.4400339
29	0xbd41e4d0	-0.047337353
30	0xbd6c4de0	-0.057691455
31	0x3ea10006	0.3144533
32	0x3eab9ee6	0.33519667
33	0x3eaf3919	0.3422325
34	0x3e6495e2	0.22322801
35	0xbe263ec8	-0.16234887
36	0x3f2c7155	0.6736043
37	0x3ed795e8	0.42106557
38	0x3d7371cd	0.0594347
39	0xbca9db05	-0.02073432
40	0x3d054680	0.032537937
41	0xbecb2554	-0.39676917
42	0xbe95e744	-0.29278004
43	0x3e039224	0.12848717
44	0xbe95674a	-0.29180366
45	0x3e822473	0.25418434
46	0xbe549233	-0.20758896
47	0x3e049413	0.12947111
48	0xbe451f5a	-0.19250241
49	0x3e937099	0.28796843
50	0xbec817ca	-0.3908065
51	0xbebd2a6c	-0.36946428
52	0xbec4c178	-0.38428855
53	0x3e0b0089	0.13574423
54	0x3ede9437	0.43472454
55	0x3de75fd9	0.11297578
56	0xbe87b8cc	-0.26508176
57	0xbe1344e8	-0.14381754
58	0x3e0c2e98	0.13689649
59	0xbe5a10f0	-0.21295524
60	0x3ee344ea	0.44388515
61	0x3e5b82c6	0.21436605
62	0x3ec8479e	0.3911714
63	0xbde7de06	-0.113216445
64	0x3c3a1924	0.011358533
65	0x3eb5841e	0.3545236
66	0x3ed3c5a2	0.4136172
67	0x3e47f997	0.19528805
68	0x3e8136ea	0.2523721
69	0xbea0a4ae	-0.3137564
70	0x3eb4faa0	0.35347462
71	0x3e041d40	0.12901783
72	0x3e794b08	0.24345028
73	0xbeae0d00	-0.33994293
74	0xbeac7e50	-0.3369012
75	0x3c026cc0	0.007960498
76	0xbf253683	-0.64536303
77	0x3e8fd330	0.2809081
78	0x3e6bcad6	0.23026595
79	0x3e731545	0.23738582

bias f4 [20]
0	0x3d423124	0.047410145
1	0xbed0ea7f	-0.40803906
2	0x3efac0d6	0.48975247
3	0x3eafe897	0.3435714
4	0xbe4497c8	-0.19198525
5	0xbee90be0	-0.45516872
6	0x3e877ac6	0.26460856
7	0xbd519b50	-0.05117351
8	0xbf06a57a	-0.5259625
9	0xbe241495	-0.16023476
10	0xbe58a804	-0.21157843
11	0x3edd9b52	0.43282562
12	0x3e3b3d4f	0.18285106
13	0x3ed4351c	0.4144677
14	0xbee8f2de	-0.45497793
15	0x3df43205	0.11923603
16	0xbee268b7	-0.44220516
17	0xbee29862	-0.44256884
18	0x3e1e59f0	0.15463996
19	0xbc7f0a52	-0.015566425

weight f4 [20, 20]
0	0xbe4148bc	-0.18875402
1	0x3e416855	0.18887456
2	0xbe1ec12a	-0.15503374
3	0x3e0c432d	0.136975
4	0xbe2f903a	-0.17144862
5	0x3d98ebdc	0.074668616
6	0xbe11a21c	-0.14221996
7	0x3e17f19e	0.14838263
8	0x39fa18f4	0.00047702307
9	0xbd26321c	-0.04057513
10	0xbe37c046	-0.1794444
11	0x3e50cd10	0.20390725
12	0xbdff55c6	-0.12467532
13	0xbe227427	-0.15864621
14	0xbda8b08e	-0.082368
15	0x3de087f1	0.10963429
16	0x3ce59a85	0.028027782
17	0xbe45b2b9	-0.19306459
18	0x3e493454	0.19648868
19	0x3c5e0ade	0.013552396
20	0xbe54adfd	-0.20769496
21	0x3d9158f4	0.070970446
22	0xbd30a5a0	-0.043126702
23	0xbe5a5c9a	-0.21324387
24	0x3b8c4ce0	0.004281625
25	0xbe306fb8	-0.17230117
26	0xbe049c59	-0.12950267
27	0x3dc00854	0.093765885
28	0x3defc21e	0.11706947
29	0x3dedebbd	0.11617229
30	0xbe542e6a	-0.2072083
31	0x3e3943aa	0.18092218
32	0xbdba0985	-0.09083847
33	0x3e4219ef	0.18955205
34	0x3d086070	0.033295095
35	0xbd197d76	-0.037473164
36	0xbe58f426	-0.21186885
37	0xbe5878bd	-0.21139808
38	0xbd685804	-0.056724563
39	0xbba46d2a	-0.005017896
40	0xbca5330a	-0.020165939
41	0x3e5e5cdb	0.21715109
42	0xbe2c1b32	-0.16807249
43	0x3e53b8b2	0.20675924
44	0x3dc86dd8	0.09786576
45	0x3d856eb8	0.065152586
46	0x3e4689d2	0.19388512
47	0xbca7e6d0	-0.020495802
48	0x3e0e6c33	0.13908462
49	0xbddbbeac	-0.10729727
50	0xbdfa2c17	-0.12215441
51	0x3cfd4173	0.030914998
52	0xbe0b0546	-0.1357623
53	0x3d88db3d	0.066824414
54	0x3ac86580	0.0015289038
55	0x3e178d15	0.14799912
56	0x3dc950e1	0.098298796
57	0x3de144fc	0.10999486
58	0x3dd90a94	0.10597721
59	0x3ca3c3c9	0.019990819
60	0xbe514f94	-0.20440513
61	0x3dccecdd	0.100061156
62	0x3d2f0760	0.042731643
63	0x3d57be3a	0.05267165
64	0xbdd02641	-0.10163546
65	0x3e3fd3aa	0.18733087
66	0x3d51db98	0.05123481
67	0xbe3920bc	-0.18078893
68	0x3d3b41e3	0.04571713
69	0x3d67b262	0.056566603
70	0xbe1670d8	-0.14691484
71	0x3e5a602a	0.21325746
72	0x3d7fc96c	0.06244795
73	0x3e00c5c7	0.12575446
74	0xbdf3ba51	-0.119007714
75	0xbd814241	-0.06311465
76	0x3e5806a0	0.21096277
77	0xbdc99a2e	-0.098438606
78	0xbe2f007b	-0.17090027
79	0xbd5aa31f	-0.05337822
80	0xbd8448b4	-0.064591795
81	0xbdd8af17	-0.10580271
82	0xbe633b05	-0.22190483
83	0x3d2e0f50	0.042495072
84	0x3dc0e8dc	0.094194144
85	0x3d9805d0	0.07422984
86	0xbd86fc56	-0.06591098
87	0x3de2dfa8	0.11077815
88	0x3d0d6ca0	0.03452742
89	0xbdb860cc	-0.090028375
90	0xbd90c1e8	-0.07068235
91	0xbc8d8f80	-0.01728034
92	0x3de713d0	0.11283076
93	0x3dc28c90	0.094994664
94	0xbcd36d98	-0.025809094
95	0xbe296fc5	-0.16546543
96	0xbdea7b29	-0.11449272
97	0x3e5b2c06	0.21403512
98	0x3e514b10	0.2043879
99	0xbe1530ca	-0.14569393
100	0xbdc6d7ee	-0.09709154
101	0xbe1259b8	-0.14292037
102	0x3e33e1b0	0.17566562
103	0xbd328b04	-0.043589607
104	0xbe1ec254	-0.15503818
105	0x3e0789a4	0.132361
106	0xbd844f18	-0.064603984
107	0xbe591235	-0.21198352
108	0xbd85e1ce	-0.065372095
109	0x3b4e7080	0.003150016
110	0xbe13efec	-0.14446992
111	0x3bd2a140	0.006427914
112	0x3d4400a0	0.04785216
113	0x3dcea57c	0.100901574
114	0x3d168358	0.036746353
115	0xbe3df2eb	-0.18549697
116	0xbe0f7522	-0.14009526
117	0xbda24b30	-0.07924497
118	0x3e17f4b2	0.14839438
119	0x3e4b84b2	0.19874838
120	0x3c25d05d	0.010120478
121	0xbe04a938	-0.12955177
122	0xbe57077c	-0.20998949
123	0xbccbd337	-0.024880989
124	0x3e2b9958	0.16757715
125	0x3d952c18	0.07283801
126	0xbe03347c	-0.1281299
127	0x3e13ee62	0.14446405
128	0x3df54b6a	0.11977275
129	0xbd4d8fac	-0.050185844
130	0x3a627700	0.0008638948
131	0x3e1a16ab	0.1504771
132	0x3e693d6c	0.22777337
133	0xbe405c08	-0.18785107
134	0x3ddedb08	0.10881621
135	0xbe4c66f0	-0.19961143
136	0xbde29c35	-0.110649504
137	0x3defe62c	0.11713824
138	0x3e3864ee	0.18007252
139	0x3e67a164	0.2262016
140	0x3da47e14	0.0803186
141	0xbd826894	-0.06367603
142	0xbd3db308	-0.046313316
143	0x3e632eb8	0.2218579
144	0x3e0af6fc	0.1357078
145	0x3c7b6f50	0.015346363
146	0xbe574517	-0.2102245
147	0x3d8e74ec	0.06955895
148	0xbd8a1166	-0.067416
149	0xbe39d7a6	-0.1814867
150	0xbe16fcb0	-0.1474483
151	0xbcbb97a0	-0.022899449
152	0x3e2c7eca	0.16845241
153	0xbde65cac	-0.112481445
154	0xbe268dac	-0.16264981
155	0xbc5e1480	-0.013554692
156	0xbd864574	-0.06556216
157	0xbe0d7ca0	-0.13817072
158	0x3e269db6	0.162711
159	0x3da93d4c	0.082636446
160	0x3d7b1360	0.061297774
161	0x3e2532e0	0.16132689
162	0xbe568a7c	-0.20951265
163	0xbe252ccb	-0.16130368
164	0x3e20230c	0.1563837
165	0x3b199f00	0.0023440719
166	0x3e046dee	0.1293256
167	0x3d902f34	0.07040253
168	0xbe0bbed2	-0.13647011
169	0x3d91cfa0	0.071196795
170	0x3e0a31c8	0.13495553
171	0x3debe950	0.1151911
172	0xbd5f4c60	-0.054516196
173	0xbdbc20e8	-0.09185964
174	0xbe0de45f	-0.13856648
175	0xbdb592f6	-0.08865921
176	0xbe5b6638	-0.21425712
177	0x3df2e174	0.11859408
178	0x3e574226	0.21021327
179	0x3e47501e	0.19464156
180	0xbcc69165	-0.024239251
181	0xbd477351	-0.04869396
182	0xbd44bcdc	-0.048031673
183	0xbd94ba65	-0.072621144
184	0xbd0302bc	-0.03198503
185	0x3dff49bc	0.124652356
186	0xbe01717a	-0.12640944
187	0xbe093c5c	-0.13401932
188	0xbd23993c	-0.039941058
189	0xbd6f1389	-0.05836824
190	0x3ac3b900	0.0014932454
191	0xbda68665	-0.081311025
192	0xbd84c278	-0.064824045
193	0x3e060d96	0.1309112
194	0x3e1cc62a	0.15309969
195	0x3e29de5f	0.16588734
196	0x3e4b5625	0.1985708
197	0x3d9b25e0	0.075755835
198	0xbd964ad6	-0.073384926
199	0x3e6288ee	0.22122547
200	0x3e4e3926	0.20138988
201	0x3e4b78af	0.19870256
202	0x3e47e24c	0.19519919
203	0xb9955ac0	-0.0002848711
204	0xbe3fe2be	-0.18738839
205	0x3d87d970	0.0663327
206	0xbdb76e6e	-0.0895661
207	0x3e5b2bb0	0.21403384
208	0xbda715ed	-0.08158479
209	0xbe4b59b1	-0.19858433
210	0xbe59ac8e	-0.2125723
211	0xbe26f215	-0.16303284
212	0xbc86db69	-0.016462045
213	0x3e293859	0.16525401
214	0xbdd5ac9f	-0.104333155
215	0x3e67fc0d	0.22654743
216	0x3e0fb9ee	0.1403577
217	0xbe1db552	-0.154012
218	0x3e613e94	0.21996528
219	0x3e696ea7	0.22796117
220	0x3dc53380	0.096289635
221	0xbe14c565	-0.14528425
222	0xbdc3817e	-0.09546183
223	0xbe03e9c6	-0.12882146
224	0x3d13b4f0	0.036061227
225	0x3d755608	0.0598965
226	0xbde1c264	-0.11023405
227	0x3e086742	0.1332064
228	0xbd5bbcf4	-0.053646997
229	0xbe52d3c7	-0.20588599
230	0x3df58358	0.119879425
231	0x3e275afc	0.16343302
232	0x3e4267b0	0.18984866
233	0x3cc90080	0.024536371
234	0xbdc4ee2e	-0.09615742
235	0xbe47e0d6	-0.19519362
236	0xbd10fbe8	-0.035396487
237	0x3e2bef62	0.16790536
238	0x3d606f28	0.054793507
239	0x3e3f2996	0.18668208
240	0xbe602ca3	-0.21892028
241	0x3dbde82a	0.092727974
242	0x3c819cc8	0.01582183
243	0x3e5321b6	0.20618328
244	0x3daf7e9c	0.08569071
245	0x3c65f870	0.014036283
246	0x3e0f474a	0.13992038
247	0xbc0d9f10	-0.0086438805
248	0x3e33325b	0.17499678
249	0xbd662b79	-0.056193803
250	0x3d89d034	0.06729165
251	0xbe473b48	-0.19456208
252	0x3d93753c	0.07200095
253	0xbe638559	-0.22218837
254	0x3e28a510	0.16469216
255	0x3db5ba98	0.088734806

bias f4 [20]
0	0xbe590bf2	-0.21195963
1	0xbd53f9ef	-0.051752027
2	0xbc8b9e4e	-0.017043259
3	0x3df6c496	0.120492145
4	0xbd935f74	-0.071959406
5	0x3d9a0044	0.07519582
6	0x3cad4248	0.02114977
7	0xbe575358	-0.21027887
8	0x3cfab6c0	0.03060472
9	0xbd646d6c	-0.055768415
10	0x3e5d4fdd	0.21612497
11	0xbd0c68e0	-0.034279704
12	0xbe6a627b	-0.2288913
13	0xbd41cb36	-0.047312938
14	0x3d6965e8	0.05698195
15	0xbe35a79a	-0.17739716
16	0x3db8dd12	0.09026541
17	0x3d63e41f	0.055637475
18	0x3d7cf65f	0.061758395
19	0xbd27658d	-0.04086833

weight f4 [1, 20]
0	0xbd71904c	-0.058975503
1	0xbd3cb18d	-0.046067763
2	0xbe5c6108	-0.2152139
3	0x3c82581c	0.015911154
4	0x3d9fef60	0.07809329
5	0x3d9962a8	0.0748952
6	0x3d3e7c85	0.04650547
7	0xbdab505a	-0.08364935
8	0x3e309732	0.17245176
9	0x3dadc9a7	0.08485728
10	0x3e5c4421	0.21510364
11	0x3d0ceba8	0.034404427
12	0xbd1e8b99	-0.03870735
13	0x3e21d352	0.15803269
14	0xbe32ab56	-0.17448172
15	0x3de391fc	0.11111829
16	0x3e0c10cf	0.13678287
17	0x3e0a575d	0.13509889
18	0x3e31b4ef	0.17354177
19	0x3e439d14	0.1910289

weight f4 [20, 4]
0	0xbccee932	-0.02525768
1	0x3ef47719	0.47747114
2	0xbed8b7f9	-0.4232786
3	0x3e85bc13	0.26120052
4	0xbf2353f1	-0.6379996
5	0x3c42a299	0.011879587
6	0x3ec3f551	0.382731
7	0x3e3d8d65	0.18510969
8	0xbdccbb10	-0.09996617
9	0xba1ec400	-0.0006056428
10	0xbead2bba	-0.33822423
11	0x3eed4ce8	0.46347737
12	0xbe7b20e0	-0.2452426
13	0xbe8acdae	-0.27110046
14	0x3efad6ae	0.48991913
15	0x3efd5cb2	0.49484783
16	0xbd2866e0	-0.041113734
17	0x3e923702	0.28557593
18	0x3e98d7df	0.29852197
19	0x3ef192ee	0.4718241
20	0xbe8a4516	-0.27005833
21	0xbe0f77a8	-0.14010489
22	0x3dd76da8	0.10518962
23	0x3d8b6930	0.06807172
24	0x3e921838	0.28534102
25	0xbedab370	-0.42715025
26	0xbe6bb670	-0.23018813
27	0x3e9dc448	0.30813813
28	0xbedb49e4	-0.42829812
29	0xbecbb4c2	-0.39786345
30	0x3d987b98	0.07445449
31	0xbe3aa274	-0.18226033
32	0x3e5627b4	0.20913583
33	0xbe8e2272	-0.27760655
34	0xbeebe856	-0.46075696
35	0x3e8d55b2	0.27604443
36	0x3ed37cfc	0.41306293
37	0xbe3cfab4	-0.1845501
38	0x3d545f00	0.05184841
39	0xbe78d1c4	-0.24298769
40	0x3d2733ea	0.040820993
41	0x3d856eb6	0.06515257
42	0xbeee8a8f	-0.46590087
43	0xbcfc2864	-0.030780979
44	0xbe838f41	-0.25695232
45	0x3edb277a	0.42803556
46	0x3dc60c03	0.0967026
47	0xbe63cbd6	-0.22245726
48	0x3e0f69f6	0.14005265
49	0x3ed542ab	0.41652426
50	0x3e57f3c7	0.21089087
51	0x3d6541dd	0.055971015
52	0xbd211190	-0.03932339
53	0xbe97e508	-0.29666924
54	0x3df67af8	0.12035173
55	0xbe74fd08	-0.23924649
56	0x3df49ed8	0.119443595
57	0xbec4f3c6	-0.38467234
58	0x3da100e8	0.07861501
59	0xbe0b10cc	-0.13580626
60	0xbe9e5cd6	-0.30930203
61	0xbe93f754	-0.28899634
62	0x3e42b6bc	0.1901502
63	0xbe62d9d4	-0.22153407
64	0x3d2fc133	0.04290886
65	0x3d389e81	0.045073036
66	0x3d9905c6	0.07471804
67	0xbefd445e	-0.49466223
68	0x3e66b6ef	0.22530721
69	0x3ebf0916	0.3731162
70	0xbe07dfa1	-0.13268901
71	0x3ef7cfc6	0.48400706
72	0xbe037bd3	-0.12840204
73	0x3ea5cda2	0.32383448
74	0x3e8cc80d	0.27496377
75	0xbe1f9830	-0.15585399
76	0x3d916868	0.07099992
77	0xbed22eb6	-0.41051263
78	0x3ea6f652	0.32609802
79	0xbe3245d0	-0.17409444

bias f4 [20]
0	0x3ecc1b82	0.39864737
1	0x3ebc423b	0.3676928
2	0x3d918f08	0.07107359
3	0xbdbc1cca	-0.091851786
4	0xbeca0696	-0.3945815
5	0x3ecbd4b8	0.3981073
6	0x3e8fbcb0	0.28073645
7	0xbe1a93cc	-0.15095443
8	0xbeaf5d5a	-0.3425091
9	0xbedc77dc	-0.43060195
10	0x3f02dd31	0.5111876
11	0x3f0922e7	0.5356888
12	0x3d2578ba	0.040398337
13	0x3eab541a	0.33462602
14	0x3e4a7b24	0.19773537
15	0xbeebd15e	-0.46058172
16	0xbe4a8422	-0.19776967
17	0x3e870df5	0.26377836
18	0xbdd93f33	-0.106077574
19	0x3e1fe26c	0.15613717

weight f4 [20, 20]
0	0x3d30af33	0.043135833
1	0x3de8c54c	0.113657564
2	0x3d061ec8	0.0327442
3	0x3e431886	0.19052324
4	0x3e310851	0.17288329
5	0x3dd39f80	0.103331566
6	0x3e3447ba	0.17605487
7	0xbdb2e3c0	-0.08734846
8	0xbd2d4914	-0.04230602
9	0xbc70cc80	-0.014697194
10	0xbd1a898a	-0.037728824
11	0x3e09244e	0.13392755
12	0xbd4888af	-0.048958477
13	0x3e550048	0.20800889
14	0x3e07b3f2	0.13252237
15	0xbd867502	-0.06565286
16	0xbdfcc70c	-0.12342653
17	0x3e4ba529	0.19887222
18	0xbe07f701	-0.13277818
19	0x3e59ac44	0.2125712
20	0xbdc7bc2a	-0.09752686
21	0xbe35c194	-0.17749625
22	0x3e5da040	0.21643162
23	0xbca73260	-0.020409763
24	0x3e02934a	0.12751499
25	0xbd5d983c	-0.05410026
26	0xbd56056c	-0.052251264
27	0x3e3d13fe	0.18464658
28	0x3deb8130	0.1149925
29	0xbdead68c	-0.11466703
30	0xbbe27ec0	-0.0069120824
31	0x3d8766dc	0.06611416
32	0x3d114c38	0.03547308
33	0x3dc45104	0.09585765
34	0x3ca22c80	0.01979661
35	0xbe4941ef	-0.19654058
36	0xbe4b7ee0	-0.19872618
37	0xbdd5ae05	-0.10433582
38	0xbe3f2fec	-0.18670624
39	0xbe128fbc	-0.14312643
40	0xbe448ea3	-0.19195037
41	0xbe566a90	-0.20939088
42	0xbb5ee9c0	-0.0034013838
43	0x3e400ed0	0.1875565
44	0xbcd10890	-0.025516778
45	0xbe5f9321	-0.21833469
46	0x3e468b0a	0.19388977
47	0xbe1489fe	-0.14505765
48	0xbe22f0c4	-0.15912157
49	0xbcf57bc0	-0.029966235
50	0x3e079716	0.13241228
51	0xbdc8cdbc	-0.09804866
52	0x3e389418	0.18025243
53	0x3e2e65c4	0.17031008
54	0x3e1e5cfc	0.15465158
55	0xbd430c34	-0.04761906
56	0x3e2a1ed2	0.1661332
57	0xbdba8184	-0.091067344
58	0x3cd74dd8	0.026282236
59	0x3e2abc66	0.16673431
60	0x3dbf6099	0.093445964
61	0x3ddc1d03	0.10747721
62	0xbe4f2cab	-0.20231883
63	0xbe3252b1	-0.17414357
64	0x3e4c9f9c	0.19982761
65	0x3e0aafd6	0.13543639
66	0x3dc01cf8	0.09380525
67	0xbe06f0da	-0.13177815
68	0x3d8b08c8	0.06788784
69	0x3de77910	0.11302388
70	0xbd2aa61d	-0.041662324
71	0x3d870ffa	0.06594844
72	0x3dae833d	0.085211255
73	0x3e0ebeec	0.13940018
74	0x3e2e387e	0.17013738
75	0x3d4e7200	0.050401688
76	0xbdd661df	-0.10467886
77	0x3dd505a3	0.10401466
78	0x3e24fab3	0.16111259
79	0x3e37e67e	0.1795902
80	0x3e3e27b6	0.18569836
81	0xbdf76aa8	-0.1208089
82	0xbe0b10ff	-0.13580702
83	0xbd83e723	-0.0644057
84	0x3d6547a8	0.05597654
85	0x3e4b7246	0.1986781
86	0xbe2dce81	-0.16973306
87	0xbd47504c	-0.04866056
88	0x3b4c2140	0.0031147748
89	0x3d7019f8	0.058618516
90	0xbdd49f37	-0.1038193
91	0x3e298911	0.16556193
92	0xbe213192	-0.15741566
93	0x3d4c3e00	0.049863815
94	0x3e642d04	0.22282797
95	0x3e1608a8	0.1465174
96	0xbd932021	-0.071838625
97	0x3e20be8c	0.15697688
98	0xbe068b92	-0.1313918
99	0x3ddf4238	0.10901302
100	0xbca3fecd	-0.02001896
101	0x3e029a7c	0.12754244
102	0xbc9a6148	-0.018845215
103	0x3ddb9b83	0.10723021
104	0xbb805cfa	-0.0039173337
105	0xbd8dfd00	-0.069330215
106	0xbe3ef40f	-0.18647788
107	0x3e380428	0.17970335
108	0x3be08c20	0.0068526417
109	0x3da8f790	0.08250344
110	0x3e2ae881	0.16690256
111	0x3dbb0f29	0.09133751
112	0xbd8ef229	-0.06979782
113	0xbe1454ad	-0.14485426
114	0x3dad8b98	0.08473891
115	0xbd7e21a4	-0.0620438
116	0x3df69a85	0.12041191
117	0x3d3380d5	0.043824036
118	0x3e3a36c6	0.18184957
119	0xbe5b676d	-0.21426173
120	0xbe3432cd	-0.17597504
121	0x3e477ca8	0.19481146
122	0x3bb149e0	0.005410418
123	0xbe5b68f0	-0.21426749
124	0xbe585bd1	-0.21128775
125	0xbb219740	-0.0024656802
126	0x3d6f7990	0.05846554
127	0xbdee199b	-0.116259776
128	0x3db9456c	0.09046444
129	0x3d8d4a4c	0.06898937
130	0x3cde1390	0.027108938
131	0x3e1fda68	0.15610659
132	0x3e51a384	0.20472533
133	0x3bad55a0	0.0052897483
134	0x3e1bcdca	0.15215221
135	0x3c732e80	0.014842629
136	0x3db78610	0.08961117
137	0xbe23c50f	-0.1599314
138	0xbe430fed	-0.19049044
139	0x3e0e4a86	0.13895616
140	0x3db0caca	0.08632429
141	0xbd77787b	-0.060417634
142	0xbe1a4080	-0.15063667
143	0xbc5d0b2c	-0.013491433
144	0x3dc9ebe1	0.098594435
145	0x3dd5a5b0	0.10431993
146	0x3dc53b04	0.09630397
147	0x3c645980	0.013937354
148	0xbe568ad5	-0.20951398
149	0x3e0f229e	0.13978049
150	0xbdb13289	-0.08652217
151	0xbe372ce7	-0.17888223
152	0x3da93a1a	0.08263035
153	0xbdd00b04	-0.10158351
154	0x3d956468	0.072945416
155	0xbd324ff4	-0.04353328
156	0x3d13c65d	0.036077846
157	0xbe59c5f1	-0.21266915
158	0x3de5e6bd	0.112256505
159	0x3c017490	0.007901326
160	0x3e0f41ac	0.13989896
161	0x3e120e6e	0.14263317
162	0x3e3eafbc	0.18621725
163	0x3e0d35c8	0.13790047
164	0xbcef1760	-0.02918595
165	0x3dfbdfa4	0.122985154
166	0x3dd1ede0	0.10250449
167	0xbe33f9a8	-0.17575705
168	0xbe046191	-0.12927844
169	0xbb400040	-0.0029297024
170	0xbe60dda8	-0.21959555
171	0xbcdd67b0	-0.027026981
172	0xbd41afb8	-0.04728672
173	0xbe5431a7	-0.20722066
174	0xbc9a5860	-0.018840969
175	0xbe5ea0a4	-0.21740967
176	0xbcdc5598	-0.026896283
177	0x3d5af870	0.053459585
178	0xbe26eac3	-0.16300492
179	0xbe2225d2	-0.1583474
180	0x3e0363b3	0.12831001
181	0x3e442fe9	0.19158901
182	0x3e55612c	0.2083785
183	0x3d403986	0.04692986
184	0x3cb47cd2	0.022032175
185	0xbe08cbca	-0.1335899
186	0xbe076b84	-0.13224608
187	0x3e18c3e8	0.14918482
188	0x3d373c80	0.04473543
189	0x3e520742	0.20510581
190	0x3e205605	0.15657814
191	0x3da29779	0.07939047
192	0x3e313642	0.17305854
193	0xbe32ec24	-0.17472893
194	0x3e2582c4	0.16163164
195	0x3db3b754	0.087752014
196	0x3e52d3cf	0.20588611
197	0xbe24cc42	-0.16093543
198	0x3e50d5a0	0.20393991
199	0xbe09840e	-0.13429281
200	0xbc1fab50	-0.009745434
201	0x3d07b978	0.03313586
202	0x3d3e1568	0.046407133
203	0xbcea6ea8	-0.028617218
204	0x3d1ea820	0.038734555
205	0x3e5aff54	0.21386462
206	0x3e53b3f6	0.20674118
207	0xbe018531	-0.12648465
208	0x3d7afbc8	0.061275274
209	0x3e2f8c44	0.17143351
210	0x3c8dc390	0.017305166
211	0x3d405c70	0.046963155
212	0xbe5d943b	-0.21638577
213	0xbd5b1684	-0.05348827
214	0xbe54a13d	-0.20764633
215	0xbd8d472c	-0.068983406
216	0x3e2ceed6	0.16887984
217	0xbde02ee8	-0.10946447
218	0xbd998bfe	-0.074974045
219	0xbd375804	-0.044761673
220	0xbe5407bb	-0.20706074
221	0x3db8a97c	0.090167016
222	0x3cf61070	0.030037135
223	0x3e45e7de	0.19326732
224	0xbe630875	-0.22171195
225	0x3bdc25e0	0.0067183822
226	0x3dd56678	0.10419935
227	0x3e080c6e	0.13285992
228	0xbde2f9ae	-0.11082779
229	0x3e1fd22e	0.15607521
230	0x3c5e16e6	0.013555264
231	0x3e38b301	0.18037035
232	0x3d988fc0	0.07449293
233	0xbe1d16aa	-0.15340677
234	0xbd46a368	-0.04849568
235	0x3df6852c	0.12037119
236	0xbdb1c483	-0.0868006
237	0x3dbb2b52	0.09139122
238	0x3c85cf46	0.016334187
239	0x3b7f3d80	0.003894657
240	0xbdd83adb	-0.10558101
241	0xbe0eb7d5	-0.13937314
242	0xbc2f8cf0	-0.010714754
243	0xbe5a2812	-0.21304348
244	0xbd3d584f	-0.046226796
245	0x3dd97ebc	0.10619876
246	0xbe1f3708	-0.15548337
247	0xbd168d10	-0.03675562
248	0x3cf43b80	0.029813528
249	0xbe49a4cc	-0.19691771
250	0x3e0b70c7	0.1361724
251	0xbc453fbf	-0.012039124
252	0x3e2e55e0	0.17024946
253	0xbdbeb262	-0.093113676
254	0xbc94df28	-0.018172815
255	0x3e0a22de	0.13489863

bias f4 [20]
0	0x3e381a77	0.17978846
1	0xbc2e5a20	-0.010641605
2	0xbe06dd3d	-0.13170333
3	0xbe1ed145	-0.15509517
4	0xbddba1e5	-0.10724238
5	0xbe326804	-0.17422491
6	0x3d9297cc	0.07157859
7	0xbdfdc5ad	-0.12391219
8	0xbe54e726	-0.20791301
9	0xbcbe26dc	-0.023211889
10	0x3de13880	0.10997105
11	0xbe528025	-0.20556696
12	0xbe26e29e	-0.16297385
13	0xbd370a34	-0.044687465
14	0xbe4d5374	-0.20051366
15	0x3ccd192f	0.025036423
16	0x3e32bf51	0.17455794
17	0x3e5c742a	0.21528688
18	0xbe0728ea	-0.13199201
19	0x3e599728	0.21249068

weight f4 [1, 20]
0	0x3dbb5b29	0.09148247
1	0xbe636b7b	-0.2220897
2	0x3e1d78d6	0.15378127
3	0x3dcd0e1c	0.10012457
4	0xbd806667	-0.06269532
5	0x3e369141	0.17828847
6	0xbd752120	-0.059846044
7	0xbdc93d29	-0.098261185
8	0x3dd3f0f0	0.103486896
9	0x3e511b31	0.20420529
10	0x3e0665d0	0.13124776
11	0xbe00191f	-0.12509583
12	0x3d260d9a	0.040540315
13	0x3b2f0a40	0.002670899
14	0x3d5645d0	0.052312672
15	0x3dc1fc22	0.09471919
16	0xbe4c904e	-0.19976923
17	0xbca8f6d8	-0.020625517
18	0xbd4b9815	-0.049705584
19	0xbdf0c093	-0.117554806

weight f4 [20, 4]
0	0x3ef66c74	0.48129618
1	0x3ea5d2cb	0.32387385
2	0x3d9cbbb2	0.076529875
3	0xbc261f51	-0.010139302
4	0x3eea3a96	0.45747823
5	0x3e3c9ef3	0.1842001
6	0xbea5dcf6	-0.32395142
7	0x3ec4d665	0.3844482
8	0xbed0976c	-0.40740526
9	0x3dde9376	0.1086797
10	0x3e9252a9	0.2857869
11	0x3ef03031	0.46911767
12	0xbe8efaf1	-0.27925828
13	0xbdf7fda8	-0.12108928
14	0x3e9abe3e	0.30223268
15	0x3e382898	0.17984235
16	0x3ee6a89e	0.4505052
17	0x3ef53e7a	0.47899228
18	0x3ea77c73	0.32712135
19	0x3ea22f8b	0.31676897
20	0x3ed6863c	0.41899288
21	0x3ed7dfc0	0.42162895
22	0xbef4f3cb	-0.4784225
23	0x3e27cec2	0.16387466
24	0x3ed8712c	0.42273843
25	0xbe33243c	-0.17494291
26	0x3dba1d90	0.0908767
27	0x3e9cb450	0.30606318
28	0x3e6b0fd9	0.22955264
29	0x3d86ea66	0.06587677
30	0x3f026cca	0.5094725
31	0x3d7ad4c9	0.061238084
32	0x3e956dbe	0.2918529
33	0x3c90c072	0.01766989
34	0x3ecc1e79	0.39867
35	0xbee3c861	-0.44488814
36	0xbe9566b7	-0.29179928
37	0x3e32fd1b	0.17479365
38	0xbe63d797	-0.2225021
39	0x3d85a6e8	0.065259755
40	0xbed2f832	-0.41204983
41	0xbdbbbf50	-0.09167349
42	0xbeccabfa	-0.39974958
43	0x3edc0fde	0.42980856
44	0x3ec28fae	0.38000244
45	0xbe876a50	-0.26448298
46	0xbee20550	-0.44144678
47	0xbddf3640	-0.10899019
48	0x3ebe1088	0.37121987
49	0xbeae1b68	-0.34005284
50	0xbd437fc0	-0.047729254
51	0x3e3f6594	0.18691093
52	0x3e7a6561	0.24452735
53	0x3eacba26	0.3373577
54	0x3ed077c5	0.40716377
55	0x3dbbe1a1	0.09173895
56	0xbc36ca80	-0.011156678
57	0xbe5c0430	-0.21485972
58	0x3c2c0900	0.010500193
59	0x39e22000	0.0004312992
60	0xbed12bf3	-0.40853843
61	0x3e1f5c73	0.1556261
62	0xbdb3f70b	-0.08787354
63	0x3ef009f5	0.46882597
64	0x3e2d6940	0.16934681
65	0x3e9b78b0	0.30365515
66	0x3ea76a3c	0.32698238
67	0xbeb5fb97	-0.3554351
68	0x3eb248c0	0.3482113
69	0x3ef04612	0.4692846
70	0xbe84658c	-0.25858724
71	0xbe877cb8	-0.2646234
72	0xbd51bb54	-0.05120404
73	0x3e3012c4	0.17194659
74	0x3daf2b9f	0.08553242
75	0xbe2ffbce	-0.171859
76	0xbac8596b	-0.0015285438
77	0x3db97296	0.09055059
78	0x3a29e5e8	0.0006481097
79	0xbde55c9a	-0.11199303

bias f4 [20]
0	0x3dfe08f2	0.1240405
1	0xbe2b0e79	-0.1670474
2	0xbea2c113	-0.3178793
3	0xbeaa95cf	-0.3331742
4	0x3cffcda5	0.031225989
5	0xbe8d3af5	-0.27584043
6	0x3ec44a16	0.38337773
7	0xbe55e723	-0.20888953
8	0xbe768898	-0.24075544
9	0x3d834d88	0.06411272
10	0xbe3e64b4	-0.18593103
11	0xbef88714	-0.48540556
12	0xbee0874c	-0.43853223
13	0x3ef008c2	0.46881682
14	0x3eb40c62	0.35165697
15	0xbd0884ac	-0.03332965
16	0xbe694eab	-0.22783916
17	0x3e7418f2	0.23837641
18	0xbeff75e1	-0.49894622
19	0x3e133e98	0.14379346

weight f4 [20, 20]
0	0xbca7b555	-0.020472208
1	0x3e490b08	0.19633114
2	0xbca85d75	-0.020552376
3	0x3e001ca2	0.12510923
4	0xbe09cac6	-0.13456258
5	0xbd1677b2	-0.036735244
6	0x3e5dcb96	0.21659693
7	0xbdb2dc8c	-0.08733472
8	0xbe23a3bc	-0.15980428
9	0x3e60cb1a	0.21952477
10	0xbe16bca4	-0.14720398
11	0x3dd87a6c	0.10570225
12	0xbe596617	-0.2123035
13	0xba0bf15c	-0.00053383945
14	0x3e2a071e	0.16604277
15	0xbe312edd	-0.17303033
16	0x3e120656	0.1426023
17	0x3e590daa	0.21196619
18	0x3d5003d1	0.05078489
19	0x3e4852b8	0.19562805
20	0x3d28d4f6	0.04121872
21	0xbbd9c785	-0.006646099
22	0x3e5738c8	0.21017754
23	0xbe58c690	-0.21169496
24	0xbd04f0d0	-0.03245622
25	0xbc58dabf	-0.013235747
26	0x3d8a2764	0.067457944
27	0x3d7c8c5f	0.061657306
28	0x3c88b793	0.016689098
29	0x3d5a52c2	0.05330158
30	0x3e3315c2	0.17488769
31	0x3bd7f540	0.0065905154
32	0x3e628820	0.2212224
33	0xbcd9f7fe	-0.02660751
34	0xbe1d82ae	-0.15381882
35	0x3e635d25	0.222035
36	0xbda7451b	-0.08167478
37	0x3e4c1291	0.19928958
38	0xbd909afa	-0.070608094
39	0xbdfe4317	-0.1241514
40	0xbd9286e7	-0.07154637
41	0xbb88f051	-0.0041790386
42	0xbe5de77e	-0.21670339
43	0xbddddbf9	-0.10832972
44	0xbd68f4bb	-0.05687402
45	0x3dcf04b5	0.1010832
46	0x3e25988a	0.1617147
47	0x3b89f324	0.004209893
48	0xbc894db5	-0.016760686
49	0x3d393def	0.04522508
50	0xbdc08778	-0.094008386
51	0x3e50f8b4	0.20407373
52	0x3daec62c	0.08533892
53	0x3d345736	0.044028483
54	0xbe2dfe23	-0.16991477
55	0xbe26ff47	-0.16308318
56	0x3d7d88b0	0.061897933
57	0x3d997762	0.074934736
58	0x3e337bb0	0.17527652
59	0xbd250730	-0.040290058
60	0x3daf97f2	0.08573903
61	0x3e440f97	0.19146572
62	0x3e2aff49	0.16698946
63	0x3ccfc9ed	0.02536484
64	0x3dd6d698	0.10490149
65	0xbba65b03	-0.0050767674
66	0x3d9e6b40	0.077353
67	0xbe191c99	-0.14952315
68	0x3c996517	0.018724961
69	0x3cac7426	0.021051478
70	0xbdf06e17	-0.11739748
71	0xbe1fdcac	-0.15611523
72	0x3de3ac68	0.11116868
73	0xbde9f90b	-0.11424454
74	0x3df69900	0.12040901
75	0x3bd3b697	0.0064609754
76	0x3e4cae36	0.19988331
77	0x3e200f6a	0.1563088
78	0x3df0a843	0.117508434
79	0x3dc4c301	0.096075065
80	0x3e11fc84	0.14256483
81	0x3d80952c	0.06278452
82	0xbe4268b6	-0.18985257
83	0x3d8aa47c	0.06769654
84	0x3d36c000	0.0446167
85	0xbe018e14	-0.12651855
86	0x3e1ea02a	0.15490785
87	0x3de2fdc0	0.11083555
88	0xbd83b49c	-0.06430933
89	0x3d694a10	0.056955397
90	0x3d0ca390	0.034335673
91	0xbdab7a6a	-0.08372958
92	0x3df42640	0.11921358
93	0xbe4ee070	-0.20202804
94	0x3d472788	0.048621684
95	0xbe31afc4	-0.17352206
96	0xbe0693a0	-0.13142252
97	0x3e41b94e	0.18918344
98	0x3d9672c8	0.073461115
99	0xbe053e7e	-0.1301212
100	0xbd44bd4c	-0.04803209
101	0x3e50e203	0.20398717
102	0xbe0b00d2	-0.13574532
103	0x3d731708	0.059348136
104	0xbe3e6a1d	-0.18595167
105	0x3e23a159	0.15979518
106	0x3d8986fc	0.06715199
107	0xbe5ffa40	-0.21872807
108	0x3a9ce115	0.0011968935
109	0xbe3ff1a6	-0.18744525
110	0xbd25f2e4	-0.04051484
111	0x3e31a8a0	0.17349482
112	0xbe41a319	-0.18909873
113	0x3dda6fac	0.10665831
114	0x3e30f246	0.1727992
115	0xbdcad1c8	-0.09903294
116	0x3d0d4381	0.034488205
117	0xbcbc5331	-0.022988888
118	0xbce56e42	-0.028006677
119	0x3e39af6b	0.18133323
120	0xbe26eb6d	-0.16300745
121	0xbcdf4588	-0.027254835
122	0x3e584a82	0.21122172
123	0x3e13c47c	0.14430422
124	0xbdeda56d	-0.11603818
125	0x3e00879c	0.12551731
126	0x3e2d1aa4	0.16904694
127	0xbe4b77f0	-0.19869971
128	0x3ddd4834	0.10804787
129	0xbdf1b39b	-0.11801835
130	0x3e45331a	0.19257775
131	0x399bb000	0.00029695034
132	0x3e501d8e	0.20323774
133	0x3d7613c8	0.06007746
134	0x3d53ed10	0.051739752
135	0x3b2e5f00	0.0026606917
136	0x3b3aa180	0.002847761
137	0xbe0dfc7e	-0.1386585
138	0x3daf2734	0.08552399
139	0x3e573dae	0.21019623
140	0xbe465b44	-0.19370753
141	0x3e2ea054	0.17053348
142	0x3e508daa	0.2036654
143	0x3b2f6b80	0.0026766956
144	0xbd547830	-0.051872432
145	0x3da715b4	0.081584364
146	0x3e318c14	0.17338592
147	0xbe56b5d9	-0.20967807
148	0x3d3d0e28	0.04615608
149	0xbd88d9ce	-0.06682168
150	0x3e1d8cae	0.15385696
151	0xbcacb108	-0.021080509
152	0xbda8f6fa	-0.08250232
153	0xbb85a5a0	-0.004078582
154	0x3db26c20	0.087120295
155	0xbe1db0aa	-0.15399423
156	0xbe16b3cc	-0.14717025
157	0x3dd023f8	0.101631105
158	0xbe10e96a	-0.1415154
159	0x3e325492	0.17415074
160	0x3d981c16	0.07427232
161	0xbe32628d	-0.17420407
162	0x3ca6299b	0.02028351
163	0xbe1bb1f5	-0.15204604
164	0xbbd2cc8d	-0.0064330758
165	0xbd996a32	-0.07490958
166	0xbd9c7d9a	-0.07641144
167	0xbd2f9d94	-0.042874888
168	0x3d765a06	0.060144447
169	0xbd91b84d	-0.07115231
170	0xbcefc088	-0.02926661
171	0x3db19c4c	0.086723894
172	0xbdbcb688	-0.092145026
173	0x3dc6f621	0.09714914
174	0xbca065c0	-0.019579768
175	0xbd8ac7b8	-0.067763746
176	0x3e192020	0.14953661
177	0x3de5d537	0.11222308
178	0x3dec321f	0.11532997
179	0x3e1a50dd	0.1506991
180	0x3dd05f0c	0.10174379
181	0x3dbb460c	0.0914422
182	0x3da753f4	0.0817031
183	0x3e600a4e	0.21878931
184	0xbe5aeab1	-0.2137859
185	0xbe07e018	-0.13269079
186	0xbe3b7736	-0.18307194
187	0x3e2959a4	0.16538101
188	0xbbd67dc0	-0.0065457523
189	0x3e0860ea	0.1331822
190	0x3d173af8	0.03692147
191	0xbe375883	-0.17904858
192	0x3e042b24	0.12907082
193	0xbe3e2f80	-0.18572807
194	0x3d2d6650	0.0423339
195	0xbe000002	-0.12500003
196	0xbe2e6746	-0.17031583
197	0x3e29c32c	0.16578358
198	0x3dc10c00	0.09426117
199	0x3d312128	0.04324451
200	0xbe2e1f1b	-0.17004053
201	0x3da852f0	0.08218944
202	0x3d49bfd0	0.049255192
203	0x3e0a43de	0.13502452
204	0xbcc85d70	-0.024458617
205	0x3d075ee0	0.033049464
206	0x3e07c138	0.13257301
207	0xbd8159f2	-0.06315984
208	0xbd5da56c	-0.054112837
209	0x3d58a530	0.05289191
210	0x3e5f0bb4	0.21781808
211	0xbd0dcbe8	-0.03461829
212	0x3dd81a0c	0.10551843
213	0x3d8dd4f0	0.0692538
214	0x3e627210	0.22113824
215	0xbdfaeeda	-0.122525886
216	0xbe0ed3f8	-0.13948047
217	0xbbb56ba0	-0.0055365115
218	0x3d7ba968	0.061440855
219	0xbdbc0404	-0.091804534
220	0xbc9de530	-0.019274324
221	0xbde32548	-0.11091095
222	0xbd0a9cc0	-0.033840895
223	0x3da8b68c	0.08237943
224	0x3d431228	0.047624737
225	0xbd978e5a	-0.07400198
226	0xbe3c40b9	-0.18384065
227	0xbe27e4e8	-0.16395915
228	0x3e42f6ec	0.19039506
229	0xbe5459bc	-0.20737356
230	0x3d6cfb80	0.057857037
231	0xbccd8398	-0.025087163
232	0xbe2fa8e1	-0.17154266
233	0x3e2cdb1a	0.16880456
234	0xbe4c9af5	-0.19980986
235	0xbc1c8690	-0.009553567
236	0xbdecc2d4	-0.11560598
237	0xbe500948	-0.2031604
238	0xbe3a824a	-0.18213764
239	0xbde038f1	-0.10948361
240	0x3d8456ca	0.06461866
241	0xbde57ba0	-0.1120522
242	0x3e52b875	0.20578177
243	0xbc9588e6	-0.018253755
244	0xbe13aea3	-0.14422087
245	0xbe3c9e22	-0.18419698
246	0x3d777e60	0.060423255
247	0x3e1b31b4	0.15155679
248	0x3e38ddd6	0.18053374
249	0xbdc804d9	-0.097665496
250	0x3d79d440	0.060993433
251	0xbe21c002	-0.15795901
252	0x3c7333e0	0.014843911
253	0x3e459eb1	0.19298817
254	0x3e244976	0.16043648
255	0x3d20c8f0	0.03925413

bias f4 [20]
0	0x3d3381b7	0.043824878
1	0x3e538df9	0.20659627
2	0x3e551cba	0.2081174
3	0x3c8224f5	0.015886763
4	0xbdae5608	-0.08512503
5	0x3e131e7b	0.14367096
6	0x3e3cd1fe	0.1843948
7	0x3e0ad7dc	0.13558906
8	0xbe343e6d	-0.17601939
9	0xbdd17b81	-0.102286346
10	0xbcf3d5d8	-0.029765055
11	0xbdfa241f	-0.12213921
12	0xbe3e9241	-0.18610479
13	0x3e482923	0.19546942
14	0xbe2a6c3c	-0.1664285
15	0x3e195b1f	0.14976166
16	0x3d90a62a	0.07062943
17	0xbdb7f3c8	-0.089820445
18	0xbd3ca545	-0.04605605
19	0xbce453f0	-0.027872056

weight f4 [1, 20]
0	0xbd12d8cb	-0.03585128
1	0xbe5725b6	-0.2101048
2	0xbbecef1a	-0.0072306516
3	0x3e00d586	0.12581453
4	0x3c9b2120	0.018936694
5	0xbe0c9ae3	-0.1373096
6	0x3e1d6350	0.15369916
7	0x3d9ed10c	0.07754716
8	0x3d8782d3	0.066167496
9	0x3d86fb38	0.06590885
10	0xbe4a6a73	-0.1976717
11	0xbe508e22	-0.2036672
12	0x3e22a75b	0.15884154
13	0xbd5b6c8e	-0.053570323
14	0x3db6a0b6	0.08917372
15	0xbd9e3685	-0.077252425
16	0x3e290eb4	0.16509515
17	0xbe1d6954	-0.1537221
18	0x3c381bac	0.011237066
19	0xbe1d3d6e	-0.15355465

weight f4 [20, 4]
0	0x3ea1c8f2	0.31598622
1	0xbef60630	-0.48051596
2	0xbe9d290e	-0.30695385
3	0x3e80dddc	0.25169265
4	0xbdbebf38	-0.09313816
5	0xbecf3020	-0.40466404
6	0xbeb34518	-0.35013652
7	0x3eb084f4	0.34476435
8	0xbecc83c9	-0.39944294
9	0x3eb94d8e	0.36191982
10	0x3e5e2e28	0.21697295
11	0x3c9c3646	0.019068848
12	0xbe113bfc	-0.14183038
13	0xbec1ed52	-0.37876374
14	0x3e2b5680	0.16732216
15	0x3e062730	0.13100886
16	0x3eec4920	0.4614954
17	0xbe719cb4	-0.23594934
18	0xbee0c4cc	-0.43900144
19	0xbef9e722	-0.48809153
20	0xbe18dcbe	-0.14927956
21	0x3e5a170b	0.21297853
22	0x3cb8e402	0.02256966
23	0xbde41f30	-0.11138761
24	0xbae2c553	-0.0017301239
25	0x3e6dd135	0.23224337
26	0xbecadf56	-0.39623517
27	0x3ab5398e	0.0013826357
28	0xbe4729d4	-0.1944955
29	0xbeffe714	-0.49980986
30	0xbec3b990	-0.3822751
31	0xbecaf648	-0.39641023
32	0xbef25f1e	-0.47338194
33	0x3eb05ef4	0.34447443
34	0x3ebcdb2b	0.36885962
35	0x3d53a714	0.05167301
36	0xbe6a240c	-0.22865313
37	0xbd88d1e0	-0.066806555
38	0xbe2b848c	-0.16749781
39	0xbedeb2fc	-0.4349593
40	0xbebf2266	-0.3733093
41	0xbee88710	-0.45415545
42	0x3edd9fbc	0.4328593
43	0xbeb976b8	-0.36223388
44	0x3e4fc267	0.20289002
45	0x3e66891e	0.22513244
46	0x3ea3a7ab	0.31963858
47	0x3e134ed4	0.1438554
48	0xbea14baa	-0.3150304
49	0xbea230c6	-0.31677836
50	0xbec78e3c	-0.38975704
51	0xbeeb08b0	-0.45905066
52	0x3eae80d1	0.34082654
53	0x3e4a0549	0.19728579
54	0x3ec4505a	0.38342553
55	0xbd9c0674	-0.07618418
56	0x3d772ccb	0.060345452
57	0x3e35c317	0.17750202
58	0x3ee36f95	0.44421068
59	0xbe152905	-0.14566429
60	0xbe9a4234	-0.30128634
61	0x3ea05b4e	0.3131966
62	0x3e653d85	0.22386749
63	0x3ee1bbf8	0.4408872
64	0x3f0cb46c	0.549628
65	0x3d3d7630	0.04625529
66	0xbd6e7500	-0.05821705
67	0xbf019cb4	-0.50629735
68	0xbe465d5b	-0.1937155
69	0x3def7b84	0.116934806
70	0x3dfe3c47	0.12413841
71	0x3ebfaa3c	0.37434566
72	0x3ed90f0c	0.42394292
73	0xbe9acbca	-0.30233604
74	0x3ebcf724	0.36907303
75	0xbe852708	-0.2600634
76	0x3f1132d1	0.56718165
77	0x3ee29b5a	0.4425915
78	0xbe967b91	-0.2939115
79	0x3e68f61f	0.22750138

bias f4 [20]
0	0x3e9bc5a8	0.30424237
1	0xbe977ba0	-0.29586506
2	0xbeefbcfe	-0.46823877
3	0xbe3af564	-0.18257672
4	0xbdbd89f8	-0.09254831
5	0xbb93aee6	-0.0045069335
6	0xbe95573a	-0.2916811
7	0xbdf301f0	-0.11865604
8	0xbebc849e	-0.3681993
9	0x3e867e98	0.26268458
10	0x3e604b98	0.21903837
11	0xbe3eab55	-0.18620045
12	0xbee6f7ec	-0.45111024
13	0xbd997f07	-0.07494932
14	0xbe227254	-0.15863925
15	0xbed6583c	-0.41864192
16	0xbe8a6f8f	-0.27038237
17	0x3e42ac4b	0.19011037
18	0x3e806604	0.25077832
19	0xbe009d78	-0.1256007

weight f4 [20, 20]
0	0x3d58b6c8	0.05290869
1	0x3df8cd40	0.12148523
2	0x3d97a8a8	0.074052155
3	0x3ddec3b8	0.10877174
4	0x3dfe6d18	0.12423152
5	0x3d298830	0.041389644
6	0xbe244929	-0.16043533
7	0x3e2704cc	0.16310424
8	0xbdf3ef77	-0.11910909
9	0x3e0ca856	0.1373609
10	0xbc57a5a0	-0.013162047
11	0x39360c00	0.00017361343
12	0x3de95f64	0.113951474
13	0xbe40ed50	-0.18840528
14	0xbd99918e	-0.074984655
15	0x3c7f5950	0.015585259
16	0x3d4e36f8	0.05034539
17	0x3db2fc04	0.087394744
18	0xbd7a4cfc	-0.061108574
19	0xbd2754c4	-0.040852323
20	0x3d93e4fc	0.0722141
21	0xbe31c700	-0.17361069
22	0xbe10628a	-0.1410009
23	0xbe3171b1	-0.17328526
24	0x3d1c0618	0.03809175
25	0xbe379649	-0.17928423
26	0xbdfaee84	-0.122525245
27	0xbd430d8c	-0.04762034
28	0xbdcd6205	-0.10028461
29	0xbd0be1e8	-0.034150988
30	0xbe1edd26	-0.15514049
31	0x3e17771a	0.14791527
32	0xbda19b68	-0.078909695
33	0xbba11fe0	-0.00491713
34	0xbe1c0e97	-0.1523994
35	0xbe480f08	-0.19536984
36	0xbc8176a8	-0.01580365
37	0x3e52119e	0.20514533
38	0x3e0a5b78	0.13511455
39	0xbe0c5af0	-0.13706565
40	0x3e18eba4	0.1493364
41	0xbe167d3e	-0.14696214
42	0xbe496751	-0.19668318
43	0xbe158afc	-0.146038
44	0xbdb4eb5a	-0.08833952
45	0x3e4b4466	0.1985031
46	0x3d2896d8	0.04115948
47	0x3e5161d4	0.20447475
48	0xbd8f7410	-0.07004559
49	0x3e4f9a4a	0.202737
50	0xbdb76836	-0.089554235
51	0x3e48df68	0.19616473
52	0x3e5d78c2	0.21628097
53	0x3dbc5a34	0.091968924
54	0xbdbe07be	-0.092788205
55	0xbe5ccbe6	-0.21562156
56	0x3e594562	0.21217874
57	0x3e08ce60	0.13359976
58	0xbd8a89b4	-0.06764546
59	0x3d536020	0.051605344
60	0x3e36a768	0.17837298
61	0xbe5f1422	-0.21785024
62	0x3d94c284	0.072636634
63	0x3d3ca550	0.04605609
64	0x3e181256	0.14850745
65	0xbd213e48	-0.039366037
66	0xbd96ac95	-0.07357136
67	0x3e502f60	0.20330572
68	0x3cbe9ad1	0.023267182
69	0x3cbcbbb8	0.02303873
70	0xbcedaf18	-0.029014155
71	0x3d8ae651	0.067822106
72	0xbda1f04c	-0.07907161
73	0xbe3d7828	-0.18502867
74	0x3e5933bc	0.21211141
75	0x3d9c16a8	0.07621509
76	0xbd9b7795	-0.07591168
77	0x3e5a0cf2	0.21294
78	0x3dbf7414	0.09348312
79	0xbe470e9f	-0.19439171
80	0xbd489910	-0.048974097
81	0xbe15699d	-0.1459107
82	0xbde0e623	-0.10981395
83	0xbe07dd8c	-0.13268107
84	0x3d8a2f1c	0.06747267
85	0xbd3031b0	-0.043016136
86	0xbe2ac5ca	-0.16677013
87	0xbce6b4b8	-0.028162345
88	0x3e617a4a	0.22019306
89	0xbd0129cc	-0.031534
90	0x3d654650	0.05597526
91	0x3d6cfcf1	0.05785841
92	0xbca50c78	-0.020147547
93	0xbe1437ff	-0.14474486
94	0x3e305ef5	0.17223723
95	0xbe4a3cdf	-0.19749783
96	0x3da1b488	0.07895762
97	0x3e5b9554	0.21443683
98	0xbe3b97a0	-0.18319559
99	0xbe4ea1a4	-0.20178849
100	0x3ce61150	0.028084427
101	0xbd36b150	-0.044602692
102	0x3d457da5	0.048215527
103	0xbe0c8ba9	-0.13725151
104	0x3e539e00	0.20665741
105	0x3d2a33c4	0.041553274
106	0xbd51f7f7	-0.05126187
107	0x3e18ccf6	0.14921936
108	0xbd48e1ba	-0.049043395
109	0x3e1cadbc	0.1530065
110	0x3dbac11c	0.09118864
111	0x3e3f1add	0.18662591
112	0x3e552482	0.20814708
113	0x3d9830c3	0.074311756
114	0x3e01584d	0.1263134
115	0xbd900953	-0.070330285
116	0xbe3cceab	-0.18438213
117	0xbe39f8a8	-0.18161261
118	0xbca5bef8	-0.020232663
119	0x3e4663ac	0.1937396
120	0xbe4204de	-0.18947169
121	0x3ce6ff30	0.028197855
122	0xbe0395c7	-0.12850104
123	0x3e5a4dfc	0.21318811
124	0x3de26460	0.11054301
125	0x3dfc9bd0	0.123344064
126	0xbd741ea8	-0.05959955
127	0xbd2d1404	-0.042255417
128	0x3e341fb0	0.17590213
129	0x3db6c708	0.08924681
130	0xbc5d3b70	-0.013502941
131	0xbde48eff	-0.11160087
132	0xbd49b3bc	-0.049243674
133	0xbd789dc4	-0.060697332
134	0x3db56a1c	0.088581294
135	0xbe55f4fb	-0.20894234
136	0x3da461b0	0.08026445
137	0xbde709d0	-0.112811685
138	0x3e157b9c	0.14597934
139	0x3bd4c8a0	0.006493643
140	0x3dbfa9dc	0.0935857
141	0xbe284bea	-0.16435209
142	0xbc324e71	-0.01088296
143	0x3e60476e	0.21902248
144	0xbe04af87	-0.12957583
145	0x3e04be6a	0.12963262
146	0xbc545c06	-0.012961393
147	0xbcf3aa58	-0.029744312
148	0x3e03bf08	0.12865841
149	0x3e562b7e	0.20915028
150	0x3da0e74c	0.078566164
151	0x3e596bd5	0.21232541
152	0x3d1f0068	0.038818747
153	0x3e16c9b8	0.14725387
154	0x3e5fa634	0.21840745
155	0x3c3e94f8	0.011632197
156	0x3e3260f4	0.17419797
157	0x3e273742	0.16329673
158	0x3a435600	0.00074514747
159	0x3dca3bf2	0.09874715
160	0xbc921410	-0.017831832
161	0xbe53664a	-0.20644489
162	0x3d06899d	0.032846082
163	0xbe02abfd	-0.12760921
164	0xbe0f6543	-0.14003472
165	0x3df82541	0.121164806
166	0x3e494a9e	0.1965737
167	0x3da04b08	0.07826811
168	0x3e594024	0.21215874
169	0xbe44affb	-0.19207756
170	0xbc0f5e10	-0.008750454
171	0x3d125f93	0.035735678
172	0x3d89b2e8	0.06723577
173	0xbc923eeb	-0.017852267
174	0x3e4c4314	0.19947463
175	0xbe1f236f	-0.1554086
176	0x3e4eabe8	0.20182765
177	0x3e05a732	0.13052061
178	0x3d814ab8	0.063130796
179	0x3e174c01	0.14775087
180	0x3e1f48ca	0.1555511
181	0xbdd46c52	-0.10372223
182	0x3d32f998	0.043695062
183	0x3e039642	0.12850288
184	0x3e34e14a	0.17664066
185	0xbe219982	-0.15781215
186	0xbdfa11c9	-0.122104235
187	0x3e2f5220	0.17121172
188	0x3e4045ac	0.18776578
189	0xbe627fc0	-0.22119045
190	0x3c9b7408	0.018976226
191	0xbe5327dc	-0.20620674
192	0x3ca6a1d0	0.02034083
193	0xbe2cfc99	-0.16893233
194	0x3e49802a	0.19677797
195	0xbe4af864	-0.19821316
196	0xbda280be	-0.07934712
197	0xbdb17330	-0.086645484
198	0x3e507360	0.20356512
199	0x3d271ef8	0.04080102
200	0xbcf02d58	-0.029318497
201	0xbdc67a90	-0.09691346
202	0xbe4ef467	-0.2021042
203	0xbe1344c2	-0.14381698
204	0xbe5281ee	-0.20557377
205	0xbd0e1de3	-0.03469647
206	0x3e02cdb2	0.12773779
207	0xbe4e708d	-0.20160122
208	0x3d912910	0.0708791
209	0xbdce9427	-0.100868516
210	0xbe1945ef	-0.14968084
211	0xbcfcd15e	-0.030861553
212	0x3d826f4c	0.063688844
213	0x3e287268	0.16449893
214	0x3e665d7d	0.224966
215	0xbe5fb12a	-0.21844926
216	0xbdaf43c2	-0.08557846
217	0x3e1f5614	0.1556018
218	0xbda9a55c	-0.08283493
219	0xbb71161b	-0.0036786858
220	0xbe1182e1	-0.14210083
221	0x3dc82504	0.09772685
222	0x3e4d6b2c	0.20060414
223	0x3d712e50	0.058882058
224	0x3d99866c	0.07496342
225	0xbe056530	-0.13026881
226	0xbe0c281d	-0.13687177
227	0xbe503a9e	-0.2033486
228	0xbe63c11c	-0.22241634
229	0xbe2469df	-0.16056012
230	0xbe074e38	-0.13213432
231	0x3dcc8f50	0.09988272
232	0x3e27ad64	0.16374737
233	0xbe23babb	-0.15989201
234	0xbe43ae04	-0.1910935
235	0x3e2e6c08	0.17033398
236	0x3da36890	0.07978928
237	0xbe0ebace	-0.13938448
238	0xbd309bac	-0.04311721
239	0x3dc3c090	0.09558213
240	0x3d93a898	0.07209891
241	0xbe29bfb2	-0.16577032
242	0xbe10da68	-0.14145815
243	0xbe5c8069	-0.2153336
244	0xbe3a28d4	-0.18179637
245	0xbc612f60	-0.013744205
246	0xbd285734	-0.04109879
247	0x3e3d7994	0.1850341
248	0xbe2c8286	-0.16846666
249	0x3d23bf40	0.039977312
250	0x3cfe6460	0.031053722
251	0x3dde490c	0.10853776
252	0xbe4bc779	-0.19900312
253	0xbe594d2c	-0.21220845
254	0xbe2ebba2	-0.17063764
255	0xbdd601d8	-0.104495704

bias f4 [20]
0	0x3d97014c	0.07373294
1	0xbdff8aaf	-0.12477624
2	0xbe1003f4	-0.14064008
3	0xbae6d04e	-0.0017609687
4	0xbe12540e	-0.14289877
5	0x3db42863	0.08796766
6	0x3e1bb988	0.15207493
7	0xbd8a5b2c	-0.06755671
8	0x3b902973	0.0043994724
9	0x3d6080a0	0.054810166
10	0x3d05a74e	0.032630257
11	0xbd96f80c	-0.0737153
12	0x3e1bf5d6	0.15230498
13	0xbda06fe6	-0.07833843
14	0x3dd8f369	0.10593302
15	0x3e190ee0	0.1494708
16	0x3e59595d	0.21225496
17	0xbe0c0fce	-0.13677904
18	0x3e5e19ea	0.21689573
19	0x3e05d30e	0.13068792

weight f4 [1, 20]
0	0xbe111c54	-0.14170963
1	0x3d52e7c0	0.051490545
2	0x3cbce2a0	0.023057282
3	0x3d56adbf	0.05241179
4	0x3e54d60b	0.20784776
5	0x3dfd04b6	0.12354414
6	0xbd6a07f4	-0.05713649
7	0xbe578951	-0.21048476
8	0xbd63cec4	-0.05561711
9	0xbe1fe8d8	-0.15616167
10	0x3e5d7ee9	0.21630444
11	0xbe45ff4d	-0.19335671
12	0xbd76279c	-0.06009637
13	0xbdb86e88	-0.09005457
14	0x3e612db6	0.21990094
15	0x3e42a1d9	0.19007052
16	0xb9622848	-0.00021568045
17	0x3de8a7ec	0.113601536
18	0xbdbd1e44	-0.09234288
19	0x3dcc6eb8	0.099820554
